3layer_4000its/files/state_dicts/G_0.pth (torch, 209581 bytes, 14 tensors)

head.conv.weight f4 [64, 12, 3, 3]
000000 96 41 81 3d 09 6e 86 bc fd f0 b2 3d 49 8a bb bc
       0.06311338 -0.01640989 0.08737371 -0.022893088
000010 71 3f 53 bd ed 34 a2 3c e7 d3 03 bc 21 99 ca 3b
       -0.051574174 0.019800628 -0.008046127 0.006182805
000020 c1 04 80 3c d9 54 22 bc dc f6 41 bc b5 91 f4 3c
       0.015627267 -0.009907925 -0.011838641 0.029854635
000030 dd b4 55 3d 71 0d 0b 3d c8 ef 7a 3d 66 f3 4c 3c
       0.052174438 0.033948366 0.06126383 0.012509203
000040 c9 80 ce bc 30 b3 81 bc 7c 43 d1 3c c4 43 eb bd
       -0.025207894 -0.015832514 0.025544874 -0.11487535
000050 60 73 01 be ad 9f 8e 3c 42 74 c3 bc 1e ef 7d bb
       -0.12641668 0.017410124 -0.023859147 -0.0038747261
000060 ee 3a 53 bc 15 53 c9 3c 04 97 05 ba ab 03 09 be
       -0.012892468 0.02457575 -0.00050960504 -0.13380305
000070 12 db bf bd 29 51 38 bd 84 91 89 3c ba ec c5 3b
       -0.09367956 -0.044999275 0.01679302 0.006040183
000080 24 94 cd 3c 77 df a5 3c 05 73 d3 3c e6 29 bd bc
       0.025095053 0.020248158 0.025811682 -0.023091268
000090 f9 81 4e 3c ce d4 39 bd e4 d1 ff 3d 8a ed 57 bc
       0.01260423 -0.045368962 0.12491205 -0.013179192
0000a0 0e 26 0d 3c d4 bc 31 bc 10 83 51 bc 46 22 a2 3c
       0.00861503 -0.010848243 -0.012787595 0.019791733
0000b0 7b 79 59 3c 99 76 40 bb 97 95 58 3d f5 1a 47 3d
       0.013273592 -0.0029367565 0.052877035 0.048609693
0000c0 2d b7 d4 bc 50 4d 8c 39 f3 53 6c bc 04 90 1b 3b
       -0.025966251 0.00026760483 -0.014424312 0.0023736963
0000d0 04 44 86 ba 05 a6 30 3c c8 c4 ee 3d 5c 4d aa bd
       -0.0010243659 0.01078177 0.11658627 -0.083155364
0000e0 2e 4f e8 3d 25 0a b3 bc c8 a9 7d ba a3 bf 07 bd
       0.11343227 -0.021855423 -0.00096764835 -0.033141743
0000f0 2e 13 df 3c 11 b7 e6 3c ea 39 51 bd 9f 34 23 3d
       0.027230825 0.028163465 -0.05108062 0.039845105
000100 5d 2e 86 bd f6 66 9c bc fb 1d 08 3c 17 d5 37 3c
       -0.06551812 -0.019092064 0.008307929 0.011220238
000110 23 ac 41 3d 9e 13 5e bb 2b 6c 2c bd 1b b4 92 3c
       0.047283303 -0.0033886204 -0.042095345 0.017908147
000120 64 a5 dd 3c f5 d6 07 be d6 39 46 bd 56 50 a7 bc
       0.027056403 -0.13265593 -0.048395 -0.02042405
000130 5b 8f 9e 3c 83 84 1b 3d ea 8c 59 3d 52 44 09 3d
       0.019355467 0.03796817 0.0531129 0.03351242
000140 4c 8e 21 3d 76 63 f7 bb 95 ec 05 be 85 57 02 3c
       0.039442345 -0.0075496985 -0.1307853 0.007955437
000150 d9 15 da 3b ee 78 3c bc 56 8d 08 bd ae 39 9f ba
       0.0066554365 -0.011503441 -0.033337913 -0.0012147927
000160 64 df a2 bb 39 ba 46 3c 7c 9d 8d 3b aa fe 36 be
       -0.004970478 0.01212936 0.004321752 -0.17870584
000170 c7 c7 ac 3c 64 06 10 3c 2b b5 2e 3d 9d f2 84 3c
       0.021091355 0.008790586 0.042653244 0.016228968
000180 a2 40 06 bd 0c 05 58 3d 48 0d 04 3d a5 dd 63 bc
       -0.032776482 0.052739188 0.03223923 -0.013907825
000190 9c 13 52 be f5 8b 3c 3d 36 be d7 3c 83 0c 66 bb
       -0.20515293 0.04603191 0.026335817 -0.0035102672
0001a0 5c ef 41 bd d0 34 56 bd ac 18 96 ba 50 ca 4e bb
       -0.04734741 -0.05229646 -0.0011451445 -0.0031553693
0001b0 f9 fc 8e 3d 05 8e 52 bd 3b 9e 35 3d 38 96 1e 3c
       0.069818445 -0.05140497 0.044340353 0.00967937
0001c0 b5 8a 57 3c 4d b9 03 3d e1 da 8b bd ea 86 5e bc
       0.013155629 0.03215914 -0.06828857 -0.013581971
0001d0 67 62 05 bd fb 29 01 3a 92 2c a8 3d 01 a6 cd 3c
       -0.032564547 0.0004927215 0.08211626 0.02510357
0001e0 f7 36 20 3b 31 76 2c bd 09 b1 b9 3c d5 74 b6 bb
       0.0024446824 -0.042104904 0.022667425 -0.0055681267
0001f0 36 7b c5 3a e1 ed 0f ba fd f9 17 3e f2 80 8c 3d
       0.0015066627 -0.0005490464 0.14841457 0.06860532
000200 ba 47 7e 3b e5 24 b7 bc 8f 6a 13 bd 5b 90 4c 3b
       0.0038800077 -0.02235646 -0.035990294 0.0031213972
000210 83 b4 92 3b 18 9c 1e 3d b5 d3 10 bb 55 f9 07 3b
       0.004477085 0.03872308 -0.0022098843 0.0020747979
000220 21 4b 3a 3c 6f 2c 2c 3e 33 cb e3 3b 87 46 09 bc
       0.011370451 0.16813825 0.0069517135 -0.008378631
000230 cb ab 39 bd b9 b5 8f bb 37 c4 48 3d 60 da 47 3d
       -0.04532985 -0.0043856767 0.04901525 0.048792243
000240 60 56 ca 3b 61 c0 7a 3c d8 0e db 3d b1 b5 d4 3c
       0.0061748475 0.015304656 0.106961906 0.025965543
000250 1d ee 84 3c 52 67 90 bd 19 3a ae 3c 53 23 08 bd
       0.016226823 -0.07050957 0.021267937 -0.033236813
000260 b6 d2 32 3d 00 79 ed 3b d7 97 ca bd cb 0c b9 3d
       0.04365798 0.0072470903 -0.098922424 0.09035643
000270 03 7e 95 3b 6e 5d 46 3d 57 0c 96 bd 58 43 02 bc
       0.004562141 0.048428945 -0.073265724 -0.007950626
000280 ff 79 54 bd 0c 8d 06 3d eb cd 6a bd 60 1d 06 b9
       -0.051874157 0.032849357 -0.057325285 -0.00012790179
000290 82 a6 30 3d 8b 0e 01 bd 90 01 7a bd 7f 74 ea ba
       0.043127544 -0.03150801 -0.061036646 -0.0017887502
0002a0 d0 22 26 bd 43 80 ac bb e2 e2 08 3d 98 2b 52 3d
       -0.040560544 -0.0052643134 0.033419497 0.051311105
0002b0 1d f9 ce 3b dc 68 36 bd 4a 2e c6 bc a7 bd 8a bb
       0.0063163177 -0.044533595 -0.024191994 -0.004234034
0002c0 41 06 22 bc ec f2 71 bc 79 c2 03 bd 82 1d e0 bb
       -0.009889186 -0.01476739 -0.032167885 -0.006839455
0002d0 0d 7b ac 3d f2 20 a5 bc 77 7b 59 3d 78 f4 03 3d
       0.084219076 -0.020157311 0.05309626 0.032215565
0002e0 c7 b0 6e 3b dd 94 e0 3c ae ca b5 bc 93 5e 63 bd
       0.0036421285 0.027414734 -0.022191372 -0.055510115
0002f0 fc 97 c9 3d a3 b8 33 3c bf 2b 62 3d ea 0f 76 bc
       0.09843442 0.010969314 0.0552175 -0.015018443
000300 14 1f 32 3d a6 a9 1a 3b c5 fc 00 3d 80 22 48 3d
       0.04348667 0.0023599654 0.03149106 0.048861027
000310 f7 8e 29 bd 61 a0 a4 3c 81 7e dd bd 6c 3d 7c bc
       -0.041396108 0.020096006 -0.10815144 -0.0153955035
000320 35 12 2f 3e 9d 4c 5d 3d 21 cc ca bb 12 cb 7d bd
       0.17096789 0.054028142 -0.006188885 -0.06196124
000330 05 b7 8c 3c 47 7f 9e 3c b3 fb 34 bc 18 74 7a 3c
       0.017177114 0.0193478 -0.011046338 0.015286468
000340 a2 75 9d ba 15 7f 74 3c 9b 0b 43 3d c4 6b 17 3d
       -0.0012013207 0.014922877 0.04761849 0.036968008
000350 aa c9 e3 39 ee 10 32 bd d9 61 6a 3d 6b 18 84 3c
       0.00043447065 -0.043473177 0.05722222 0.016124925
000360 33 f7 15 3d e8 64 e3 3b 6a 87 9e 3d 4c 94 e0 3c
       0.0366127 0.006939519 0.07740672 0.027414463
000370 4c 15 68 bc 3c 49 a1 3d 90 76 c2 3c 11 8a 15 bb
       -0.014165234 0.078752965 0.023738176 -0.002281789
000380 65 5d 1d 3d 27 a7 de 3d 63 8b 67 bd df ec d0 3c
       0.038419146 0.108717255 -0.056529414 0.025503574
000390 3f a8 ac 3c a5 5f b2 bc cf 50 ce bc be 6a 75 3b
       0.02107632 -0.021774122 -0.025185017 0.0037447657
0003a0 5c c4 ba bc 31 b9 52 3d 58 f3 0e 3e fe 32 bc bd
       -0.02279871 0.051446144 0.13960016 -0.091894135
0003b0 e0 75 91 3c f3 0c b3 bc ec 8d 22 3c 2a 9a 40 bd
       0.017756402 -0.02185676 0.009921532 -0.047022022
0003c0 94 70 67 3d 36 f6 bd bc 78 02 13 bd 19 4f bf bc
       0.056503847 -0.023188692 -0.035891026 -0.023353146
0003d0 c6 bf 33 3d 04 82 58 bd f0 7a b6 bc 19 0e 35 3c
       0.04388406 -0.052858368 -0.022275418 0.011050724
0003e0 5b 91 ac 3c 87 53 8b 3c 1c 60 75 ba 1f 15 1d 3b
       0.021065405 0.017007602 -0.000936033 0.0023968888
0003f0 ee c0 a6 3c 4c 98 f2 3d b4 f3 52 bd 30 37 82 3d
       0.020355668 0.118454546 -0.051501945 0.063581824

head.conv.bias f4 [64]
000000 8c f7 46 3c ae 42 30 bd d5 3f 4c 3b d2 c0 68 3d
       0.012143981 -0.04303234 0.0031165977 0.056824513
000010 72 cc 6d 3d 2f fb 01 bd e7 7b 9a ba 95 a8 a8 bc
       0.058056302 -0.031733688 -0.0011786193 -0.020588199
000020 ed 42 d5 3c 29 f1 04 bd 2a 83 30 bd fc f6 f2 bd
       0.02603289 -0.03245655 -0.043093838 -0.11863515
000030 f6 f9 d6 bc 7f e6 32 3d a0 dc 4e bc b5 43 a1 3d
       -0.026242238 0.04367685 -0.012625843 0.07874242
000040 d4 3c d1 bd d9 13 3a bd d5 5f d6 bc 41 66 9e bd
       -0.1021668 -0.045429084 -0.026168743 -0.07734347
000050 27 d8 d4 bd 85 15 bf 3d e1 b5 4a bd 63 9e 41 bc
       -0.1039279 0.093302764 -0.04948986 -0.0118175475
000060 04 fb 19 bd ef 98 43 3c 7f 40 95 3d 09 45 5f 3d
       -0.037592903 0.011938318 0.07287692 0.054509196
000070 79 70 95 bd 8a 2f 06 be 7c e4 b1 bb d1 d9 74 3d
       -0.07296843 -0.13104072 -0.005428849 0.05977804
000080 19 b6 e9 bc b4 54 cf 3d 3f 8e 0d 3d 89 68 93 bd
       -0.028529214 0.10123578 0.034559485 -0.07197673
000090 01 92 aa bd 6a 21 53 bd 69 8f 1f bd 30 71 bf 3c
       -0.08328629 -0.051545538 -0.038955126 0.023369402
0000a0 d6 8a 4d bd 04 e7 29 bd 5f e0 84 3c e5 50 42 3d
       -0.050181232 -0.04148008 0.01622027 0.04744043
0000b0 26 25 a9 bd 1c 10 e0 3c 1d e4 e7 bc b1 ba 0e bc
       -0.082590386 0.027351432 -0.028307015 -0.008711503
0000c0 d2 c8 72 3c 2d 12 ae bd 8e e9 60 bd 22 c4 4d bc
       0.014818387 -0.084995605 -0.054910235 -0.012558969
0000d0 af ed 9b 3d 27 89 c6 3d 53 f2 94 bd 71 08 59 3d
       0.07613694 0.096941285 -0.07272782 0.052986566
0000e0 35 cb d2 bd 35 eb 12 bc 20 f8 04 bc 80 c0 75 3d
       -0.10292665 -0.008967211 -0.008115798 0.059998035
0000f0 92 f3 ad 3d 15 c2 e0 bd 2d cc c3 3d 76 4a 67 3d
       0.08493723 -0.10974518 0.09560428 0.056467496

head.norm.weight f4 [64]
000000 e6 cd 75 3f b1 d0 6d 3f 86 57 72 3f 99 d4 7f 3f
       0.960173 0.9289656 0.946648 0.99933773
000010 69 65 83 3f e9 c8 77 3f 4d 1c 74 3f 86 7c 63 3f
       1.0265323 0.9679094 0.95355684 0.8886188
000020 11 fb 6a 3f dd e1 70 3f 35 2d 68 3f 10 37 69 3f
       0.91789347 0.9409464 0.9069398 0.91099644
000030 ad 8a 75 3f 76 3e 7b 3f 59 58 65 3f bb f9 76 3f
       0.9591473 0.9814218 0.8958793 0.9647481
000040 3f 35 8b 3f 0b 8a 61 3f 8a e2 93 3f 7d 74 8a 3f
       1.0875624 0.8810126 1.1553509 1.0816799
000050 27 fa 71 3f a0 ec 7e 3f 93 a6 7e 3f 75 28 73 3f
       0.9452233 0.9957981 0.9947292 0.9498361
000060 0a 48 72 3f fb eb 6e 3f 7e e4 97 3f 5f 42 7c 3f
       0.9464117 0.9332883 1.1866605 0.98538774
000070 82 44 7b 3f 3a 69 67 3f d8 86 75 3f ac 95 7e 3f
       0.9815141 0.9039494 0.9590888 0.9944713
000080 91 68 74 3f f2 c4 8f 3f fe 1c 6c 3f 28 86 7a 3f
       0.95472056 1.1231978 0.9223174 0.97860956
000090 05 17 68 3f de f1 62 3f d1 de 7e 3f 72 5b 71 3f
       0.90660125 0.8865031 0.9955874 0.9428016
0000a0 3d f6 67 3f f6 88 71 3f ee af 82 3f 02 47 8a 3f
       0.90610105 0.9434961 1.020994 1.080292
0000b0 0a 06 66 3f 8e 00 8a 3f ab 5d 86 3f e3 07 6d 3f
       0.89852965 1.0781419 1.0497335 0.9259016
0000c0 31 39 81 3f 83 1e 71 3f 30 00 73 3f 11 31 6f 3f
       1.0095578 0.9418718 0.9492216 0.93434244
0000d0 e2 4d 7f 3f 0a 25 63 3f 7e 41 96 3f e8 ea 8b 3f
       0.99728215 0.8872839 1.1738737 1.0931063
0000e0 89 ba 80 3f 3b cf 8c 3f db 19 7f 3f 12 1a 6f 3f
       1.0056926 1.1000742 0.9964883 0.93399155
0000f0 ba 0c 7a 3f 99 b2 79 3f ec 07 83 3f 1d 3a 86 3f
       0.9767567 0.97538143 1.0236793 1.0486485

head.norm.bias f4 [64]
000000 ea d0 5f be 0e b1 f5 bd 1c 9d 20 be dc 13 32 be
       -0.21857038 -0.11996661 -0.15684932 -0.17390388
000010 51 ee 8b be 53 1a 41 be 11 17 34 be e3 39 6c be
       -0.27330258 -0.18857698 -0.17586924 -0.23068957
000020 90 df 54 be 76 3d 85 be 69 7d 1b be af 82 4c be
       -0.20788407 -0.26023453 -0.15184559 -0.19971727
000030 91 3c 17 be 1d 76 57 be 19 e6 11 be 66 5c 1d be
       -0.14769198 -0.2104115 -0.14247932 -0.15367278
000040 36 d0 62 be 84 67 80 be 84 d1 5f be bb dd 8c be
       -0.22149739 -0.25078976 -0.21857268 -0.27512917
000050 72 f5 83 be 63 2f 68 be ce ec 1c be 0c 28 17 be
       -0.25773197 -0.22674327 -0.15324709 -0.1476137
000060 e5 13 45 be 67 b3 49 be c8 a0 42 be df 78 25 be
       -0.1924587 -0.19697343 -0.19006646 -0.1615939
000070 0a a7 64 be 9b e7 45 be 3f aa d7 bd 2f 63 80 be
       -0.22329345 -0.19326632 -0.10530519 -0.2507567
000080 f2 ca 11 be 79 d4 70 be 3e 3a 27 be 03 50 cf bd
       -0.14237574 -0.23518552 -0.16330811 -0.10122683
000090 19 74 0f be 23 0a 37 be 2c 19 4c be 9c 54 73 be
       -0.14009131 -0.1787496 -0.19931477 -0.23762745
0000a0 98 30 33 be 8e 05 56 be 74 f3 f7 bd 0c ee 73 be
       -0.17499006 -0.20900556 -0.12106982 -0.23821276
0000b0 a6 52 85 be 87 eb 34 be 16 5c 20 be bd 80 6f bd
       -0.26039618 -0.17667972 -0.15660128 -0.058472384
0000c0 d5 1c 50 be f2 4e ee bd 31 85 43 be 07 e2 54 be
       -0.20323499 -0.116361514 -0.19093777 -0.20789348
0000d0 de 28 8d bd 27 96 0e be 0e f6 68 be 99 a7 21 be
       -0.068925604 -0.13924466 -0.22750112 -0.1578659
0000e0 23 3b c8 bd 11 05 79 be 54 f4 47 be 6f 27 32 be
       -0.097769044 -0.24318339 -0.19526798 -0.17397855
0000f0 e1 40 81 bd 66 8d 10 be 3d d4 79 be c4 a5 77 be
       -0.06311203 -0.14116439 -0.24397369 -0.24184328

head.norm.running_mean f4 [64]
000000 be 72 7b 3c 3d d3 46 bd 62 e8 8c bb 12 6b 67 3d
       0.015347181 -0.048541296 -0.004300163 0.056498595
000010 90 9d 9a 3d a5 a5 10 bd 83 36 bd 3b 10 7f 92 bc
       0.07549584 -0.03531422 0.0057743206 -0.017882854
000020 7c 7f c3 3c 7e 71 20 bd 2c e7 53 bd be 1e 06 be
       0.0238645 -0.039170735 -0.051734135 -0.13097665
000030 00 1c 20 bd 98 15 65 3d d9 a3 9a 3a ee 40 ae 3d
       -0.039089203 0.055928797 0.0011798098 0.08508478
000040 99 70 dd bd c7 af 08 bd 3b 03 6f bc 95 1a 9e bd
       -0.10812492 -0.03337076 -0.014588173 -0.07719914
000050 97 d6 ea bd ff d8 c0 3d c9 4d 48 bd 71 88 5f bc
       -0.11466711 0.09416389 -0.048902307 -0.01364337
000060 46 36 37 bd ef 76 a2 3c 57 d9 94 3d e6 1e 69 3d
       -0.044729494 0.019832103 0.07268017 0.056914233
000070 41 94 86 bd f8 3d 08 be 9a 61 36 bc d4 63 73 3d
       -0.06571246 -0.13304889 -0.011131668 0.059421375
000080 86 12 2c bd f8 fd bf 3d 27 21 e8 3c 41 7d 93 bd
       -0.042009853 0.093746126 0.02833612 -0.07201625
000090 77 54 8b bd 0f 59 50 bd 8f 93 ea bc b2 6d 9e 3c
       -0.0680322 -0.050866183 -0.028634815 0.019339416
0000a0 d4 55 19 bd 1f 95 47 bd 6f ae 9e 3b 4f 78 2e 3d
       -0.037435368 -0.048726197 0.0048425714 0.042595204
0000b0 ab 55 a3 bd d3 ae 2a 3d 1d 0a b8 bc 04 5a 50 bc
       -0.07975324 0.04167063 -0.02246576 -0.012716774
0000c0 19 cc 3a 3c 02 0d a2 bd 2d d8 5a bd 70 40 71 bb
       0.0114012 -0.07912637 -0.053428818 -0.003681209
0000d0 76 7e 99 3d 97 b7 b6 3d 9b 87 84 bd 52 63 79 3d
       0.07494824 0.08921736 -0.06471177 0.060885735
0000e0 0e 7d d9 bd 68 a1 84 3b 08 d8 92 bb cb 8e 8c 3d
       -0.106195554 0.0040475614 -0.0044813193 0.06863173
0000f0 bf c6 c3 3d d4 b2 e6 bd 28 ec ac 3d 7b fc 5f 3d
       0.09559392 -0.112645775 0.08443481 0.054684144

head.norm.running_var f4 [64]
000000 a1 f3 46 3e 5f 04 23 3e e0 45 32 3e e5 5f 20 3e
       0.19428875 0.15919636 0.17409468 0.15661581
000010 c6 f3 3c 3e 50 4c 49 3e 45 90 23 3e 96 a7 28 3e
       0.18452367 0.19658017 0.15973003 0.16470179
000020 76 d2 2d 3e 78 ed 2e 3e bf 04 2c 3e 7e af 33 3e
       0.16974816 0.17082775 0.16798685 0.17547414
000030 46 fb 31 3e c2 da 34 3e df 5f 2b 3e 21 78 2d 3e
       0.1738101 0.17661574 0.1673579 0.16940357
000040 c6 80 2e 3e e6 8c 26 3e 54 18 45 3e 78 f9 3b 3e
       0.1704131 0.16264686 0.19247562 0.18356884
000050 40 43 44 3e 40 be 3c 3e 39 1c 31 3e 18 52 2a 3e
       0.19166279 0.1843195 0.17295922 0.16632879
000060 9d 79 2a 3e f3 01 3b 3e 6f c3 4a 3e 6a 80 31 3e
       0.16647954 0.18262462 0.19801114 0.17334142
000070 ee 40 32 3e 3f f1 25 3e 09 c0 31 3e 1c af 2a 3e
       0.17407581 0.1620531 0.17358412 0.16668361
000080 fe 3b 37 3e 3b 5b 45 3e 49 0b 36 3e 5a 15 3b 3e
       0.17893979 0.19273083 0.17777742 0.18269864
000090 da 35 36 3e 56 fe 35 3e a7 88 3c 3e 5d 1c 19 3e
       0.1779398 0.17772803 0.18411504 0.14952226
0000a0 29 dd 2a 3e 43 74 2e 3e 40 34 37 3e 22 7f 42 3e
       0.16685928 0.17036538 0.17891026 0.1899381
0000b0 a6 72 27 3e 7a 04 54 3e 4e 47 3c 3e 60 12 2f 3e
       0.16352329 0.20704833 0.18386576 0.17096853
0000c0 15 64 3c 3e f9 0a 2d 3e 0f 0f 26 3e e6 96 41 3e
       0.18397553 0.16898717 0.16216682 0.1890522
0000d0 49 ce 2a 3e 36 ec 2c 3e 24 0f 45 3e 67 b9 4d 3e
       0.16680254 0.16886982 0.19244057 0.20090257
0000e0 e2 40 2c 3e 75 ad 51 3e 03 b9 3d 3e 3e b4 39 3e
       0.16821626 0.20476325 0.18527608 0.18135163
0000f0 31 15 2f 3e c6 c2 2a 3e a2 46 3b 3e 2b fd 4f 3e
       0.17097928 0.16675863 0.18288663 0.2031142

body.block1.conv.weight f4 [64, 64, 3, 3]
000000 2c d9 4c 3d 25 d2 b8 bd 8f d5 10 be ce fe 11 bd
       0.0500118 -0.09024457 -0.14143966 -0.03564339
000010 07 a6 56 3d 82 7c 43 bd 04 88 81 bc a1 d1 46 bd
       0.05240443 -0.04772616 -0.015811928 -0.04853976
000020 71 2a 93 bb 52 9e 13 3d 50 84 99 3c 51 e0 d5 bc
       -0.0044911434 0.036039658 0.01873985 -0.026107939
000030 20 3f 07 bd ef 08 d3 bb 37 7f 16 bd 93 61 0d 3d
       -0.033019185 -0.006440274 -0.036742415 0.034516882
000040 0f 6b 41 3c 9f 33 87 ba 28 dd 18 3b 40 fa de bd
       0.01180531 -0.0010315067 0.0023325179 -0.10887575
000050 38 36 f9 bc 09 62 bd 3c f4 45 5e 3d f7 95 21 bc
       -0.030421361 0.023118036 0.05426593 -0.009862415
000060 8d c9 95 3c e1 60 6d bd c3 84 a9 bb c8 96 86 b9
       0.018284583 -0.05795372 -0.005173297 -0.00025670812
000070 e1 e7 0e bd a9 a3 dd bb 25 b4 dc bc f2 33 11 3d
       -0.034889106 -0.0067638946 -0.026941368 0.03544993
000080 f5 6f a3 bc cf 74 4f bd 7b 96 4f 3c 7b 65 74 bd
       -0.019950846 -0.050648507 0.012670155 -0.05966709
000090 5d 23 5d bd 65 2b 8c bc 52 59 8c 3d ff 35 04 3e
       -0.053988803 -0.017110536 0.06852974 0.12911223
0000a0 04 2f 24 bd fb 12 75 3d d8 fd ec 3d d5 7c f9 3c
       -0.0400839 0.059832554 0.11571854 0.030455032
0000b0 6b 76 b2 3c b6 6f 05 bc 17 32 73 3d 81 f7 5d bd
       0.021784982 -0.00814431 0.05937394 -0.054191116
0000c0 ca 7a 9a bc f0 42 0a bd b7 aa 3b bd c7 61 8c bc
       -0.018857379 -0.033755243 -0.045817103 -0.017136468
0000d0 41 be 70 3d 47 d5 21 3d a5 5c a9 3c 82 9b 8a bc
       0.05877519 0.039510038 0.02067406 -0.016919855
0000e0 47 6e 76 3c 3c bf 12 3d bb 37 4e 3c 66 da a9 3b
       0.015040941 0.035826907 0.012586529 0.005183506
0000f0 91 fd 76 bb 9b 2a ce bb 42 73 d1 3a 7d 56 a2 bd
       -0.0037687758 -0.0062917 0.0015979784 -0.079266526
000100 9d 1e bc bc f1 58 f4 3a ee a0 00 3d c1 c3 f3 bc
       -0.022963816 0.0018642229 0.031403475 -0.029756429
000110 ce 1f 97 3c 0a a5 4d bd fe f5 66 3c 22 90 7f 3c
       0.018447783 -0.05020622 0.014096735 0.015598329
000120 60 c0 ad 3d 14 01 a3 bd 49 36 90 bc 7c d4 ff bc
       0.08483958 -0.0795919 -0.01760401 -0.03122925
000130 b0 41 66 3c d8 78 02 bd 41 2d cc 3d e6 23 5f 3d
       0.014053747 -0.031853527 0.09969569 0.054477595
000140 a2 3b c3 3b 64 6b 72 bd e4 26 0b bd 19 45 8a bc
       0.0059580365 -0.059184447 -0.033972636 -0.016878651
000150 6e 2c 3f 3d 34 83 00 3d 4d 92 15 bc 8f 96 06 bd
       0.04667323 0.031375125 -0.009129119 -0.032858428
000160 14 9e af 3c 44 42 12 3d e4 4c 28 bd c3 19 13 3d
       0.021437682 0.035707727 -0.041088954 0.03591324
000170 8c 63 2d 3b 77 26 84 3d ee 83 18 bd 53 81 1b bd
       0.002645704 0.06452649 -0.037235193 -0.03796513
000180 ae 9b f3 3b 13 86 78 3c 33 49 b5 bc 48 5a 37 bd
       0.00743433 0.015168685 -0.02212963 -0.044763833
000190 2c c5 2a bd b1 04 93 bd 31 fc a5 bc 7d c4 f9 3c
       -0.041691944 -0.07178629 -0.020261856 0.0304892
0001a0 09 b8 1c 3d cc 90 66 bc ea 60 0f bc 5f fe 3b 3d
       0.038261447 -0.014072608 -0.008751133 0.045896884
0001b0 38 2e 20 3c fc fb 6a 3c 44 80 01 bd de 58 0c bc
       0.009776644 0.014342304 -0.031616464 -0.008566109
0001c0 d4 8c fb bc 1b 30 47 3d 8b 75 93 3c 6e af 8e 3c
       -0.0307068 0.04862986 0.018000385 0.017417636
0001d0 60 37 98 bb 6c 8e 5c bd d5 99 e8 3b 50 37 76 bd
       -0.004645273 -0.05384676 0.0070984163 -0.060111344
0001e0 4d f3 c5 bc 87 db 6f 3b f9 b3 11 3d 38 20 f6 3a
       -0.024163866 0.0036599354 0.035572026 0.0018777912
0001f0 e6 d0 fc 3c 3e 7c 0a 3d 50 87 5d bd c9 46 4e bc
       0.03086133 0.033809893 -0.054084122 -0.012590119
000200 b5 08 97 3c 3a a0 57 bd 65 ad 00 bd d7 cb 64 bc
       0.018436769 -0.05264304 -0.031415362 -0.013964615
000210 eb 30 f8 bc bb f8 a3 3c 63 76 1b bc ab 7a 08 3d
       -0.030296763 0.020016065 -0.009488675 0.03332011
000220 da da 1d bb fe 12 84 3a 13 1b a7 bd 77 d9 6f bd
       -0.0024086745 0.0010076461 -0.08159461 -0.058557
000230 80 f7 de 3c e7 d6 12 bc 2f 59 7e 3d 85 fe 8c 3c
       0.027217627 -0.0089623695 0.06209677 0.017211208
000240 cc 8d 8d bc 21 8a 42 39 e8 e8 08 bc c3 37 50 3d
       -0.017279528 0.00018552739 -0.00835631 0.05083443
000250 f1 f4 ae 3d 4c f0 47 bd f9 79 1a 3d e7 9a 07 3d
       0.085428126 -0.04881315 0.03771398 0.03310671
000260 dc 44 d4 3d 18 3b 10 bc 02 0e 39 bd 97 42 95 bd
       0.103646964 -0.008803152 -0.045179375 -0.07288092
000270 eb 76 e7 bc 18 20 4a 3d 3e 4a e6 bc c1 b9 af bc
       -0.028254947 0.049347013 -0.028111573 -0.021450879
000280 65 6a b8 bc c0 89 d6 3c 5c c9 4a bd 51 f1 02 bd
       -0.02251167 0.026188731 -0.049508438 -0.03196842
000290 2e 99 f8 bc 1d fe 8f bd f1 5b 27 bd 6c 4e 8f 3c
       -0.03034648 -0.0703089 -0.040859167 0.01749345
0002a0 53 10 5d 3d e9 68 a3 3d fb b6 cd 3d c8 83 91 bd
       0.053970646 0.079789944 0.100446664 -0.071052134
0002b0 51 d4 96 3c 46 ff 89 3b de cc cd ba 90 a9 0d be
       0.018411787 0.004211339 -0.0015701314 -0.13834214
0002c0 44 2a 3a 3c 93 42 dc 3d 52 7f 61 3d b1 85 e3 3b
       0.011362616 0.107548855 0.055053063 0.0069434275
0002d0 1f ab 83 bd 35 10 99 bd d1 20 f0 bd 76 a9 4d 3d
       -0.06429123 -0.07473794 -0.11725009 0.05021044
0002e0 34 85 11 bd 9f 37 66 bc 22 56 99 3a 80 8c c1 bb
       -0.035527423 -0.014051347 0.0011698643 -0.0059066415
0002f0 a7 79 7e 3a 2e 0c 36 3d 25 5f fd 3c 02 a3 07 bd
       0.00097074587 0.04444521 0.030929158 -0.03311444
000300 54 73 63 bc 72 f2 3f 3c 3a 38 1d 3d ac 8f f4 3c
       -0.013882477 0.011715518 0.0383837 0.029853664
000310 ab dd fb 3d 8c fd e6 bc ae 99 35 3d d3 29 04 bd
       0.12298139 -0.028197072 0.044336013 -0.03226645
000320 72 11 1b bd 20 eb d3 3d 87 6b be 3b 33 f1 82 bd
       -0.037858434 0.10347581 0.005811158 -0.06393661
000330 88 c0 39 3c ee 14 89 3d ab 67 e1 3b 0f 8a b2 3c
       0.011337407 0.06693445 0.0068788133 0.021794347
000340 0d c9 d4 3a aa 94 fb 3c d8 01 11 bc bd d1 93 3d
       0.0016234234 0.030710537 -0.008850537 0.07217739
000350 41 c1 44 bc 8f c9 d2 bc 16 38 df 3d 58 35 60 bd
       -0.012008966 -0.025730876 0.108993694 -0.054738373
000360 0d 77 06 3c cf 9c d7 bc fb 90 2f bd f7 06 c1 bb
       0.008207095 -0.02631989 -0.042862874 -0.005890723
000370 86 5f 42 bd 74 e0 ec bc 05 d9 a7 3d 21 82 d9 3c
       -0.04745438 -0.028915621 0.0819569 0.026551308
000380 61 8a 8b bd 2d 43 3d bc 39 d5 2c 3c 74 ca 52 bd
       -0.06813503 -0.0115516605 0.010548883 -0.051462606
000390 5e 22 0f bb 9d 78 5c bb f2 0a 7a bc 4a 28 71 bd
       -0.0021840553 -0.0033641227 -0.015261399 -0.058876313
0003a0 c1 5a 87 3c 6f 34 3d 3c 28 0d 44 bd 70 4d 36 bd
       0.016522767 0.011548146 -0.04786411 -0.044507444
0003b0 df 18 62 3c f9 51 85 bd 73 c6 90 bc e9 27 f2 bc
       0.013799875 -0.06509776 -0.017672753 -0.029560046
0003c0 83 32 78 3c ec ad 98 3d c1 05 ac 3d c8 73 9f bd
       0.015148762 0.07455048 0.08399535 -0.077857554
0003d0 f5 53 e8 bc dc 79 5b 3c 78 6c 5d bd c3 6c 0c 3e
       -0.028360346 0.013395753 -0.054058522 0.13713364
0003e0 6d f6 1a 3c 19 42 0f 3b c9 a7 d8 bc 7b 67 7e 3d
       0.009458167 0.0021859466 -0.026447194 0.062110405
0003f0 b5 10 ea 3c ac 76 2f 3c a8 1e 61 bd 8f db 03 3c
       0.02857242 0.010709446 -0.054960877 0.008047952

body.block1.conv.bias f4 [64]
000000 df 58 a7 bc 44 81 6e bb 9e cc 61 bd ed 50 fe bb
       -0.02042812 -0.0036392966 -0.05512678 -0.007761112
000010 a4 8d 3b 3d 38 a9 96 bc 65 14 5a 3c c7 ae 1f bd
       0.045789376 -0.018391237 0.0133105265 -0.03898504
000020 0b 94 16 3c 31 4b 86 3d 2b 87 34 bd 1a 84 90 bc
       0.00919057 0.065573104 -0.04407422 -0.017641116
000030 2a b8 00 bc 7d 25 72 3d ea a5 8a bd 21 c8 f4 bc
       -0.007856408 0.059117783 -0.06769927 -0.029880585
000040 6d 01 85 3c ee f5 81 3b 17 d2 df 3b cd 0a 1f bc
       0.016236031 0.0039660847 0.0068304646 -0.009707165
000050 33 7a 7c 3d 48 7f 40 3d 2c f2 b3 3c 4e ef cc bc
       0.061639976 0.046996385 0.021966062 -0.025016453
000060 f1 ea 9c 3c 83 dc 6c 3c 15 19 9f 3a 6a cf c8 bc
       0.019154998 0.014456871 0.0012138212 -0.024512965
000070 a9 8f ba 3c a2 47 43 3d 8d da 23 bd 3b 48 72 3d
       0.02277358 0.047675736 -0.04000335 0.059150916
000080 2c 4c 9e 3c 8d 69 01 3d 22 fb bd 3b f3 be 9e 3c
       0.019323431 0.0315948 0.0057977596 0.019378161
000090 c9 c3 a8 bc f1 fe 24 3d 44 d5 3e 3c da 61 f8 3c
       -0.02060117 0.040282194 0.011647526 0.030320097
0000a0 3e 22 d6 3c 25 6a 4f 3c 56 4a 8e bb 12 0c b5 bc
       0.026139375 0.012659584 -0.0043423576 -0.022100482
0000b0 d9 37 8f 3b ae 08 e5 3c 41 6a 22 3d aa 7f 25 3c
       0.004370671 0.02795824 0.039652113 0.010101238
0000c0 31 e6 c1 3c 8d a4 4d bc 7a 10 ae bc c3 5d 21 3d
       0.023669334 -0.012551439 -0.021248091 0.03939606
0000d0 81 5f ab 3a 6a 83 2e 3d 6e 3e a5 bc 81 c6 8b 3b
       0.0013074727 0.042605795 -0.02017137 0.004265607
0000e0 b9 0f fe bb 00 60 63 3b 58 41 d1 3b 8c b7 88 3c
       -0.007753339 0.0034694672 0.0063859634 0.016689084
0000f0 79 e0 45 bd e5 71 b4 3b e4 2c 74 3d 88 9f ca 3c
       -0.048309777 0.0055067413 0.059613124 0.024734274

body.block1.norm.weight f4 [64]
000000 21 2d 96 3f df cf af 3f be ee 96 3f 6e 1e a5 3f
       1.1732522 1.3735312 1.1791608 1.2899911
000010 2a d4 a1 3f 35 b1 a2 3f e2 49 ae 3f 75 a5 99 3f
       1.2642872 1.2710329 1.3616297 1.2003618
000020 07 1d 98 3f 15 e8 aa 3f 8c 67 a9 3f e0 bc 99 3f
       1.1883858 1.3352076 1.3234725 1.2010765
000030 01 d9 a1 3f 91 5f 97 3f c5 c6 ac 3f c3 29 aa 3f
       1.2644349 1.182604 1.349816 1.3293995
000040 5d 1a 93 3f aa 9a ab 3f 71 02 a7 3f 93 ea 9e 3f
       1.149242 1.3406575 1.304762 1.2415336
000050 94 63 a1 3f 8d 14 98 3f 94 fd 99 3f 61 73 a9 3f
       1.2608514 1.1881272 1.2030511 1.3238336
000060 73 b3 a0 3f 39 01 ad 3f b8 69 b1 3f e8 03 94 3f
       1.2554764 1.3515998 1.3860388 1.1563692
000070 1a 48 9c 3f a1 de 9b 3f e8 c5 a1 3f f4 62 9e 3f
       1.2209504 1.2177316 1.2638521 1.2373948
000080 b5 20 a8 3f 58 c7 a3 3f 81 5c 9b 3f f9 e3 9b 3f
       1.3134981 1.279521 1.2137605 1.2178947
000090 06 02 99 3f 22 bc b0 3f 2f 12 a4 3f e7 fb 9a 3f
       1.1953743 1.3807414 1.2818049 1.2108124
0000a0 5a 12 9b 3f e5 f3 9b 3f b9 be 9c 3f 71 25 a1 3f
       1.2114975 1.2183806 1.2245704 1.2589551
0000b0 27 2a 95 3f cb 29 9b 3f ae 97 9a 3f 9f 18 ab 3f
       1.1653489 1.2122129 1.2077539 1.3366889
0000c0 4d 78 9f 3f 3c c6 9b 3f 7e 50 b7 3f e8 03 96 3f
       1.2458588 1.2169871 1.4321439 1.1719942
0000d0 5b 12 9b 3f f0 15 af 3f 9d b4 9c 3f 8c 45 c0 3f
       1.2114977 1.367857 1.2242619 1.5021224
0000e0 ed bc a6 3f 2f ce 97 3f b0 1d ad 3f 05 db 9e 3f
       1.3026406 1.1859797 1.3524685 1.241059
0000f0 9d f0 98 3f fa 95 9f 3f 16 e9 ac 3f 0f 0e 98 3f
       1.1948429 1.2467644 1.3508632 1.187929

body.block1.norm.bias f4 [64]
000000 ab 87 61 3d d3 8f f0 3d f3 09 ad 3d f1 42 c0 3d
       0.055061024 0.11746182 0.08449163 0.09387768
000010 fa ca e3 3d cd a9 e8 3d 36 5c 2c 3e f8 02 17 3e
       0.11122699 0.11360512 0.1683205 0.14747226
000020 34 77 85 3b 8a dc f7 3d 94 54 19 3e e8 44 1b 3e
       0.004073048 0.12102611 0.1497367 0.15163004
000030 15 e4 ad 3d c6 b9 c7 3c 2e 24 11 3e 48 60 b3 3d
       0.08490769 0.024380576 0.14173958 0.087585986
000040 bc 8b ff 3d c4 2b 04 3e 5b db 04 3e 72 98 cb 3d
       0.12477824 0.1290732 0.12974302 0.09941186
000050 2b a5 a7 3d 02 5e c9 ba 54 9a c9 3d 28 f6 0a 3e
       0.081858 -0.00153631 0.09843889 0.13570464
000060 58 9f 15 3e 37 93 d9 3d 63 cb 43 3e 52 95 b7 3d
       0.14611566 0.10623782 0.19120555 0.089640275
000070 e1 d5 05 3e 1b 1b 98 3d 45 26 09 3e 4f f4 91 3d
       0.1306987 0.07427045 0.13393505 0.07126676
000080 bd e8 0b 3e 90 c8 14 3e 03 1c f1 3d b8 18 30 3d
       0.13663001 0.14529634 0.11772921 0.042992324
000090 c9 8e 19 3d 15 b8 0b 3e d6 14 08 3e 8c b4 0e 3d
       0.037489686 0.1364444 0.13289198 0.03484015
0000a0 0e c8 50 bd 8b 7a 9a 3c c7 e4 8e 3d 2b 5e 16 3e
       -0.050972037 0.018857261 0.069772296 0.1468436
0000b0 80 0a 01 3e 05 65 7d 3c 6e 64 98 3c 7f b9 1b 3e
       0.12601662 0.015465979 0.018602576 0.1520748
0000c0 54 6e 91 3d dd 2f d1 3d 72 d1 0d 3e 72 32 b4 3d
       0.071011215 0.10214207 0.13849428 0.08798684
0000d0 f7 a2 b6 3d 3e 61 17 3e 45 0e ea 3d dd 80 90 3d
       0.08917802 0.14783189 0.11428503 0.07055829
0000e0 f7 c5 3b 3e 77 ac 81 3d 08 f2 3f 3c 7d c8 0f 3e
       0.18337236 0.06331723 0.01171542 0.14041324
0000f0 13 e6 b9 3d 01 c9 21 3d e0 81 1e 3e 7d da f1 3d
       0.09077086 0.039498333 0.15479231 0.118092515

body.block1.norm.running_mean f4 [64]
000000 b8 d7 77 be 41 72 d5 bf 4f 1c d0 3f 80 1d 85 bf
       -0.24203384 -1.6675493 1.6258639 -1.0399628
000010 c0 eb 71 3f 4d 79 05 3f ff 3e c3 bf 70 b4 bc bf
       0.9450035 0.52138215 -1.52536 -1.4742565
000020 f5 55 0a be 94 3c 1c c0 df 7b e8 bf d2 60 a5 be
       -0.13509353 -2.4411974 -1.8162802 -0.3230043
000030 24 63 a7 3f 56 8a 61 3f ff 2e 1c c0 06 6f 4d 3f
       1.307713 0.8810171 -2.4403684 0.80247533
000040 fb e0 19 bf 9d 81 bb bc 35 bb ba bf 3f 6f 54 be
       -0.6010892 -0.022888953 -1.4588381 -0.20745562
000050 07 cc 6c 3f 33 cd b1 3f 3b cc b5 3f e8 f6 1c c0
       0.9249882 1.3890747 1.4202951 -2.45257
000060 97 2b f1 bb 07 d5 74 bf d6 6e f3 bf 62 a3 3e 3f
       -0.0073599326 -0.95637554 -1.90182 0.7446805
000070 04 32 9e be 3f 7a a9 3f a5 cf 1d c0 e5 4b 55 be
       -0.30897534 1.3240432 -2.4657986 -0.20829733
000080 82 92 6d bf 78 a2 58 3f 14 e2 f2 bf ce 14 3a 3f
       -0.9280168 0.8462291 -1.8975244 0.72687995
000090 04 be fc 3d fd b1 b4 bf 87 97 13 c0 21 df b2 3f
       0.1234093 -1.4116818 -2.3061235 1.3974344
0000a0 8a f0 86 3f 1b 65 6c bf e2 9b 8e 3f 1a a4 a1 3f
       1.0542157 -0.92341775 1.1141322 1.2628205
0000b0 48 00 5c 3f ca 55 09 3f 5a bf 15 3e 96 53 c2 3d
       0.8593793 0.5364653 0.14623776 0.09488599
0000c0 dc cf ad 3f 22 2e a0 3f 00 19 85 bf 6b 63 d2 3e
       1.3579059 1.2514079 -1.0398254 0.41091475
0000d0 b6 1e cc 3f 4c 67 e0 3e 68 d1 95 3f 88 47 72 bf
       1.5946872 0.4382881 1.1704531 -0.946404
0000e0 cc 59 85 bd 5b 07 56 3f 86 81 94 be c4 c7 91 bf
       -0.06511268 0.83604974 -0.2900507 -1.1389089
0000f0 a7 c1 ac 3f dc 46 66 3f 13 02 0b c0 72 7e 21 be
       1.3496598 0.8995187 -2.1720016 -0.15770891

body.block1.norm.running_var f4 [64]
000000 7c 52 c2 3f 87 10 ea 3f d3 74 d3 3f 41 f9 ca 3f
       1.5181422 1.8286294 1.6520027 1.5857316
000010 58 c7 ac 3f 1b 60 db 3f 91 64 b7 3f b3 6e be 3f
       1.3498335 1.7138704 1.4327565 1.4877533
000020 6f 1c c7 3f 3f 86 e3 3f dd b2 bf 3f d3 f1 c3 3f
       1.5555552 1.7775344 1.497646 1.5308174
000030 a4 12 09 40 1b 06 d8 3f cf ac e0 3f ea dd c3 3f
       2.1417627 1.6876863 1.7552737 1.5302098
000040 1d d5 dd 3f c8 e7 ac 3f c4 71 d8 3f 44 01 9f 3f
       1.7330662 1.3508234 1.6909719 1.2422261
000050 ef 43 d6 3f 24 51 df 3f 1e a9 ce 3f 7b 25 07 40
       1.6739482 1.7446637 1.614536 2.1116626
000060 a2 eb d0 3f 0d b1 bc 3f 0d 5a e1 3f f1 b5 cb 3f
       1.632191 1.4741532 1.7605606 1.5914899
000070 9f 17 e2 3f 9b 43 c8 3f 26 36 ff 3f b6 70 d2 3f
       1.7663459 1.5645632 1.99384 1.6440647
000080 e7 e1 b4 3f f2 3b d0 3f 5e ef fe 3f db 65 97 3f
       1.413144 1.6268294 1.9916799 1.1827959
000090 90 ec a9 3f 41 38 ca 3f 9d 61 ed 3f 97 01 e8 3f
       1.3275318 1.5798417 1.8545414 1.8125485
0000a0 69 c5 bc 3f 07 e6 cf 3f c6 6c 09 40 f0 5a c9 3f
       1.4747745 1.6242074 2.147264 1.5730877
0000b0 7c 8a a4 3f 9c f2 a8 3f 18 ac 05 40 b8 f9 e3 3f
       1.2854762 1.3199039 2.0886288 1.7810583
0000c0 41 b3 f8 3f 96 3a eb 3f ee 87 83 3f 26 b2 c4 3f
       1.9429704 1.8377254 1.0275857 1.5366867
0000d0 23 7b e8 3f de d0 e4 3f c2 25 ec 3f cc ae 7f 3f
       1.8162578 1.7876241 1.8449023 0.99876094
0000e0 d8 f9 95 3f 0d 68 bb 3f 70 13 a4 3f a8 58 e8 3f
       1.1716871 1.4641129 1.2818432 1.8152056
0000f0 30 de a8 3f 13 5a c2 3f 28 c3 e3 3f e0 9a ce 3f
       1.3192806 1.5183738 1.7793932 1.6141014

tail.0.weight f4 [12, 64, 3, 3]
000000 d5 4b 51 be cc 24 b8 3b cb d0 a5 3a 5e ea 17 3e
       -0.20439084 0.005619621 0.0012650726 0.14835498
000010 ca ae 94 bd 4c 0c b1 3d e3 bd db bc 31 05 9d bc
       -0.07259901 0.086449236 -0.026823943 -0.019167515
000020 af 62 c9 bd 88 c5 29 bd bd 5c 8b bd f4 e3 01 be
       -0.098332755 -0.041448146 -0.06804798 -0.12684613
000030 cd 85 93 bd 0b 89 3c be 93 95 1c be d4 03 63 be
       -0.07203255 -0.18411653 -0.15291433 -0.22169429
000040 f3 9b 5c be 21 c7 57 be f4 6c b2 3d 41 ff 58 bc
       -0.21543865 -0.21072055 0.087121874 -0.013244451
000050 e2 15 b3 3d de 7b 8d bd cd 92 09 be dd cd c4 3d
       0.08744408 -0.069083914 -0.13434906 0.09609578
000060 82 dc 75 3d aa 2f 82 3d ab e8 90 3d 18 05 96 bc
       0.060024746 0.063567474 0.07075628 -0.018312976
000070 0a 4d 69 bc 5b 76 27 3e 83 39 84 be 9b f6 5e bd
       -0.014239559 0.16353743 -0.25825128 -0.0544344
000080 69 ad 22 be cd cd a2 be 5e 6a 04 3c 39 b2 c1 bd
       -0.15886463 -0.3179764 0.008082001 -0.094578214
000090 ee 40 14 3d cb e1 a3 3b 8d 9b 2c 3c 03 b0 50 bc
       0.036194734 0.005001282 0.010535133 -0.012737277
0000a0 05 f5 19 be 84 68 2d 3d da 37 ec 3d a1 e7 12 3d
       -0.15034874 0.042336002 0.1153409 0.03586543
0000b0 43 89 96 3d ed 26 ae 3d 4e fc e0 3d 6d 3d 9a bd
       0.07350399 0.08503518 0.10985623 -0.07531247
0000c0 02 31 f4 3d ad e2 90 bb 99 ef 75 3c cb 86 a1 3d
       0.1192341 -0.004421553 0.015010738 0.07887038
0000d0 0e 54 78 3d be 10 03 be c8 1e 3a be 5b 68 3f be
       0.060627036 -0.12799355 -0.18175805 -0.18692152
0000e0 9e 4a 8a bd 25 a7 e7 bd 06 d5 96 bd f2 3e 73 bc
       -0.06752513 -0.11311177 -0.0736485 -0.01484655
0000f0 59 7c 15 bd 52 b5 41 be 99 ba db bd 7c d1 1a be
       -0.03649554 -0.18916824 -0.1072895 -0.15118974
000100 e0 a3 73 bd 75 6d 86 38 f7 3f 26 bd 58 b2 75 3c
       -0.059482455 6.410006e-05 -0.040588345 0.014996134
000110 32 6a 9b 3d 0e 47 8d be 05 e2 1a be 4b 8f 68 bc
       0.075886145 -0.27593273 -0.15125282 -0.01419432
000120 ae 41 e9 3d 51 15 a1 3d 03 fb b8 3b 60 f1 96 bd
       0.113894805 0.07865394 0.0056451573 -0.073702574
000130 2f a7 d6 bb 4f db c0 3b df dd 83 3d df 6c 01 be
       -0.0065506916 0.0058855186 0.06438803 -0.12639187
000140 3d 7b 06 bd 0a 25 11 bd 78 49 16 3c 64 f3 10 3d
       -0.032832373 -0.035435714 0.00917279 0.035388365
000150 f0 fc 19 be 4b 15 40 bb 39 0d aa 3c d9 6b a2 be
       -0.15037894 -0.0029309567 0.020758258 -0.31722906
000160 17 d3 79 be 75 18 ba bd 7e 5d 76 be fe 91 d1 bd
       -0.2439693 -0.09086696 -0.24059102 -0.10232924
000170 86 c9 97 bc 9b 5d f1 3d 16 83 8d bd 43 c0 24 b8
       -0.018528711 0.11785432 -0.06909768 -3.9279705e-05
000180 a1 60 58 be d0 4d 16 be 8e fc 89 bd 98 40 a4 bd
       -0.21130611 -0.1467812 -0.06737624 -0.08020133
000190 6b 3d 0d be d8 ed aa bc 95 8f 13 3e c9 57 ac bd
       -0.1379296 -0.020865366 0.14410241 -0.08415181
0001a0 dd dc c2 3d 5a 01 d6 bc a6 8b 56 3d 3a a1 49 3d
       0.095147826 -0.026123691 0.052379273 0.049226023
0001b0 9e 1e eb bd cb eb f8 bd 87 31 92 3d 55 d4 be bd
       -0.11480449 -0.12154349 0.07138353 -0.09317843
0001c0 50 fd e1 bd c2 b2 1f be 30 21 8d be c1 e3 1c be
       -0.11034644 -0.15595534 -0.27564383 -0.15321256
0001d0 c1 1b ff bc bd c1 d3 3c 48 7a 9f 3d 51 07 21 3d
       -0.031141164 0.025849218 0.07786995 0.039313618
0001e0 6a 1d 00 be 27 a6 25 3c 7f 63 c1 3c 74 c2 5d bd
       -0.1251122 0.010110415 0.023607014 -0.054140523
0001f0 e2 4c 88 bd f4 e1 85 bd d8 b0 00 3d ca 98 96 3b
       -0.06655289 -0.06537238 0.03141865 0.0045958506
000200 1f 62 60 3d cc 65 54 bd 42 74 05 bd 4a 3f a4 bb
       0.054781076 -0.051854894 -0.032581575 -0.0050124275
000210 1f 1a 60 be 11 9d e7 bd ed 69 85 be 63 32 e7 3d
       -0.21884964 -0.11309255 -0.26057377 0.112889074
000220 ad d1 43 3c f2 f8 9e 3c ab 89 87 bd b4 48 03 bd
       0.011951846 0.019405816 -0.06618055 -0.032051757
000230 67 a3 1e 3e 06 af 33 3e b0 f6 d4 3d 81 81 10 bd
       0.1549202 0.17547235 0.103986144 -0.035279755
000240 c9 61 55 bd e9 55 74 bd 01 2e 87 bc dd c4 d1 bd
       -0.05209521 -0.059652243 -0.016501429 -0.10242627
000250 a8 f6 4a bc 70 7a 54 bd 44 58 d5 bd 52 ef 71 bd
       -0.012387909 -0.051874578 -0.10417226 -0.059066124
000260 ed d9 ab bb 7a 69 e2 3d ca 9f 02 3c ee 78 b1 3d
       -0.0052444846 0.11055274 0.007972667 0.08665644
000270 9f f2 78 3d 44 d8 62 be 3a 58 6a be 71 98 b0 bb
       0.060778257 -0.22152811 -0.22885218 -0.005389266
000280 00 29 22 be 66 b1 6b bd 30 86 c3 bc 2e d9 ca bd
       -0.15835953 -0.057542227 -0.023867697 -0.09904705
000290 88 5e 75 be b7 ea ec bc 51 c7 ef bd 98 ec 19 bc
       -0.23961842 -0.028920515 -0.117079385 -0.009394787
0002a0 19 62 fb 3d 91 ee 16 be 38 c5 c7 3d 38 e8 d1 bd
       0.1227457 -0.14739443 0.09754413 -0.1024937
0002b0 c1 a9 a3 bd 98 53 22 3e 03 a5 77 3d 74 65 91 bc
       -0.07991362 0.15852201 0.0604601 -0.017748572
0002c0 33 3c b6 bd f3 d1 12 be aa ba b9 bd 87 5b 9a 3c
       -0.08898201 -0.14337902 -0.090688065 0.018842472
0002d0 e9 2a 98 3d be a1 b3 3d eb 98 eb 3d eb b6 ad 3d
       0.074300595 0.08771084 0.11503776 0.084821545
0002e0 df 4b 6e bd e6 b4 3c 3d 93 36 ff bc 92 10 8a bd
       -0.058177825 0.046070956 -0.031153953 -0.06741442
0002f0 14 10 f7 bd 15 d4 86 3d e7 55 92 3c a9 68 12 bc
       -0.120636135 0.0658342 0.017863227 -0.008936086
000300 50 27 55 be 50 e2 1a 3d e7 c1 71 bd 6c fc 19 be
       -0.20815778 0.037813485 -0.05902281 -0.15037698
000310 f3 21 47 bd ea 73 42 3d 7a 3d ba 3c 73 fe ab 3d
       -0.04861636 0.047473826 0.022734392 0.08398142
000320 91 7c d5 3d eb 8c 56 3d ce 9b 59 3c 39 70 10 bc
       0.1042415 0.052380484 0.013281776 -0.0088158185
000330 6e c2 78 3d c2 75 87 bc c4 52 4c bc 02 e3 e5 bc
       0.060732298 -0.016535643 -0.012470905 -0.028062347
000340 b6 2a a6 bd c6 8c 1e be 8a 00 3b bd 08 62 ec bd
       -0.08113615 -0.15483388 -0.04565481 -0.115421355
000350 24 6c 16 bd 93 f3 6d bd b8 a5 40 be 0d 25 35 be
       -0.036724225 -0.05809362 -0.18813217 -0.17689915
000360 6a 49 a2 bd af f1 fc bb 7d 7d e3 bd 8a 14 c9 3c
       -0.07924159 -0.0077192406 -0.11107919 0.024545927
000370 63 c9 26 3d f8 50 a1 3d 6b 8c 35 be cd e3 26 be
       0.0407194 0.07876772 -0.17729346 -0.16297837
000380 e4 32 a0 bd 7c 7e 22 3e d9 f6 9c 3c db d4 b8 3c
       -0.078222066 0.15868562 0.019160675 0.022562435
000390 08 c5 11 3c 4d 3f 8f bd be 2c 2a 3e e2 79 11 3c
       0.008897074 -0.069944955 0.1661863 0.008879157
0003a0 80 13 a1 bd af 85 37 be 05 6a 11 be c8 4b 36 be
       -0.078650475 -0.1792209 -0.142006 -0.17802346
0003b0 0e 01 ff bd fc 90 8b bd 2e 92 97 3b 6e d7 d8 bd
       -0.12451373 -0.06814763 0.0046255803 -0.10587965
0003c0 21 f0 0a be df 60 2d be 25 cd 0f be 08 99 a9 3d
       -0.13568164 -0.16931485 -0.140431 0.082811415
0003d0 73 35 46 bd 3a fc d6 3d dc 75 e9 3b f4 1a 7b 3d
       -0.048390817 0.10497327 0.0071246456 0.061305
0003e0 22 b0 13 3e 25 62 6c bd 0b f5 c1 bd 59 da ee 3b
       0.14422658 -0.057710785 -0.09470566 0.0072892127
0003f0 b6 fe a8 bd ba 9f bd bd 71 f8 c1 bc 39 4e ef 3d
       -0.08251707 -0.09258981 -0.023678036 0.11684842

tail.0.bias f4 [12]
000000 7d 9c 36 bd 89 ac 11 bd 90 8c 33 3d 5b 64 5e bd
       -0.044582833 -0.035564933 0.043835223 -0.054294925
000010 cc b8 76 3a eb 4f 14 bd d0 bc 51 bc 88 2b 4b bd
       0.0009411692 -0.03620903 -0.012801364 -0.04960206
000020 9e f9 31 bd f4 48 24 bd 47 5a 84 bd f6 70 4e bc
       -0.043450944 -0.040108636 -0.064625315 -0.012600174
