3layer_4000its/files/state_dicts/G_1.pth (torch, 209581 bytes, 14 tensors)

head.conv.weight f4 [64, 12, 3, 3]
000000 d3 e6 5c bd 47 3b ac 3c 1e 0c 89 3d 7f f0 8e bd
       -0.05393107 0.02102436 0.06691764 -0.06979465
000010 4a 9f 1f bd e9 18 10 bc f8 2d e0 bc 18 b5 e7 b8
       -0.03897027 -0.008795002 -0.02736567 -0.0001104867
000020 07 e7 2e bd fc 6f 62 bd 29 7c 88 bb ec 5f 2b bb
       -0.042700794 -0.055282578 -0.0041651917 -0.0026149703
000030 ae fe 70 bc 0c fc c4 bc d1 a1 77 3a 63 7f c1 bb
       -0.014709158 -0.024045967 0.0009446415 -0.0059050783
000040 6f 8f 47 bc 85 d8 55 bc 44 79 d1 bc fd 7e 91 bb
       -0.012180193 -0.013052111 -0.02557052 -0.004440187
000050 20 b5 0a bc eb 62 11 bd 06 57 ad bc 57 0f 65 bc
       -0.008466035 -0.035494726 -0.02115966 -0.013980708
000060 91 d6 15 3d 6d 1f 7e bc 94 fc cc 3c ef 11 31 be
       0.03658158 -0.015510422 0.025022782 -0.17291997
000070 0b ba b3 bd 63 28 1f be 12 d1 21 be 9c 0c 82 bd
       -0.08775719 -0.1554275 -0.1580241 -0.06350061
000080 44 83 db bd 9d 1c a4 bd 48 f3 a3 bd 8e 2a 01 be
       -0.10718396 -0.0801327 -0.080053866 -0.1261389
000090 12 9b 14 bd ef 8d 15 3c da be 12 3c 94 0b 75 bd
       -0.0362807 0.009128078 0.008956635 -0.059825495
0000a0 f1 97 98 bd ba f8 2b bd 6b f8 a6 bd a7 0b bb bc
       -0.074508555 -0.04198525 -0.08152851 -0.022832705
0000b0 3f d8 ea bc 6d a6 f5 ba 4d 36 71 bc 0a 13 19 b8
       -0.028667567 -0.0018741615 -0.014722419 -3.6495774e-05
0000c0 6e a5 26 bd 46 da 96 bd 8c 5d 8e bd ca 83 85 be
       -0.04068511 -0.07365851 -0.069514364 -0.2607711
0000d0 64 9d a2 be 2b 4c 9e be 68 ce 17 bc 04 19 f1 bb
       -0.31760705 -0.30917487 -0.00926552 -0.0073577184
0000e0 86 34 af bd 5a cf f8 bc 9b 86 4b bd e7 fc 32 bd
       -0.0855494 -0.03037231 -0.049688917 -0.043698218
0000f0 e6 f6 a6 bc 20 d3 68 3b a0 99 3a bd 6d 3f 08 be
       -0.020381402 0.003552623 -0.045556664 -0.13305445
000100 74 89 a3 3d 20 d1 4c 3e aa a6 1f be ee 68 bf 3d
       0.079852015 0.2000165 -0.15590921 0.093461856
000110 d7 c9 6d 3e f9 79 90 bd ef 0a 16 be 76 6f 42 3b
       0.23221527 -0.070545144 -0.14652608 0.0029668487
000120 4a 40 00 3d b1 2a 2f 3d f8 e4 1a 3d 1a 4e 6a 3d
       0.03131131 0.042765323 0.037816018 0.05720339
000130 33 ad 77 3d 99 d0 c1 3b cb 12 c5 3c d1 30 66 3d
       0.06046791 0.0059147594 0.024056813 0.0561989
000140 bd 12 94 3c a2 9d 0b bd 25 f2 67 bc 16 7f 9c 3c
       0.018075341 -0.034085877 -0.014156853 0.019103568
000150 e9 25 90 3d 5c 44 e6 bc 62 10 92 bc 92 c5 91 3d
       0.07038481 -0.028108768 -0.017830078 0.07117762
000160 7a c5 0d 3d ec 71 4d 3d fb 86 dd 3d 78 b5 59 bd
       0.034612156 0.050157472 0.10816761 -0.053151578
000170 6f eb a4 3d 64 a6 27 bd ce 56 15 be 74 87 ae bd
       0.08052718 -0.040930167 -0.14583895 -0.085219294
000180 35 66 eb bd 5f 06 1e be 9e 13 75 be 14 ff db ba
       -0.11494104 -0.15432118 -0.23933265 -0.0016784393
000190 fa 5c 27 bd 12 5b ca 3a dc f3 6e 3a c2 c2 5a bd
       -0.040860154 0.0015438518 0.00091153174 -0.05340839
0001a0 81 65 16 bd 0e e3 d3 bc 78 f7 a1 3c 35 ba 4a 3c
       -0.036717895 -0.025865104 0.019771323 0.012373497
0001b0 4a 3a 86 3a 0b f6 b0 3d 2f 9c 1f 3d a5 a2 42 bd
       0.001024076 0.08640679 0.038967308 -0.04751839
0001c0 45 f2 cc bd a0 ea 7f 3d e0 cc d6 bc 61 38 dd bc
       -0.10007147 0.062479615 -0.026220739 -0.027004423
0001d0 fd 90 82 3d 5a 62 7b 3c a8 33 e4 3d 2b 83 b2 bc
       0.063753106 0.015343273 0.11142665 -0.021791061
0001e0 42 70 8e bd 6e 2b ae 3b 80 f6 b5 bc af e4 7a bb
       -0.06955005 0.005315236 -0.022212267 -0.0038283279
0001f0 fe de 88 3c 20 41 7c bd 93 7b 2d 3c 1d a1 16 bd
       0.016707893 -0.061585546 0.010588544 -0.036774743
000200 a4 1c cf 3c 23 2e 9d 3a ed dc ad 3b 0f 18 db 3b
       0.025282212 0.0011991899 0.0053058774 0.0066862176
000210 b2 dc 13 3c a4 ba 42 bc a4 b5 93 3c f5 c0 cc 3c
       0.009024786 -0.011885319 0.018030949 0.024994353
000220 0f 93 83 39 c2 bc 0f 3d 42 5e 9d 3b 8b 16 34 bd
       0.00025095834 0.035092123 0.004802496 -0.04396681
000230 30 2a 59 3c ec 7f b3 bc ff 03 77 bc f0 44 52 3d
       0.013254687 -0.021911584 -0.015076636 0.051335275
000240 42 f6 11 3d 8d dc 7d 3c f6 f2 39 3c 81 f3 7f 3d
       0.03563524 0.015494478 0.01134943 0.062488083
000250 cd 49 d2 3c eb a1 14 be 2d 1e b0 3d 94 15 b8 3c
       0.025669957 -0.14514892 0.085995056 0.022471227
000260 93 87 2d be ef 99 1d bc de 6d 60 3d e4 e7 7c bb
       -0.16946249 -0.00961922 0.054792278 -0.0038590366
000270 97 bb 6a bd 09 c5 1d bd f7 f1 1e be dd 57 9b bd
       -0.057307806 -0.038517985 -0.1552199 -0.07585118
000280 c8 fc 48 3e d6 a6 53 3e e6 47 9e bd c3 3c c7 bd
       0.19627678 0.20669112 -0.07728557 -0.09728386
000290 71 fd 06 be a2 26 23 3c 09 c0 a6 3d a6 4d ae 3d
       -0.13182618 0.009957941 0.081420965 0.08510904
0002a0 aa 60 17 bd 4d ef aa bb 32 fc 22 3d 8d 2a 08 bd
       -0.03695742 -0.005216515 0.039791293 -0.033243705
0002b0 c2 75 13 3d 31 1d 88 bc a8 c0 65 bc d4 30 a0 3c
       0.036000974 -0.016615482 -0.014022984 0.019554533
0002c0 e2 59 f6 bc 1d 12 04 bd 70 c3 dd 3c df ee f0 bb
       -0.030072156 -0.032243837 0.02707073 -0.0073526944
0002d0 3b d9 ee ba ed 58 66 3c 5f 53 31 3d 4c da 83 bc
       -0.0018222699 0.0140592875 0.0432924 -0.016095303
0002e0 41 02 32 bd 40 ac d7 bb 7b d9 1f bd 92 ae 33 bc
       -0.04345918 -0.006581813 -0.039025765 -0.010966914
0002f0 ec 59 1b 3d 86 5f 14 3d 41 42 40 3d 9c 93 42 3d
       0.037927553 0.03622391 0.046938185 0.047504053
000300 c5 78 9c 3d 99 7e 48 bd 84 dc d2 bc 0c 65 65 3b
       0.076402225 -0.048948858 -0.025739916 0.0035002856
000310 7a f4 8f bd 24 d2 d1 bd 8f ca 2a bc 60 2d 12 bd
       -0.07029052 -0.10245159 -0.01042427 -0.035687804
000320 a3 53 a5 bc 6c 6f f8 3c 60 d3 95 3c 0d c9 83 3a
       -0.020181483 0.030326568 0.018289268 0.0010054425
000330 79 60 3d bd ff 5d 36 be de 89 b9 3d 8a 8c 6d 3d
       -0.04623458 -0.17809294 0.09059499 0.057995357
000340 aa cc b8 3d 8c 73 92 3c b0 6d 81 bc 48 88 b4 3c
       0.090234116 0.017877363 -0.015799373 0.02203764
000350 1b 4e 0d bd cc e3 f4 bc f7 56 a0 bc fe e4 df bc
       -0.034498315 -0.029893778 -0.019572718 -0.027330872
000360 65 68 76 bd 20 27 85 bd f7 8b f1 bc 81 16 f4 bc
       -0.060158152 -0.06501603 -0.029485686 -0.029795887
000370 14 8c 17 bb b5 2e 7f bb 77 ef e2 bb 32 d4 90 bb
       -0.0023124265 -0.0038937752 -0.006925519 -0.004419827
000380 fc cb 83 bc f6 07 25 3d 66 bd e1 3c 65 1f 9f 3d
       -0.016088478 0.040290795 0.027556133 0.0776966
000390 17 ad 2f 3d f1 3c dc bb c2 b9 21 3d b5 67 26 3d
       0.04288968 -0.006721132 0.039483793 0.040626246
0003a0 96 7b 55 b6 75 48 31 3c e0 31 92 bc 33 c4 97 bd
       -3.181141e-06 0.010820498 -0.017846048 -0.07410469
0003b0 da 80 55 3c b0 61 5a 3b cd 3b 36 bd b9 a6 37 bc
       0.013031209 0.0033322386 -0.044490624 -0.011209183
0003c0 a8 fb 5a bc f9 e9 3c bd c4 8c 28 3d e8 d8 0e be
       -0.013365664 -0.04612157 0.04114987 -0.1394993
0003d0 e5 0a 54 be 45 ff 35 be 01 3d 2c be 39 29 4e be
       -0.20707281 -0.17773159 -0.16820146 -0.20132913
0003e0 8f c1 11 be 84 a3 b4 bd 97 16 ab bd ac fa 02 be
       -0.14233993 -0.08820251 -0.08353918 -0.12790936
0003f0 d6 ef 96 3d 5d 10 91 bd b8 8e 80 bc bb f1 10 bd
       0.07369964 -0.07083199 -0.015693054 -0.035386782

head.conv.bias f4 [64]
000000 5e e2 c2 3d cf 20 50 ba d0 09 9e 3d e1 36 ee 3d
       0.09515832 -0.0007939459 0.07716715 0.11631561
000010 62 94 e8 3c 1f 40 d4 3d 61 b9 c1 bc 00 3b 4f bc
       0.028391067 0.10363793 -0.023647966 -0.012648344
000020 55 a0 2b bd 6a 24 08 3d 8d 5d 98 3d 1a 91 af bd
       -0.04190095 0.033237852 0.074397184 -0.08572598
000030 55 ee 80 3d 62 ba 10 3e 4a 72 30 3e 7c e8 b9 3d
       0.06295458 0.141336 0.17231098 0.09077546
000040 e1 f8 b6 bd 6e 55 03 be 40 99 36 bd a3 b6 82 38
       -0.08934189 -0.12825558 -0.044579744 6.232902e-05
000050 c6 19 a5 bd 51 f9 6e 3d a5 a5 1a be c9 93 c1 3d
       -0.080615565 0.058343235 -0.15102251 0.09452016
000060 78 13 b3 3d 67 bf 2e 3d bf 0b 1c be 42 a6 49 bd
       0.08743948 0.042663004 -0.15238856 -0.04923082
000070 dd bd e0 3d 07 d8 75 3d 43 d4 38 bd bc 0a 5f bd
       0.109737135 0.060020473 -0.045124304 -0.054453596
000080 22 ad 13 3e b2 fa 21 bd b6 9f 03 be dd 0b 2c 3d
       0.14421514 -0.039545722 -0.12853894 0.0420035
000090 1d 74 1f 3e 4a 03 01 be dc e9 b3 bd 26 ee 8b 3d
       0.15571637 -0.12598911 -0.087848395 0.068325326
0000a0 d9 ee 72 bd 39 80 1a bd 32 fb 86 3d 62 84 09 3c
       -0.059309814 -0.03771994 0.065908805 0.008393379
0000b0 ca b8 82 3d c8 dc eb 3c fc d7 f5 bc 3d a4 d6 3c
       0.06382902 0.0287918 -0.030010216 0.026201362
0000c0 0e 21 a9 3d dd 31 7a bd fa 7c ae 3d 9f d2 d5 bc
       0.08258258 -0.06108271 0.08519931 -0.026101409
0000d0 f9 59 5c bd ff 5c 36 3d bf 56 73 3d 50 02 73 3d
       -0.053796742 0.04452228 0.0594089 0.059328377
0000e0 88 bd a8 bd 6c 0d 95 bd 96 f0 37 3d c0 b9 a2 3c
       -0.08239275 -0.07277951 0.044907175 0.019863963
0000f0 16 c0 d9 bd d7 4f c0 3c e5 21 2c 3d 9b 95 98 bd
       -0.106323406 0.02347557 0.04202451 -0.0745041

head.norm.weight f4 [64]
000000 6a cc 80 3f 86 37 5e 3f 38 48 81 3f f7 c7 7a 3f
       1.0062382 0.8680347 1.0100164 0.9796137
000010 a7 71 75 3f 39 40 86 3f 3f 6e 6d 3f 2d 13 81 3f
       0.95876545 1.0488349 0.9274635 1.0083977
000020 c0 d9 79 3f 0f 38 86 3f 19 f2 6c 3f 5c ad 6e 3f
       0.97597885 1.0485858 0.9255691 0.93233275
000030 84 91 71 3f e1 61 8a 3f ef 27 5e 3f 19 08 6d 3f
       0.94362664 1.081112 0.86779684 0.9259048
000040 c6 bd 7c 3f 22 89 7f 3f cb a5 6e 3f ac 1c 75 3f
       0.9872707 0.99818623 0.9322173 0.95746875
000050 de 93 72 3f 46 7d 73 3f 5b 34 5d 3f ba 08 7e 3f
       0.9475688 0.9511303 0.86408013 0.99232066
000060 eb 27 81 3f 41 12 80 3f 2e 56 71 3f d9 c0 81 3f
       1.0090307 1.0005571 0.94272125 1.0136977
000070 a5 b0 83 3f 03 e3 79 3f 89 68 77 3f 3e ce 5f 3f
       1.0288283 0.9761202 0.96643883 0.87424076
000080 a4 fe 80 3f 42 4a 83 3f d4 51 67 3f b7 9e 71 3f
       1.007771 1.0257037 0.90359235 0.94382805
000090 b5 99 7b 3f 5a 7d 86 3f c0 72 6b 3f 4d 0e 81 3f
       0.98281413 1.0507004 0.9197197 1.0082489
0000a0 a8 17 78 3f ae 46 82 3f 23 0a 70 3f 60 87 83 3f
       0.96911097 1.017782 0.9376547 1.0275688
0000b0 7d da 88 3f 12 63 66 3f 71 2d 72 3f 20 97 85 3f
       1.0691677 0.8999492 0.9460059 1.0436745
0000c0 40 ac 87 3f 8e 18 81 3f 3a fd 6c 3f 3f b0 7a 3f
       1.0599442 1.0085618 0.92573893 0.9792518
0000d0 99 cf 7c 3f bf 1e 72 3f 27 f6 70 3f 77 69 60 3f
       0.9875427 0.94578165 0.941256 0.87660927
0000e0 9b a7 5b 3f 6f 1f 7a 3f bd df 7a 3f 91 71 62 3f
       0.8580262 0.97704214 0.9799765 0.8845454
0000f0 e6 15 7f 3f 80 1e 67 3f b6 1c 72 3f 85 7c 82 3f
       0.9964279 0.90280914 0.9457506 1.019425

head.norm.bias f4 [64]
000000 b8 3a a7 bc 19 2d c8 be c2 18 d1 be c6 91 bf be
       -0.020413741 -0.39096907 -0.408392 -0.37415904
000010 c2 a0 c8 be ea 86 03 be 5b 52 22 be 66 bb 81 bb
       -0.39185148 -0.12844434 -0.15851729 -0.003959107
000020 e8 60 db be d2 0a 0c bf 48 01 81 be 93 c7 52 be
       -0.4284737 -0.5470401 -0.2519629 -0.20583944
000030 3c df d6 be 7f 15 cf bb b8 29 81 be b4 12 00 be
       -0.4196719 -0.006319701 -0.2522714 -0.12507135
000040 b9 9d 80 be 26 93 d1 be 5a cc 53 be 88 6b 04 be
       -0.25120333 -0.40932578 -0.20683423 -0.12931645
000050 45 93 c7 bd 6a 0e b2 be c9 4f b6 be ca ef 58 bd
       -0.09744886 -0.34776622 -0.35607746 -0.052963056
000060 03 16 da be c3 e9 35 be f8 7b 77 be 2e d2 74 be
       -0.4259492 -0.17764954 -0.24168384 -0.23908302
000070 75 8f 8b be ab a5 85 be 72 36 9e be 2a 4b 65 be
       -0.27257887 -0.26102957 -0.30900913 -0.22391954
000080 d4 a9 b7 bd 20 51 b7 bd 76 01 41 be a2 dc ae bd
       -0.08967939 -0.0895102 -0.18848214 -0.08538176
000090 db 1b e6 be 1b e7 7a be af 77 b1 be e1 f5 b7 be
       -0.44943127 -0.24502222 -0.34661624 -0.35929778
0000a0 07 ac 42 be 80 09 dd be 4f 9b 62 be 3c 92 a3 be
       -0.19010936 -0.4317131 -0.22129558 -0.31947505
0000b0 e5 0f e9 be 45 bd 9a be c5 8e 29 be 2e 91 a3 bd
       -0.4551994 -0.30222526 -0.16558369 -0.07986675
0000c0 2b 73 31 be ce 37 c7 be 7b 5f d4 be 2d 06 c0 be
       -0.1732909 -0.38909763 -0.41479096 -0.37504712
0000d0 7f a7 5f be 58 32 84 be a7 6d b1 be 07 e8 95 be
       -0.21841238 -0.2581966 -0.3465397 -0.29278585
0000e0 95 4c d7 be 87 13 39 be 2b 98 bd bd f9 28 9d be
       -0.42050615 -0.18073855 -0.09257539 -0.30695322
0000f0 fb 94 66 bd c2 37 86 be 36 15 c1 be 10 ce bc bd
       -0.056294423 -0.26214415 -0.37711495 -0.09218991

head.norm.running_mean f4 [64]
000000 b6 c0 9b 3d 88 33 33 3c 0a 09 24 bc f9 bd b1 3d
       0.07605116 0.010937579 -0.010011921 0.086788125
000010 2c 29 ae 3c 8a 12 53 3d 21 4f 4b 3d 1c 97 2f 3b
       0.021259867 0.051531352 0.04963601 0.002679295
000020 35 de c0 bd 02 6b eb 3c 58 1a e2 3d 57 f0 26 bc
       -0.09417383 0.028737549 0.11040181 -0.010189137
000030 35 7d 0b 3d 5e 50 38 3e b6 7e 2f 3e 0b 03 32 3c
       0.034054954 0.17999408 0.1713818 0.010864983
000040 5e 7c f7 bd e8 a4 2f be 2a a9 06 be bd 01 d0 3d
       -0.12084268 -0.1715275 -0.13150468 0.101565816
000050 49 9a af 3c d7 ea 3b 3d e9 8a d5 bd 7c 85 10 3e
       0.021435874 0.045878258 -0.10426886 0.1411342
000060 30 5f 15 3d d8 29 03 3e a7 26 83 be 9a 15 a8 bc
       0.03646773 0.12808931 -0.25615427 -0.020518113
000070 80 d8 74 3d 8d cc 71 bc a4 18 06 be f7 ae 23 bd
       0.059776783 -0.014758241 -0.13095337 -0.03996178
000080 42 a0 82 3e ce 81 1b 3d b5 0e c3 bd a0 4f 35 3d
       0.25512892 0.03796559 -0.095242895 0.04426539
000090 84 74 ad 3d d0 ec 82 bd a8 bc 0c be b1 12 98 3d
       0.08469489 -0.06392825 -0.13743842 0.0742544
0000a0 c2 91 ef bd a0 eb a3 bd 07 17 25 3e 14 45 91 3c
       -0.11697723 -0.08003926 0.16122065 0.017733134
0000b0 68 c8 1c 3d 54 b5 31 bc d3 9b 93 bc 41 02 0a be
       0.03827706 -0.010846455 -0.018018639 -0.13477422
0000c0 60 94 c1 bd 8d f6 e1 bd 73 07 9e 3d 1e 41 ee bc
       -0.094521284 -0.11033354 0.077162646 -0.029083785
0000d0 7e fc 65 bd 12 ca be bd be 6e 4c 3d 83 0d a8 3d
       -0.056149 -0.093158856 0.0499103 0.08205702
0000e0 e2 6c b2 bd ac 8f b8 3c fc 63 3c 3e 72 cf 62 3d
       -0.08712174 0.022529446 0.18397516 0.055373617
0000f0 c9 47 7d be d4 cc 51 3c 08 ea 22 3c a6 9f 1b 3d
       -0.24734415 0.0128051825 0.009943493 0.03799405

head.norm.running_var f4 [64]
000000 92 e8 db 3b 57 1b 9b 3a 2e 38 ef 3b c0 d6 e5 3a
       0.006711074 0.001183371 0.0073003983 0.0017535314
000010 d2 c8 49 3b 9a 29 82 3c 76 98 b1 3b 3c 9f b7 3b
       0.0030789864 0.015888978 0.005419786 0.005603699
000020 e9 9c fa 3a 25 92 f4 3a c2 06 7e 3b 4c 59 3f 3b
       0.0019120249 0.0018659277 0.0038761352 0.0029197512
000030 d4 cf 9c 3a 8b 7a d1 3b ca 2d 85 3b ba 46 9f 3b
       0.0011963793 0.006392782 0.0040642964 0.004860726
000040 5b e7 75 3b eb e0 2e 3b de 47 0e 3b a5 0c e3 3b
       0.0037521932 0.0026684355 0.0021710317 0.0069289976
000050 ac 7a 9a 3b d7 88 5a 3b 82 a2 17 3b 4a fe f4 3b
       0.0047143307 0.0033345723 0.0023137634 0.0074766027
000060 ad d7 fe 3a f8 ce 8d 3b 4d 5b 2e 3b a2 02 5a 3c
       0.0019442939 0.004327651 0.0026604712 0.013306292
000070 1b 25 2a 3c 7e 54 e6 3a 0a 13 96 3b 5f 9e f3 3a
       0.010384823 0.0017572788 0.0045799064 0.0018586627
000080 50 ca c8 3b a8 75 bc 3b 16 e3 1f 3b dd 7a c2 3b
       0.006127633 0.0057513304 0.0024396828 0.0059350566
000090 02 22 99 3b ba ca 93 3b 09 31 78 3b 5d 29 09 3b
       0.0046732435 0.004510251 0.0037871024 0.0020929195
0000a0 06 61 2c 3c 8e 08 22 3b 03 ea 4a 3b 5e 2f 91 3a
       0.010521179 0.0024724337 0.0030962236 0.0011076739
0000b0 a1 3b 07 3b 0a 6a a7 3a 93 0c 26 3c c2 f9 71 3c
       0.0020634907 0.0012772691 0.010134834 0.01476902
0000c0 99 c0 62 3c 8d 30 f6 3a 55 c7 0b 3b 7b d5 68 3b
       0.013839864 0.001878278 0.0021328528 0.0035527635
0000d0 e5 3b 38 3b e6 a7 f3 3b bd 23 f0 3a 20 24 cc 3a
       0.0028111872 0.0074357865 0.0018321198 0.0015574731
0000e0 df ce 02 3b 30 1f db 3b a5 1b a3 3c 9f 9e d3 3a
       0.001995973 0.0066870674 0.019910643 0.0016145295
0000f0 8c a9 36 3c 0c 12 92 3b 9a d4 8f 3a f0 fe 59 3c
       0.011148822 0.0044577178 0.0010973394 0.013305411

body.block1.conv.weight f4 [64, 64, 3, 3]
000000 4e 5a 11 3c 5e 95 d3 bb 23 f1 e6 bc 83 55 8c 3d
       0.008871628 -0.006457015 -0.028191155 0.068522476
000010 86 72 b5 3c ca 72 5d 3d c8 1c 05 3d 0b bb df 3c
       0.022149336 0.05406455 0.03249815 0.027310869
000020 a8 3f 15 3d ad 0c 82 3c d3 fd 8b 3d 9c 54 cc 3c
       0.03643766 0.015875185 0.068355225 0.024942689
000030 3a a5 ac bd fd 5a 1c bd 7a c1 ed 3c e4 6e 93 3d
       -0.08429952 -0.03817271 0.02902292 0.07198885
000040 21 16 d8 3d 15 e8 ae 3d 96 bf dd 3c 5d a2 8c 3c
       0.10551096 0.0854036 0.027068894 0.017167265
000050 17 7a 79 3d 46 1c a3 3c 2b bd ce 3c b0 d0 a1 bc
       0.06090745 0.019910943 0.025236687 -0.01975283
000060 be 51 8e 3c a4 8e 87 3c be 77 9e 3b 22 b8 fc 3c
       0.017372962 0.016547509 0.0048360517 0.03084952
000070 ee be 09 3d 25 de e5 3d 08 71 a2 ba 6c aa 80 bd
       0.03362935 0.11224011 -0.0012393305 -0.062825054
000080 98 c9 1a bc 56 56 7d bc 6d 1d 02 3c 40 48 fc 3c
       -0.009447478 -0.015462479 0.007941586 0.03079617
000090 46 7e fb 3c d6 cb 47 bc 49 51 8e bb ee e4 0e bc
       0.03069986 -0.012194594 -0.004343186 -0.008721573
0000a0 c7 9c 8e bc e5 be 07 3d 41 17 db bc ef 41 4d bd
       -0.017408742 0.033141036 -0.026744487 -0.050111707
0000b0 67 8f 53 bd aa ef 86 3d 4f 69 c3 3c 1e ab 19 3c
       -0.05165043 0.06588681 0.023853926 0.009379176
0000c0 21 b0 aa bc 6d 7d 3a 3b 74 2c 95 3c 7f 92 47 bd
       -0.020835938 0.0028456107 0.018209673 -0.048723694
0000d0 f3 43 c7 bc bc af 89 bc 4c fd 34 bc ea 27 e0 3b
       -0.024324393 -0.01680743 -0.011046719 0.0068406956
0000e0 bb ae 39 3c ad 10 37 bd e7 75 da bd f8 a6 c0 bd
       0.011333163 -0.044693638 -0.10667019 -0.09406847
0000f0 7a a8 94 3c d9 03 ec bc 21 12 5d bc 6e d5 d9 bc
       0.018146742 -0.028810428 -0.013493092 -0.026591029
000100 95 04 70 3c 7a f5 17 bd 1b 80 4d bd 4c 52 87 3d
       0.01464953 -0.03709934 -0.050171 0.06607494
000110 28 60 4a 3d bf 0b 66 bd 54 a8 83 3c f6 fd 0f 3d
       0.049408108 -0.056163546 0.016071476 0.035154305
000120 32 d8 51 3d c5 50 19 bc 21 b6 55 3d ff 09 49 3b
       0.05123157 -0.009357636 0.052175645 0.0030676124
000130 8d 7d 8d 3c 92 b4 24 3d 6d 52 61 bb cb 30 e6 bb
       0.017271781 0.040211268 -0.0034381405 -0.0070248595
000140 8f 98 8f bd 83 a8 a1 3c 5a f9 fc 3c 18 d5 0e 3d
       -0.0701152 0.019733673 0.030880619 0.03487119
000150 20 95 72 3c fc 0a 18 3d 80 ec 2b 3d 97 43 00 be
       0.014806062 0.03711985 0.04197359 -0.12525783
000160 51 62 56 be 35 a4 00 be 9b e1 3a bd 04 47 e1 bc
       -0.20935942 -0.1256264 -0.04562531 -0.027499683
000170 a9 79 5e 3d ce 1b 9b 3c c0 e8 1d ba e4 12 7e 3d
       0.054315243 0.018934157 -0.0006023757 0.062029734
000180 55 ba f1 3c 06 03 18 3d 6d 54 c4 bb 1f 69 b1 bd
       0.029507795 0.03711226 -0.0059915096 -0.086626284
000190 8d c9 04 bc b6 45 0a bd 43 ba 96 3c ce 95 e3 3c
       -0.008104694 -0.033757888 0.018399363 0.027781393
0001a0 60 04 53 bd 03 8e ee 3c 1b d2 69 bc 05 e7 1f 3d
       -0.051517844 0.02912045 -0.014271284 0.039038677
0001b0 c6 9c 67 3d a4 6a 41 3d 0a 7a e8 3c ba 72 a5 bb
       0.056545995 0.04722084 0.028378505 -0.005049077
0001c0 81 c5 a0 3c b3 24 76 3c 56 68 b3 3c fa b0 39 bd
       0.019625427 0.015023398 0.021900337 -0.045334794
0001d0 06 20 9b 3d 0c 71 14 3d 5f 22 e8 bc d6 e2 bc 3c
       0.07574467 0.036240622 -0.028336702 0.023057383
0001e0 0d c2 2a bc 48 17 63 3d 16 f7 1f 3d ec 8f a5 3c
       -0.010422242 0.055442125 0.039054 0.020210229
0001f0 9e 8d fa 3c f4 f5 21 3d 10 aa 34 3d 12 2b 31 3c
       0.030585106 0.0395412 0.044107497 0.010813491
000200 74 be 1e bd be 28 56 3c 6a 8e a1 3c 04 55 7f 3d
       -0.03875585 0.013071237 0.019721229 0.062336937
000210 e9 5e bc 3b a8 52 c8 ba 35 90 ce 3a 2c 00 10 3d
       0.005748619 -0.0015283423 0.001575953 0.035156414
000220 88 ce 40 3d 8a 47 21 3d 06 e3 30 bc 6f c6 9f bb
       0.047071964 0.039374866 -0.010796314 -0.00487595
000230 7d 98 0d 3c 31 a7 60 3a 45 ec 50 3d d8 b1 b2 3c
       0.008642313 0.00085698353 0.051006574 0.021813318
000240 e7 6b 46 bd d0 d3 47 bc bc 40 c5 bc 9f d0 09 3d
       -0.048442747 -0.012196496 -0.02407872 0.033646222
000250 34 14 ec 3c 15 73 32 3c 4a 05 1f bd 2b 28 38 bd
       0.028818227 0.0108916955 -0.038823403 -0.044960182
000260 c6 ee fe bc ed f7 64 3d 96 24 6d 3d 36 5b b0 3c
       -0.031119715 0.055900503 0.05789622 0.021527868
000270 86 b9 04 b9 5d fd 08 bd 5b 19 4a bd f2 ce fa bc
       -0.00012657614 -0.03344475 -0.049340587 -0.030616257
000280 8d 83 3c 3a 7b 33 1a bd ab 76 3a 3c 7e 05 f4 3a
       0.00071912335 -0.03764675 0.011380832 0.001861736
000290 f7 0c 3e bd 37 31 af 3d fe b6 ac 3d c4 48 52 3d
       -0.046399083 0.08554309 0.084333405 0.051338926
0002a0 a9 53 cb ba 8c 17 2e bd 59 11 ec bd 51 dc d6 bc
       -0.0015512604 -0.042502925 -0.11526746 -0.026228102
0002b0 57 75 63 b7 47 80 c5 bc 08 c1 cb 3c 2f 7f 36 3d
       -1.3557575e-05 -0.024109019 0.024872318 0.044554885
0002c0 d3 9c 3c 3d 00 1d 20 3c b6 0c 9b 3d 31 41 c4 3c
       0.046047997 0.009772539 0.07570784 0.023956867
0002d0 b6 e0 13 3d 8d 4c 2a 3d a3 40 82 3b 81 57 58 3d
       0.036102973 0.04157691 0.0039749905 0.052817825
0002e0 27 67 5c bc 9a 8a 8f 3d 9f 98 a9 bc ff 7b ae bc
       -0.013452328 0.07008858 -0.020702658 -0.02129936
0002f0 6c 3d 56 bb 85 55 62 bc 6b 9d 28 3c 24 2b d0 3a
       -0.003269042 -0.013814335 0.010291438 0.0015881998
000300 a4 ba a3 bc b1 87 86 bc 9b fb 76 bc e9 9b e7 bc
       -0.019986458 -0.016422125 -0.015074636 -0.028272586
000310 d0 18 03 ba fc 86 cf bc 9a ad 94 3b 7b b7 25 3d
       -0.0005000951 -0.02533292 0.0045372965 0.040458184
000320 97 f1 36 3a 27 ab 07 3d f0 79 24 3d 33 ce 9a 3b
       0.0006978749 0.033122208 0.04015535 0.004724288
000330 0e 04 67 3d da c8 b2 3c fe da 29 3d 54 c8 14 3d
       0.05640035 0.02182429 0.041468613 0.03632386
000340 8b 76 a7 38 a9 d0 7f bc 0c 92 8a 3c df df 9f bc
       7.985261e-05 -0.015613713 0.016915344 -0.01951593
000350 53 e0 2c 3c 1d fb 0e 3d 9b ec 74 bb 91 87 87 bc
       0.01055153 0.03490745 -0.0037372473 -0.016544135
000360 c6 0b 59 3d e0 b8 2c 3d 78 ef 85 bc c7 4d d8 3c
       0.052989744 0.042168498 -0.01634954 0.026404275
000370 fb aa 60 3d cf a3 d9 bc ae fc 48 3c eb f1 64 bd
       0.05485056 -0.026567368 0.012267275 -0.055894773
000380 80 27 68 bc db 3e 07 bd dc d3 27 bd 2b 63 41 bd
       -0.014169574 -0.033018928 -0.04097353 -0.047213715
000390 6a e6 4a 3d ed 22 a4 3d 10 cd 75 3b 5e 33 e2 39
       0.049536146 0.08014474 0.003750626 0.0004314435
0003a0 87 cc c4 3a aa d5 fe bc ff 31 a3 bc 0f 4c 10 bc
       0.0015014567 -0.031107742 -0.019921301 -0.008807196
0003b0 42 54 8d bc aa 71 e2 3d 7b 2c ab 3c be 04 fc 3a
       -0.017252091 0.11056836 0.020895233 0.0019227488
0003c0 b2 59 2d 3d 45 cf 3d 3d 20 bf 94 3d cf 9d 48 3a
       0.04232187 0.046340246 0.07263017 0.000765291
0003d0 33 9b 12 3d 8e a8 9e bc 95 09 26 3b 89 23 d5 bc
       0.03579254 -0.019367483 0.0025335301 -0.026017921
0003e0 b7 ea 61 bc 03 8b 61 bc f6 90 22 bc 92 2e 3a bc
       -0.013788871 -0.013766053 -0.009922257 -0.011363642
0003f0 6b d6 62 3c 76 04 c5 3c b4 fd b7 bc 27 9a 16 3b
       0.013845067 0.024049979 -0.022459842 0.0022980066

body.block1.conv.bias f4 [64]
000000 af 65 a9 bc 3a de 4c 3d e2 15 df 3c df ca 11 bc
       -0.02067837 0.05001662 0.027232114 -0.008898466
000010 cf cf 14 3d 03 9c c9 bb 1f bc 82 3d 4a 9f 19 3d
       0.036330994 -0.0061526312 0.063835375 0.037505426
000020 d1 1e d6 bc 31 29 1a 3d ac 96 8a 3c c0 28 95 bc
       -0.026137741 0.03763694 0.01691755 -0.018207908
000030 f7 40 fc 3b a5 92 53 bc 6e 4b 2d 3c 15 e9 35 3a
       0.007698174 -0.012913381 0.010577066 0.0006939334
000040 ad 79 f6 bc 0c ed a1 3c 64 57 ec 3c 33 51 15 bd
       -0.030087316 0.019766353 0.028850265 -0.03645439
000050 d1 bf 3e 3a 9e 5a ab bc d5 4e 35 bd f4 f6 8f bc
       0.00072765077 -0.020917233 -0.044264633 -0.017573811
000060 e7 a7 93 3c 46 73 be bc 93 3b 52 3d 39 41 9d bc
       0.018024398 -0.023248326 0.051326346 -0.01919614
000070 9d 92 37 bc c0 3a 2f 3d b8 17 49 bc 32 ce a5 bd
       -0.011204389 0.042780638 -0.012273721 -0.08095969
000080 5b 02 53 3d ac 4a 35 bc 8d 5d f5 bb 06 98 37 3d
       0.05151592 -0.011065166 -0.0074879588 0.044822715
000090 1e 62 11 3d 8a d5 3e bd 1f d9 d4 3a 17 fc fa bc
       0.035493962 -0.046590365 0.0016239024 -0.030637784
0000a0 8a 90 81 3d ce 1b 0a 3d f7 2d bf 3c 33 78 aa 3c
       0.06326397 0.033717923 0.023337347 0.020809269
0000b0 ec 28 53 3c 9c 5e 42 bb 10 f7 49 bd 83 97 84 bc
       0.0128881745 -0.0029658442 -0.049307883 -0.016185528
0000c0 43 2c 8a bb 69 bf 56 3c b2 88 24 bd ff 66 e5 bb
       -0.004216702 0.013107159 -0.040169425 -0.0070008035
0000d0 fb 3c 8e 3c 5d 05 1c bd 7e c3 73 3d f4 2e 5f bc
       0.017363062 -0.038091052 0.059512608 -0.013622034
0000e0 d5 a1 b1 bc 48 11 c3 bc 21 65 96 bc 60 c2 c8 bc
       -0.021683613 -0.023811951 -0.018358769 -0.024506748
0000f0 28 8a 69 3d b9 f4 ec bc 50 02 85 3c 5a 6f 9d bc
       0.05701652 -0.028925287 0.016236454 -0.019218136

body.block1.norm.weight f4 [64]
000000 ab a7 9c 3f c5 b5 8f 3f 61 8d 90 3f 75 24 91 3f
       1.2238668 1.1227347 1.1293145 1.1339251
000010 0e 14 91 3f 23 11 ae 3f f7 e4 ac 3f 46 3d a4 3f
       1.1334245 1.359898 1.3507375 1.2831199
000020 39 1a 99 3f e1 98 8b 3f 70 cf 94 3f 39 54 87 3f
       1.1961128 1.090603 1.1625805 1.0572578
000030 cd 47 9d 3f fc 1d 96 3f e9 56 96 3f 20 c6 c3 3f
       1.2287537 1.17279 1.1745273 1.5294838
000040 14 c6 a2 3f b0 38 c1 3f 07 c2 8b 3f 0c 0d b4 3f
       1.2716699 1.5095425 1.0918587 1.4066482
000050 04 6f c0 3f 89 27 af 3f f7 86 92 3f 02 ff a4 3f
       1.5033879 1.368394 1.1447438 1.2890322
000060 67 98 c8 3f 52 78 91 3f ce aa a8 3f 34 72 81 3f
       1.567151 1.1364844 1.3177125 1.0112977
000070 4e be a0 3f be c6 af 3f f1 09 91 3f d9 84 96 3f
       1.2558076 1.3732526 1.1331159 1.1759292
000080 4b 4b c4 3f ab cf bc 3f b2 7d bb 3f 6f b0 91 3f
       1.5335478 1.4750875 1.4647734 1.1381968
000090 7b 96 96 3f 68 3e 8f 3f 53 b0 8e 3f a8 f9 8e 3f
       1.1764673 1.119092 1.114756 1.1169939
0000a0 a1 68 ab 3f 67 6a 94 3f 04 bd b1 3f 63 1b a8 3f
       1.3391305 1.1594971 1.3885808 1.3133358
0000b0 a4 cd a0 3f 8a 8d 94 3f e9 a1 92 3f 59 fe 8f 3f
       1.2562757 1.1605694 1.1455661 1.1249496
0000c0 5d 29 a2 3f 6f d2 9a 3f 65 91 90 3f 87 1e b5 3f
       1.2668873 1.2095469 1.1294371 1.4149941
0000d0 51 4c 97 3f af ac 96 3f a8 c2 8c 3f 3b 0e 8c 3f
       1.1820165 1.1771449 1.0996904 1.0941843
0000e0 ca 89 a2 3f 7a 65 8b 3f 2c 65 a2 3f 08 28 bc 3f
       1.26983 1.0890343 1.2687125 1.4699717
0000f0 11 b3 8e 3f aa 47 93 3f 5a b8 9b 3f a9 bd 98 3f
       1.1148397 1.1506245 1.2165635 1.193288

body.block1.norm.bias f4 [64]
000000 c8 a4 e5 bd 69 c3 5f be 3b 57 8d be d4 70 d0 be
       -0.1121307 -0.21851887 -0.27605614 -0.4071108
000010 c7 8d 80 be 5f 56 1a bf e9 de ef 3c d7 13 2d bf
       -0.25108168 -0.6028804 0.029281097 -0.676084
000020 f1 96 59 be e0 86 e8 bd a1 e6 15 be a0 98 28 be
       -0.21248986 -0.1135385 -0.14638759 -0.16464472
000030 a3 db 8a be a7 a4 25 be 7f 43 f0 be b2 1b 0d bf
       -0.27120695 -0.16176091 -0.46926495 -0.55120385
000040 f3 af 28 be 74 40 27 bf 75 9a c6 bd ba fc cf be
       -0.1647337 -0.6533272 -0.09697429 -0.40622503
000050 8f 38 38 bf 15 11 41 bf de 86 ff bd a1 72 fa be
       -0.719613 -0.7541669 -0.12476896 -0.4891558
000060 71 ab 3a bf c5 d4 ac be 05 29 09 bf 4d d9 2b bd
       -0.7291785 -0.3375608 -0.53578216 -0.04195528
000070 9e 97 da bd 16 c8 1a bf 2a 51 5c bd a0 50 a2 bd
       -0.1067345 -0.60461557 -0.05378834 -0.07925534
000080 fe 60 31 bf 85 12 10 bf d4 2e 90 be 13 32 64 be
       -0.69288623 -0.5627826 -0.28160727 -0.22284727
000090 c9 87 4f be b7 f0 00 bf 42 b8 0a bf b2 77 51 be
       -0.20266642 -0.503673 -0.54187405 -0.20455816
0000a0 85 88 f3 be 86 43 c4 bd 27 f8 44 be 28 61 c1 be
       -0.47565094 -0.095831916 -0.19235288 -0.37769437
0000b0 6d 22 5a be 30 0e 14 be 9f a7 9a 3d ad e6 d5 bd
       -0.21302195 -0.14458537 0.075515024 -0.104443885
0000c0 19 49 b8 be bb 16 4d be 29 7c 83 be 1e 0e b4 be
       -0.3599327 -0.20028202 -0.25680664 -0.3516702
0000d0 e9 26 7b be b5 ee 15 be 83 9c 87 3d 94 fb a5 bd
       -0.24526562 -0.14641841 0.06621649 -0.08104625
0000e0 e0 7c 89 be 48 5d e5 bd b5 98 b2 be f2 95 2d bf
       -0.26853085 -0.111994326 -0.3488213 -0.67806923
0000f0 cd 90 55 be e0 0c c7 be 19 1e ba be 79 24 c6 be
       -0.20856018 -0.3887701 -0.36351088 -0.386997

body.block1.norm.running_mean f4 [64]
000000 38 a9 c8 3d e5 bf 85 bf 80 79 e9 bd 71 03 24 bf
       0.09797901 -1.0449187 -0.114001274 -0.6406775
000010 91 40 69 bf 19 e9 30 bf e7 56 8c bf de 66 7e bf
       -0.91114146 -0.6910568 -1.096402 -0.9937571
000020 d8 06 34 3f 16 5b 3b be 90 5e 09 3f 0a 4e 80 bf
       0.7032294 -0.18296465 0.53659916 -1.0023816
000030 ef 23 03 bf de c4 36 3f a5 b8 b0 bf 7f dd d6 be
       -0.51226705 0.71394145 -1.3806349 -0.41965863
000040 97 32 16 3f b9 8b c4 be ca 8b 36 3f 8b a4 3b bf
       0.58670944 -0.3838785 0.7130705 -0.7329795
000050 ef 3d 5d be 32 fb 72 bf b4 6f 99 bf db a6 97 bf
       -0.21605657 -0.94914544 -1.1987214 -1.1847795
000060 62 2e 44 bf 7a 3c a2 bf 24 51 54 bf 46 98 62 bf
       -0.76633275 -1.2674706 -0.8293631 -0.885136
000070 3c 78 c8 bf fa b4 78 bf 90 d5 86 bf b2 c7 54 bf
       -1.5661693 -0.9715115 -1.0533924 -0.8311721
000080 ac 54 4a bf 9b 22 fc be 29 6b 8b bf d4 38 08 be
       -0.7903545 -0.49245152 -1.0892078 -0.13302928
000090 6c b3 c2 be ff e7 64 bf eb 95 09 be c4 5d dd be
       -0.38027513 -0.894165 -0.13436095 -0.432356
0000a0 5a 63 8c be 4e 71 86 bf 4e 6c 9f bf 84 e3 2e bf
       -0.2741955 -1.0503328 -1.2454927 -0.6831591
0000b0 19 4b a7 be f1 a9 86 3e e6 c8 c2 3f cc 93 22 bf
       -0.32674482 0.2630153 1.5217559 -0.6350677
0000c0 4e 1a 0d bf 56 5b 40 be d2 77 dc bf 0b d9 9c bf
       -0.5511826 -0.18784842 -1.7224066 -1.2253736
0000d0 0b 97 6d 3f ec 44 80 3f 14 10 8d 3f 0f 39 af be
       0.928086 1.0021033 1.1020532 -0.3422322
0000e0 25 1a 7e bf 50 5a c4 3e f1 3e 35 bf 72 db 1c bf
       -0.99258643 0.38350153 -0.70799166 -0.61272347
0000f0 88 00 7a be 16 af 4c bf 47 4f 12 bf af 50 57 be
       -0.24414265 -0.7995466 -0.5715222 -0.21026872

body.block1.norm.running_var f4 [64]
000000 11 ff 14 3f 7a e3 0b 3f 21 29 bb 3e 15 28 94 3e
       0.582017 0.54643977 0.36554816 0.2893683
000010 30 85 4d 3f 34 c0 24 3e b7 81 e3 3e c2 a5 93 3e
       0.80281353 0.16088945 0.44434902 0.288374
000020 e4 76 26 3e 69 91 3d 3f 78 c6 8b 3e 76 7c 81 3f
       0.1625629 0.74050003 0.27299857 1.0116107
000030 84 87 17 3e 22 bc 05 3f 38 69 b5 3e 1c 85 ea 3d
       0.14797789 0.5224019 0.35431838 0.1145117
000040 ed c4 0b 3f 9c a1 ac 3d 81 f5 d8 3e 0a 51 92 3e
       0.5459736 0.08429262 0.42374805 0.28577453
000050 c0 11 8c 3d 56 ef 31 3e eb ec d6 3e df 54 98 3e
       0.06839323 0.17376456 0.4197763 0.29752252
000060 df 40 f6 3d e2 85 cc 3e 1d 24 22 3e 75 54 4b 3f
       0.12024092 0.39945894 0.15834089 0.79425746
000070 16 4a b3 3e d4 c3 1c 3e 98 f8 31 3f ae 92 52 3f
       0.3501746 0.15309078 0.6951995 0.82255065
000080 a8 8a e3 3d a0 d2 d6 3d f1 fe 70 3e ac e5 d0 3e
       0.11110431 0.10489392 0.23534752 0.40800226
000090 d1 81 fc 3d cb d2 33 3e 17 ce 6d 3e 70 32 5d 3e
       0.12329448 0.1756088 0.23223148 0.21601272
0000a0 1e a6 b2 3e 01 d1 8a 3e a4 9e 4f 3e a9 62 cd 3d
       0.34892362 0.27112582 0.2027536 0.100285836
0000b0 1a e8 22 3e 85 92 4d 3e 2d 2e 63 3f 4f b3 ad 3f
       0.15908852 0.20075424 0.88742334 1.3570346
0000c0 86 86 28 3e f7 39 f2 3d c9 71 3d 3f 10 50 8c 3e
       0.16457567 0.11827462 0.7400175 0.27404833
0000d0 2a 29 89 3e 46 7f cc 3e e3 9b a7 3f c7 27 19 3f
       0.26789218 0.39940852 1.3094448 0.5982632
0000e0 11 3d 04 3f 69 2f d4 3e 28 12 43 3e 9e 34 d6 3d
       0.5165568 0.4144242 0.19049895 0.10459255
0000f0 d8 1b 85 3e 17 2d 88 3e 4c a4 3b 3e d0 ac fb 3d
       0.25997806 0.265969 0.18324393 0.12288821

tail.0.weight f4 [12, 64, 3, 3]
000000 d6 41 50 3d e6 f8 9f 3d fc bc 1c 3d b8 92 d3 3c
       0.050844036 0.078111455 0.038266167 0.025826797
000010 6d c6 1d 3d 52 31 22 3d 1e 63 60 bc 07 01 b3 3d
       0.03851931 0.039597817 -0.013695506 0.0874043
000020 21 fa 79 3d 72 98 d8 3d 09 6d a0 bd f0 1d c8 bd
       0.061029557 0.10575952 -0.07833297 -0.09771335
000030 76 6b 80 3c e8 f3 0b be e4 80 67 bd 4e 3b f7 bd
       0.015676241 -0.13667262 -0.056519404 -0.12071858
000040 4b ff 7b 3d 5e e9 bb 3c 2e 9e 0f bd 9e d0 35 bd
       0.061522763 0.022938427 -0.03506296 -0.044388406
000050 32 1f 84 bc 0e c3 a4 3d e0 3b 8a 3c 4f 32 d2 3c
       -0.016128156 0.08045016 0.016874254 0.025658755
000060 92 8e 8d 3b ee 71 e6 3c 78 d3 bc bc 14 f3 90 bd
       0.004319974 0.028130498 -0.023050055 -0.070776135
000070 5d b9 be bd e0 0d b1 bd df ee 8e 3c 03 2a 85 3d
       -0.09312699 -0.086452246 0.017447887 0.06502154
000080 be c8 19 3d 9b 2a e9 bd 8f 5a ae bc 3a 7c cd 3d
       0.03754496 -0.113850795 -0.021283416 0.1003346
000090 44 5e 87 bc f7 7a 28 bd c8 91 4d bd 58 da 21 bd
       -0.016524442 -0.041132893 -0.050187856 -0.03951487
0000a0 16 b6 59 bd 7f bb c4 bd 6c 46 d6 bd b5 e5 bb bd
       -0.053152166 -0.096060745 -0.10462651 -0.091746725
0000b0 72 e6 d4 bd 4e d8 f2 bb 7e f0 5f bc 30 46 48 bc
       -0.103955165 -0.0074110394 -0.013668178 -0.012223765
0000c0 5f 52 0f bd b2 26 8b 3d 54 d2 01 bd d9 1e 15 bb
       -0.034990665 0.0679449 -0.031694725 -0.0022753982
0000d0 dc 8d 16 3b 77 84 aa 3c 7c 40 e9 3d 83 0a 25 3e
       0.0022972738 0.020815117 0.113892525 0.16117291
0000e0 d5 b3 f0 3d ca 39 dd 3d 4e 3a 19 3e ee 57 f7 3d
       0.1175305 0.10802038 0.14963648 0.12077318
0000f0 91 33 0f 3d 11 a4 55 3d 9d 70 13 3b 0a 2f ce bc
       0.034961287 0.05215842 0.0022497543 -0.025168914
000100 18 ee e6 bc 06 63 74 bb d7 c8 07 3e 2b 9a 7c bd
       -0.028189704 -0.0037290468 0.13260208 -0.061670464
000110 d3 a9 12 3e 87 c9 3d 3e e8 72 65 be a2 3d 0c 3c
       0.14322595 0.18533908 -0.22407115 0.008559616
000120 d9 05 f7 bc c5 8f 0f bd b1 91 06 3d d4 0b 6d 3d
       -0.030154156 -0.03504922 0.032853786 0.05787261
000130 53 da 50 3d 64 14 9c 3d f5 e2 2d 3d d5 4f 28 bd
       0.05098946 0.07621077 0.04245277 -0.04109176
000140 8c 9b 38 bc 0f 45 22 bd b9 db 99 bc 2a a5 2c bc
       -0.011267554 -0.03961664 -0.01878153 -0.010537425
000150 b5 a1 99 ba 9e e4 fd bc a7 01 25 bd be 71 62 bb
       -0.0011721166 -0.030992802 -0.04028478 -0.003455266
000160 47 e7 3b bd 25 2a 07 bd c7 98 c4 3d 0d a3 7f 3c
       -0.04587486 -0.032999177 0.095994525 0.015602839
000170 66 67 82 3c b0 cd c8 3b ca fb 98 bd 82 f3 18 bd
       0.015918445 0.0061280355 -0.074699 -0.037341602
000180 85 ea f5 bc 36 a8 1b bd 74 54 32 bd a3 fe 58 bd
       -0.030019054 -0.038002215 -0.043537572 -0.052977215
000190 ce 8c 67 3d b2 cf fc bc a3 24 23 bc bd 3a 0f 3d
       0.056530766 -0.030860756 -0.009957465 0.034968127
0001a0 22 d9 0b bb f8 93 cb bc 4f c2 1e 3b 50 8b f4 bc
       -0.0021339138 -0.02485083 0.0024224704 -0.029851586
0001b0 65 a9 d7 3c fe 84 4b bd e1 23 b2 bb 6b 6f 18 3e
       0.02632589 -0.049687378 -0.005436406 0.14886253
0001c0 5c 56 f2 bd 5e e6 b4 3d 49 b4 2c 3e a8 25 a9 bd
       -0.11832878 0.088330016 0.16865648 -0.082591355
0001d0 c3 27 03 be ff b4 a4 bd 70 da ee bd 02 f6 03 bd
       -0.12808137 -0.08042335 -0.116627574 -0.032217033
0001e0 c0 33 0c bd 51 7e e4 bd a1 d0 b9 bd 2a f7 82 3c
       -0.03422904 -0.111569054 -0.09072996 0.015986998
0001f0 4e ac 8a bc 55 66 f3 3c 38 d4 94 bd 9a 37 04 be
       -0.016927864 0.029711882 -0.0726704 -0.12911835
000200 2c 3b 92 bb 45 11 a9 3d 81 7a 6a 3d 1e ff 86 3d
       -0.0044626202 0.08255247 0.057245735 0.065916285
000210 9e 63 98 3d b1 0d 8d 3d 72 c9 21 bd 4a 76 9a 3b
       0.074408755 0.06887377 -0.039498754 0.004713808
000220 31 b5 06 3d 9e da d4 bc bc 52 82 3c 7d 95 19 3d
       0.03288764 -0.025983151 0.015908591 0.03749608
000230 6d 46 a7 bd f0 8a 5e bd 46 91 0b 3e 08 e6 38 bd
       -0.081677295 -0.05433172 0.13629636 -0.04514125
000240 e9 16 0e 3d 8a b2 2f bd f2 63 54 bc f8 97 54 3c
       0.034689818 -0.042894877 -0.012963282 0.012975685
000250 90 35 7b bc 23 f1 b5 bd e7 69 8e bc 9b 8d 45 bc
       -0.0153325945 -0.08883884 -0.017384483 -0.012057687
000260 2a a2 82 bd b0 36 e1 3c 58 2c 0d bd 07 81 ef 3c
       -0.063785866 0.027491897 -0.034466118 0.02923633
000270 c8 33 de 3c 0a 55 0e bd b5 e7 0a 3d 86 5c 94 3d
       0.0271243 -0.03474907 0.03391238 0.0724421
000280 76 60 bc 3c 3e e6 08 bc 61 50 00 3b 0d 3d 92 3d
       0.022995215 -0.008355675 0.001957916 0.07140551
000290 fe 4d 09 3d 3c 9a 81 bc bd 12 43 3c 5c 20 9b bc
       0.033521645 -0.015820615 0.011906323 -0.018936329
0002a0 38 38 4d 3c 44 60 11 bd 2b 4e 50 bc d3 93 27 3d
       0.012525611 -0.035492197 -0.012713949 0.04091246
0002b0 46 54 85 bd 6a bf 87 bb c6 21 a8 bd 88 f3 0d 3e
       -0.065102145 -0.0041426914 -0.08209567 0.13862431
0002c0 7b 25 0d be 76 90 3e be 00 9e 84 3e 1e d7 9f 3c
       -0.13783829 -0.18609795 0.25901794 0.019511756
0002d0 6c b5 9e bc bb 59 9b 3d 8f e3 ed bb db 33 ad bc
       -0.019373618 0.07585474 -0.007259793 -0.02114289
0002e0 1c 05 37 3d 20 98 0f bd d0 a3 f6 3c f8 28 ba bd
       0.044682607 -0.035057187 0.030107409 -0.090898454
0002f0 43 2d 20 3d 7e 84 87 3c ce 3d 99 bd 66 39 80 3c
       0.039105665 0.01654267 -0.074824914 0.01565237
000300 dc 75 70 3d a8 52 8b 3d ea c0 09 bd 00 46 50 3e
       0.05870615 0.06802875 -0.033631243 0.20339203
000310 e5 25 5c 3c 36 7a c9 bd 96 a1 c8 bd 1e 98 62 bd
       0.013436769 -0.09837763 -0.09796445 -0.05532085
000320 a1 a8 ad bd ae f5 81 bd bb bc 40 bd 7e 55 65 bd
       -0.08479429 -0.06345688 -0.047054987 -0.055989735
000330 eb 19 32 bd c9 31 84 bc 0a 1c 99 bc 4f 6d b5 3d
       -0.04348175 -0.01613702 -0.018690128 0.088587396
000340 f5 c8 2d 3e 89 d0 2f bc 72 87 00 3c dd cd 1f 3d
       0.1697119 -0.010730871 0.007844793 0.039014686
000350 05 9b 8a bd f1 fc 65 bd b7 18 d7 bd ce 66 7b 3d
       -0.06767849 -0.056149427 -0.10502761 0.06137734
000360 a2 06 0c 3c a0 76 39 be f6 18 b7 3b 48 b9 0e be
       0.008546503 -0.18111658 0.0055876924 -0.13937867
000370 ae 4e 4a 3e 27 b4 02 be 07 0c 64 be 8b bd e9 3e
       0.19756576 -0.12764035 -0.22270213 0.45652422
000380 d9 0c dc bc e5 15 14 bb 42 ae 82 3d 9b 4f f1 3b
       -0.026861595 -0.0022596058 0.06380893 0.007364226
000390 87 f4 f9 bd 5f 80 f6 bd c5 4f 0b 3d 61 75 2d be
       -0.12204843 -0.120362036 0.03401162 -0.16939308
0003a0 d4 39 47 be 77 9c ca bd 2c 52 6f 3b 31 d9 1e 3c
       -0.19455653 -0.098931246 0.0036517484 0.009695337
0003b0 2a d3 09 3a 09 95 aa 3d a5 7f e8 3d 9a d8 17 3d
       0.0005257601 0.083292075 0.11352471 0.0370718
0003c0 38 de 9f 3c 49 34 f0 bc 7b 61 58 be 55 06 0b bd
       0.019515142 -0.029321807 -0.21130936 -0.033941586
0003d0 1c 10 47 bc 85 16 df 3c a1 38 40 3c 10 11 20 3d
       -0.012149837 0.027232418 0.011732251 0.039078772
0003e0 94 1f fc b9 86 01 ca bc 88 6e 12 bc 13 c8 57 bd
       -0.00048088713 -0.02465893 -0.0089374855 -0.05268104
0003f0 c5 06 85 3c aa 02 5b 3d 64 e7 4e 3d c4 0a 0e 3e
       0.01623858 0.053469338 0.05051364 0.13871294

tail.0.bias f4 [12]
000000 2a a3 a0 bb 05 bc 9d 3d 3a 54 97 3b 47 39 90 3d
       -0.004902263 0.077018775 0.004618195 0.07042175
000010 e3 40 1a 3d e6 9a 47 bc 98 95 c3 bc 59 cc 4c 3d
       0.037659537 -0.012182927 -0.023875043 0.04999957
000020 7a 32 de bc 44 5f 27 3d 09 7e 58 3d a8 55 56 3c
       -0.027123678 0.040862337 0.05285457 0.0130819455
