3layer_4000its/files/3/D.pth (torch, 184073 bytes, 13 tensors)

head.conv.weight f4 [64, 12, 3, 3]
000000 51 ff 2b bc d7 6f a5 3c 67 f2 bc 3d 1f 5f 5b 3c
       -0.010497884 0.020194931 0.09225922 0.013389378
000010 67 92 45 bc cb 6d 8b bc 98 49 24 3d e7 50 98 bd
       -0.012058831 -0.017020127 0.040109247 -0.07437306
000020 27 c6 97 3d 67 96 34 3d 5a cb 4f bd 51 a5 d9 3b
       0.074108414 0.044088747 -0.05073104 0.0066420217
000030 26 69 36 bd 84 80 d0 bc a2 01 8d bd 1c 87 6c bc
       -0.04453387 -0.025451906 -0.06885077 -0.014436509
000040 ba 89 b9 3d e3 db 98 3d c3 77 26 3d ae 97 e7 3b
       0.090594724 0.07463815 0.040641557 0.007067642
000050 be 15 91 bc 21 a8 1a 3d c1 98 6f 3b 9b 9c 13 3d
       -0.017710563 0.037757996 0.0036559554 0.036038022
000060 ff 53 3f bd 1f 6e cf 3c a2 fe 49 bc 24 0c 8b bc
       -0.046710964 0.025321065 -0.012328776 -0.016973563
000070 f3 91 07 3d b8 44 bb 3c 1a 91 b1 bb 4a b9 82 ba
       0.033098172 0.022859916 -0.005418909 -0.0009973433
000080 72 93 cf bb eb bb 26 3c 17 71 48 3b 7e 28 75 bd
       -0.0063347155 0.010176639 0.0030584985 -0.05985307
000090 03 d9 5c bc 10 97 bc 3c 03 b8 06 3c cb 1d 59 bb
       -0.013479474 0.023021251 0.008222583 -0.003312933
0000a0 82 fa c0 3b 5c 35 3a 3d d7 4e ef 3c fa 29 a9 bc
       0.005889238 0.045461044 0.029212398 -0.020649899
0000b0 0e f6 d2 bd 6c ef 4e 3c e9 ef e2 3b d1 ba de 3c
       -0.103008375 0.012630325 0.006925572 0.02718869
0000c0 29 2f 26 bb 98 0a 52 3c 91 e2 0e 3c e7 bf 76 3b
       -0.00253577 0.012819909 0.00872101 0.0037651004
0000d0 08 d6 34 bc d2 2e 98 3c 0e 18 92 bb 20 45 f2 37
       -0.011037357 0.018577013 -0.004458434 2.8880837e-05
0000e0 f9 df b8 bd e4 70 44 bc ed 22 36 3c d2 c7 22 3c
       -0.090270944 -0.011989806 0.011116725 0.009935336
0000f0 79 b0 e4 3c 84 96 ec bc 83 d2 c0 3d 57 e1 0c 3c
       0.02791618 -0.028880365 0.09415152 0.008598647
000100 b9 eb 66 bb 85 c5 27 3d 3f 03 cd bc 21 67 8b 3c
       -0.0035235716 0.040959854 -0.025025962 0.01701695
000110 3b 01 a0 3a f8 09 53 3b 33 16 da 3c 2d 97 33 bd
       0.0012207398 0.0032201987 0.026621914 -0.043845344
000120 5f 34 80 bd 9e 22 54 bd 99 e2 ad bd 7a 96 4b bd
       -0.06259989 -0.051790826 -0.08490486 -0.049704053
000130 30 6f 00 bd 35 ce a4 bd 0d 50 b5 bb 8e fa 06 3c
       -0.031356037 -0.08047143 -0.0055332244 0.008238448
000140 fd 4a f0 3c 91 e9 d0 3b 7d df 32 3c 39 5c 4f 3c
       0.029332632 0.0063754995 0.010917542 0.012656265
000150 aa 82 43 3d 6b be 67 3c c9 18 f2 3c 81 1c 9d bd
       0.047732033 0.01414452 0.029552834 -0.07671452
000160 1a a7 6e bd 8d e8 05 3d f3 5d 0b 3b 27 2d ba bb
       -0.05826483 0.03269248 0.0021265715 -0.005681652
000170 bc 2a ce 3b f2 8e 54 3c f1 ae 58 3c 88 27 a9 3c
       0.0062917154 0.012973534 0.013225303 0.020648733
000180 9f 43 1c 3c 5f 4b 9f bb 2d 72 49 bc 15 d9 3a bc
       0.0095376065 -0.00486128 -0.012295288 -0.011404295
000190 9e c8 af 3b 38 cb a5 3c 29 10 42 bc 96 e9 2d 3d
       0.0053644916 0.020238504 -0.011844673 0.042459093
0001a0 74 7d 12 3d ea 74 b5 3d 33 bf 4e 3d 4c 81 1c be
       0.035764173 0.0886019 0.05047531 -0.15283698
0001b0 d6 62 9e 3c b9 b8 fc bc cd 61 7e bc 77 77 1f bd
       0.019334238 -0.030849801 -0.015526247 -0.03893229
0001c0 8e 63 d2 3a a6 05 d6 3c f8 bd f9 bc 3f 95 58 3d
       0.0016051398 0.02612574 -0.030486092 0.052876707
0001d0 ec e8 38 bd 2b 3a ef 3c 00 e6 45 bc 1c cc ec bc
       -0.045144007 0.029202541 -0.012078762 -0.02890592
0001e0 d4 ba fb 3b 11 ca e9 3b dc 7d d3 bd 73 7a 09 bd
       0.0076821838 0.007134684 -0.1032674 -0.033564042
0001f0 25 da 85 bd a2 43 20 3e 6e d1 f2 bc 75 59 7f 3c
       -0.065357484 0.156508 -0.02964088 0.015585293
000200 4d 31 51 bd fb 7a 1f bd 91 8d d3 3a f3 3d d6 3c
       -0.051072408 -0.038935643 0.0016140213 0.026152587
000210 0a 5e 93 3d 7a 42 b3 bd ca ca 49 3d 1a c0 63 3b
       0.07195671 -0.08752914 0.04926566 0.0034751953
000220 03 98 0e bc 0a 33 a7 3c ca a4 bc bc 1b a1 cf 3a
       -0.008703235 0.02041008 -0.023027796 0.001584086
000230 7d 61 7e 3c 1e 8c 94 bc a8 41 2a 3c b7 9c 6e bc
       0.015526173 -0.01813322 0.01039163 -0.014563731
000240 a5 4c 2c bc b5 15 ba 3c a2 74 be 3c 87 e3 9f bc
       -0.01051632 0.022715429 0.023248974 -0.019517673
000250 09 6c ca 3b 89 31 d6 3c 62 70 7c 3c 4e e0 0a 3d
       0.0061774296 0.026146667 0.0154076535 0.03390532
000260 e6 5c 93 3d 6b fe 91 bb b2 6a f3 bb 5d 9d 08 3b
       0.07195453 -0.004455378 -0.0074284906 0.002084575
000270 55 8a 01 bd ee 6f c9 ba f7 50 a1 ba 7b 8e 95 bc
       -0.031626064 -0.0015368441 -0.0012307455 -0.018256417
000280 9d 7c 85 bc f3 f5 d9 bc e7 a1 18 bd f3 24 00 3d
       -0.016294772 -0.026606536 -0.037263777 0.031285238
000290 67 52 51 3d 24 15 2a 3d 2e 6a d3 3a 15 47 d6 3c
       0.051103976 0.041524068 0.0016129666 0.026156941
0002a0 de 32 cd bc 1d 6e 9f bb 3c 1c 6a bd 69 b0 2b bb
       -0.02504867 -0.0048654214 -0.057155833 -0.0026197678
0002b0 a7 a0 78 bc 23 05 35 3c 91 81 4e bc 50 db bf 3b
       -0.015175021 0.011048588 -0.012604133 0.0058550015
0002c0 37 96 fd 3b a6 73 10 bc b8 37 8d bc 92 f3 9c 3b
       0.0077388543 -0.008816635 -0.017238483 0.004789778
0002d0 b2 2b bd 3c 4b 61 a7 3c eb 92 79 3c 3c 6a d2 3c
       0.023092125 0.020432135 0.015232782 0.025685422
0002e0 6a 08 05 3d 6d 58 93 3b 3f a6 23 bc 95 79 16 3d
       0.032478727 0.004496625 -0.009988367 0.036737043
0002f0 19 42 d1 bc 35 c4 99 bc bb 40 db 3b 87 21 c5 ba
       -0.025544213 -0.018770317 0.006691066 -0.0015039899
000300 74 60 34 3d ca 80 48 bc a6 dc da 3b f5 82 91 3c
       0.044037297 -0.012237737 0.0066791354 0.01776264
000310 60 66 15 3d 56 46 11 bd c5 49 35 bb 76 38 3c bb
       0.036474586 -0.03546747 -0.0027662378 -0.0028720177
000320 4b a0 41 3b 17 95 86 3c ba 1b 41 bc 40 6d d5 b8
       0.0029545005 0.016428513 -0.011786396 -0.00010176981
000330 09 fa 3d 3c 88 af 60 bc 47 0c e1 3a c5 2b d7 3c
       0.011595258 -0.013713725 0.0017169797 0.026265988
000340 0b a5 aa 3b e3 af 05 bd 92 9d 05 3d 35 8c b3 39
       0.005207663 -0.03263844 0.032620974 0.00034246003
000350 2e 6c 86 bd 9c 76 42 3d 60 7c ad 3c 05 b3 c0 bd
       -0.065636024 0.047476396 0.02117747 -0.09409145
000360 9c f0 36 3b f6 98 bb bd df 23 2f bc f1 e9 c0 3c
       0.002791441 -0.09160034 -0.010689705 0.023549052
000370 5e d9 a7 bc f6 88 04 bc c9 b4 97 3d 40 bd c2 3c
       -0.020489391 -0.008089295 0.07407529 0.023771882
000380 60 46 59 bb 29 fb 1d 3b f9 2e 54 3d cc 7f 28 3d
       -0.003315352 0.0024106002 0.05180261 0.0411375
000390 9c 21 3e bd 67 74 1e 3d aa ff 57 3c 18 e5 2a bd
       -0.04641877 0.03868523 0.013183514 -0.041722387
0003a0 a0 16 e4 bb ee 9d 58 bb fb 49 36 3b a3 50 c5 bd
       -0.006960705 -0.0033053118 0.0027815092 -0.09634521
0003b0 81 6a 2f bc 55 f5 99 3c 95 ba a7 bc 83 a2 52 bc
       -0.010706545 0.018793741 -0.020474711 -0.012856129
0003c0 69 fe 8d 3d 64 e3 9b 3c 12 11 04 bc da db f6 3b
       0.069332905 0.019029327 -0.0080607105 0.0075335326
0003d0 de 4d 1a bc ca 0c c3 bb 91 28 da 3b 63 92 80 bc
       -0.009417979 -0.0059524523 0.006657668 -0.015694803
0003e0 93 8a 01 bc cc a6 13 3c 7c 0f a2 3c 33 35 59 bb
       -0.007906574 0.009011935 0.019782774 -0.0033143281
0003f0 04 1d f2 3b f2 b2 9f bc 7c ae 2e bc 0d fd 13 3c
       0.007388713 -0.019494507 -0.0106617175 0.0090325

head.conv.bias f4 [64]
000000 ba 4d b0 3d fe 21 b5 bd e8 82 ba 3d 9a 82 86 bc
       0.08608575 -0.08844374 0.09107 -0.016419698
000010 27 ee a1 bd 80 b8 0a 3d 91 bd c4 bd 55 40 a2 bd
       -0.07906752 0.03386736 -0.096064694 -0.079224266
000020 7a 0b 99 bc cf dc c8 ba 8c f8 3d 3c 48 51 e4 3b
       -0.01868223 -0.0015324595 0.011594903 0.0069676973
000030 44 27 7d bd dd 0b 3b 3d f9 76 9f 3c c4 3a e1 bd
       -0.061805025 0.04566561 0.01946591 -0.10997537
000040 fb 82 a2 bc 90 26 79 3c 8a dc be 3c 60 60 22 bc
       -0.019837847 0.015206948 0.02329852 -0.009910673
000050 56 79 a7 3d a6 09 c3 3c 59 f2 5f bb 0d f9 25 3e
       0.0817744 0.023808312 -0.003417155 0.16208287
000060 06 ec 15 bd 07 a7 02 bc 45 4e 36 bd 17 ae b7 3c
       -0.036602043 -0.007974393 -0.044508237 0.02242188
000070 84 c4 c7 bd b8 a9 fb bc f8 74 ce bd b7 44 65 bc
       -0.09754279 -0.030720577 -0.10080904 -0.013993434
000080 93 14 bd 3d fd cb cd bd 73 da 25 3d 83 8d 35 bc
       0.0923244 -0.10048673 0.040491533 -0.011081102
000090 c7 97 58 bd c5 d8 86 3d 00 e5 1d bd 87 0d ca 3d
       -0.05287912 0.06584314 -0.03854847 0.098658614
0000a0 02 f4 a4 bd 0b 4b 1b 3c 6d 2c 86 3d 61 70 8b 3d
       -0.08054353 0.009478341 0.06551442 0.06808544
0000b0 8c ac af bc 14 14 07 be 98 8f 0f 3d 49 10 3c 3d
       -0.021444581 -0.13191253 0.03504905 0.04591397
0000c0 e0 cc 6a bd 1c 27 18 3d d4 39 09 bd 74 3c e9 bd
       -0.05732429 0.037146673 -0.033502415 -0.11388484
0000d0 7c f0 5c 3d 9b c7 be 3d 81 93 50 3a 39 e7 b0 bd
       0.05394028 0.093154155 0.000795655 -0.08637852
0000e0 4d 3c d1 bd ee c7 96 3d b0 d3 73 3c 33 70 2b 3c
       -0.102165796 0.07362352 0.014882013 0.010463762
0000f0 75 18 10 3c 3e 0f bb 3c d3 f0 6b 3d 23 3b 6d 3d
       0.0087948935 0.022834416 0.057602715 0.057917725

head.norm.weight f4 [64]
000000 01 e0 79 3f d9 20 66 3f c9 34 6c 3f 2e ad 81 3f
       0.9760743 0.8989387 0.92268044 1.0130975
000010 3a 00 71 3f 59 37 82 3f 9d 90 80 3f d9 9e 7c 3f
       0.9414097 1.0173141 1.0044132 0.9867988
000020 1f 9b 85 3f 22 83 67 3f 07 6a 83 3f e3 ab 5a 3f
       1.0437964 0.9043447 1.0266732 0.8541853
000030 8f fa 82 3f aa f1 86 3f d0 84 81 3f 09 63 86 3f
       1.0232714 1.05425 1.0118656 1.0498973
000040 3b 3a 6e 3f da fe 83 3f c4 89 6b 3f 7b 48 6e 3f
       0.930576 1.031215 0.9200709 0.93079346
000050 02 df 74 3f e3 77 87 3f 45 d7 82 3f ef d7 6a 3f
       0.9565278 1.0583462 1.0221945 0.9173574
000060 6f 54 85 3f 89 fe 70 3f 6b d2 80 3f 75 05 81 3f
       1.0416392 0.9413839 1.0064214 1.007979
000070 ae ac 69 3f c0 63 82 3f 87 ba 80 3f cc cd 62 3f
       0.91279113 1.0186691 1.0056924 0.8859527
000080 19 cf 79 3f 44 d5 83 3f 03 bf 81 3f 0c 53 72 3f
       0.9758163 1.0299459 1.0136417 0.9465797
000090 89 ae 87 3f bd 07 73 3f 95 ca 5c 3f b4 1f 76 3f
       1.0600139 0.9493368 0.86246616 0.96142125
0000a0 ea 44 81 3f 71 46 7d 3f 83 52 84 3f ae 0d 7f 3f
       1.0099156 0.9893561 1.033768 0.9963025
0000b0 35 38 82 3f 5b 66 79 3f ec 25 8c 3f a4 f6 5f 3f
       1.0173403 0.9742181 1.0949073 0.8748572
0000c0 73 c8 78 3f 43 2f 86 3f 7d 6d 68 3f 3a 50 83 3f
       0.9718086 1.0483173 0.90792066 1.0258858
0000d0 fb 1c 57 3f 36 f4 81 3f b5 03 83 3f 6c 3d 5f 3f
       0.84028596 1.0152652 1.0235506 0.872031
0000e0 9f 6f 57 3f f4 50 84 3f d5 89 75 3f b7 45 87 3f
       0.84154695 1.0337205 0.9591344 1.056815
0000f0 19 e3 47 3f 6a 5e 7c 3f 7c bf 6f 3f 12 d0 7f 3f
       0.780809 0.98581564 0.93651557 0.99926865

head.norm.bias f4 [64]
000000 6d 86 2b be d7 61 12 3d ff 96 8c be b6 56 dc 3d
       -0.16750498 0.03573784 -0.2745895 0.10758726
000010 49 4e a6 3d 8a c5 df 3d 62 ed 4c 3d 9a 67 91 bd
       0.081204005 0.109263495 0.050031073 -0.070998386
000020 76 3d 07 be de fe 76 bd 27 02 f8 bd f5 3d bc 3e
       -0.13207039 -0.060301654 -0.121097855 0.3676602
000030 88 fb 4a be ac 0b 2c 3e c5 f4 78 be c9 89 d9 3c
       -0.19822514 0.16801327 -0.24312122 0.026554959
000040 34 a5 3a 3e 39 0c cc bc b8 06 7a 3e 4a 57 45 3e
       0.18227082 -0.024908172 0.24416625 0.1927158
000050 2d b4 b8 3e 84 69 bf bd 01 aa 90 3c 13 00 1e 3e
       0.36074963 -0.093462974 0.01765919 0.15429716
000060 9a f5 37 be 33 4a 22 bd 21 43 71 3d 68 ba 00 be
       -0.17964783 -0.039621543 0.05890191 -0.12571108
000070 27 a7 fd bd 90 4f f4 3c 9a f4 6a 3e 05 8c c9 3e
       -0.123853974 0.029823095 0.2294487 0.3936464
000080 49 70 51 3e cd 5c 61 3e 96 c4 ad 3e cd 53 f9 3d
       0.2045299 0.22008057 0.33939046 0.12174187
000090 6e db a8 3d 56 b9 0d 3d eb f1 34 3e 85 a6 91 3e
       0.08244978 0.03460058 0.1767041 0.28447357
0000a0 a1 9b 41 3e fc 11 c1 3d d5 13 90 bd 45 12 46 3e
       0.18907024 0.09427258 -0.07035033 0.19342907
0000b0 1f 29 36 3e 91 de e6 3d 0c 9c 0c 3e 4d 84 11 3d
       0.17789124 0.1127292 0.13731402 0.035526562
0000c0 95 8e 5d 3e a9 2f 90 bd 2b 72 0f 3e 3d e1 e3 bd
       0.21636422 -0.070403405 0.14008395 -0.11126945
0000d0 fa 65 ac 3e 98 c5 b5 3e fc 80 9d 3c ef a7 e0 3e
       0.33671552 0.35502315 0.019226544 0.43878123
0000e0 65 f2 47 3e df 1e 45 3d 73 f8 17 be f3 53 7c 3d
       0.1952606 0.048125144 -0.1484087 0.061603498
0000f0 5f 64 1a 3e 8c a9 e4 3d f0 78 fd 3e 4e 63 04 3e
       0.15077351 0.11165151 0.4950633 0.12928507

head.norm.running_mean f4 [64]
000000 54 16 ee 3d 7a 69 f6 bd e2 63 55 3c 64 c4 f1 3b
       0.116253525 -0.12031837 0.013024302 0.007378148
000010 4e 23 23 3e a3 a6 80 3d 4c 3b 72 be 49 2c 58 bd
       0.15931436 0.062817834 -0.23655432 -0.05277661
000020 84 4e 9d bd a0 e3 6f be ce 86 67 bd 93 38 a3 be
       -0.07680991 -0.23426676 -0.056525044 -0.318791
000030 06 33 f1 bc 78 b0 08 3e 89 cf df bd 4b 98 27 be
       -0.029443275 0.13348567 -0.10928256 -0.16366689
000040 1a 37 5e be 27 2c dd 3d 0b c5 5a 3d 2d 54 04 3d
       -0.21700707 0.10799437 0.05341057 0.03230684
000050 73 bb 94 3e 28 50 26 be 7a 03 ac 3d 90 b8 6a 3e
       0.29049262 -0.16241515 0.083991006 0.22921968
000060 26 c3 0c bd dc 64 bc bd b3 4a 5e bd 7e d8 e7 3c
       -0.034365796 -0.09198925 -0.054270457 0.028301474
000070 cd 72 c1 3d 3c 09 94 3d 18 4b a1 bd 0d 90 8c bd
       0.09445725 0.07228324 -0.07875651 -0.06863413
000080 ba a9 47 3f 3c 02 ea be 30 78 3e 3e 8e 22 e0 bb
       0.7799336 -0.4570483 0.18600535 -0.0068400567
000090 7e 02 88 3d e2 09 32 3e f6 88 91 bd e3 b9 42 3e
       0.066411 0.17386582 -0.07106201 0.19016223
0000a0 a8 26 d8 3d 05 b6 be 3d 95 f3 e5 3e 08 87 b1 3e
       0.10554248 0.09312061 0.449124 0.34673333
0000b0 34 03 ae 3d 03 78 9c 3d a6 e8 03 3e 6d 0e 04 be
       0.08496705 0.07640078 0.12881717 -0.12896128
0000c0 25 d3 28 3d d3 1a 2f bd 24 47 a5 be 90 eb a9 be
       0.041216988 -0.04275019 -0.32280838 -0.33187532
0000d0 91 d6 86 3e e9 f5 67 3e 23 fe 7f be ab 88 1e be
       0.26335576 0.22652401 -0.24999289 -0.15481822
0000e0 e6 0f ec be 65 7e 32 3e 10 aa 3c bd 09 66 af 3e
       -0.4610588 0.17431028 -0.04606062 0.34257534
0000f0 96 31 87 3d 47 9b b8 3d 52 7c 92 3e e6 30 a2 3d
       0.06601255 0.09013992 0.28610474 0.07919483

head.norm.running_var f4 [64]
000000 cd 80 bf 3b 06 a4 01 3b 45 56 56 3b cd c4 1b 3c
       0.0058442117 0.0019781603 0.003270523 0.00950737
000010 37 d1 b0 3b 26 b4 29 3b 43 1c 88 3b 70 48 1f 3b
       0.005396034 0.002589473 0.0041537597 0.002430465
000020 4d d1 ef 3b 4e 10 15 3c ae 55 36 3b 59 7a 5d 3b
       0.007318652 0.009098126 0.0027822065 0.0033794849
000030 3c 23 65 3c 0c 96 71 3b 3b f8 d9 3b c6 d9 6f 3b
       0.013985451 0.0036863117 0.006651906 0.003659831
000040 22 d2 42 3b 22 4c 5f 3b 4c b6 f8 3b 0c 4e 06 3b
       0.00297273 0.0034072478 0.007590091 0.0020493297
000050 81 3b 19 3c 0a be ad 3c bf 9e 3e 3b 48 6b 70 3b
       0.009352566 0.021208782 0.002908632 0.0036685038
000060 69 24 0d 3b 6f aa a9 3b 9b c2 26 3c 23 44 9f 3b
       0.0021536595 0.005177788 0.0101782335 0.0048604175
000070 9d 30 8e 3b ca 08 93 3b d8 92 b4 3b a0 38 93 3c
       0.0043392912 0.0044871317 0.005510669 0.017971337
000080 01 b2 38 3c e6 a3 94 3c 1b 19 9b 3b 07 0b 00 3b
       0.011272908 0.01814456 0.0047332174 0.0019537823
000090 ff 86 73 3c d9 4d 10 3c e5 a6 8c 3b a4 29 d7 3b
       0.014863729 0.008807623 0.0042923563 0.0065662432
0000a0 a0 ae 1a 3c 3b cf f0 3b 15 8e 62 3c 1b 47 ee 3b
       0.009441048 0.0073489225 0.01382782 0.00727166
0000b0 4b ba a0 3b 30 8e 2b 3c dd 97 c0 3b 9d dc c1 3a
       0.0049050204 0.010470912 0.0058774785 0.0014790479
0000c0 e2 38 33 3b 3c 2a 39 3b a1 41 95 3b 63 a0 cb 3b
       0.0027347137 0.0028253933 0.0045549427 0.006214188
0000d0 b2 a8 84 3b 85 b5 9e 3b 9a c7 a3 3c 71 70 4a 3b
       0.0040484304 0.004843416 0.019992638 0.0030889774
0000e0 9a 16 12 3b ae 6f 0d 3c cc ad 71 3b bd aa 0b 3c
       0.0022291304 0.008632584 0.0036877273 0.008524594
0000f0 3f 23 7a 3b c9 89 78 3b 47 a2 66 3b fb 0f c5 3b
       0.003816798 0.0037923923 0.003519194 0.006013868

body.block1.conv.weight f4 [64, 64, 3, 3]
000000 37 c1 30 bd ed c6 04 bd 20 fb 5d 3c 78 d2 14 bd
       -0.043153014 -0.032416273 0.013548642 -0.03633353
000010 88 6e 09 bd 66 8e 00 bd f4 67 93 bb 0e aa 3d bc
       -0.033552676 -0.0313858 -0.004498476 -0.011576189
000020 6b 19 10 3d d6 fd 14 bc ca 7c 7c bb 09 73 9d bc
       0.03518049 -0.009093722 -0.0038526529 -0.019219892
000030 57 47 00 3c 5a 99 95 bc 9b 5e 12 3a 49 88 24 bc
       0.007829509 -0.0182616 0.00055835553 -0.010042259
000040 f3 13 15 bd 64 ca 44 3c 60 5f 1e 3d ba 5f 0f 3d
       -0.03639598 0.012011144 0.038665175 0.0350034
000050 d8 85 79 3c f4 be 7a bd 1f 3a a3 bc ab 90 1d 3d
       0.015229665 -0.061217263 -0.019925175 0.038468044
000060 c2 df 38 bb c8 06 04 3c a6 62 e0 bb e6 bf 84 bc
       -0.0028209542 0.008058257 -0.0068476973 -0.016204786
000070 27 12 93 bc 3f 34 8b 3b ed 4f e3 bb 96 70 d0 3b
       -0.017952992 0.0042481716 -0.006937018 0.0063610775
000080 ad 1a 0d bc e5 f8 e3 3b 16 46 99 bd b6 b7 25 bd
       -0.008612317 0.006957161 -0.07484071 -0.040458404
000090 a4 c6 59 3d 76 ab 92 3a b1 06 89 3c 8c 4f 9f 3d
       0.053167954 0.0011190015 0.016726824 0.07778844
0000a0 a5 4b 82 3d 8d 45 d3 3d 43 bb 02 bd 33 fe 02 bc
       0.06362084 0.10316 -0.031916868 -0.007995176
0000b0 7b fe 02 3c 2c 95 7c 3c 2d 5a 11 36 a3 52 f0 3c
       0.007995243 0.015416425 2.1659173e-06 0.02933628
0000c0 8b 3f 8a bc d0 cd 2a bd 89 7d a5 bd 46 55 3a bc
       -0.016876003 -0.041700184 -0.080805846 -0.01137287
0000d0 da 02 a0 bc 67 d0 f5 bc 26 44 46 3d ff 5f aa 3d
       -0.01953261 -0.0300066 0.048404835 0.08319091
0000e0 79 ea 95 3d a3 de 23 3c d3 93 ea 3b 81 e4 6f bb
       0.07320113 0.010001811 0.0071587353 -0.0036604705
0000f0 d9 04 e5 bc 3b d4 c7 3c ea 85 8c 3d 2c 56 e0 3b
       -0.027956413 0.024393192 0.068614796 0.00684621
000100 09 13 f2 3c 6e 67 7c bb 35 56 ee bb 6a 52 60 3d
       0.029550092 -0.0038513797 -0.0072734603 0.054766096
000110 fd b0 cc bc 80 82 23 bd 77 d7 ba bd d4 62 c5 bc
       -0.024986738 -0.039919376 -0.09123128 -0.024094976
000120 7b e4 65 3c 74 82 18 3c 68 1a 36 3c 06 1e be bc
       0.014031525 0.009308446 0.011114694 -0.023207676
000130 94 94 8a bd 39 25 b0 bd 4d 6f 15 3e c0 fd d9 3c
       -0.0676662 -0.0860085 0.14593239 0.026610255
000140 79 f1 d3 3d 98 db 31 3d ce 35 1a bd 52 33 af 3c
       0.10348792 0.04342231 -0.03764897 0.021386776
000150 7b 9a 73 bc ca 9b 4b bb 6d a0 af b9 4a 17 5b 3d
       -0.014868374 -0.00310682 -0.00033498128 0.053489007
000160 d2 e9 4e bc 1d 0c 4e 3c 65 74 1b 3c 28 f0 b9 bb
       -0.012628989 0.01257613 0.0094882 -0.005674381
000170 4f cd 1c 3d 71 76 fc bc ce f7 27 bd f9 e3 be bc
       0.038281735 -0.030818196 -0.04100781 -0.023302065
000180 60 e7 df bc 4b 7e c3 3d 8b 84 82 3d 5b 55 50 bc
       -0.027332008 0.09545573 0.06372937 -0.012715663
000190 04 f1 b7 ba f1 a0 bb bc f3 a7 f3 bb 2b c0 57 3c
       -0.001403362 -0.022903891 -0.0074357926 0.013168375
0001a0 28 45 b0 bc 84 e9 17 bd da 95 2c bd 8a 2f 9a bb
       -0.021517351 -0.037087932 -0.042135097 -0.004705374
0001b0 cb e9 60 3c 20 e8 dc bc a0 96 d1 3c c4 cb 7f 3d
       0.013727616 -0.026966155 0.025584519 0.062450185
0001c0 78 a7 6d 3d 44 d2 2a 3d 8b 42 c5 bc 84 3c 5e bd
       0.05802104 0.04170443 -0.024079582 -0.05425693
0001d0 90 b9 b2 bd 09 71 46 3c 87 14 1a bd 48 05 81 bb
       -0.087267995 0.012111911 -0.037617233 -0.003937397
0001e0 79 3e d0 3c f8 32 d3 3c 03 43 1d bd b4 15 9f bc
       0.025420414 0.02578114 -0.038393985 -0.019419529
0001f0 00 a8 82 bd b7 03 5b bd c7 c6 12 3c 25 38 2a 3d
       -0.063797 -0.05347034 0.008958525 0.04155745
000200 e6 b5 03 3d aa 5c 94 bc f9 90 a9 3c f6 53 d1 3c
       0.032155894 -0.018110592 0.020699011 0.025552731
000210 19 05 37 bd 9e 2a 80 bd 93 c9 40 bd a7 07 9a 3c
       -0.044682596 -0.062581286 -0.047067236 0.018802477
000220 4f 9a 4a bd f6 cf 89 bc 9f c1 bf 3a ad 90 76 ba
       -0.049463566 -0.016822796 0.0014629847 -0.00094057136
000230 e7 84 57 bd 6b a0 d1 3c 3d 75 cf 3b 5a 25 92 3d
       -0.05261698 0.025589189 0.0063311146 0.071360305
000240 b5 9f 44 3d 38 b0 4e bc 24 2a 0c bb e9 5f 47 bd
       0.04800387 -0.012615256 -0.0021387422 -0.04867545
000250 d6 a2 72 bd 13 ae e0 bc 9c 74 3e bc 21 e3 aa bd
       -0.059237324 -0.027426755 -0.0116244815 -0.08344103
000260 69 68 16 bc 81 98 32 bd 67 1e df 3c f7 df 9d 3c
       -0.009180167 -0.04360247 0.027236177 0.019271834
000270 77 e8 13 bd 42 fa 86 bd 2a f1 f5 bb 0e bb ef 3c
       -0.036110368 -0.06590702 -0.0075055556 0.029264
000280 04 f9 89 3c 48 48 ee bb 62 71 af 3c 14 e5 29 3d
       0.016842373 -0.0072718 0.02141637 0.04147823
000290 ab 19 1c 3d 17 ce 8c 3c 5a f5 00 3c c4 94 7c 3c
       0.038110416 0.017188115 0.007870996 0.015416328
0002a0 b4 ae 2e bd 7b 7d 5a bd 24 e2 14 bc 8c 3a 35 bd
       -0.04264708 -0.053342324 -0.009087119 -0.044245288
0002b0 2b fd b1 3b 14 d0 3a bc da 5c e2 bd e5 6b 1b bd
       0.0054317913 -0.011402149 -0.11052866 -0.037944693
0002c0 20 62 80 bd c6 bf e3 3d ae ad 80 3d 46 87 8d 3d
       -0.06268716 0.11120562 0.06283127 0.06910567
0002d0 20 62 3e 3d bb 2f 35 3d 35 8e aa 3d c2 bc b5 b9
       0.046480298 0.044234972 0.08327905 -0.00034663646
0002e0 50 cc 3d bd 58 02 1c bd 1d 7a 3f bc 1b 8d 5e 3d
       -0.046337426 -0.038088173 -0.011686829 0.054333787
0002f0 28 a7 15 3d ea d7 97 bd ca db 8f bd 4b 2b 98 bd
       0.036536366 -0.07414229 -0.07024343 -0.074301325
000300 c9 5a ad bc 57 71 e9 bb ef b8 db bb df e7 1a 3c
       -0.021161454 -0.007124107 -0.0067053954 0.009454696
000310 9f 3c 16 bd 5f 87 03 bd 1a 94 fc 3c b9 b5 3d 3c
       -0.036678907 -0.03211152 0.03083234 0.011578971
000320 eb 59 44 3d 24 d7 53 bc c1 09 9b bd a7 4a 49 bd
       0.047937315 -0.0129297115 -0.0757022 -0.04914346
000330 f0 e8 56 3c 37 67 24 bb 48 2b 9f 3c d9 a2 ab 3b
       0.01311706 -0.0025085935 0.019429818 0.005237919
000340 9d 88 a6 3c 84 a4 15 bc f2 44 2d 3c 03 d4 43 3d
       0.020328814 -0.009133462 0.01057552 0.047809612
000350 ea e6 d7 3c ea 05 0e 3c db e5 94 bd bc 89 13 bd
       0.026355226 0.008668402 -0.07270404 -0.036020026
000360 b7 ef 38 bd ff cf 33 bd 87 da bf bb 07 05 23 bc
       -0.045150485 -0.043899532 -0.005854908 -0.009949929
000370 04 db cd 3c 07 0b cc 3c 88 99 16 bd 5b 36 08 bd
       0.025128849 0.024907602 -0.036767513 -0.033254962
000380 24 1f 0f bb d0 aa 87 3c d1 6c 16 3c 2b 1a d3 3c
       -0.002183863 0.016560942 0.009181217 0.025769314
000390 ba 78 ae bd 4e de e7 bc 46 83 f4 bc 33 20 5b 3c
       -0.085191205 -0.028304245 -0.029847752 0.013374376
0003a0 ec e3 25 bc 75 d2 41 3b 09 f5 49 bc 9b de 71 bd
       -0.010125142 0.0029574905 -0.012326487 -0.059050184
0003b0 11 5d 66 bd 3a b1 08 3d 6d 3a 3b 3d aa 3a 83 3d
       -0.0562411 0.03337214 0.045710016 0.06407674
0003c0 ff 5f ad 3c 78 b9 17 3c 4d 9a a6 3d ef cb 6e bb
       0.021163939 0.009260528 0.08134899 -0.0036437472
0003d0 8a b4 eb 3b 42 3a e1 3c 6f fc c3 bd 13 f7 9a bd
       0.007193153 0.0274936 -0.09569632 -0.07566657
0003e0 94 1e 43 bd 63 c7 3b 3d 87 4e 4d 3d b3 d3 ae 3d
       -0.047636583 0.045844447 0.050123718 0.08536472
0003f0 fe 6a 4c 3d db c9 0f 3d c8 c0 28 3d ce ba 12 bd
       0.049906723 0.035104614 0.041199476 -0.035822682

body.block1.conv.bias f4 [64]
000000 c5 83 0c bd 4c cf 8b bd 13 ca da 3d 3a 02 b9 bd
       -0.034305353 -0.06826648 0.10683074 -0.09033628
000010 18 ee b1 3b ad 2c cc bd 3d 00 6f bc 40 79 d2 bc
       0.0054299943 -0.09969459 -0.014587459 -0.025692582
000020 9f 55 07 bd 87 e7 83 bc a4 d2 47 3b 70 4f 57 bc
       -0.03304064 -0.016101612 0.0030490542 -0.013141498
000030 61 34 c9 bb 47 1d 08 3d 9c 83 68 3d 0f d1 48 3d
       -0.0061402773 0.033231046 0.056766137 0.0490275
000040 45 a4 ca bc 17 19 2a 3d 35 4b aa bc d2 0a b6 3b
       -0.024736533 0.041527834 -0.020787815 0.005555489
000050 d9 16 8a bd 6f 79 51 bb 07 f6 70 ba 9d d9 4b 3c
       -0.06742639 -0.003196325 -0.00091919344 0.01244202
000060 30 3c d1 3c 87 ad 1e 3d 69 30 cf 3c da 9a fd bc
       0.025541395 0.038739707 0.025291638 -0.030957628
000070 98 57 78 3c 31 2e 59 bd 68 6d b4 bc 62 8d 4c bc
       0.015157603 -0.053022567 -0.022024825 -0.01248488
000080 1f 66 85 3c a3 13 aa bc f2 6a 92 3b 4c c3 0c 3d
       0.016284047 -0.020761317 0.0044683153 0.034365937
000090 06 64 d8 bc 2e 0e 9b 3d 00 da 43 3d 94 9d 96 3c
       -0.026414882 0.07571064 0.047815323 0.018385686
0000a0 f5 06 82 bc 53 3b 49 bb c9 f8 94 3d 19 d5 20 b9
       -0.015872458 -0.0030705526 0.072740145 -0.00015338174
0000b0 ee e5 7a 3c 09 3b e2 3b 54 87 6c 3c 5c ce 95 3d
       0.015313609 0.00690401 0.014436562 0.073147506
0000c0 bd 4a 83 3d 13 dc 03 3d fc 28 50 3d 1c dc 04 bd
       0.064107396 0.0321923 0.050820336 -0.032436475
0000d0 2b 81 6b 3c cd 07 4b bd 76 76 16 bd 6c d2 99 3b
       0.014374058 -0.049567986 -0.036734067 0.0046942737
0000e0 ca f1 70 bd 29 6d cf 3c 9d 6a 3b bd c9 21 73 3b
       -0.058824338 0.025320606 -0.04575597 0.0037098995
0000f0 d6 de 64 bd 56 09 f0 3c bf 19 63 3c 88 6a 73 bd
       -0.055876575 0.029301327 0.013861119 -0.059427768

body.block1.norm.weight f4 [64]
000000 62 97 78 3f 14 d1 70 3f 3f 2f 86 3f ae 35 83 3f
       0.9710599 0.9406903 1.0483168 1.0250757
000010 ef 5d 7f 3f 38 dd 85 3f 9b e7 7a 3f 53 26 97 3f
       0.99752706 1.0458136 0.9800965 1.1808571
000020 8f c1 67 3f 4b 37 85 3f db ac 7d 3f 14 c6 8f 3f
       0.9052972 1.0407499 0.9909188 1.1232324
000030 c7 cb 89 3f ba f8 75 3f 13 28 99 3f e2 6c 81 3f
       1.0765313 0.9608265 1.1965355 1.0111353
000040 6c 01 8a 3f db 0f 86 3f 4a 97 6c 3f b4 98 7f 3f
       1.0781684 1.0473589 0.9241835 0.9984238
000050 2b d5 8a 3f 91 97 71 3f 42 75 74 3f da 8c 58 3f
       1.0846304 0.94371897 0.9549142 0.8458992
000060 b4 50 6e 3f 45 09 71 3f 7c 86 6c 3f cf 0f 79 3f
       0.93091893 0.9415477 0.92392707 0.97289747
000070 bc 2d 1e 3f 7b 10 58 3f 94 c8 81 3f 4c 0d 81 3f
       0.61788535 0.8440015 1.0139337 1.0082183
000080 51 be 7b 3f af d3 65 3f de 5f 81 3f 33 42 6f 3f
       0.98337275 0.8977613 1.0107381 0.93460387
000090 2b 97 68 3f 85 8d 86 3f de 6d 72 3f ab ee 8e 3f
       0.90855664 1.0511938 0.94698894 1.1166586
0000a0 cd ee 7b 3f 65 62 7f 3f 06 a8 7c 3f c9 ea 7f 3f
       0.98411256 0.99759513 0.98693883 0.9996763
0000b0 7e f4 6d 3f 47 d9 68 3f 83 e4 85 3f 4f 97 8c 3f
       0.9295119 0.9095654 1.0460361 1.0983676
0000c0 46 c7 81 3f be 36 7b 3f e8 26 80 3f f5 95 80 3f
       1.0138938 0.98130405 1.0011873 1.0045763
0000d0 81 f2 87 3f 35 e7 8b 3f 65 22 7f 3f 0c 0e 81 3f
       1.0620881 1.0929934 0.99661857 1.0082412
0000e0 cc 86 80 3f a2 7c 79 3f 23 d6 85 3f f4 2c 74 3f
       1.0041137 0.974558 1.0455974 0.95381093
0000f0 fd 17 82 3f 43 ba 72 3f a8 1f 82 3f b3 45 8e 3f
       1.0163571 0.9481546 1.0165911 1.111502

body.block1.norm.bias f4 [64]
000000 6e bc d8 3e 3d 11 b8 be bb 3a a7 3e 95 68 7b be
       0.4233126 -0.35950652 0.32661995 -0.24551614
000010 7b 83 bb 3e 42 e3 9b be be e8 4e 3e 46 bc 9f 3e
       0.3662375 -0.3044682 0.20205972 0.3119833
000020 7f a0 08 be 17 25 96 3e 13 08 bb 3e bd 19 c1 3e
       -0.13342474 0.29325172 0.36529598 0.3771495
000030 d9 a0 ae 3e ef 19 66 3c 56 18 38 bd 98 84 f4 3d
       0.34107092 0.014044269 -0.044945084 0.11939353
000040 18 55 d5 3e 4d 59 9e 3e 7f 32 e9 be 28 30 ab be
       0.41666484 0.30927506 -0.45546338 -0.33435178
000050 19 ef d2 3e fd e8 74 3e 71 72 97 be da 60 e1 be
       0.41198042 0.23917003 -0.295795 -0.44019204
000060 e9 00 36 bd ec c8 58 be 8e 08 37 3f 91 5d 18 bd
       -0.04443446 -0.21170396 0.7149743 -0.037198607
000070 ca 1f 58 bf 3b 64 8b bf 55 20 3b 3d fd c3 72 3e
       -0.84423506 -1.0889963 0.04568513 0.23707576
000080 97 ce 92 3e 1f 29 a0 be 6e d4 d0 3e f9 53 d0 be
       0.2867324 -0.31281373 0.4078707 -0.40689066
000090 a7 3e 97 be 08 17 ef 3d 4b 96 01 3e 53 57 cd 3d
       -0.29539987 0.11674315 0.12654988 0.100264214
0000a0 e3 28 1e be 46 e8 5c bd 1c 3c 29 be 33 5d 9b 3e
       -0.15445285 -0.05393245 -0.16526836 0.30344543
0000b0 ba 9b 76 be 79 b3 15 3f 83 85 ac be de f6 26 bf
       -0.24082842 0.5847698 -0.3369561 -0.6522044
0000c0 42 0f 95 be 56 33 a6 be 41 43 16 3f 47 c8 29 be
       -0.29113203 -0.3246104 0.5869637 -0.16580306
0000d0 bf 40 89 be c3 6b 44 3e 4e 23 aa bd c3 7d a7 3d
       -0.2680721 0.19181733 -0.08307515 0.08178284
0000e0 63 8a 1c be 02 b2 37 be 52 82 14 3e 59 8c 8b be
       -0.15287165 -0.17938998 0.14502838 -0.27255514
0000f0 d3 96 79 3d c3 b0 a2 be 14 eb 9b 3e f2 2d 5c be
       0.060934853 -0.31775483 0.30452788 -0.21501902

body.block1.norm.running_mean f4 [64]
000000 1f 54 61 be 07 1b 36 3f ae 1c 74 3f d4 e0 6c bf
       -0.22004746 0.7113499 0.9535626 -0.9253056
000010 d6 60 a7 3f 0e 8c 86 bf 5a 07 d2 be 16 7b 38 3f
       1.3076427 -1.0511491 -0.41021234 0.72062814
000020 17 ab e8 be 92 1c 68 40 04 a0 64 3e a6 22 a5 3f
       -0.4544303 3.6267438 0.22326666 1.2901199
000030 b1 a1 29 3f a4 6a ff 3d 40 f1 cf be 17 55 74 3f
       0.66262347 0.12471512 -0.40613747 0.95442337
000040 57 2b 54 3f f8 36 e5 3f 1d 64 ac 3f 44 c5 7f bf
       0.8287863 1.79074 1.3468052 -0.9991038
000050 14 94 bf 3f 32 8a af be 88 08 96 be b2 e2 ad bf
       1.4967065 -0.34285122 -0.29303384 -1.3584807
000060 13 86 79 bd 7f 06 c8 be b0 b8 f3 3e 6f 7e 4f 3d
       -0.06091888 -0.39067456 0.47601843 0.050657686
000070 ee c0 0b c0 31 34 cd bf f0 72 90 3f ba d3 9b bf
       -2.1836505 -1.6031553 1.1285076 -1.2173989
000080 5d 6c 0f 3f aa f0 a2 3e c4 76 8a bf d7 96 3b 3e
       0.56024724 0.31824237 -1.0817494 0.1831926
000090 8a 8c ea be 4c 0d 2f bf 55 bf 8f 3e c3 d2 ac 3f
       -0.45810348 -0.68379664 0.28075662 1.3501819
0000a0 42 c8 75 3f 9a 28 06 bd 46 04 1e 3e c7 bf 96 3f
       0.96008694 -0.032753564 0.15431318 1.1777276
0000b0 47 de 5b 3d 75 71 aa 3d 36 24 45 bf 6f d0 c8 3f
       0.053678777 0.083224215 -0.7700838 1.5688609
0000c0 7d 5e 10 3f 00 14 22 bf 36 97 0c bf 75 31 1d bf
       0.5639418 -0.6331177 -0.5491823 -0.6140359
0000d0 0b d2 7b 3d 31 ed ae 3f 8c b8 68 be 9d fa 5e 3c
       0.06147961 1.3666135 -0.22726649 0.013609556
0000e0 88 39 0a 40 56 c7 a6 3e 94 a5 c0 be e8 82 f1 be
       2.1597614 0.32573956 -0.37626326 -0.47170186
0000f0 33 3c 8c bf b8 08 93 be f3 3f 96 be da fd 45 3f
       -1.0955871 -0.2871759 -0.29345664 0.7734047

body.block1.norm.running_var f4 [64]
000000 d4 24 52 3e 81 0f 8b 3e f8 98 85 3e de c1 8e 3e
       0.20521861 0.27160266 0.26093268 0.27882284
000010 03 7f bd 3f 69 5a b7 3f 9e f9 20 3f e3 84 4c 3f
       1.4804386 1.4324466 0.62880886 0.7989027
000020 bc 4c e5 3e 00 e4 08 3f 54 23 b0 3e 3c 00 4c 3f
       0.44785106 0.534729 0.34401953 0.7968786
000030 37 2f 23 3f c0 e5 5d 3f 4f da 55 3e 5c 58 e9 3e
       0.6374392 0.86678696 0.2088406 0.45575225
000040 53 03 6c 3f 79 c1 a2 3e 23 ab f1 3e 9c a4 7b 3f
       0.9219257 0.31788233 0.4720088 0.9829805
000050 61 95 a0 3f d7 b2 46 3e 2f 08 35 3f 47 ef 22 3f
       1.2545587 0.1940416 0.7071561 0.6364636
000060 f9 a7 02 3f a3 09 b8 3e 4b 44 05 3e 09 8a 56 3e
       0.51037556 0.35944852 0.13014333 0.20951094
000070 e8 3c 12 3f c0 3a 91 3e 6c ac 60 3e 2c 4f a8 3e
       0.57124186 0.28365135 0.21940774 0.32872903
000080 39 72 91 3e d8 e6 83 3e 91 14 10 3f b1 4b 2c 3e
       0.28407457 0.25762057 0.5628138 0.16825749
000090 e9 14 3d 3e ca 3d f6 3e 11 27 0f 3f 2a d2 08 3f
       0.18465008 0.48094016 0.55918986 0.53445685
0000a0 34 7f 3a 3f 55 d4 30 3e 8c 07 b7 3e f4 2a 37 3f
       0.72850347 0.17268498 0.35747945 0.71549916
0000b0 83 04 62 3f 44 e1 41 3f 8e 78 fd 3e a8 12 9d 3e
       0.88288134 0.75734353 0.49506038 0.30678296
0000c0 6d 1d 7e 3e d7 6d cb 3e 05 c2 81 3e d7 33 d4 3e
       0.24815913 0.3973224 0.25343338 0.414458
0000d0 ff 79 2b 3e 24 89 6e 3f 0f 5d 61 3f f5 e9 21 3f
       0.16745757 0.9317801 0.8803262 0.63247615
0000e0 4d ed fe 3e a4 a0 d7 3e 37 88 0d 3f 3c 2d 08 3f
       0.4979042 0.42114747 0.5528597 0.5319402
0000f0 13 25 7d 3e 79 e9 86 3e 2c 22 47 3e 50 06 ff 3d
       0.24721174 0.2635 0.1944663 0.12452376

tail.weight f4 [1, 64, 3, 3]
000000 1c dc 05 3d 3d 34 88 3d 15 0e 67 3d b7 09 59 3d
       0.032680616 0.06650589 0.056409914 0.05298778
000010 55 82 3e bc bc 1c ed 3c 7f b2 d3 bc cc 6b b4 bb
       -0.011627753 0.028944366 -0.02584195 -0.0055060145
000020 3f c6 dd bc e2 45 ca bc 66 b9 77 bd b8 89 44 bc
       -0.02707207 -0.024691526 -0.060479544 -0.011995725
000030 5c 38 9e 3a ee 9b 22 3a 3c 32 1f 3d a2 7a 65 3d
       0.001207124 0.0006203045 0.038866267 0.056025155
000040 aa 0f ab 3d 1b 05 8f 3d 8b 9f 8a bd bf 61 90 bd
       0.08352597 0.06983396 -0.06768712 -0.070498936
000050 1b 39 ab bd c2 d0 cd 3d ed e6 c6 3d 43 d0 c6 3d
       -0.083605014 0.10049583 0.09712014 0.097076915
000060 84 97 21 bd 4c 37 38 bd d9 c6 42 bb e0 c3 f1 bc
       -0.039451137 -0.04497461 -0.0029720573 -0.029512346
000070 0b da 57 bd b0 24 f2 bc b9 49 d3 bc 44 8f 0c bc
       -0.052698176 -0.02955851 -0.02579199 -0.008579079
000080 24 fc 4d 3b c4 2f da 3c a4 ee 85 3d 76 52 4c 3c
       0.0031430805 0.026634105 0.06539658 0.012470832
000090 c8 7d 8f 3d 2e 84 2a 3d db 0a d9 3c 7b b2 0a 3d
       0.07006413 0.041629963 0.026494434 0.03386162
0000a0 05 1f 42 3d 1d e9 09 3d 43 68 80 bd b3 10 28 bc
       0.047392864 0.03366958 -0.06269886 -0.010257888
0000b0 65 b8 0c bd 71 da 07 bd a2 34 0c bc 0c fb f3 3b
       -0.03435554 -0.033167306 -0.0085574705 0.0074456986
0000c0 87 20 3e bc 86 77 50 3d d5 c9 a0 3c f7 1a 80 3d
       -0.011604435 0.050895236 0.019627491 0.06255143
0000d0 e0 29 f8 3d 72 40 07 3e d3 33 7c bc ca 09 6a 3b
       0.12117362 0.13208178 -0.015393215 0.00357114
0000e0 d9 79 2b 3d 03 b6 8b bd 2f 33 68 bd bf 5e 23 bd
       0.04186425 -0.06821825 -0.056689437 -0.03988528
0000f0 03 e5 6a 3d 99 3e 42 3d ed 20 ef 3c 12 c4 d0 3d
       0.05734731 0.04742298 0.029190505 0.101936474
000100 3c 88 c8 3d dc 32 ce 3d 0a 9c e5 3d c0 d1 86 3d
       0.0979161 0.100682944 0.11211403 0.065829754
000110 e8 8b 89 3d 97 b2 50 be 3e 26 25 be 16 3a 32 be
       0.06716138 -0.20380627 -0.1612787 -0.1740497
000120 97 f0 9f bc 37 ff 4c 3b 55 49 a3 bc cb 6b 97 bc
       -0.019523902 0.003128005 -0.019932428 -0.018484017
000130 77 fe 14 bb da 1b c9 bc e3 81 97 3c d7 2f c7 3c
       -0.002273468 -0.024549413 0.018494552 0.024314804
000140 7c ea af 3b f4 ff 83 bd 09 99 7b bd 2c 3c 83 bd
       0.005368529 -0.064453036 -0.061425243 -0.06407961
000150 7c d3 3e bc b5 45 0c 3c 7f 04 c3 3c fd 49 58 3d
       -0.0116471015 0.008561541 0.023805855 0.052804936
000160 86 da 86 3c ef 31 5b 3d e2 84 dd bc e0 c5 79 bd
       0.016461622 0.053514417 -0.027040903 -0.060979724
000170 ca 81 6b bd 55 38 98 bd 7f 9a 82 bd ce 0d bf bd
       -0.057496823 -0.074326195 -0.06377124 -0.09328805
000180 18 5a c5 3d e9 9f bf 3d 73 ce 00 3e 50 b4 c5 3d
       0.09636325 0.09356672 0.12578754 0.096535325
000190 92 e6 ad 3d 65 8b e6 3d 89 4e 72 3d cc 43 38 3d
       0.084912434 0.11257056 0.05915693 0.04498653
0001a0 d1 61 94 3d 55 e1 27 be 10 e2 09 be 12 45 0f be
       0.072452195 -0.16394551 -0.13465142 -0.13991192
0001b0 73 4c 97 3d bb c9 b2 3d a9 a0 b8 3d f0 cb 87 3d
       0.073876284 0.08729883 0.090150185 0.06630695
0001c0 76 ed 05 3d 69 b2 7b 3d 9e ba d1 bd 1f ce ab bd
       0.032697164 0.061449442 -0.102406725 -0.08388924
0001d0 2d a7 33 be 0c e8 16 3d b9 34 1c 3c f1 e3 5c 3c
       -0.17544241 0.03684239 0.009534054 0.01348208
0001e0 cc 98 c0 bc 6b e3 e5 bc 2f 98 74 bc fe 70 6b bc
       -0.02351036 -0.028062543 -0.0149288615 -0.014370201
0001f0 d2 d1 8a bc b6 9d c1 bc 35 da 2c bd 66 53 58 bd
       -0.016945753 -0.023634773 -0.042200286 -0.05281391
000200 53 4a 60 bd e0 c8 f6 bd ae b8 f3 bd 55 b0 aa bd
       -0.05475838 -0.120500326 -0.11900459 -0.08334414
000210 f0 d6 24 3e 93 6d 16 3e 9b b5 25 3e e3 b1 b2 bd
       0.16097617 0.14690237 0.16182558 -0.087253354
000220 4f 5f 7d bd e4 dd 43 bd 56 05 38 bb 4a 7f 0d 3d
       -0.06185847 -0.047819033 -0.0028079352 0.03454522
000230 fb 9d 1a 3d 96 e1 25 3d f6 d4 07 3d 7d 4b 35 3d
       0.03774832 0.04049834 0.03316208 0.044261444
000240 3b 16 cc 3d 91 4c 9d 3d 06 4d 92 3d 98 68 a1 3d
       0.099651776 0.076806195 0.07143597 0.07881278
000250 45 c5 b7 3d 19 cc 66 3d 3a 37 01 be a8 fc dd bd
       0.08973173 0.056346986 -0.12618724 -0.10839206
000260 07 28 ab bd 0a e2 18 bc 66 53 b5 bc 96 18 0a bd
       -0.08357244 -0.009331236 -0.022134494 -0.033714853
000270 83 0b 79 bd a8 b9 c7 bd 5f 59 ae bd 5f fb cf 3d
       -0.060801994 -0.09752208 -0.0851314 0.10155367
000280 17 7e cf 3d 7f f6 83 3d 6d 2d c5 3d ba 88 0c 3d
       0.101314716 0.064435 0.09627805 0.03431008
000290 a4 1a 84 3d 61 55 6e 3b 63 15 f6 3b c1 0f 3e 3b
       0.06450394 0.0036366808 0.0075098737 0.002900109
0002a0 1f 0a 29 bb c0 59 c7 bb 52 f8 d4 3a c8 5f 18 3d
       -0.0025793386 -0.006083697 0.0016248322 0.03720072
0002b0 11 3d 5d 3d a6 ef 9d 3d 97 85 6f bc ba f0 09 bd
       0.054013316 0.07711725 -0.014619253 -0.03367684
0002c0 91 73 86 bc a0 c4 b9 3d 2f 51 b2 3d d4 24 8c 3d
       -0.016412528 0.09070706 0.08706891 0.06842962
0002d0 dc 99 5f 3d de 44 64 3d 31 1d 8a 3d 7a f3 81 3d
       0.05459009 0.05572974 0.06743849 0.063452676
0002e0 10 bb 8e 3d 88 50 e6 3c c6 99 fc bd 0b 57 cd bd
       0.06969273 0.028114572 -0.123340175 -0.10026368
0002f0 e9 d9 9f bd 0b cf 83 bc a7 e7 cd 3c ab ca 27 bc
       -0.07805235 -0.016089937 0.025134875 -0.010241191
000300 52 35 88 bd 30 8a 5e bd 5b de 41 bd 08 a9 04 3d
       -0.06650795 -0.054331005 -0.047331195 0.032387763
000310 7b f5 ac 3d d4 03 07 3d 5f ec 6f bc ed fd 05 bd
       0.08445259 0.032962635 -0.014643758 -0.032712866
000320 e4 73 0b bc b2 ca a3 3c ee fa 4b 3d 3e 7a 45 3c
       -0.008511517 0.019994114 0.049799852 0.012053071
000330 de 3b ab 3c 07 d4 82 3c ad 85 06 3c e6 6c 2a bd
       0.02090257 0.015970243 0.008210582 -0.04160776
000340 42 f5 2d bd ce c9 2b bc d8 8f e0 3a b6 4a f2 bc
       -0.042470224 -0.010485126 0.0017132713 -0.02957664
000350 1a 02 c1 3c 22 e0 0e 3d fb 7e 39 3d d9 fa 82 bc
       0.023560572 0.03488172 0.045287114 -0.015988754
000360 90 39 ad 3c 41 18 73 3c 01 25 4f 3c 77 89 62 bc
       0.021145612 0.014837326 0.0126431 -0.0138267195
000370 9d fc bf bc 8c 28 c3 3c 70 fb 5f bd 0b f8 ce 3a
       -0.023435885 0.023823045 -0.05468315 0.0015790475
000380 38 88 60 bd 44 00 5c bd d2 32 93 bc d4 35 5e bd
       -0.05481741 -0.05371119 -0.017968569 -0.054250553
000390 79 48 61 bc 37 f0 86 bb be 73 a4 bc de 85 8c bb
       -0.013750189 -0.0041179913 -0.020074721 -0.004288419
0003a0 60 f4 cf 3c cf 9b e6 bb 5d b8 e1 3c 4b f1 4d 3d
       0.025385082 -0.007037617 0.027553732 0.050278943
0003b0 b1 0c 92 3d 55 76 16 bc e1 c9 9c bc df 93 3e bc
       0.07131327 -0.009183486 -0.019139232 -0.011631935
0003c0 1b 83 0b bd 53 ee 55 bb 42 58 cd 3a 5a e4 65 bd
       -0.03406058 -0.0032643273 0.0015666562 -0.056125976
0003d0 5b 8f 47 bc 72 10 3b bd 63 6e a1 3b 96 2c d4 bc
       -0.012180175 -0.04566998 0.004926489 -0.025900166
0003e0 b9 ba 0a bd 45 17 f7 3c 02 01 51 3d cc 1e c5 3c
       -0.03386948 0.030162463 0.05102635 0.024062537
0003f0 31 f3 1d 3d 84 70 cb 3c 62 38 89 3c f6 2f 91 3d
       0.038562004 0.024833925 0.016750518 0.07089226
