3layer_4000its/files/3/G.pth (torch, 209481 bytes, 14 tensors)

head.conv.weight f4 [64, 12, 3, 3]
00000000: e687 223c afdb 213d dd9e d13c ce1f 1bbb
00000010: 3106 2abc 2e93 263d 0906 f1ba f52e a0bc
00000020: 8030 393b 2227 acbd 8ba3 95bd 60d4 7a3d
00000030: 9f1c 64bd 7ab7 5a3d 344e 9c3d 6fe4 0abb
00000040: ddc5 543d 8f8b 52bd 6791 db3c 557f a93c
00000050: 0734 33bd 6fae 793d 05dc 7dbc a1d1 9ebd
00000060: 5a11 06bd 7f09 febb 31b1 2b3d a242 d439
00000070: 8f31 693b c8ae f4bb 6e1d 003d 0364 db3c
00000080: 69fd 0b3c d480 803b 0524 9ebc 2814 aebc
00000090: d395 9e3c 8de4 3c3d 00af 9abc 0408 f03c
000000a0: a96c 423d 771d 963c ec24 8bbd a5bd 99bd
000000b0: 3c99 54bd c701 b23c fa4e 90bc cf05 81bd
000000c0: c3cf 483d 2e5e 3d3d c3fa 04bd 1d80 70bc
000000d0: e080 36bd 92e7 6dbd f9bd 713d 0058 dd3c
000000e0: 39bc 233d 9eb4 b93b fc30 e53b acbd 803c
000000f0: 5900 edbb dc9d d8bc 0564 68bd cc89 87bc
00000100: 4d35 92bc ba12 87bb ae63 8f3c 08a0 703d
00000110: 12a9 443d d9ec 143c 2b1f 2abd 1d0c b8bc
00000120: 0e33 79bd 8dd9 28bc 3d03 323d 20b2 9bbb
00000130: d72f b63b 68ee 2f3d 7137 8c3a de11 96bc
00000140: c424 7738 b6b2 d4bb 59ae b4bc a8ba 1b3d
00000150: 7682 cfbc b1a5 b13c 5caf 943a fd5c bcbc
00000160: 317d 5b3d 3de9 d0bb 46d8 e4bc 86bf 0bbd
00000170: be52 99bd 9e64 d23c 3695 ac3d a177 7bbc
00000180: f3b4 bcbc 5b1a 0ebd 9137 06bd 175d d5bc
00000190: 6bbf 843c 2471 d13c 6a02 9e3c 434c b03d
000001a0: 0e1d 4f3d 3916 46bd 8a83 c6bc ea49 a1ba
000001b0: 8dc0 34bd 89a7 9cbb 2591 19bd 7a25 103d
000001c0: 048b b43d b331 933c 435d 5fbd b375 adbc
000001d0: d2b9 23bc 8df6 ffbc 6c85 9d3c c736 b1bd
000001e0: a625 0fbd e1e5 8f3d 3715 343c 9c89 903c
000001f0: eeba b0bb 6297 e9bb 8793 c03c 21fc 69bd
00000200: 5a8a 813d 1b8d 473c 7ac6 cebd f737 7e3c
00000210: f443 8bbc 85f7 963c a686 3dbc 6c4a 0a3d
00000220: fcdd 5b3d d51f 113d 310b d2bc 4bb0 b5bb
00000230: 6f97 afbc 1cbe 0c3d 901b ffbb 1b2e ff3c
00000240: 9359 693a 1812 79bc a658 273d fa3f 05bd
00000250: 9951 21bd 3a0e 263d ac02 83bc 8eb8 1cbd
00000260: f5ad 063d dc38 c23b 4703 023d 019f 203d
00000270: 68e5 59bc 6973 3cbd 4b3c 153c 0068 de3c
00000280: c7fb 1e3c 718a 023d 9e5a 88bd b162 073b
00000290: b852 e7bc 08ad ee3c 2989 cf3d 4523 ec3b
000002a0: a4d8 23bd 6096 16bd c734 adbc 3849 e73c
000002b0: 59f7 8e3d 78f6 583d 4e46 b8bc fcd6 35bc
000002c0: f07f 7cbc 3d82 e73b 4855 13bc 3e3d d53c
000002d0: fea9 853c eeef 09bd 8cd4 64bc 20e5 173b
000002e0: 03de 43bd 3165 f8ba cf59 ea3b 2c68 90bc
000002f0: 6324 da3c 2848 0cbc 0b26 413d 8428 1d3c
00000300: 5c18 4abd b041 d43d 29fc 65bd 396e 4ebd
00000310: c767 6c3c f3b7 8dbd 0ee7 893d a530 603d
00000320: 7262 7d3d cc09 b8bc 822b 62bd 1e14 86bc
00000330: ccfc a73c c0f9 bb3b 5854 293d c58e 1cbc
00000340: d311 263d b20f e8bc 75ec d8bc 70bb 2d3d
00000350: e881 a7ba 4c59 68bc 7ae6 2c3d 8a86 8abc
00000360: 67fc 39bd 79d3 9ebc 5ab3 5abd d9fd e93b
00000370: 6dda f4bc 09fb 86bd e917 803c 152b db3c
00000380: 8c43 a03b c8e1 4bbd d0e1 913d a482 44bc
00000390: 5996 893a 2631 af3d 843b 12bc 5461 863d
000003a0: 2415 463d be7f 843d 5257 aaba fb25 14bd
000003b0: 793c f43c ea20 81bc f66a 7cbd 1c6a d43c
000003c0: 6828 acbc f013 5b3d 6bb5 ce3c b50c 32bd
000003d0: ac5f f6bc 7e54 11bd 2668 493c a93d 81bc
000003e0: 4f36 243b 271d 32bd b7fc 59bd 1c2d 86bc
000003f0: b1f8 a3bd 99a3 d4bd a96e ccbd bf44 43bd
0.009920096 0.039516147 0.025588447 -0.002367008 -0.010377453 0.040667705 -0.001838864 -0.01955364
0.0028257668 -0.084059015 -0.07306584 0.061237693 -0.055691358 0.053397633 0.076321036 -0.0021193286
0.05194651 -0.051402625 0.026802732 0.0206906 -0.04375079 0.06095737 -0.015494351 -0.07754827
-0.03273139 -0.007752597 0.04191703 0.00040485436 0.0035582518 -0.0074671246 0.031278066 0.026781088
0.008544304 0.0039216075 -0.019304285 -0.021249846 0.019358551 0.0461164 -0.018882275 0.029300697
0.047466908 0.018324597 -0.06794152 -0.07506875 -0.05190395 0.021729363 -0.017615784 -0.06299936
0.049026262 0.046232395 -0.032465708 -0.014678982 -0.0445565 -0.05808217 0.059019063 0.0270195
0.039974425 0.005667283 0.006994365 0.015715443 -0.0072327075 -0.02644246 -0.05673601 -0.016545199
-0.017847681 -0.0041221054 0.017503586 0.058746368 0.0480128 0.009089672 -0.04153363 -0.022466714
-0.060839705 -0.010305774 0.04346012 -0.0047514588 0.005559902 0.04295197 0.0010697675 -0.018319067
5.892363e-05 -0.0064910306 -0.022055792 0.038019806 -0.025330763 0.021685453 0.0011343765 -0.022993559
0.05358619 -0.0063754604 -0.027935158 -0.034118198 -0.07486485 0.025682744 0.08426897 -0.015348346
-0.023035502 -0.034693103 -0.032767836 -0.026045365 0.016204556 0.025566645 0.01928826 0.08608296
0.050564818 -0.048361037 -0.024232645 -0.0012305353 -0.044128943 -0.004780714 -0.037491936 0.03519199
0.088155776 0.017968034 -0.0545323 -0.021174287 -0.0099930335 -0.031245494 0.01922866 -0.08653026
-0.034948014 0.07026268 0.010991386 0.017643742 -0.0053933775 -0.007128642 0.023507847 -0.057125214
0.063252166 0.012179638 -0.1009645 0.015516273 -0.017000176 0.018428573 -0.011567747 0.03376238
0.053678498 0.035430748 -0.025640102 -0.0055446974 -0.021434514 0.03436099 -0.007785268 0.031149914
0.0008901592 -0.015202068 0.040856026 -0.032531716 -0.03938446 0.04054091 -0.015992485 -0.038261943
0.032880742 0.0059271883 0.031741407 0.039214138 -0.013299324 -0.0460085 0.009108613 0.0271492
0.009703583 0.03187031 -0.06657909 0.002065819 -0.028237686 0.029135242 0.10133583 0.007206353
-0.040001526 -0.036764503 -0.02114333 0.028233156 0.069807716 0.052969426 -0.022494461 -0.01109862
-0.015411362 0.007065086 -0.008992501 0.02603018 0.01631641 -0.03367608 -0.013966691 0.002317734
-0.04781915 -0.0018951056 0.0071518193 -0.017627798 0.026628679 -0.008562125 0.04715542 0.009592179
-0.049339637 0.103640914 -0.05614868 -0.050398085 0.014429039 -0.06919851 0.06733523 0.05473389
0.061861463 -0.022465609 -0.055217274 -0.016367014 0.020506285 0.0057365596 0.041340202 -0.009555523
0.040544342 -0.028327797 -0.026479939 0.042415082 -0.0012779804 -0.014181446 0.042211987 -0.016909856
-0.045406725 -0.019387947 -0.0533937 0.0071408567 -0.02988931 -0.0659085 0.015636401 0.026753942
0.0048908647 -0.04977587 0.071231484 -0.011994038 0.0010497078 0.08554296 -0.008925322 0.065615326
0.048360005 0.064696774 -0.0012995994 -0.036169033 0.029813992 -0.015762765 -0.061625443 0.025929503
-0.021015361 0.05348581 0.025232991 -0.04346915 -0.030074917 -0.03548097 0.012292897 -0.015776472
0.0025056785 -0.043484833 -0.053219523 -0.016378932 -0.080064185 -0.10382766 -0.09982044 -0.047672983

head.conv.bias f4 [64]
00000000: 055b 5f3c 718a f53d ed4c 823c f235 27bd
00000010: 0feb e43a 3470 09bd b174 37bd fb74 903d
00000020: b160 843c 7261 82bd 5c84 ad3d 8a94 d739
00000030: 1e77 15bd 8104 5c3d ceb9 a1bc 884b 08bb
00000040: d7fd 51bd 8724 a13c 471c 6bbd f427 853c
00000050: 0c4a 96bd cef7 b5bb b748 a73d d87f 683d
00000060: 21af 343c 8cef 85bc ae7e 14bd 6242 c43c
00000070: 891e b1bc c6a2 903c 40dd 26bd a234 a4bc
00000080: 8420 87bd 5409 e7bc 0db9 c0bc cc47 43bd
00000090: a187 d63d 20e5 98bd 3bc1 f53c 2753 483d
000000a0: 1d21 87bd 8177 183d 9650 c43d a361 64bd
000000b0: 9f34 43bb 9725 f8bd 92af 6a3d 1131 46bc
000000c0: ee9c d13d 88dc 01b4 a8f7 ef3d 248f 773d
000000d0: 4a3a 5c3d 2590 b13c 4e67 4f3b af55 c1ba
000000e0: 9819 72bd 846e 90bd 8e1f 053d b42f ffbd
000000f0: 8e8b c33d a004 2f3b 8dbe f33d 6a09 a2bd
0.013632541 0.11989296 0.015905822 -0.04082293 0.0017465072 -0.03355427 -0.04478902 0.07053562
0.016159387 -0.063662425 0.08472511 0.00041118666 -0.036490552 0.053715233 -0.019741919 -0.0020796973
-0.05126747 0.019670738 -0.057400014 0.016254403 -0.07338342 -0.0055532223 0.08168166 0.056762546
0.011028082 -0.016349576 -0.036253624 0.023957435 -0.021621006 0.017655741 -0.040738344 -0.020044629
-0.06597999 -0.02820269 -0.02352574 -0.047675893 0.10475088 -0.07465577 0.029999366 0.048907425
-0.06598113 0.037223343 0.09585683 -0.055757176 -0.0029786003 -0.12116545 0.057296343 -0.012096659
0.1023501 -1.209429e-07 0.117171586 0.060439244 0.053766526 0.021675179 0.0031647268 -0.0014750267
-0.05910644 -0.07052329 0.032500796 -0.124602705 0.09548102 0.0026705638 0.11901579 -0.07911952

head.norm.weight f4 [64]
00000000: e7ad 783f cf77 7c3f cc3e 533f c2a3 8a3f
00000010: cf87 9b3f c710 553f efb1 6c3f 37d2 8b3f
00000020: 47ff 5a3f b833 723f 8cbe 713f 18c5 7d3f
00000030: 54da 673f fa65 6c3f 97c6 753f 69f5 833f
00000040: 28de 733f ec37 683f f682 833f 43dd 6e3f
00000050: c96e 873f 45d2 6f3f 61d9 703f 255b 563f
00000060: 11c7 773f 26dd 703f 358e 553f a521 7a3f
00000070: 2741 773f 7f70 7d3f 1cec 7b3f f1bc 833f
00000080: 5d2d 873f b9f5 673f 5668 553f 3e5c 803f
00000090: 36ac 743f dc35 803f 851e 783f dea2 543f
000000a0: 428c 713f 9ca9 873f ee3c 703f c799 783f
000000b0: 4c43 633f 2894 813f f610 5c3f 9452 693f
000000c0: 8601 883f 4f36 593f 12a6 5d3f 9b82 7b3f
000000d0: 97fb 6b3f 0ba6 703f 943b 703f 5836 9c3f
000000e0: b1d4 633f 1714 593f 6ca4 8c3f 786b 7b3f
000000f0: 20b6 5c3f 0548 743f b040 823f 263c 833f
0.97140354 0.98620313 0.82517695 1.0831225 1.215082 0.83228725 0.92459005 1.0923527
0.8554577 0.94610167 0.94431376 0.99128866 0.9056752 0.92343104 0.9600615 1.0309268
0.9526086 0.9071033 1.0274341 0.9330637 1.0580684 0.9368022 0.94081694 0.83732826
0.96788126 0.94087446 0.83420116 0.9770759 0.9658379 0.9899978 0.9840715 1.0292035
1.0560719 0.9060932 0.8336233 1.002815 0.95575273 1.0016437 0.9692157 0.83061016
0.9435464 1.0598636 0.9384297 0.97109646 0.8877456 1.0123339 0.8596338 0.9114163
1.0625465 0.84848493 0.8658153 0.98246163 0.9218077 0.9400336 0.9384091 1.2204084
0.88996416 0.8479628 1.0987678 0.9821086 0.862154 0.95422393 1.0175991 1.0252731

head.norm.bias f4 [64]
00000000: 72fc 16bf e170 29bf fec7 98be 7394 073d
00000010: 253e 42bf 767f c9be 8a5e 06be c73a a0bd
00000020: dbfb b0be 7ff4 63be 0e31 b9be a4d5 4fbe
00000030: c559 52bd c58f e4bd eeaa 9ebe 12f6 01be
00000040: 4758 68be a46d efbe 0252 a1be a29d 64be
00000050: 018d 88be 96af 9bbe ac09 03be 555a d1be
00000060: 99cc 96be 00c4 8bbe 3a85 a9be c20f 11bf
00000070: 923b 2c3c 7b37 22be 8784 0cbd acac 16bd
00000080: 32da b2be 9bc0 8dbe e1aa 43be 878a 28be
00000090: fd3b b1be 5e62 01be b3c7 94be a342 f4bd
000000a0: 11e2 82bb 84d2 d8bd 3335 5fbe ee29 bcbd
000000b0: dc2b c8bd 156c a0bd feec e8be 74af 33bf
000000c0: 1a91 92bd 4b66 11bf 339c 98be fcba 8cbe
000000d0: 8cbc c3bd f4b8 97bd 6aad 8cbd 9d01 55bf
000000e0: 3f67 adbe 6d21 71be 16d0 933c d179 dabb
000000f0: 621f 78be eb75 e6be e6a1 99be b7fd e0bd
-0.5897895 -0.66187865 -0.29840082 0.033100557 -0.75876075 -0.39355057 -0.13122001 -0.07823711
-0.3456715 -0.22261237 -0.36170238 -0.20296341 -0.051355142 -0.11160234 -0.30989784 -0.12691525
-0.22689925 -0.46763337 -0.3150788 -0.22325757 -0.26670077 -0.304074 -0.12796658 -0.4088923
-0.2945297 -0.27297974 -0.33109456 -0.5666467 0.01051225 -0.15841477 -0.034306075 -0.036785766
-0.34932095 -0.2768601 -0.19108154 -0.16459094 -0.3461608 -0.1263518 -0.29058608 -0.119267724
-0.0039942344 -0.10587028 -0.21797638 -0.09187685 -0.097739905 -0.07833115 -0.4549331 -0.70189595
-0.07156582 -0.5679671 -0.2980667 -0.27486408 -0.09557447 -0.07408324 -0.068690136 -0.83205587
-0.33867833 -0.23547907 0.018043559 -0.0066673537 -0.24230722 -0.4501184 -0.3000633 -0.10985892

head.norm.running_mean f4 [64]
00000000: 9f17 f83b fce3 623d 76ae 42bd e9bb 733d
00000010: 3b01 80bd 6415 e0bd 19dd bfbd a4c4 3c3d
00000020: 0403 98bd cb22 b9bd c4e8 303d 511b 503d
00000030: 997f 673d de18 453e 2a42 5bbc d187 2cbe
00000040: 6d98 1ebe 9285 263d 8b41 30be a306 afbd
00000050: e985 cdbd 6ddd 2fbc 35e6 5f3e 242b 0d3d
00000060: f798 acbd f7d0 d83c 8ec4 a1bd a620 fe3c
00000070: e3dd 183d a31c 3cbd 75b5 4f3e 0453 163d
00000080: 10f5 43be 9dc3 26be 14da a8bd c6d3 68be
00000090: 088e d23d 00fe 153d 1538 fa3c e8e2 3ebe
000000a0: 0aeb 903d 9dfc 06bc b87f 633c e884 8fbe
000000b0: 316e 2b3e 3ab0 293e da90 e33d 8e2a 1f3d
000000c0: 9872 403e 48b6 d4bb d5a2 073e ae68 86bd
000000d0: 97d4 3a3e 9c69 9dbd 980e 0c3e 6a60 9abd
000000e0: e46c 2ebe bdca 77be 3d70 d63d 8cd7 febd
000000f0: 6533 593c 94e1 7dbc 9895 893d 7d1c 06be
0.007571175 0.055393204 -0.04752966 0.059505377 -0.06250235 -0.1094158 -0.09368343 0.04608597
-0.0742245 -0.09039839 0.043190733 0.0508073 0.05651817 0.19247767 -0.013382474 -0.16848685
-0.15487833 0.040654726 -0.17212503 -0.08546188 -0.10035307 -0.010733944 0.21865161 0.03446497
-0.08427613 0.02646683 -0.07898818 0.031021427 0.037320983 -0.045925748 0.20284064 0.036700264
-0.19136453 -0.16285558 -0.0824472 -0.22737035 0.102809966 0.036619186 0.03054432 -0.18641245
0.0707608 -0.008238939 0.013885431 -0.28031087 0.16741253 0.16571131 0.111116126 0.038858943
0.18793714 -0.006491456 0.13245709 -0.06562935 0.18245159 -0.07686159 0.13677442 -0.07537921
-0.17033726 -0.24198432 0.104706265 -0.12443456 0.013256882 -0.015495677 0.06717986 -0.13096805

head.norm.running_var f4 [64]
00000000: a2c0 153b 31ab db3a d39d bc3b 4c43 2e3c
00000010: 0753 d43a 1def 483b 5e32 dd3b 023e e03b
00000020: 8645 833b 75bc 0c3c a891 843b a8b6 063c
00000030: 439f 3e3c 97a5 913b e6c0 b53b 7cea 0d3c
00000040: a322 263c 54c6 433b 1e6c 4b3c 52df 723b
00000050: 1a96 4d3b ab8a 4c3b 158f 0e3c afa6 903b
00000060: d2db 4d3b e539 a03b fa74 023b e5fc d43b
00000070: 0ece 9d3b ada3 b53b 7eb6 593c 714a ca3b
00000080: 3b0c b63b 2161 4a3c e748 fe3b 7bb1 d13b
00000090: 8968 3e3b 3e07 793c 20e3 783b 87fd d23c
000000a0: 452d 193c a32b e03a f86d a83b 68ed 683c
000000b0: f5f5 163c 1590 363d 5a01 313b 7ab4 de3a
000000c0: 9e55 073c 0f42 133b 1d68 7b3c ddf2 7e3c
000000d0: eb69 2b3c a4e8 5f3c ef5b 593c 6269 073b
000000e0: 402a 853b ed8f e83b c30e cb3b 119b ae3c
000000f0: 2df8 863b db71 3f3b 4bed 163b 10d8 1f3c
0.0022850414 0.0016759393 0.005756119 0.010636162 0.001619906 0.00306601 0.006750389 0.0068433294
0.0040060906 0.0085898535 0.004045684 0.00822226 0.011634651 0.0044447887 0.005546677 0.008661862
0.010140094 0.0029872851 0.012415914 0.0037059379 0.0031369985 0.0031210582 0.008701106 0.0044144015
0.003141154 0.004889714 0.001990615 0.006499874 0.0048158234 0.0055431933 0.013288138 0.006173425
0.005555657 0.012352259 0.0077601555 0.006399331 0.0029054007 0.015199481 0.0037977174 0.025755657
0.009349172 0.0017102849 0.0051400624 0.014216758 0.009213914 0.044571 0.0027008862 0.0016991042
0.008260159 0.0022469794 0.015344647 0.015560833 0.0104622645 0.013666306 0.013266548 0.0020662178
0.0040638745 0.0070972354 0.006196828 0.021314176 0.0041189403 0.002921215 0.0023029621 0.009756103

body.block1.conv.weight f4 [64, 64, 3, 3]
00000000: 01f0 053d e63b 28bd 3f98 33bd cc1d d7ba
00000010: 6d7a b43c e43c aa3a 856a 48bd fff8 5f3d
00000020: 952a bc3c b562 ddbc 3575 bc3c 9972 093d
00000030: 024a b4bc 93f9 14bd 50c8 65bc 7557 833c
00000040: 2e13 233d cc15 b2bc 83ed e6bc 48c2 ebbc
00000050: 7ef5 9abc 7bc1 ad3c e5ac c53b 80e6 65bb
00000060: 08dc 01bc 3c2f 8f3c 27e6 403d bb87 1c3c
00000070: c818 1e3d 7b42 823d 81ba 323c 29a1 76bc
00000080: b4de cdbc fede 43bd ffca dfbc bbdd 31bd
00000090: 84f7 643d c4b6 943d be65 9c3d 59a5 19be
000000a0: 581e f8bd f897 ddbd 46c7 8f3d cd78 cb3d
000000b0: d541 c63d e203 203d d35f 08bd d8ba 523d
000000c0: 70d6 b23c 91ab 9f3b af30 f3bb d8fc 74bc
000000d0: dd7b 97bc c723 673c 2d18 0ebd c30c 7cbd
000000e0: b81a 8fbc 136a e23c 8b0d be3c 2a30 d4bc
000000f0: a25b 1c3d 0d52 e4bb bb2c d1bb 38cd d9bc
00000100: 8e34 92bc 77d4 743c 848c b33c 2bf6 d13c
00000110: 9873 2a3d d1d7 d83c a028 e73d 7c1e 773d
00000120: f90a d4bc f9e8 433d b56a 8d3c eb44 00bd
00000130: 3894 87bc 9d5e df3b 91d7 11bd 54f7 fdbc
00000140: 4973 08bd 36cc 4f3c 3991 cb3a 82cd 07bc
00000150: 353d 493c 1ea1 aabc 0ffc f03a 75ce e03b
00000160: c9f8 27bb 58e1 a03c 44c0 c1bc ee17 84bb
00000170: fbf1 71bc 018b ee3c 6440 443d 0f97 4c3d
00000180: 8550 8abd 9fd0 44bd fb16 8cbd 9512 80bc
00000190: 20e3 cabd 76d0 05bd 70cf 8fbc 4817 e23c
000001a0: f66a ca3c 3d09 a3bc 72d8 a7bc a61d 3ebc
000001b0: 902f 34bc 2504 563c 9b3e 153c 946a 803d
000001c0: b984 043d 42d6 703d 3e63 a1bc 1b49 c6bc
000001d0: fd53 0abb 025d ddbb 8503 9a3b 27df b13c
000001e0: fd3e 13bc 945d 3fba dd0b 8e3c 6b45 9ebc
000001f0: 7fb9 88bc 154a e9bc 93e3 fbbc 53b1 1fbd
00000200: e746 3abb 91b5 c03c 547a c43c a290 47bc
00000210: 193d 03bd 4ace d7ba 065f 15bd 5898 2b3d
00000220: 7510 c2bb a6b4 083d dc0e 89bc bdd4 d1bc
00000230: 6705 49bc fd85 103d 973a 823c b69b 353d
00000240: 86b8 0f3d e4b4 be3c 27e4 083d 0046 f7bc
00000250: 6311 3ebc b5b9 52bd 5094 1cbb 95a0 35bc
00000260: d0fd c2bc 7380 e7bc 2c8c afbc 17d2 4bbc
00000270: 3d6d 0a3c b6f8 6e3c 7fcb 853c d336 53bc
00000280: b5fc 0dbd 03aa 60bd b7d2 5f3d 3b49 273d
00000290: 312a 7e3d 1c73 40bd 70ce 82bd 312e e4bc
000002a0: fa20 5abc 244b debb dcea 69bc 22ec 0cbd
000002b0: 88e2 5bba 71c3 673d 8bd7 edbc 4b36 39bd
000002c0: 39ad 39bd a556 be3d 9109 723d 68d6 c93c
000002d0: 46e7 063c a8cc db3c 6570 323d 383d 4dbc
000002e0: 1422 d3bc 5d18 67bd 945c 993b c318 d8bb
000002f0: 2c7f 21bd 12af 653d e28a a33c b94e aebb
00000300: e81c abbc 4178 89bc 977a 1bbd b4d5 2f3d
00000310: a903 043d f1b8 823c f136 6eb8 060c b83c
00000320: 2b75 ac3c e2dd a0bb 5a69 a33c e0aa 97bc
00000330: ccc5 7e3d 3ae8 c0bc 9b50 4c3c dd18 f83c
00000340: eab8 bc3c cf2c c33c 164d 813c d161 8c3b
00000350: e7bb 62bc aba3 c03c 06e3 0abd 65b6 b3ba
00000360: 69dd a53a 4918 4f3c d4ed ce3c 5dac c0bc
00000370: 6138 0e3d d439 23bd 61ea a13d 2db1 803d
00000380: adc7 a63d 20d1 a53c ddc3 f13c f439 f93a
00000390: 3e6f 5ebc 53ba a4bb 935b 60bd bacf 773c
000003a0: 6090 3f3d ee90 1e3d 1616 8a3c 8d2f b63c
000003b0: 8d8f 1a3c fb1a 5fbc 7339 19bd d598 b1b9
000003c0: f552 88bc fcc0 be3c 82ce 423d 4348 423c
000003d0: e17e 0dbc 91bc cdbc 1fa5 dcbd 1d26 d3bc
000003e0: ee1c 01bd 56c8 f8bc 0766 013d 446c 473d
000003f0: eff9 183d 1928 a0bd f287 21bd a92f f23c
0.03269959 -0.04107275 -0.043846365 -0.0016412078 0.022031033 0.0012988118 -0.04892971 0.05468082
0.022969523 -0.027024606 0.023005107 0.033556554 -0.022007946 -0.036370825 -0.014024809 0.016032914
0.039813213 -0.02173891 -0.028189426 -0.028779164 -0.018915888 0.021210423 0.0060325735 -0.0035080016
-0.007925995 0.017478578 0.04709449 0.009553845 0.038597852 0.063603364 0.010908724 -0.015053072
-0.025130607 -0.047820084 -0.027318476 -0.04342435 0.05590011 0.07261422 0.07636593 -0.15004481
-0.121151626 -0.10820001 0.0702043 0.0993515 0.09680525 0.039066203 -0.03329451 0.05144772
0.021830767 0.004872747 -0.007421575 -0.014952861 -0.01849168 0.014107651 -0.034691025 -0.061535608
-0.017468795 0.02763847 0.023199817 -0.025901873 0.038173325 -0.006967789 -0.006383506 -0.026587114
-0.017847326 0.014943234 0.021917589 0.025630077 0.041614145 0.026470097 0.112870455 0.060331807
-0.025884138 0.047829602 0.017262796 -0.031315725 -0.016550168 0.0068166987 -0.03560597 -0.031001724
-0.03331307 0.012682965 0.0015530951 -0.008288743 0.012282659 -0.02082878 0.0018385666 0.006860549
-0.0025630465 0.019638702 -0.02365125 -0.004031173 -0.014767165 0.029119017 0.04791297 0.04994875
-0.06753639 -0.04805052 -0.06840321 -0.01563386 -0.09906602 -0.032669507 -0.017554969 0.027598992
0.024709206 -0.019901866 -0.020488951 -0.011603748 -0.010997668 0.013062512 0.009109165 0.06270328
0.032353137 0.058798082 -0.019700643 -0.024204781 -0.002110719 -0.006755472 0.0047001266 0.021712853
-0.008987186 -0.0007300016 0.017339641 -0.01932021 -0.016690014 -0.028477708 -0.030748164 -0.03898747
-0.0028423609 0.023524078 0.023984112 -0.012180479 -0.03204069 -0.0016464677 -0.036467575 0.041893333
-0.005922372 0.033375405 -0.016730718 -0.025614137 -0.012269354 0.03528403 0.015897078 0.04433795
0.035088085 0.023279615 0.033420708 -0.030184746 -0.011600825 -0.051446635 -0.0023892112 -0.011085649
-0.023802668 -0.028259492 -0.021429144 -0.012440226 0.008448896 0.0145856645 0.016332386 -0.012891489
-0.03466483 -0.054849636 0.054644313 0.040841322 0.062051956 -0.046984777 -0.06387031 -0.027854057
-0.013313526 -0.00678386 -0.014277186 -0.03440488 -0.0008387943 0.05658287 -0.029033443 -0.045217793
-0.045331214 0.0929387 0.059091154 0.02463837 0.008233851 0.026830986 0.04356422 -0.012526803
-0.025773086 -0.05641972 0.0046802256 -0.0065947487 -0.03942792 0.056075163 0.019963685 -0.005319443
-0.020887807 -0.016780974 -0.037958708 0.042928413 0.032230053 0.015957328 -5.679479e-05 0.02246667
0.021051964 -0.004909263 0.019947696 -0.018514097 0.062200353 -0.023548234 0.01247039 0.030285293
0.023037393 0.023825077 0.015783828 0.0042841216 -0.013838745 0.023515543 -0.033907913 -0.0013710974
0.0012654486 0.012640067 0.02525989 -0.02351969 0.034721736 -0.03985007 0.07906032 0.062837936
0.08143554 0.02024132 0.02951234 0.0019014464 -0.013576327 -0.0050270944 -0.054774832 0.015125209
0.046768546 0.038712434 0.016856235 0.02223947 0.009433639 -0.0136172725 -0.037408303 -0.0003387394
-0.01664112 0.023285381 0.047560222 0.011858049 -0.008636207 -0.02511433 -0.10773682 -0.02577501
-0.03152173 -0.030368965 0.03159144 0.048687235 0.03734773 -0.07820148 -0.03943629 0.029563742

body.block1.conv.bias f4 [64]
00000000: da93 05bd 1228 573c 942a 0f3d c13d 9b3c
00000010: 8622 963d 9d13 fb3b 92a2 023d 8ca3 843c
00000020: c5ae 2bbd 9cdf d5bc 8bc3 423d 8dd6 423b
00000030: 3828 393d 9f8e 74bd 21a4 133d addb 8d3d
00000040: 80c3 d3bc 1a83 83bb 37bf 2c3c 0ab0 153d
00000050: c93c 893c ddca 4f3d d18f 133c 381e 2e3c
00000060: ceb9 013d d720 af3b 37fa e23c 30f9 293c
00000070: 5768 fbbc a449 203b 486f bf3c 8246 6dbb
00000080: feb2 72bc 3af7 c53b 5aa2 093c bff8 d9bb
00000090: 89bd bcbb 9ea4 153d 1f97 02bc 8a1f cc3c
000000a0: bc51 643c a2e2 a9bc 601b 62bc 4eea 193d
000000b0: 4892 c0bc 3fdd 26bd 834b afbc 0931 923c
000000c0: cc94 98b9 67d1 16bd c0d7 ea3c 13aa f03c
000000d0: 30eb 843c 8b1a a03c a95b fcbc 43c1 1dbd
000000e0: abc2 f6bc 8194 723d 5674 48bc 7baf a5bc
000000f0: e8cf ad3c 54e6 46bd f1cf 553c acc6 0e3d
-0.032611705 0.013132112 0.034952715 0.018950345 0.073308036 0.00766225 0.03189332 0.016191266
-0.04191472 -0.026107602 0.047549766 0.0029729933 0.04520437 -0.059706327 0.036045197 0.069266655
-0.025850058 -0.0040134313 0.010543636 0.036544837 0.016752617 0.050730575 0.0090064565 0.010627322
0.031671338 0.005344491 0.027707202 0.010374352 -0.030689402 0.0024457956 0.023368493 -0.0036205356
-0.014813183 0.0060414346 0.008400524 -0.0066519673 -0.005759899 0.036533944 -0.0079706 0.024917383
0.013935503 -0.02073795 -0.013800472 0.037576966 -0.023507252 -0.04073834 -0.021398311 0.017845647
-0.00029102562 -0.036820795 0.02866733 0.029377973 0.016225427 0.019543907 -0.030805426 -0.038514387
-0.030122122 0.059223656 -0.012234768 -0.020225277 0.021217301 -0.0485595 0.013050065 0.034857437

body.block1.norm.weight f4 [64]
00000000: 40ef 8f3f 78bc 9d3f ebbb 8d3f 6672 903f
00000010: f954 a43f 4d08 a23f 6301 8b3f 13f0 a03f
00000020: c033 9f3f 64a8 903f d70d 873f 9fa0 893f
00000030: 016d a23f 8d28 9c3f aa55 9a3f 6839 a13f
00000040: 7095 953f 88a0 8b3f 2304 943f fab3 8a3f
00000050: 8ed7 903f a5fd 883f e6df 8e3f aca1 8d3f
00000060: dd7b 873f 0b96 843f d5f1 993f cd78 c83f
00000070: 1350 923f 22d9 8b3f c460 8d3f 4460 b83f
00000080: fbdb 8b3f 23e9 933f a292 b23f a2b5 8d3f
00000090: d4c5 8a3f 80ac 863f fa09 8c3f 2132 8c3f
000000a0: 332d 923f 396d 973f 42a2 8a3f 54d3 903f
000000b0: c7df 8e3f c013 873f ff7a b93f aa02 903f
000000c0: 3f8b 973f 5d14 913f 310b 963f 1cc6 8e3f
000000d0: 7319 a23f 61f4 903f 524f 993f acef 943f
000000e0: 7869 9b3f 1e5a 953f 7c66 843f 66ca 8c3f
000000f0: 0f30 903f 893c 8e3f 0992 a33f 3451 8e3f
1.1244888 1.2323141 1.1072973 1.1284912 1.2838432 1.2658783 1.0859798 1.2573265
1.2437668 1.1301389 1.0551099 1.0752143 1.2689515 1.2199875 1.2057393 1.2595644
1.168623 1.0908365 1.1563762 1.0836174 1.1315782 1.0702406 1.1162078 1.1064963
1.0584675 1.035829 1.2026926 1.5661865 1.1430687 1.0925639 1.1045156 1.4404378
1.0926508 1.1555523 1.3950999 1.1071055 1.0841622 1.0521393 1.0940545 1.0952798
1.1420044 1.1830207 1.0830767 1.1314492 1.1162041 1.0552902 1.449066 1.1250813
1.183937 1.1334339 1.1722165 1.1154208 1.2664016 1.1324579 1.1977332 1.1635642
1.2141562 1.1668127 1.0343776 1.0999267 1.1264666 1.1112224 1.2778941 1.1118531

body.block1.norm.bias f4 [64]
00000000: 7a0b 0fbe c112 d7be 5765 8fbd f645 3bbe
00000010: e2c7 e1bd 5583 cfbe 0d73 26be f59b bcbe
00000020: faeb 6abe 0ebd c2bd 6d99 f2bd 092f bfbd
00000030: 31ed 6abe 6e03 d5bd 30a9 96be 194c 4ebe
00000040: 3df3 c5bd ca5b b33c 7ce4 dfbd aab3 a33d
00000050: 4ae4 d4bd 47e5 40be 3f51 e8bd ee69 f53c
00000060: cbbe 0fbe e560 93bd 095d f1bd 178d 7abf
00000070: ef1d fc3c d362 42be b5ee e9bd a929 dfbe
00000080: 8e5f 083c 7e66 54be de5a 92be 6e6e 74be
00000090: c4b3 0dbe 225f c6bd 9f1c 5dbe e562 29be
000000a0: 727c 66be 6643 bf3d f03c 26be 4105 7d3d
000000b0: 723f 1c3d 1929 27be d6c8 0ebf 0d87 0ebe
000000c0: ae25 a4be 764c 0dbe a17e d8bd ae06 b3bd
000000d0: d8d4 1fbe 4eb7 73be edeb b0bd 5f47 39bc
000000e0: 83b7 e3bd 6cd0 c9bd 6b3b 93bd 95df 76bd
000000f0: e3a8 37bd edcc c8bd 8831 dbbe dc54 11be
-0.13969222 -0.42006496 -0.07001751 -0.18288407 -0.11024453 -0.40529886 -0.16254826 -0.36837736
-0.2294158 -0.095087156 -0.1184567 -0.09335143 -0.22942044 -0.10401045 -0.29425955 -0.20146216
-0.09665535 0.021894354 -0.10932252 0.079932526 -0.10395105 -0.18837462 -0.113436215 0.029957738
-0.14037625 -0.071962155 -0.11785323 -0.97871536 0.030775992 -0.18983011 -0.11422483 -0.43586472
0.008323563 -0.20742223 -0.2858495 -0.2387025 -0.13838106 -0.09686114 -0.2159295 -0.16541632
-0.2250841 0.09339027 -0.16234183 0.06177259 0.038146444 -0.16324271 -0.557752 -0.13918705
-0.32059997 -0.13798699 -0.105710275 -0.087415084 -0.15608537 -0.23800394 -0.08638749 -0.01130852
-0.111189865 -0.098542064 -0.071890675 -0.06027182 -0.044838797 -0.098047115 -0.42811227 -0.14192528

body.block1.norm.running_mean f4 [64]
00000000: 18d0 d0bd 281f 5dbe 47a6 ea3e e97f d53e
00000010: 9714 d33e ddaa 93be 2d26 8b3b d47c 673d
00000020: f4ee 3a3e 8d7f 09be 2a77 9fbe 4941 3c3e
00000030: 8c6a a6be 06dc 253f e49b 133d 52bf 5c3e
00000040: 2530 213d d3ce 05be ab08 0a3e 1320 aebe
00000050: b0f4 073e 0d43 fe3e 0d47 993e 4e0d 963e
00000060: 01e7 b93e 6699 df3e 8e86 b23e 73dd c0bb
00000070: a8f3 cb3e f387 b83e 38e7 2cbf 537c 9d3b
00000080: 5c3e ebbd 56a4 cbbe f138 b6bd 012c c6bd
00000090: 3895 19be 4700 34bf 3f71 fd3e fe74 183d
000000a0: f934 95be 72b5 61be 180c 0abe 828a bfbc
000000b0: b7b8 64be 0c8f b2be 5f96 efbe 1d06 a33d
000000c0: 11cd c83e 841c 15bf 6edb b53e 24ed c03e
000000d0: 91df 263e ae69 b93e 390a 873d 777b 3c3c
000000e0: 6acd 92be e590 293f 1b2a ebbe 3774 bb3d
000000f0: 8eb8 cf3e 2ef4 81bd 6488 19be 45f0 0b3e
-0.10195941 -0.21593916 0.45829985 0.4169915 0.41226646 -0.28841296 0.0042464943 0.05651553
0.18255216 -0.13427563 -0.31145602 0.1838428 -0.32503164 0.64788854 0.03603734 0.21557358
0.039352555 -0.13067178 0.13479869 -0.34008846 0.13276935 0.4966053 0.2993702 0.29307026
0.36309054 0.4367172 0.34868282 -0.005885774 0.39834332 0.3604122 -0.6754031 0.0048060804
-0.114865035 -0.39773816 -0.088975795 -0.09676362 -0.14998329 -0.70312923 0.49500462 0.037220947
-0.29141977 -0.22041872 -0.13481176 -0.023381475 -0.22336088 -0.3487476 -0.46794412 0.079601504
0.39218953 -0.58246636 0.35518974 0.37680924 0.16296221 0.3621344 0.06593747 0.011504046
-0.28672343 0.66236717 -0.4593056 0.091530256 0.40570492 -0.06345402 -0.14993435 0.13665874

body.block1.norm.running_var f4 [64]
00000000: 5d88 d93e 0c6e d03d 9a13 943e 2d59 b33e
00000010: 6948 ae3e 4c26 513e 0586 5f3e c479 8d3e
00000020: 1439 863e 9ecc 403e 0c39 b23f 1c68 e43e
00000030: 521f 3e3e ea17 913e 9113 fc3d 2379 ab3e
00000040: 7106 9d3e 0882 463f ea2e b93e 949d ee3f
00000050: 03ac 003f 43a1 973f 6845 293e 15cb 2b3f
00000060: c94b fe3e f07b 953e d486 9f3e b887 773d
00000070: 30c5 2c3f d40f b53e 6d92 243f 34c2 dd3d
00000080: 2a1c 333e ce40 cb3e 87f2 ff3d 5c3d 2e3e
00000090: b292 053f 1c41 b13e c511 983f 637c 9d3e
000000a0: 18b5 cf3e 68f2 403f b7e2 a03e 597e 323f
000000b0: 8d45 4b3f b355 2f3e 6bb6 4b3d fd8f 903e
000000c0: cc87 2f3e bda1 fc3e 96f1 3a3e b6b3 3b3e
000000d0: cf00 953e 0734 213e 6183 8b3e 1cc8 d13e
000000e0: 009f 203e 252c c53e 142f 743e a564 b63e
000000f0: 7dff b23e 9a89 7e3f b0ba 6d3d 3cb5 b03e
0.4248685 0.1017724 0.28921205 0.35028973 0.3403962 0.20424765 0.21828468 0.27631962
0.26215422 0.18828055 1.3923659 0.4461068 0.18566635 0.28338557 0.123084195 0.33490857
0.30668977 0.7754216 0.36168605 1.8641839 0.5026247 1.1846088 0.16530383 0.67106754
0.49667194 0.2919612 0.31157553 0.060432166 0.67488384 0.35363638 0.6428593 0.10828057
0.17491212 0.3969788 0.1249743 0.17015594 0.52176964 0.34619987 1.1880423 0.30758962
0.4056785 0.7536988 0.3142297 0.6972404 0.79403 0.17122535 0.049734514 0.28234854
0.17141646 0.49342147 0.1825622 0.18330273 0.2910218 0.15742503 0.27248672 0.40972984
0.15685654 0.38510242 0.23846084 0.3562366 0.34960547 0.99428713 0.058039367 0.3451327

tail.0.weight f4 [12, 64, 3, 3]
00000000: 13d0 613d 3379 07bd d6bf 4d3b 77b7 aa3d
00000010: 7fa9 c03d f42b 8f3c 5064 2c3d ddd8 063c
00000020: c193 8fbd c579 693c f248 2cbe 6036 473d
00000030: 6a68 b3bc 4afc e738 142c f0bc b2cc d03d
00000040: 4b9d 03bd af6f 35bb aa03 633d 219f 34bc
00000050: ce98 e0bc 9266 d43d f255 3abd 9f34 4a3d
00000060: eb60 9cbc 82de 52bd dc91 6bbc 9960 593d
00000070: c966 f6bb af53 313d 32d0 d5bc e112 6d3c
00000080: 5f06 9d3d 86ff 17bd 7546 96bb 5340 b13d
00000090: 003d 8a3d a2a2 b33c 32f1 a43d e612 903d
000000a0: 9fd8 b03d 0ef8 9a3d cd13 d5bc 185c a7bc
000000b0: 23e2 4d3c 5722 4fbb a666 13bc 1cf9 a33c
000000c0: f43c c03a 17bd c6bd 9501 ddbd a9f9 703c
000000d0: b94e b73b e4dc 50bd dcb9 6dbd be3a acbc
000000e0: 0250 0b3e f681 083c fc1a 863c da0c 18be
000000f0: f836 2ebd ca4f 23bd 9a0c edbc 42f1 28bd
00000100: e2f6 363b f359 ac3c b1c2 0d3e 04ef 5b3d
00000110: 19fe 64bc b0d2 d23a 3ebc cbbc 4bb7 1ebb
00000120: 7e42 adbd ea7c 443d a255 44bb 6842 c23d
00000130: 1f59 363e bda4 cebd aaac efba 11af a1bd
00000140: 468a 6fbd 7b64 bbbb 35f2 c43d 5ca5 603d
00000150: e779 0fbd e704 ffbc 6496 b03c 0d6c 8e3c
00000160: 699d 6ebc 971f 873c 1db1 81bd 1299 2fbd
00000170: b601 c9bd d8e0 06bd 998f 9bbd b91a 75bd
00000180: 2ed8 03bd 737d 8abd e5d7 23bd 1f43 b1bc
00000190: 22e6 b8bc 6795 5d3b 97b5 793d 6f56 1abd
000001a0: 788a fc3c b24f e53c 5346 9bbc 93d0 f5bc
000001b0: 6470 40bc df83 8abd d6bf 4b3e 4f86 33bd
000001c0: a7f5 58be 3904 993e c4e3 e7bc 1ea1 f5bd
000001d0: 558a 373e e086 453c 2b1d 463d 23d2 f5bc
000001e0: 99ad cb3d 8501 8a3d 33bd 51bd 1b5d 553c
000001f0: 596b d23c 340b 0ebc cf8d c53c e111 553e
00000200: 6218 edbd d8ba d6bd daf7 833c b91e d33c
00000210: e8c2 973d 82ff 643c a7c1 173d 5627 db3d
00000220: e0df 853d 6669 0b3d 98b3 8b3d 24c3 2f3d
00000230: 5cc1 0b3d 3b90 6b3c 4f7d 063d 5166 79bc
00000240: 48c9 09bc 3b45 533b 5b73 263d 4f21 94bc
00000250: 2c55 e1bc ed5b 543d bea8 633d 4719 883c
00000260: c954 e53c 7afa 4d3c 9a28 0e3c faa1 c5bc
00000270: b9b8 2f3d 47f9 0c3d b22f ab3c 1f4c 913c
00000280: 1d5b a83c 283d 46bc 717c 8d3c 9eb0 93bc
00000290: 6c5b 6c3c 6bc8 173d 13a0 833d 5b5f 04bd
000002a0: 4583 8dbd 903b c6bc 0994 5c3b ef55 0ebd
000002b0: 3ad3 263b 34a5 593c b294 093c 5e8b b03d
000002c0: e18e 963d 37d4 c1ba 0cea dc3d a98e a13d
000002d0: 136c d53c abce 2d3d 2ee2 c1bc 6236 05bd
000002e0: fb72 8f3c f48f 033d c12e 84bb 0c9c 423d
000002f0: 65ba 1a3c fe6e 3ebb d860 843d f536 303d
00000300: 28b4 f8bc 32d7 cf3b d353 e5bc 4f76 f8bc
00000310: 6e87 803c 1f31 b9bc 235e 78bc 3f90 35bd
00000320: 829b 49bd 7709 8e3c c5b7 9c3d c649 953b
00000330: 72cb 0d3d 374e 873c 2ae7 ca3c a20f 013e
00000340: 92e9 123e 26c7 3f3d f5d6 12bd ef3c 123d
00000350: 691c 323d 6908 333d e4c5 d63b 79b2 3ebc
00000360: 6caa a53b 0da9 9cbd 766f 17bd 5b90 c13c
00000370: 29f0 5dbc 24fd 87bd f47b ad3d 21f9 3a3d
00000380: 565a b83d 10f6 85bd 3663 14bd 4a33 293e
00000390: efe3 bcbd 9107 9bbc 93db 253d b6c2 8cbc
000003a0: f81b acbc e2a3 2fbd 5e78 6ebd 2ce2 a93d
000003b0: 2e51 06be ce7f eabd c841 cabd d908 73bd
000003c0: bc8f 7b3c a457 d13b 6825 fe3c b13c 093d
000003d0: d949 00be c49b fe3a 30eb 56be 7fdb cb3e
000003e0: 4d04 40be ded6 4dbd 8f0b ebbd a07d 73bb
000003f0: 3b39 6bbd a931 2bbe 81b5 f9bd 80da d3bc
0.055130076 -0.03307457 0.003139486 0.083357744 0.09407329 0.017477013 0.042087853 0.008230415
-0.07010604 0.0142502235 -0.16824701 0.04863584 -0.021900374 0.00011061931 -0.029317893 0.101952925
-0.03213243 -0.0027684977 0.055423416 -0.011024267 -0.027416613 0.10371126 -0.04549212 0.04936659
-0.019089183 -0.05148173 -0.014378037 0.05307064 -0.007519577 0.043292698 -0.026100252 0.014469833
0.07667231 -0.03710892 -0.004586036 0.08654847 0.06749916 0.021928135 0.08053817 0.070348546
0.08635067 0.07566844 -0.026010418 -0.020429656 0.012566122 -0.0031606162 -0.008996641 0.020016246
0.0014666603 -0.09704035 -0.107913174 0.014707961 0.0055941013 -0.050991908 -0.058038577 -0.021024104
0.1360474 0.008331766 0.016370289 -0.14848652 -0.04253289 -0.039871015 -0.028936673 -0.041245706
0.002791815 0.021038985 0.138438 0.05369474 -0.013976597 0.0016084518 -0.024870034 -0.0024218138
-0.08459948 0.04797069 -0.0029958268 0.09485322 0.17807434 -0.10090015 -0.0018285711 -0.078947194
-0.058481477 -0.0057187653 0.0961651 0.0548452 -0.035028365 -0.031130267 0.021556087 0.017385507
-0.014563897 0.016494555 -0.0633261 -0.04287059 -0.098147795 -0.03292927 -0.075957485 -0.059839938
-0.032188587 -0.06762209 -0.040000815 -0.021638451 -0.022570673 0.0033810975 0.060964193 -0.037680086
0.030827746 0.027992103 -0.018954432 -0.030006683 -0.011745546 -0.06763434 0.19897398 -0.04382926
-0.21187459 0.29886034 -0.02830685 -0.11993621 0.17923863 0.0120560825 0.04836766 -0.030007428
0.099452205 0.06738571 -0.051205825 0.013022686 0.025685953 -0.008669663 0.024115471 0.20807602
-0.11576916 -0.10484856 0.016109396 0.025771486 0.07410222 0.013976933 0.037049916 0.10700862
0.065368414 0.034036063 0.06821364 0.04291071 0.03411995 0.014377649 0.032834347 -0.015222148
-0.008409806 0.003223731 0.040637355 -0.018082289 -0.027506433 0.05184548 0.055580847 0.016613616
0.02799453 0.012571925 0.008676672 -0.024125088 0.042900775 0.034417417 0.020896766 0.017736493
0.020551259 -0.012099542 0.017271252 -0.018028554 0.014426094 0.037056368 0.06427016 -0.0323175
-0.06909803 -0.024198323 0.0033657572 -0.03474992 0.002545549 0.013284016 0.008397268 0.08620332
0.07351471 -0.0014787976 0.107868284 0.078885384 0.02605251 0.042433422 -0.023667421 -0.032522567
0.017510882 0.032119706 -0.004033894 0.0475121 0.009443854 -0.0029057856 0.06463784 0.04302116
-0.030359343 0.006342792 -0.027994072 -0.030329851 0.015689578 -0.02260643 -0.015159163 -0.044327017
-0.04922057 0.017338498 0.07652239 0.0045559136 0.03461785 0.016516788 0.02476843 0.1260362
0.14346913 0.046820782 -0.03584953 0.035702642 0.043484125 0.043709192 0.006554352 -0.011639231
0.0050557163 -0.076494314 -0.03697153 0.023628404 -0.013546028 -0.066400796 0.08470908 0.045647744
0.09001605 -0.06541073 -0.036227427 0.16523471 -0.092231624 -0.018924506 0.040492605 -0.01718269
-0.02100943 -0.0428809 -0.05822026 0.08295092 -0.13116905 -0.11450158 -0.09875828 -0.05933461
0.015354093 0.0063886214 0.031023696 0.033505145 -0.1252817 0.0019425084 -0.20988154 0.398159
-0.1875164 -0.05025374 -0.11476814 -0.0037153736 -0.057427626 -0.16718163 -0.12192822 -0.025861025

tail.0.bias f4 [12]
00000000: 4ddc e8bd 1918 663c 63b1 993d 0cc1 ebbc
00000010: c22d 15bd 3e31 43bd d20e da3b 83ca 2abd
00000020: 3f96 983d 5b9c 65bd ab22 c2bc f93b d1bd
-0.11370144 0.014043831 0.07504537 -0.028778575 -0.03642059 -0.047654383 0.0066545988 -0.041697036
0.07450532 -0.056057315 -0.023698172 -0.10216517
