3layer_4000its/files/2/D.pth (torch, 184073 bytes, 13 tensors)

head.conv.weight f4 [64, 12, 3, 3]
000000 c8 53 8f 3b b1 a9 1c bd 4a 9a 0a bd 7f d9 23 3c
       0.004374001 -0.038247768 -0.033838548 0.010000586
000010 eb 27 d2 3b 49 f3 b2 3a 7f 2c ac bb e0 86 d1 3c
       0.00641345 0.0013652827 -0.005254328 0.025577009
000020 de 73 1e 3d a1 d6 7e 3d e9 7b 07 3c b4 b7 78 3d
       0.03868472 0.062216405 0.008269289 0.060722068
000030 22 6e c3 3b b3 e8 0f 3c af e9 0c 3c e6 dc c3 bc
       0.0059640566 0.008783507 0.008600636 -0.023909044
000040 36 58 36 bd d6 9e 5a bd 40 66 64 bd 9d 86 d6 3b
       -0.04451772 -0.053374134 -0.055761576 0.006546809
000050 a2 26 93 bd a3 bf b5 bd 3b ba f2 3c da 2f a0 bc
       -0.07185103 -0.088744424 0.029629817 -0.019554067
000060 c1 a9 97 3d e7 20 5a 3d d5 73 fe bc 97 f8 7a 3b
       0.07405425 0.053254034 -0.031061092 0.0038295144
000070 8b 02 b8 bc 53 a2 84 3b 3f 90 93 bb a8 88 b2 b9
       -0.02246215 0.004047671 -0.0045032795 -0.00034052623
000080 32 89 80 bb 31 78 51 3b 09 f4 0c ba aa fb 67 3c
       -0.003922605 0.0031962509 -0.000537694 0.0141591225
000090 20 d4 00 bd 1e de 57 bc 79 26 dd 3c 35 31 4b 3b
       -0.0314523 -0.013175515 0.026995884 0.0031004671
0000a0 dc c8 fc bc 96 d4 30 bb 40 ea 17 3d 1d a0 16 bc
       -0.030857496 -0.002698218 0.037088633 -0.009193447
0000b0 94 91 4d bc ca e4 91 bc dc 23 e9 3c 52 82 25 3c
       -0.012546916 -0.01780929 0.028459482 0.010101872
0000c0 76 a7 f2 bb 79 f9 a1 3b 11 ce 00 3a b7 19 05 bb
       -0.007405217 0.0049430695 0.0004913519 -0.0020309517
0000d0 6a 35 10 3c 7a 57 25 bc 2f 3c 1c bb 61 58 fd bb
       0.008801797 -0.010091657 -0.0023839583 -0.007731483
0000e0 f4 41 46 bc d3 a8 12 bd 5a e4 b4 bb 27 d7 94 3c
       -0.012100685 -0.035805535 -0.0055203857 0.018168999
0000f0 eb 1d 85 bd ef 65 36 bd 2e a5 e2 3c 11 55 34 3a
       -0.06499847 -0.044530805 0.027666654 0.0006879131
000100 70 9f c5 bb f1 9a 8a bb 68 a0 24 3b bb aa e9 bb
       -0.0060309693 -0.0042298962 0.0025120024 -0.0071309484
000110 01 8a ea 3a 6b c5 1a 3c a6 62 c8 bb 12 5a d4 bb
       0.0017893912 0.009446482 -0.0061152754 -0.006480464
000120 c3 4e 9c 3c ad 83 eb 3c 8d e8 93 3b c4 f0 f7 3c
       0.019080525 0.028749311 0.004513806 0.030266173
000130 cd 33 f6 bc 9b 88 29 bb 1a 06 ac 3a 40 b6 1f 3d
       -0.030053997 -0.0025868777 0.0013124377 0.038992167
000140 a5 29 66 bb 35 c2 9a 3c 45 cb 31 3d ab c1 24 bb
       -0.0035120037 0.018891433 0.043406744 -0.002513985
000150 a3 dd 64 3c ac 95 57 3d e3 8c af bc 89 cd 8d bd
       0.013968858 0.052632973 -0.021429485 -0.06923968
000160 c1 32 35 3d df b5 ca 3c af 8c 4c bc 7f c6 45 ba
       0.044237856 0.024744926 -0.012484713 -0.0007544532
000170 17 16 15 ba 6a c1 e8 3b 41 b0 00 3b 7e ee ff bb
       -0.00056871906 0.007103135 0.0019636306 -0.007810413
000180 e1 01 ff 3c fd 51 1a bc 60 2d 64 3c 4b 39 9f bb
       0.031128826 -0.009418962 0.013926834 -0.004859125
000190 3b 0e 96 bc e5 b8 c8 3c 86 16 a9 3d 87 e1 71 bd
       -0.018317332 0.024502227 0.08256249 -0.05905297
0001a0 67 cd 3c 3d 11 82 12 3d 53 64 bb bd 10 91 33 3b
       0.046094324 0.035768572 -0.09149995 0.0027399696
0001b0 e6 9e ac bd 53 77 f7 3d a2 e6 a0 bd ae 48 42 3c
       -0.08428745 0.12083306 -0.0785649 0.0118581485
0001c0 20 79 9c 3d 70 f0 ce bb 3e 1e d0 bb 1d ba 87 bc
       0.0764029 -0.0063152835 -0.0063512614 -0.016568238
0001d0 3d 4b 08 3c 67 95 a6 bc 0c 1d e0 bc 38 5b 70 bc
       0.008318719 -0.020334912 -0.0273576 -0.014670186
0001e0 77 4a fa 3c 52 3b a9 3c ef 38 51 ba e7 6e bb bc
       0.030553086 0.020658169 -0.0007981201 -0.02288003
0001f0 65 5d 6f 3d 7a c9 06 3c 61 ae a9 3d 80 99 99 bd
       0.058438677 0.008226747 0.08285213 -0.07499981
000200 93 42 dd bc c1 c4 a3 bb 05 2a d9 b9 49 24 9d 3b
       -0.027009284 -0.00499782 -0.00041420772 0.0047955853
000210 b8 aa 93 ba a1 d4 18 be 1a d9 b5 3c c2 4d a6 3b
       -0.0011266088 -0.14924861 0.022198249 0.0050751874
000220 a6 df cc 3c 67 16 94 bc c5 98 48 bb 26 28 da 3b
       0.025008988 -0.018077089 -0.0030608636 0.006657618
000230 e3 80 9c bc f1 aa c8 bb 02 9a 3b 3b cc ed 42 bc
       -0.019104427 -0.0061238934 0.0028625731 -0.0118975155
000240 76 48 65 3c 60 76 9d 3d 3d 0f 41 3d 51 0b 86 bd
       0.013994327 0.07688594 0.047133673 -0.06545127
000250 9c 5d d3 bc ae b0 0c 3d ab 02 c6 3c dc ae 95 3b
       -0.025801472 0.034348182 0.024171194 0.004567964
000260 f8 36 0d bd 40 e6 03 bd f1 2b 61 3c a5 98 4d 3d
       -0.03447625 -0.032202005 0.013743387 0.0501944
000270 11 06 94 bc 20 50 97 bc 09 32 1c 3d 13 2d a9 3b
       -0.018069299 -0.018470824 0.038133655 0.005162844
000280 bd 74 96 bb 3a 97 ca bc 38 bb 92 bb 99 2d 8c bc
       -0.004591553 -0.024730314 -0.0044778846 -0.017111586
000290 4c 79 e2 3d 99 db 6a 3c 37 74 a2 bc 38 18 06 3d
       0.11058292 0.014334583 -0.019830806 0.03273794
0002a0 81 80 07 bb 9e 31 2f 3d 08 0b 49 bc 9f 0a 2c 3c
       -0.002067596 0.042771928 -0.012270696 0.010500579
0002b0 a9 dd 41 bd 05 b5 1d bc 39 4a 81 3c da 9d 1e bc
       -0.047330532 -0.009625678 0.015782462 -0.009681189
0002c0 64 6e 84 bd 82 16 22 3a f9 4a 6e bb f5 2a 19 3c
       -0.06466368 0.00061831635 -0.0036360605 0.009348621
0002d0 79 1b 7d 3a 37 f8 16 bd 80 35 a0 bc bf 21 4f 3c
       0.0009655278 -0.03685781 -0.01955676 0.012642323
0002e0 83 18 b9 3c ae f2 91 bc 74 b7 a7 3c cf 4b 14 3c
       0.022594696 -0.017815914 0.02047322 0.009051277
0002f0 0a fc 8f 3c 3c 63 61 3c 06 27 b2 bb 8d 40 a9 bc
       0.017576236 0.0137565695 -0.005436781 -0.020660663
000300 80 d8 e4 bb 6b 2b d8 bc 1f 40 a6 3c 3e 59 7d 3a
       -0.0069838166 -0.02638789 0.020294247 0.0009664482
000310 71 3b 19 3d d1 61 18 ba 58 ee 11 bb c2 5b f7 bc
       0.037410203 -0.00058129156 -0.0022267308 -0.03019512
000320 af 6e a0 bc b2 d9 22 bb 53 72 47 bb a0 f4 4d bc
       -0.019584028 -0.0024848995 -0.0030433133 -0.01257053
000330 61 34 be bb 9b 5d f0 3b ea ef f7 ba 30 03 e9 bc
       -0.005804584 0.0073353774 -0.0018916104 -0.028443903
000340 ab 09 f9 3b a2 4e dc bc 0b 31 84 3c 04 cb e9 3c
       0.0076000295 -0.026892964 0.016136667 0.028539188
000350 81 97 a2 bc 9b 4b 17 bc fe c2 fb 3c 09 4b 7b ba
       -0.019847633 -0.009234334 0.030732628 -0.0009586071
000360 23 34 0d bb 53 af a8 bc 47 d7 52 bc e6 51 a5 3c
       -0.0021545968 -0.020591414 -0.012868709 0.020180654
000370 82 ae 90 bc a8 5c 26 bb 1c 72 99 3c 40 ea a7 3c
       -0.017661337 -0.0025384817 0.01873117 0.020497441
000380 fa 27 97 3b 00 be 8c bc a9 c1 8a 3c 1a 31 41 bb
       0.00461292 -0.017180443 0.016938047 -0.002947873
000390 3c 7e f6 b9 5a 11 a4 bc d6 30 02 3d e4 b9 b7 3b
       -0.00047014828 -0.020027805 0.031784855 0.0056068767
0003a0 ea f3 b2 3a bc b4 16 bb 4c 73 86 bd 88 1f ac 3d
       0.0013653014 -0.002299591 -0.0656496 0.084044516
0003b0 57 94 bc bc e1 c2 5d bd d3 a2 bd 3d 2c 32 b3 bd
       -0.023019953 -0.05414093 0.09259572 -0.08749804
0003c0 41 75 dd bd 8b e8 a9 bc b0 90 3b 3d 2b 8f 8d 3c
       -0.1081338 -0.020740768 0.04579228 0.017280182
0003d0 b3 47 6c bb 9a 08 3e bc c2 5e 40 3c 2d 28 67 3c
       -0.0036053478 -0.01159873 0.011741342 0.0141087
0003e0 a1 a4 15 3d a0 cb 52 3c 37 48 0f bc 16 50 c3 3a
       0.036533955 0.012865931 -0.008745245 0.0014901187
0003f0 94 51 62 bc b1 ad 9f bc c2 11 08 3b db 07 59 3c
       -0.013813395 -0.019492002 0.0020762538 0.013246502

head.conv.bias f4 [64]
000000 7e 5a 82 bd 99 27 b9 3c 2e 70 9b bd 47 7a b5 3d
       -0.06364916 0.02260189 -0.07589756 0.08861213
000010 63 17 33 3b be 0f d2 3d ee 1a 60 bd c7 7b 9d bb
       0.0027327172 0.10256909 -0.054713182 -0.004806015
000020 5c 05 8d bd 09 0a 86 3d ad 80 a4 bd 57 ee b3 3a
       -0.06885788 0.06544883 -0.080323555 0.0013727647
000030 35 6c 86 bd 4a 51 15 3d a6 67 5e 3c 5c 00 da 3d
       -0.065636076 0.036454476 0.013574516 0.106446
000040 5e 5b 1f bd b6 ef 17 3c 16 24 37 3d a6 38 a2 3d
       -0.038905494 0.00927346 0.04471215 0.07920961
000050 5c 62 70 3d 49 ba a8 bc 75 1a 2c bd c8 21 aa 3d
       0.058687553 -0.02059664 -0.04201742 0.083072245
000060 d9 49 a9 3d 58 6a c5 3d 97 61 67 3d c6 a7 b5 bd
       0.082660384 0.09639424 0.056489553 -0.08869891
000070 d7 07 bb 3d 5f b3 a4 3d a9 db 17 3c 2f db 42 bd
       0.09132355 0.08042025 0.00926868 -0.04757231
000080 86 f7 30 bd 28 8a b6 3d fb e9 7e bc 67 5f 06 bd
       -0.043204807 0.0891307 -0.015558715 -0.032805827
000090 8f 87 a6 bd 9e ff 1e 3d c5 72 2d bd e6 cf 75 bd
       -0.081313245 0.038817994 -0.04234578 -0.06001272
0000a0 8c 46 62 bd 35 26 49 bd 1c c6 3b 3d bc cc 97 bd
       -0.05524306 -0.049108703 0.04584323 -0.07412097
0000b0 44 6d 31 3c 2a de e6 bb e5 5b de bd 71 8d 17 3b
       0.010829274 -0.007045527 -0.10857371 0.0023125077
0000c0 d9 e4 b4 bb 76 87 83 bc b2 95 11 be 8c d8 93 3d
       -0.005520445 -0.016055804 -0.1421726 0.072190374
0000d0 77 f2 09 3d 09 15 b9 3d 4e 67 58 bd 7e fb 4e bd
       0.033678498 0.09037215 -0.052832894 -0.05053281
0000e0 53 e2 89 3d f6 08 dc 3c db 88 b4 3d b1 24 5a 3d
       0.06732621 0.026859742 0.088151656 0.053257648
0000f0 72 1c 61 bd ee f1 0c 3e 8b 2d 66 bc 7e bc b6 3d
       -0.05495877 0.13764164 -0.014048944 0.08922671

head.norm.weight f4 [64]
000000 15 f5 81 3f e2 ba 71 3f 01 86 5e 3f ea fc 77 3f
       1.0152918 0.94425786 0.86923224 0.9687029
000010 8f c0 8f 3f b5 4d 83 3f ab 7b 7b 3f 3e e0 77 3f
       1.1230639 1.0258089 0.9823558 0.9682654
000020 f4 71 79 3f b3 e6 65 3f 51 eb 64 3f 19 c4 7c 3f
       0.97439504 0.89805144 0.89421564 0.9873672
000030 27 09 61 3f 70 38 6a 3f 25 98 6c 3f 0c 7d 6d 3f
       0.8790459 0.91492367 0.92419654 0.9276893
000040 48 87 6c 3f 6b ed 70 3f a1 89 66 3f fc fa 8d 3f
       0.9239392 0.9411227 0.90053755 1.1092219
000050 d4 3b 8c 3f 69 51 85 3f cd d2 87 3f be e3 87 3f
       1.0955758 1.041547 1.0611206 1.0616376
000060 5e 8c 8d 3f 1c 67 6e 3f 90 5f 71 3f 67 b3 7c 3f
       1.1058462 0.9312608 0.9428644 0.98711246
000070 b6 cd 86 3f 50 7e 71 3f 31 e0 84 3f 23 49 72 3f
       1.0531528 0.9433336 1.0380918 0.9464285
000080 6f 54 81 3f 28 ad 78 3f 27 2c 8e 3f 37 f5 73 3f
       1.0103892 0.97139215 1.1107224 0.95296043
000090 cf f8 82 3f 02 ae 75 3f 94 f1 87 3f a2 01 8b 3f
       1.023218 0.9596864 1.0620599 1.0859873
0000a0 bf 9b 82 3f 54 0f 4f 3f 9a 04 5d 3f dd 22 85 3f
       1.020378 0.80882764 0.86335146 1.0401264
0000b0 af a9 6e 3f da be 81 3f bb e4 7f 3f 84 40 87 3f
       0.93227667 1.0136368 0.9995839 1.0566564
0000c0 c3 9f 6c 3f 7d 99 88 3f 8c 86 84 3f 79 ab 87 3f
       0.9243128 1.0671841 1.035356 1.0599204
0000d0 08 69 85 3f d2 98 70 3f 46 d0 88 3f 4d cc 88 3f
       1.0422678 0.93983185 1.068856 1.0687348
0000e0 76 ea 74 3f 75 ac 7e 3f b6 3f 7b 3f 0a aa 66 3f
       0.9567026 0.994819 0.9814409 0.9010321
0000f0 2f a8 72 3f 66 3b 3e 3f 89 9b 8a 3f d8 96 70 3f
       0.9478788 0.74309385 1.0828716 0.9398017

head.norm.bias f4 [64]
000000 2d e8 fa 3d 42 62 e8 bc c4 2b 4c bc 22 58 29 3d
       0.12251315 -0.028367165 -0.012461606 0.041343816
000010 dc c0 e2 bd 8a 9a 7f 3c 73 32 b9 3d 13 fb 73 3e
       -0.11071941 0.01560081 0.090428255 0.23826246
000020 c5 21 98 be bb 2b 60 bd bb da cb 3d 64 c8 aa bd
       -0.29713264 -0.054729205 0.09953829 -0.08339003
000030 40 26 ad 3d fa 29 2a 3e dd 2f 75 3e e9 30 bd bd
       0.08454561 0.16617575 0.2394404 -0.092378445
000040 d3 e8 e4 3d c5 59 8f 3d c3 5d 40 3e 36 51 1e 3e
       0.1117722 0.06999544 0.18785767 0.15460667
000050 ee e7 ba 3c cf 40 b2 3c 69 7d c1 3d e6 d4 8d 3d
       0.02281567 0.021759419 0.09447748 0.06925373
000060 cd b3 c6 bc 98 ea b2 3d e6 bb c8 3e d2 48 24 bd
       -0.024255658 0.087361515 0.39205855 -0.04010851
000070 59 95 72 3c 12 95 df 3d e3 da 79 be e7 b7 91 3d
       0.014806115 0.10917105 -0.24399905 0.07115155
000080 8d 76 96 bd cb 0a 83 3d 93 a0 fd bd 54 b8 9c 3e
       -0.073468305 0.06398543 -0.12384143 0.3060938
000090 85 80 d2 bd 34 9c 22 bd 42 d6 9e 3d da 9b 85 3d
       -0.102784194 -0.03969975 0.0775571 0.06523867
0000a0 11 45 d9 3d 43 59 17 3e 6c d6 88 3e 80 e1 ff 3d
       0.106088765 0.14780144 0.2672609 0.124941826
0000b0 75 ba 82 3b 7c 3a bf bd d5 65 0c 3e 88 94 34 3e
       0.0039895126 -0.09337327 0.13710721 0.17634785
0000c0 5d 90 0d 3c 2c bb 1b 3c 34 44 93 3d 3c da 3d bc
       0.008640376 0.0095050745 0.07190743 -0.011587676
0000d0 29 ed 48 3e d8 72 bd 3d ca 2b 4d 3e 02 1d 59 3e
       0.1962172 0.0925042 0.20036235 0.21202472
0000e0 c8 73 ff 3c f2 00 bc 3e b9 0b 82 bb e4 ea 82 3e
       0.031183138 0.3671947 -0.0039686826 0.25569832
0000f0 e8 7b 09 3d 31 29 86 3e 94 e1 5a 3e 3b 15 db 3e
       0.03356543 0.26203302 0.21375114 0.42789635

head.norm.running_mean f4 [64]
000000 d8 c2 2e be 34 a2 c3 bd e6 9f 6a be 3d d4 18 3e
       -0.17066514 -0.09552422 -0.22912559 0.14924712
000010 6a 5a 97 3e 00 af 80 3e ff dc 7c 3d d8 88 15 3d
       0.29561168 0.25133514 0.061734196 0.036507457
000020 f1 db 91 be 5e aa a9 bd c6 bf 95 bd 27 a7 07 bd
       -0.28488114 -0.08284448 -0.073119685 -0.033118393
000030 6f 5f 3b 3d d2 a7 13 be 53 42 52 3e 4a 22 ab 3d
       0.04574531 -0.14419487 0.20533113 0.083561495
000040 7e f4 2c be 9c 28 a1 bd 1e 0a fb 3d fd 3b cd 3d
       -0.16890141 -0.07869074 0.12257789 0.100212075
000050 14 3c be bd 27 19 6d 3b 3a 19 6f 3e bc 9f 8c 3e
       -0.09288803 0.0036178322 0.23349467 0.27465618
000060 94 11 47 3e 1f e5 05 3d d4 b3 17 3e 16 f7 02 be
       0.194403 0.03268921 0.14814693 -0.12789568
000070 de a1 fc 3e 28 d0 74 3d 39 19 2a be 86 da 3d bd
       0.49342245 0.059768826 -0.16611184 -0.04635098
000080 72 49 7e be 6b dd 53 3e 51 59 0f bd 8d 61 93 3e
       -0.24832705 0.20689933 -0.03499729 0.28785363
000090 bd f0 77 be 79 7a 25 be 61 94 59 bc fe e9 28 3e
       -0.24212928 -0.16160001 -0.013280005 0.16495511
0000a0 a3 c6 90 bd f3 76 b9 bd c4 af e9 3c 6c b6 83 3b
       -0.07069137 -0.09055891 0.028526194 0.004019549
0000b0 26 4c 1e be 3d 9e 14 be 07 4f 23 bd 34 2e 61 3e
       -0.15458736 -0.14513488 -0.03987029 0.21990281
0000c0 8e 4a 7e be de c8 4e bd 8b 5c d9 bc c8 6b 0b 3e
       -0.24833128 -0.05048453 -0.026533386 0.13615334
0000d0 bd 1d 7b bd 75 a1 02 3e b1 77 b4 bd c0 b7 47 3e
       -0.061307658 0.12756903 -0.08811892 0.19503689
0000e0 b9 2c 3b 3e 0d 74 d9 3c f3 17 d6 bc 98 26 b0 bd
       0.18278779 0.026544595 -0.026134467 -0.08601111
0000f0 65 4c dd bd 37 be 08 bd 00 4f 94 3e 6a a5 b4 3e
       -0.10805587 -0.033384528 0.28966522 0.3528245

head.norm.running_var f4 [64]
000000 54 26 70 3b 21 f4 ca 3b 52 af 39 3b 9c 1e 38 3b
       0.003664394 0.006193653 0.0028333259 0.0028094416
000010 ef 19 23 3c 05 65 ac 3b c6 df 04 3b 36 b7 de 3a
       0.0099549135 0.005261066 0.002027498 0.0016991857
000020 e5 0c 5f 3b 0a 70 88 3b d3 36 c8 3a 0f ec 95 3b
       0.0034034785 0.0041637467 0.0015275128 0.0045752595
000030 32 60 e6 3a e5 b6 01 3c de 21 b4 3b 23 92 2d 3b
       0.0017576276 0.007917141 0.0054972013 0.002648481
000040 4a ae 18 3b a7 44 9e 3a ae 5d b8 3b 88 61 98 3b
       0.0023297244 0.0012074903 0.005626402 0.0046502985
000050 1b f7 55 3c 28 fc 55 3c 24 f5 0d 3c 3a a9 e1 3b
       0.013059403 0.013060607 0.008664403 0.0068866285
000060 f7 a0 75 3c 0e a3 d6 3a 8c 92 ad 3b 44 39 ec 3b
       0.01499199 0.0016375498 0.0052970108 0.007208975
000070 34 58 54 3c b2 78 01 3b 28 82 fa 3b 8c 32 f9 3a
       0.012960482 0.0019755778 0.0076449104 0.0019012257
000080 e9 58 ad 3c 29 e6 25 3b ce 87 13 3b e5 a8 bb 3b
       0.02116056 0.0025314188 0.0022511366 0.005726921
000090 81 9b 8f 3b 1b c3 20 3c 59 06 11 3b e2 dd e9 3c
       0.004382551 0.009812142 0.0022129028 0.028548185
0000a0 6c 93 7d 3b 15 a5 0d 3b 56 ba 32 3b 19 44 07 3c
       0.0038692607 0.002161329 0.002727171 0.008255982
0000b0 db 93 61 3b 6c c9 38 3b 29 42 b1 3a ca df 97 3b
       0.0034420404 0.0028196229 0.0013523746 0.004634832
0000c0 01 ef 82 3b 75 ce 75 3c 32 95 b4 3b d7 68 0d 3c
       0.0039957766 0.0150028365 0.0055109495 0.008630953
0000d0 4f 8a 08 3c 4b 4e 11 3b 4b 81 75 3c b9 4d 06 3c
       0.008333757 0.002217191 0.014984439 0.008197241
0000e0 a6 5a 83 3b 5c 2c aa 3c b0 f6 15 3b c7 8a 32 3b
       0.004008609 0.020773105 0.0022882633 0.0027243362
0000f0 82 60 a9 3a 59 93 ae 3a 83 42 05 3c 3b 2e d4 3b
       0.0012922438 0.001331906 0.008133533 0.0064752377

body.block1.conv.weight f4 [64, 64, 3, 3]
000000 39 eb 3f 3d 49 00 cc 3c c6 c5 d3 3a 9b b7 09 bd
       0.046855185 0.02490248 0.0016156964 -0.033622365
000010 fe 49 84 3a 13 6d 14 3d 67 70 b9 bc 76 fd 99 3b
       0.0010092852 0.036236834 -0.022636605 0.0046994044
000020 72 5f 7a bd 66 b1 fa bd d5 aa 44 bd d7 4d df 3c
       -0.06112618 -0.12240867 -0.04801448 0.027258797
000030 5f 6d b1 bc 82 80 90 3d 41 f6 09 3d b5 81 95 bc
       -0.021658598 0.07055761 0.03368211 -0.018250326
000040 41 e6 ac 3b 9b 0d f6 3c 63 59 49 3c 06 7a 97 bd
       0.005276472 0.030035784 0.012289378 -0.07396321
000050 ef 96 08 bc 9c ec 7a bd 01 72 f6 bc e2 4c 41 bd
       -0.008336767 -0.061260805 -0.030083658 -0.04719246
000060 a7 83 16 bd 05 3a 1b bd ca da cd bc 29 79 1f bc
       -0.036746647 -0.03789713 -0.02512874 -0.009733477
000070 49 e9 41 3d b1 65 8a 3d d7 0a 2c bd af 1f bd bc
       0.04734162 0.06757677 -0.042002525 -0.023086397
000080 11 c1 27 bd 12 9a af bc 9e a7 10 3c cf 13 a1 bb
       -0.040955607 -0.021435771 0.008829026 -0.0049156914
000090 ce bb 8f bc 80 d4 fb 3b f0 43 ae 3c c5 ce 17 bc
       -0.017545607 0.007685244 0.02127263 -0.009265606
0000a0 dd c1 b1 3d 57 7d 77 bc c6 2c d5 3c eb 8f 3c bd
       0.086795546 -0.015105567 0.026022326 -0.04603569
0000b0 5b b0 c9 bc 8f 35 00 bc f1 bf 7b 3c 50 3b 1c bd
       -0.024620226 -0.007825269 0.015365587 -0.038142502
0000c0 54 29 a1 3d e5 74 b0 bc 36 ff 97 3c 0f 9c a9 3c
       0.07869211 -0.021540115 0.018554311 0.020704297
0000d0 f7 3e a9 3b 93 57 00 3d fe 19 e2 bc f0 c4 1c bd
       0.0051649767 0.031333517 -0.027600285 -0.03827375
0000e0 e8 b8 a8 bc d5 e5 dd bd 82 a6 a8 bd 74 ea 2f bd
       -0.020595983 -0.108348526 -0.08234884 -0.0429482
0000f0 22 52 ac bb a0 51 4c 3d 25 1f c6 bc aa f1 39 bd
       -0.0052588144 0.04988253 -0.024184773 -0.045396484
000100 c7 ca 28 3d d2 42 17 3d a8 f8 b8 bd 17 d8 d1 3c
       0.04120901 0.03692896 -0.090318024 0.025615735
000110 08 aa c1 bb 80 c2 0c bd 26 ca 9c bc 51 f6 31 bd
       -0.005910162 -0.034365177 -0.01913936 -0.043447796
000120 64 2e a3 3c 70 74 b7 bc 52 76 e5 3c db 95 0a 3d
       0.019919582 -0.022394389 0.028010521 0.03383432
000130 7b 18 01 bd 75 ae dd 3c 7e c1 a4 bc 31 c1 9a 3d
       -0.031517487 0.027060727 -0.020111796 0.075563796
000140 c5 c0 a0 bb 14 31 dc 39 3a 52 7b 3d 64 c0 b6 bd
       -0.0049057924 0.00041998236 0.061357714 -0.08923414
000150 0e d9 93 3b 4b e0 94 bd a2 57 53 bc 90 87 c7 3b
       0.004511959 -0.07269343 -0.012899311 0.0060891584
000160 15 7e ee bc 7e ad 59 ba 06 16 93 bc 6a c3 8a 3c
       -0.029112855 -0.00083037454 -0.017954838 0.016938884
000170 01 92 c9 bc 14 50 95 bb 5e 9c b9 bc 7d 35 37 bc
       -0.024605753 -0.004556665 -0.02265757 -0.011182186
000180 72 f9 9a bb 4e 07 8d 3d 3e 25 08 bd 32 8f 18 3b
       -0.004729443 0.06886159 -0.033238642 0.002327871
000190 55 2a 75 bc 61 ff 76 bd 49 3c 3f bd c6 21 10 bc
       -0.014963706 -0.060302142 -0.04668835 -0.008797115
0001a0 a5 3d 1d bd 8f 7d 91 bc 8a 82 59 3c 71 96 f0 3c
       -0.038388867 -0.017760066 0.013275752 0.029368611
0001b0 22 b2 97 bc a8 a0 4d bc 66 87 36 3d ed 79 3c bc
       -0.018517558 -0.0125505105 0.04456272 -0.011503679
0001c0 20 29 c6 3c db c4 e7 bb c2 1b 80 3c 28 1e de bc
       0.024189532 -0.0070730275 0.015638236 -0.027113989
0001d0 6f 09 09 ba 7f 1b 8d bd 25 fe 35 3d 15 b1 cc bc
       -0.0005227541 -0.0689001 0.044431824 -0.024986783
0001e0 f7 02 9b 3a 61 3c a6 3c fe 77 2f 3d 90 d9 a3 3d
       0.0011826445 0.020292463 0.042839043 0.08000481
0001f0 cc 4e ea 3c 54 4b 3b 3d bb a8 c0 bb 73 8f 1e 3d
       0.028602026 0.045726135 -0.0058794892 0.038711023
000200 c0 f6 25 3d 3a 95 a2 3d dd e9 2f 3c 11 55 08 3d
       0.040518522 0.07938619 0.01073691 0.03328425
000210 42 06 7d bc 29 00 cb bc 85 27 20 3c c0 1d b2 3b
       -0.0154433865 -0.02478035 0.009775047 0.0054356754
000220 21 4b 0e 3c 24 3a 51 bc 4a 22 fc 3c 24 98 34 3d
       0.008684904 -0.012770209 0.030778069 0.044090405
000230 e7 5c a8 bc 50 49 15 bb 21 ec 88 3b e8 95 5a bd
       -0.020552112 -0.0022779293 0.0041785394 -0.053365618
000240 35 b3 8c ba 0d 14 33 3d f6 37 9f bb 91 7f 9e 3c
       -0.001073456 0.043720294 -0.004858966 0.019347938
000250 0b b0 0e 3d fb 4f c5 bc de 30 ff 3c ed 6b 58 bc
       0.034835856 -0.02408599 0.031151231 -0.013209325
000260 7f 8b ba bb ac 82 9e bc cb 6c 3a ba b7 8e bb 3c
       -0.0056928988 -0.019349419 -0.00071115483 0.0228952
000270 86 44 c2 3c b5 7b cc bc 94 2b a0 bc 93 f3 6b 3c
       0.023714315 -0.024961332 -0.01955203 0.014401334
000280 3f b7 a4 3d 49 52 13 3b 65 51 9a bc b9 e8 c9 3c
       0.08042764 0.0022479466 -0.01883764 0.024647104
000290 ad e7 88 3c 8a 45 03 bd 4d eb 95 bc 9c 96 d9 bb
       0.016712034 -0.03204874 -0.018300677 -0.0066402685
0002a0 f6 63 1b bd b8 89 e0 3b e3 e3 ae bc c8 87 49 3d
       -0.037937127 0.006852355 -0.0213489 0.049201757
0002b0 0d 43 f6 3d d3 68 bc bd 00 79 86 bd b8 f3 b5 3d
       0.12024508 -0.09199681 -0.06566048 0.08884376
0002c0 ba bc 84 3b 4e 93 99 3c ed 38 42 3c 65 da 4a bc
       0.0040508183 0.018746998 0.0118543925 -0.012381171
0002d0 1b d6 93 be 41 dc 89 bd a0 b7 07 be 37 12 1e bd
       -0.28874287 -0.06731463 -0.13253641 -0.03859159
0002e0 6f b4 ea bd 81 a8 a8 bd 1c a6 bc bc ef 82 81 3c
       -0.11460196 -0.082352646 -0.023028426 0.015809504
0002f0 36 5a c2 3c 3e 14 e0 3c 3f 4b 03 3d f7 0d 20 3d
       0.023724657 0.027353402 0.032054182 0.039075818
000300 38 78 19 bd 12 87 dd 3c cc b7 e7 bc 44 26 62 3c
       -0.037468165 0.027041946 -0.028285883 0.013803069
000310 70 c9 1a bd e0 b1 6e 3c 8e 28 62 3a 3a 10 b3 3a
       -0.037789762 0.014568776 0.0008627259 0.0013661452
000320 02 a9 84 3d d6 7a db bc 7e 12 50 bd 53 fd 74 ba
       0.06477548 -0.026791971 -0.050798886 -0.00093456096
000330 27 d8 a2 3c 24 66 0c bd 32 61 bb bb 9d 42 ff 3b
       0.01987846 -0.034277096 -0.0057183737 0.0077899233
000340 c2 6e bf 3d 73 14 24 bc b7 0b 9b bc 6e 0a be 3c
       0.09347297 -0.010014641 -0.018926485 0.023198333
000350 65 dd 51 bc 85 9d 28 3d 3f 91 01 3d 34 14 9e bd
       -0.012809132 0.041165847 0.031632658 -0.07718697
000360 38 2d f6 3c a0 36 42 ba 6b 86 e6 38 6f 50 1d 3c
       0.030050859 -0.00074086525 0.00010992292 0.009601696
000370 8a de 51 bd 5a b9 87 bc 94 f3 1a bc e3 2d e2 bc
       -0.05123762 -0.016567875 -0.009457488 -0.027609771
000380 cd 2f 39 3d ee 8c 7c bc 5b 11 2e 3c 49 d8 68 bd
       0.045211602 -0.01541446 0.010624255 -0.05684689
000390 1b 37 ab 3b d7 7d ff 3c 9f a8 03 3d 56 e3 4e 3c
       0.005225075 0.031187935 0.03214323 0.012627443
0003a0 97 c1 14 3d 4a f8 16 3c 28 a9 d1 3c 2d 72 9a bd
       0.036317434 0.00921447 0.025593355 -0.075413086
0003b0 6f 5d 06 bd f7 7f 04 bd 1c 73 97 3c a7 0e a5 bb
       -0.03280395 -0.0323486 0.018487506 -0.005037147
0003c0 bb f7 30 39 9e 73 8a bc 14 a9 df 3b 1d ee 13 3c
       0.00016876955 -0.016900834 0.0068255756 0.009028939
0003d0 95 c0 7d bd 72 7a a8 3c 56 62 36 bb ca 7d 94 bd
       -0.06195124 0.020566199 -0.002782961 -0.07250555
0003e0 9f 8b ad bc 1e 63 20 3d 6b a0 3b 3d a1 94 3d 3d
       -0.02118474 0.039157026 0.045807283 0.04628432
0003f0 ec 29 82 bc d3 15 f1 3b 5e f8 bd bb 8e 8a 80 3d
       -0.01588913 0.007357338 -0.00579743 0.06276427

body.block1.conv.bias f4 [64]
000000 24 a8 4b 3d 00 93 a9 bc 9d e4 a7 3b f1 be cf ba
       0.0497209 -0.020699978 0.0051236884 -0.0015849752
000010 79 bf 03 3d f9 d3 5a 3d e6 c5 45 bd 9a 39 87 bc
       0.032165024 0.05342481 -0.048284434 -0.016506959
000020 24 78 f7 bc ba e4 c9 bb 06 7f 8d 3b 0f 8d 8e bd
       -0.030208655 -0.0061612995 0.004318121 -0.069604985
000030 7f 77 34 3d 9b 54 46 3d 62 3f 9f bc dd 48 1e 3c
       0.044059273 0.04842053 -0.019439403 0.009660927
000040 1d 1c e7 bc 48 16 2e bd 4d 5b 83 bc 36 c5 0e 3d
       -0.028211648 -0.042501718 -0.016034747 0.034856044
000050 fd fd 11 3d ef bf 9d 3d 9e 54 91 bd 79 94 1f bc
       0.035642613 0.07702624 -0.070962176 -0.0097399885
000060 06 60 79 3c 65 4e 3c bd 8f 04 61 bc d2 08 46 bd
       0.015220648 -0.0459732 -0.013733997 -0.048348255
000070 dd 00 86 bc 2b 08 5c bd f9 ba e8 3b 52 69 57 3d
       -0.016357834 -0.053718727 0.007102367 0.052590676
000080 32 2c df bc 1b 99 39 bd 28 02 8f bb 06 64 03 3c
       -0.027242754 -0.04531203 -0.0043642707 0.008019453
000090 d4 bd 4c 3c 30 66 1c bb 18 58 0b 3d ad 69 1b bd
       0.01249643 -0.002386462 0.03401956 -0.037942577
0000a0 56 40 0f 3d 68 c0 be bc 16 ec ba 3b b2 93 92 3d
       0.034973465 -0.023285106 0.005704413 0.07157077
0000b0 f6 7d 2a 3d 4c a6 06 bd 65 1c 30 3c 90 4c 69 bd
       0.041624032 -0.032873437 0.010748957 -0.05695778
0000c0 45 72 32 3d 0a fd 57 3b b3 17 05 3d 75 ff 4d 3d
       0.043566007 0.003295722 0.032493304 0.05029245
0000d0 9a 9d 38 bd ff de fc bc 25 f8 9c bb cb 5c 21 3d
       -0.045072176 -0.030868052 -0.0047903233 0.039395135
0000e0 2c e7 24 3d ef 55 6d 3d 49 0d ad bb 33 c8 8d 3c
       0.040259525 0.05794328 -0.0052811247 0.017307376
0000f0 0b 6f 23 3b d5 af 62 3b 49 b3 ed 3b 9b 47 6d 3c
       0.0024938013 0.0034589667 0.0072540385 0.014482404

body.block1.norm.weight f4 [64]
000000 d1 a4 7c 3f 61 58 7b 3f d6 f6 60 3f 64 57 86 3f
       0.9868899 0.9818173 0.8787664 1.049542
000010 e1 2b 86 3f 91 ee 71 3f d4 29 70 3f 1e 15 86 3f
       1.0482141 0.9450465 0.93813825 1.0475194
000020 5b 65 82 3f f5 bc 7b 3f f9 5e 83 3f 42 3e 82 3f
       1.0187181 0.983352 1.0263358 1.017525
000030 25 1c 7b 3f a6 18 80 3f 33 7a 86 3f 21 a3 89 3f
       0.9808982 1.0007522 1.0506042 1.0752908
000040 06 c5 74 3f 69 f1 7a 3f 0c 14 72 3f 8a 0e 81 3f
       0.95613134 0.9802461 0.9456184 1.0082562
000050 40 19 86 3f d9 f9 63 3f 9a 0e 79 3f 79 8c 84 3f
       1.0476456 0.8905311 0.97287905 1.0355369
000060 28 4f 6e 3f 63 53 86 3f 38 08 97 3f d9 eb 7d 3f
       0.9308953 1.0494198 1.1799383 0.99188
000070 27 f0 73 3f f4 df 82 3f 10 87 92 3f 90 2b 74 3f
       0.9528832 1.0224595 1.1447468 0.9537897
000080 82 99 87 3f f4 63 85 3f 3f 60 80 3f 98 4f 76 3f
       1.0593722 1.0421128 1.0029372 0.962152
000090 a6 60 84 3f 4a 3a 6a 3f 42 f8 80 3f 52 ed 74 3f
       1.0341995 0.9149519 1.0075762 0.9567462
0000a0 b2 3b 81 3f b7 f6 83 3f 26 59 78 3f 0c 88 78 3f
       1.0096343 1.0309666 0.9701103 0.9708259
0000b0 d3 09 81 3f 45 6a 83 3f 66 21 70 3f 41 8e 72 3f
       1.0081123 1.0266806 0.9380096 0.9474831
0000c0 32 4c 72 3f cf 0e 64 3f f8 1d 7e 3f cd 5b 8f 3f
       0.94647515 0.89085096 0.9926448 1.119989
0000d0 45 d9 7a 3f 79 0f 71 3f b0 63 71 3f 01 ef 6a 3f
       0.97987777 0.94164234 0.94292736 0.9177094
0000e0 2c 27 96 3f 23 bb 94 3f 46 26 8e 3f 18 16 83 3f
       1.1730704 1.161961 1.110543 1.0241117
0000f0 d1 16 7a 3f 54 4b 82 3f a4 ca 82 3f 29 82 7a 3f
       0.97691065 1.0179238 1.0218091 0.9785486

body.block1.norm.bias f4 [64]
000000 04 ff 22 be 85 70 0a bf d7 22 27 3f 41 b0 43 be
       -0.15917593 -0.5407794 0.65287536 -0.19110204
000010 38 0e 02 3e b6 83 6a 3e f5 f7 f0 3e c0 f5 a7 be
       0.12700737 0.22901806 0.47064176 -0.3280468
000020 01 f3 e4 3e 44 df f0 3e 97 75 f6 bc 3a ec be 3e
       0.44716647 0.47045338 -0.030085368 0.37289602
000030 56 17 d3 3c 46 50 fa 3e d1 ab 51 bd 0b fd 60 3e
       0.025767963 0.4888937 -0.051189248 0.21971528
000040 27 80 02 bf 32 70 c3 bc 1a 58 b5 3e c2 fd 79 3d
       -0.50976795 -0.02385721 0.3541878 0.061033018
000050 24 fa cb 3e 1c a7 82 3e c1 5e 81 3e f6 89 e7 3e
       0.3983928 0.2551812 0.25267604 0.45222443
000060 bd 47 43 bf 5a 74 4e bd 16 de a3 3e de cf c9 bc
       -0.7628134 -0.05040393 0.32005376 -0.024635252
000070 0c c7 21 be 27 05 21 bf 4d b0 3f be df 09 f9 be
       -0.15798587 -0.62898487 -0.18719597 -0.48640344
000080 59 bf f7 be 6c a9 ea be 69 19 3b 3f a3 ad 07 3e
       -0.48388174 -0.45832384 0.7308565 0.13249831
000090 76 c8 07 3f 9b b8 c0 3e fc 35 da 3d a6 67 21 bf
       0.53040254 0.37640843 0.10654828 -0.6304878
0000a0 f4 72 d2 3c a8 5c 0b 3f ed e0 6b bd 87 e9 f4 3e
       0.02568958 0.5443826 -0.057587553 0.47834417
0000b0 50 56 89 bc 00 b2 ed bd 64 cd dc be b5 52 9e 3e
       -0.01676479 -0.116062164 -0.4312545 0.30922475
0000c0 7c 76 59 3f 9b 78 ef be dc fe fd be 21 e1 56 be
       0.8494642 -0.46771702 -0.49608505 -0.20984317
0000d0 41 3d c0 3e 3f e9 ec bd 95 e3 e9 3e 3f 3b 30 bf
       0.37546733 -0.11567926 0.45681444 -0.688404
0000e0 e7 3a 11 3e 40 ed 67 3e 66 e4 a3 bd e6 d8 c4 be
       0.14182626 0.22649097 -0.08002548 -0.3844673
0000f0 dd b5 c4 be bf 16 e3 3e ca 0b 8a 3e c3 95 54 be
       -0.3842 0.4435329 0.2696212 -0.20760255

body.block1.norm.running_mean f4 [64]
000000 c1 08 f7 3d 41 af c4 bf 84 b7 05 c0 43 3f b8 3f
       0.120622166 -1.5365983 -2.089326 1.4394306
000010 7a 9c 25 ba 63 f5 96 bd e8 5a b6 bf 24 9f 88 3e
       -0.00063175673 -0.073710226 -1.4246492 0.26683915
000020 9a 0c 1c 3e 98 38 ed 3c 7f 74 5b 3f 18 c9 b6 3e
       0.15239182 0.02895765 0.85724634 0.35700297
000030 87 f9 84 3d 6e 84 2f 3f 38 63 98 be a5 e3 a3 3c
       0.06492906 0.68561447 -0.29763198 0.02000601
000040 26 fb db be f0 de 76 40 82 70 c3 3e 77 e8 e9 3d
       -0.4296505 3.857357 0.38171774 0.11421292
000050 37 5c 1a be 9d 7d 18 3f 70 55 f4 be cb 2f 96 be
       -0.1507424 0.5956667 -0.47721434 -0.29333338
000060 48 a7 58 bf 0d 30 b2 be 29 df d9 3e 92 2e 59 3d
       -0.8463025 -0.34802285 0.4255307 0.05302293
000070 f0 41 87 be 59 e1 ad 3a 14 7c 69 be 83 01 58 bf
       -0.26417494 0.0013266011 -0.22801238 -0.84377307
000080 de 27 da 3d 6e 67 54 bf 78 b4 0a be 84 20 e9 bb
       0.10652135 -0.8297032 -0.13545406 -0.007114472
000090 70 eb f1 3e 51 e6 29 3f b7 5b bc be f9 e6 d6 bf
       0.47249937 0.6636706 -0.36788723 -1.6789237
0000a0 34 5a ab 3e a8 1d 5b 3f 6b 91 f2 bf a0 15 81 bf
       0.33467257 0.85592127 -1.8950628 -1.0084724
0000b0 b8 e3 62 be 04 76 dc be 3d c6 9a bf ee 10 0f 3e
       -0.2215718 -0.4305879 -1.2091748 0.13971302
0000c0 19 3d b6 3e bf 91 3c 3f c8 fc cc 3d 0a dd 8c 3e
       0.3559349 0.7365989 0.10009152 0.2751239
0000d0 76 34 0c 3f 1e 9e 9c bf c9 93 81 40 7c 7c 82 bf
       0.5476755 -1.2235754 4.04929 -1.019424
0000e0 f6 a1 9d 3f 8d 33 24 3f cb a1 c2 be b4 48 4e 3b
       1.2315052 0.6414116 -0.38014063 0.003147644
0000f0 cf 22 ee be 8e e8 1c 3e 90 73 9e 3e e0 19 7c 3d
       -0.46510932 0.15323088 0.30947542 0.061548114

body.block1.norm.running_var f4 [64]
000000 af cd da 3d 63 3b 4d 3f ef af 99 3e f0 e9 bc 3f
       0.10683762 0.8016874 0.3001704 1.4758892
000010 55 6f fd 3e 1b cd 6e 3e 0a 61 6c 3e f0 01 83 3e
       0.49499002 0.23320429 0.23083892 0.25587416
000020 8e 83 10 3f ca b0 e7 3d 04 d5 07 3f 2a 61 e5 3e
       0.56450737 0.11313017 0.5305941 0.44800693
000030 b6 bc 2b 3f 81 42 7d 3f 9f a4 48 3e 15 50 ab 3e
       0.67084825 0.989296 0.19594048 0.33459535
000040 da 93 1e 3f a4 16 08 3f 5b b7 b0 3e ea d2 bb 3d
       0.61944354 0.53159547 0.3451489 0.09171088
000050 ba 56 09 3e 26 fb b3 3e 1a e0 4c 3e 3a d7 e8 3d
       0.1341199 0.3515255 0.20007363 0.11369176
000060 ed ec 13 3e 20 96 0e 3e b8 21 b5 3e a7 17 88 3e
       0.14445849 0.13924456 0.35377288 0.26580545
000070 f7 29 54 3e a7 a3 44 3e 4d bb 8b 3e cb 3f 4e 3e
       0.20719133 0.19203053 0.27291337 0.20141523
000080 6a f7 50 3e 88 d8 95 3e cc 35 e4 3d be d6 2f 3e
       0.20406881 0.29266763 0.111430734 0.17171761
000090 a9 e8 44 3f 20 61 3c 3f d8 90 4e 3e 26 14 b5 3e
       0.7691751 0.735857 0.20172441 0.35366935
0000a0 ca 3a 30 3e 76 ae 8f 3f af 53 ae 3e 56 98 b4 3e
       0.17209926 1.1225116 0.3404822 0.35272473
0000b0 84 ed 35 3e 64 9d 2c 3f ef af 19 3f bc 82 2a 3e
       0.17766386 0.6742766 0.6003408 0.16651434
0000c0 bc b3 cc 3e ac db 0b 3f bb 1b e5 3e 23 d2 67 3e
       0.39980876 0.5463207 0.4474772 0.22638755
0000d0 03 ba 08 3f 45 41 e8 3e 8a a8 fb 3e 33 bc a7 3e
       0.5340883 0.45362297 0.49152023 0.32760772
0000e0 54 01 0d 3e 72 d1 b2 3e 56 86 b6 3e 4f 3d 1c 3e
       0.13770038 0.3492542 0.35649365 0.15257762
0000f0 1b 86 bb 3e 59 c3 68 3e e1 8f f8 3d 83 7b 3a 3e
       0.36625752 0.22730769 0.12136818 0.18211178

tail.weight f4 [1, 64, 3, 3]
000000 e6 b7 d9 3c 46 79 06 3d 63 fd e2 3c 73 a0 c1 3a
       0.026576947 0.0328305 0.027708715 0.0014772549
000010 e7 5b 2d 3d 47 ea b3 3b 84 62 9f 3c ef 38 9e 3a
       0.042323973 0.0054905745 0.019456156 0.0012071411
000020 59 78 ee bc ba c1 50 bd 3a c4 80 bd 6b 1a 93 bd
       -0.02911012 -0.050966002 -0.06287427 -0.07182773
000030 66 ea a2 3d 5d bb 10 3d e0 a5 55 3c 58 8a 25 3d
       0.07954864 0.035334934 0.013040036 0.040415138
000040 e8 e0 31 3d 5f 3c 84 3d e6 b2 0e bd 40 88 99 39
       0.043427378 0.06456827 -0.03483858 0.00029283948
000050 32 0d b8 bc 35 e5 f3 bc d2 0b ed bc 80 26 81 bc
       -0.02246723 -0.02977238 -0.0289363 -0.015765429
000060 6c 5a c8 3c 28 f7 38 3d 67 ca 98 3d cc c3 77 bd
       0.024457179 0.04515758 0.0746048 -0.06048946
000070 c0 00 07 bd ab 77 49 bd b1 0d 77 3d 7a de 05 3d
       -0.0329597 -0.04918639 0.06031579 0.032682873
000080 49 59 83 3d b6 47 20 3c bd 2e 7f bc 45 12 9e bb
       0.06413514 0.009782722 -0.015575108 -0.0048239552
000090 45 e6 be bd 00 b2 87 bd cc 8b 84 bc db 69 43 bd
       -0.09321264 -0.06625748 -0.016179942 -0.047708374
0000a0 b0 68 06 bc c3 78 a9 bc 79 f7 12 3d c8 62 20 3d
       -0.00820367 -0.020687466 0.03588054 0.039156705
0000b0 03 e8 08 3e 9e 1b 6a 3a d5 c7 33 3b 26 1d f5 bc
       0.13369755 0.0008930507 0.0027432342 -0.029921126
0000c0 22 f9 97 bc 2d 34 57 3c e5 15 ea bc 90 ec 77 3c
       -0.018551413 0.013134998 -0.028574893 0.0151320845
0000d0 bc 08 b7 bb 8f 25 dd 3b 00 6b bc 3b 7d 33 b5 3c
       -0.005585758 0.006748862 0.00575006 0.022119278
0000e0 63 2e de bc 99 fa 0b bd 64 6d aa bc dd 11 a8 bd
       -0.027121728 -0.034174535 -0.020804115 -0.08206532
0000f0 f9 e4 42 3d 14 21 37 3d 0c cd 26 3d 84 9c b3 3c
       0.047581647 0.04470928 0.04072289 0.021925218
000100 69 f0 ce 3c c0 49 20 3d 73 8d 40 3d a8 36 8d 3d
       0.02526112 0.039132833 0.047009896 0.068951905
000110 54 32 5c 3d 98 f9 68 bd 60 f6 a6 bd 92 b9 5a bd
       0.053758934 -0.056878656 -0.08152461 -0.05339963
000120 f2 f2 a0 bc a8 53 24 bd cb dc 1b bd 3e cd 56 3d
       -0.019647095 -0.040118843 -0.03805236 0.052441828
000130 2b cb fe bb 08 16 63 bd 64 22 02 3e 96 7d cf 3d
       -0.0077756844 -0.055440933 0.12708431 0.101313755
000140 a2 6d af 3d ac 67 4b 3d 8e a2 fc 3c 0e 28 aa 3d
       0.08565833 0.049659416 0.03083923 0.08308421
000150 9c 3f 28 bb f8 cc 9f 3b e4 04 8a 3c a1 33 07 bd
       -0.002567268 0.004876729 0.016848035 -0.03300822
000160 6d e0 1b bc 93 c3 04 bd fc 81 4e bd 1f 1e f1 bc
       -0.0095139565 -0.032413077 -0.05041693 -0.029433308
000170 b7 3c df bc d7 bb 6b 3d 74 05 8f 3d 56 ad 67 3d
       -0.02725063 0.057552185 0.06983462 0.05656179
000180 e4 37 99 bb be f8 55 3c e2 58 90 3d be e3 bd 3c
       -0.004675852 0.013059793 0.07048203 0.023179885
000190 ee 1e 01 3d 73 d5 66 3d a2 4f a1 3d 34 1b e5 3c
       0.031523637 0.056355905 0.07876517 0.027967073
0001a0 b6 0a 8b 3d 1f 9e 09 be f8 64 dc bd 59 24 9f bd
       0.06789152 -0.13439225 -0.10761446 -0.07770605
0001b0 b0 6f 26 bb b1 ca 38 bd 13 0e 1b bd 50 a9 c9 bb
       -0.002539616 -0.045115177 -0.03785522 -0.006154217
0001c0 d0 78 6b 3c a6 6e 00 bc 9f 92 79 3d fe d4 91 3c
       0.014372066 -0.007838881 0.060930844 0.017801758
0001d0 28 c2 1a 3c 68 67 72 3c eb 3b 28 3d 1c 05 a3 bb
       0.0094457045 0.014795162 0.041072767 -0.0049749743
0001e0 f8 c0 54 3b 5c 26 0f 3d 26 b8 e3 3c 16 e5 4f bc
       0.003246365 0.03494869 0.02779777 -0.012688896
0001f0 94 ad d2 bc c9 31 26 bd 59 c8 b7 3c 4d 96 7e 3d
       -0.025717534 -0.040574823 0.0224344 0.062155057
000200 79 ba db 3d 36 4b 29 bd ba f9 45 bc 2c 5f 27 bb
       0.10728926 -0.041331492 -0.012083465 -0.0025538905
000210 ba 94 89 bd 1c b0 b3 bb 71 82 c1 3c c4 6e 92 3d
       -0.067178205 -0.0054836404 0.02362177 0.07150033
000220 45 37 9b 3d 1c fa 36 3d 43 cc 31 3d 52 ae 49 3d
       0.07578901 0.044672117 0.04340769 0.04923851
000230 fe 68 50 3d e4 5d 69 bd 69 10 fb bd 9f 3f 0d be
       0.05088138 -0.056974307 -0.12258989 -0.13793801
000240 e1 bd 06 3d 38 0f 10 3d f1 74 d7 bb 55 43 7c 3d
       0.032895926 0.035170764 -0.00657522 0.06158765
000250 b2 dc 0d 3d 5e fb 00 3d 41 ab 3e bd 4d f5 43 bd
       0.0346343 0.031489722 -0.04655004 -0.04784136
000260 72 c7 a9 bd fe 4c 1c bd 76 f7 bc bc 23 16 1a bd
       -0.08289994 -0.038159363 -0.023067217 -0.037618767
000270 e6 ad aa bb 2a 47 0b bc 8e c0 2b bd 91 6f 66 3d
       -0.0052087186 -0.008500854 -0.04193168 0.05625874
000280 fb c9 82 3d 6d 2f d6 3c 61 6c 5c 3c d6 b2 14 bc
       0.06386181 0.026145661 0.013453574 -0.009075841
000290 44 17 f0 3c e4 08 c2 3c 6f ba 2e 3d da b9 2a 3d
       0.029307969 0.02368588 0.042658266 0.041681148
0002a0 dd b2 a7 3b bf ca 2a 3c c0 c9 cd bb 5a 7f 29 bd
       0.0051177577 0.010424315 -0.006280154 -0.041381218
0002b0 67 e1 f0 bc 2f d5 c0 bb 21 18 17 bd 54 03 2d bd
       -0.029404355 -0.0058847885 -0.036888245 -0.042239502
0002c0 02 0c b7 bb c9 d1 59 3d 41 b6 55 3d 21 83 1a 3d
       -0.0055861482 0.053178582 0.052175764 0.03772271
0002d0 89 07 a7 3d a1 00 9b 3d 07 ba c5 3d bc 06 0c bd
       0.08155734 0.07568479 0.096546225 -0.03418611
0002e0 4c c5 3b bd e5 6f e0 bc e8 53 ee bc 38 f9 f9 b8
       -0.045842454 -0.027397105 -0.029092744 -0.00011919666
0002f0 17 6f 15 bd 01 ae 7f bd bd a1 38 bd bc 56 13 bd
       -0.036482897 -0.062421802 -0.04507612 -0.03597139
000300 ca 22 a7 3c c2 cd 0b bd 60 d9 1a bc 4d d1 61 3d
       0.02040233 -0.034131773 -0.00945124 0.055131245
000310 d3 8a b3 3c 2d 62 08 bd 2c 73 a5 bd 1b 9e 5a bd
       0.021916782 -0.033296753 -0.08078608 -0.053373437
000320 df d9 0d bc b8 bd d1 ba ec 65 c4 3b 97 49 31 bc
       -0.008657902 -0.0016001975 0.0059935953 -0.010820768
000330 1b 11 85 3d 09 23 ba 3d a3 a2 b6 3d 2e 97 75 3d
       0.06497403 0.09088714 0.08917739 0.05995863
000340 98 74 7e 3d 0a f2 51 3d 29 e5 40 bd b7 b2 9c bc
       0.06212291 0.051256217 -0.047093544 -0.019128187
000350 6b 87 e7 3c d0 30 22 bc fb 19 95 bc 2b a0 58 bd
       0.028262815 -0.009899333 -0.018200865 -0.052887123
000360 0d 60 9e bd d0 41 7e bd 42 af 16 bd c7 5d 90 3d
       -0.07733164 -0.062074482 -0.036788233 0.070491366
000370 64 d3 22 3b 49 8d 02 3d 75 cc cc 3c 69 87 04 3d
       0.0024845237 0.03187302 0.024999836 0.0323557
000380 d3 08 8a 3d c3 31 9d bc 5c 64 2b bd 44 1f 83 bd
       0.06739964 -0.019188767 -0.041843757 -0.06402448
000390 4a 1d 64 ba 2b ee 9c bb b1 eb b4 3c 73 ab 52 3d
       -0.0008701874 -0.004789134 0.022085043 0.051433038
0003a0 63 72 ca 3d 81 82 53 3d 9d 3f 0e bd 5d 4c 65 bd
       0.09885099 0.05163813 -0.034728635 -0.05598103
0003b0 cc 22 a2 bc 2e 52 08 3e 54 62 d3 3d 32 2d f8 3d
       -0.019791983 0.13312599 0.10321489 0.12117995
0003c0 81 d5 3b bd 91 65 ab bd 23 88 a6 bd 49 7e 3c bd
       -0.04585791 -0.08368982 -0.08131435 -0.046018872
0003d0 03 bb 51 3c 5c e1 51 bd f8 7f b1 ba 07 cc 1b bc
       0.012800935 -0.05124031 -0.0013542166 -0.009509093
0003e0 66 90 cb bc e8 ef 34 3d fa cd 2a 3c 7a d9 7e 3c
       -0.024849128 0.044174105 0.010425085 0.01555478
0003f0 25 15 9b bd a4 cb 45 bd 3c 74 8e bc 3b 13 8d bc
       -0.075723924 -0.04828991 -0.01738941 -0.017221084
