3layer_4000its/files/2/G.pth (torch, 209481 bytes, 14 tensors)

head.conv.weight f4 [64, 12, 3, 3]
0	0xbc9834f5	-0.01857994
1	0xbcfd3d5d	-0.03091305
2	0xbc9c9fb0	-0.019119114
3	0x3c87910b	0.016548654
4	0xbccc8841	-0.024967315
5	0x3dbb6ce9	0.09151632
6	0x3c1687a7	0.0091876155
7	0xbd8fdd3d	-0.0702462
8	0x3dc72046	0.097229525
9	0xbc0ad351	-0.008473233
10	0x3c855233	0.016274547
11	0x3cae87b8	0.02130495
12	0x3c3f59c5	0.011679118
13	0x3d5b6a79	0.053568337
14	0x3cb77363	0.022393888
15	0xbdd63d75	-0.10460941
16	0x3c85615f	0.016281782
17	0x3d89e14a	0.067324236
18	0xbc672dbf	-0.014110028
19	0x3c3445dd	0.011002985
20	0xbcd93ef0	-0.026519269
21	0x3a0d2110	0.000538365
22	0x3c078066	0.008270359
23	0xbcf5dbf5	-0.03001211
24	0x3d64e5e5	0.055883307
25	0xbb834524	-0.004006045
26	0x3b0d8d83	0.002159924
27	0x3d74e680	0.059790134
28	0x3b12f47b	0.0022423554
29	0x3cf959be	0.0304383
30	0xbc5da588	-0.013528235
31	0xbd6c912a	-0.057755627
32	0xbd6ba0b9	-0.057526324
33	0xbded8c5b	-0.11599036
34	0xbced6c71	-0.028982373
35	0xbd5ecb77	-0.054393258
36	0x3b0cab33	0.0021464347
37	0x3d26935a	0.04066787
38	0x3d0ca8de	0.03434073
39	0xbbd76479	-0.0065732566
40	0x3cdb7eb2	0.026793811
41	0x3ce45676	0.027873259
42	0x3ccc0b4e	0.024907734
43	0xbcb3bfc3	-0.021942025
44	0xbdad7a9c	-0.084706515
45	0x3df6b871	0.12046898
46	0x3d0af3be	0.033923857
47	0x3d1dd171	0.038529817
48	0x3d7aac72	0.061199613
49	0xbc079bf6	-0.00827693
50	0x3cef7d35	0.029234508
51	0xbddf8b61	-0.10915256
52	0x3ca50582	0.020144228
53	0xbc64d6f8	-0.013967268
54	0x3d6161f9	0.055025075
55	0xbc563ad8	-0.013075553
56	0xbda69ce7	-0.081353955
57	0x3d089b1e	0.033351056
58	0x3d1a2866	0.037636183
59	0x3c640f19	0.013919615
60	0xbe0c7546	-0.13716611
61	0x3c7a9974	0.015295375
62	0xb91ea952	-0.00015131131
63	0x3cc30ff2	0.023811314
64	0x3d0a130d	0.033709574
65	0x3d22140e	0.039569907
66	0x3cab6813	0.02092365
67	0x3c84cc82	0.016210798
68	0x3cf30426	0.029665064
69	0xbe35ac2a	-0.17741457
70	0xbd356df9	-0.04429433
71	0xbd0de5ea	-0.03464309
72	0x3c679886	0.0141354855
73	0xbc327b32	-0.01089363
74	0xbb5a8215	-0.0033341695
75	0xbcf841ad	-0.030304754
76	0xbcc4f2ec	-0.024041615
77	0xbd07a051	-0.033111874
78	0xbd654698	-0.055975527
79	0x3d2080c0	0.039185286
80	0xbc689b0b	-0.014197121
81	0x3ccf9486	0.025339376
82	0x3d91350e	0.070901975
83	0x3d7a6f76	0.061141454
84	0xbc81afb4	-0.015830852
85	0x3d3fe69d	0.04685079
86	0x3ca4eb7b	0.020131817
87	0xbbfaad35	-0.0076500424
88	0x3cc42dd0	0.023947626
89	0xbce73530	-0.028223604
90	0x3d66dac1	0.056360964
91	0x3d344293	0.044008803
92	0x3dbb32af	0.091405265
93	0x3d3369ee	0.043802194
94	0xbc95f753	-0.01830641
95	0x3c9475d6	0.018122595
96	0xbde3e51f	-0.11127686
97	0xbdf1aee3	-0.11800935
98	0xbcf33514	-0.029688396
99	0x3d564a8b	0.052317183
100	0x3dc41ccc	0.09575805
101	0x3d03a049	0.03213528
102	0x3cdecf3f	0.027198432
103	0x3d90ca1c	0.07069799
104	0x3d98cde8	0.074611485
105	0xbcf68a44	-0.030095227
106	0xbe35d4ef	-0.17757009
107	0xbd77792a	-0.060418285
108	0xbe06d954	-0.13168842
109	0xbc51312f	-0.012768074
110	0xbcf2740c	-0.029596351
111	0x3ca630b8	0.020286903
112	0x3cc13329	0.023583965
113	0xbce3778d	-0.027766967
114	0x3db18172	0.08667268
115	0x3b78c23e	0.0037957574
116	0x3c1a60ed	0.009422523
117	0xbbcfea89	-0.0063450974
118	0x3cb18428	0.021669462
119	0x3c6d69a7	0.0144905215
120	0xbdaadc95	-0.08342854
121	0xbc56e44e	-0.0131159555
122	0xbcbb7e2d	-0.022887314
123	0xbd0bf9b0	-0.034173667
124	0x3c2cce96	0.010547301
125	0xbcbda33b	-0.023149123
126	0x3ab85152	0.0014062321
127	0x3d203fe6	0.03912344
128	0x3bc46f8e	0.0059947437
129	0x3c4563e2	0.01204774
130	0xbcb29177	-0.021797879
131	0xbc7f577f	-0.015584826
132	0xbd65be3e	-0.056089632
133	0xbcd5dad6	-0.026105326
134	0xbc842a1a	-0.016133357
135	0xbdb65e67	-0.089047246
136	0xbd8d98c7	-0.069139056
137	0xbda99d41	-0.08281947
138	0xbd4009aa	-0.046884216
139	0xbc806dfd	-0.015677446
140	0xbdca2d79	-0.098719545
141	0x3d39adc5	0.045331735
142	0x3c4b13f1	0.012394891
143	0x3d014d89	0.031568084
144	0xbdd131c0	-0.10214567
145	0xbd6deb67	-0.058085825
146	0xbd36d5cb	-0.044637483
147	0xbdab6510	-0.083688855
148	0x3d488b9b	0.048961263
149	0x3cc5680f	0.02409747
150	0xbd5b060d	-0.053472567
151	0x3d8c6ce9	0.068567105
152	0xbd53557e	-0.051595204
153	0xbd2e2576	-0.042516194
154	0xbd81a14c	-0.06329593
155	0xbd729611	-0.059225146
156	0xbe1f5832	-0.15560988
157	0xbceffabd	-0.029294366
158	0xbd2fc0a5	-0.04290833
159	0xbc953a45	-0.018216262
160	0xbb87ff93	-0.00415034
161	0x3c0b9219	0.008518719
162	0x3d36dee2	0.04464615
163	0x3db6c373	0.08923998
164	0xbcd5366e	-0.02602693
165	0xbd9ab4ee	-0.07554041
166	0xbb6324d1	-0.0034659395
167	0xbd750de1	-0.05982769
168	0xbdf49bb9	-0.11943764
169	0xbc960427	-0.018312527
170	0x3cd4d389	0.025979774
171	0xbe45373b	-0.1925935
172	0xbd9c47de	-0.07630895
173	0xbd8e3863	-0.06944349
174	0xbdd1e959	-0.10249586
175	0xbd09c886	-0.0336385
176	0xbdc9df1f	-0.0985701
177	0xbb531407	-0.0032207982
178	0xbcb0b61d	-0.021571213
179	0xbd797f68	-0.06091252
180	0xbd4b4344	-0.049624696
181	0xbd019bf0	-0.031642854
182	0xbcba77f3	-0.022762274
183	0x3c0e03f3	0.008667934
184	0x3b0d980c	0.002160552
185	0x3c211b71	0.009833203
186	0xbbdde064	-0.006771134
187	0xbcce4116	-0.02517752
188	0xbc6bc376	-0.014389863
189	0x3ca50a57	0.020146532
190	0x3d311d11	0.04324061
191	0xbd2cc704	-0.042181984
192	0xbc6fa1fd	-0.014626023
193	0x3d736203	0.059419643
194	0xbc4bcaf9	-0.012438529
195	0xbc95732f	-0.0182434
196	0x3e16e914	0.1473735
197	0xbbf0e654	-0.007351676
198	0xbe025a00	-0.12729645
199	0xbd2caddb	-0.04215799
200	0xbda32b8e	-0.07967292
201	0xbdb9f5d5	-0.09080092
202	0xbdae29de	-0.08504079
203	0xbddae0d9	-0.106874175
204	0x3d12280c	0.035682723
205	0x3b4674b1	0.0030281956
206	0x3b002b9f	0.001955725
207	0x3cac61d8	0.02104275
208	0x3aabbced	0.0013102569
209	0xbd1bf32c	-0.038073704
210	0xbcc29a9e	-0.023755368
211	0x3d1968cd	0.03745346
212	0xbd3e3b2d	-0.046443153
213	0xbd880b5a	-0.0664279
214	0x3cdc124d	0.026864195
215	0xbc168098	-0.009185933
216	0xbc1ea1b5	-0.009682109
217	0x3d6dae2c	0.05802743
218	0xbca7201a	-0.02040105
219	0x3ce9a9d3	0.028523361
220	0x3cb7d739	0.022441493
221	0xbc30efaa	-0.010799328
222	0xbd9d5942	-0.0768304
223	0x3b7048bb	0.0036664444
224	0x3d2c6932	0.04209251
225	0x3d6ee5fc	0.0583248
226	0xbcaff34e	-0.021478321
227	0xbdb26e44	-0.08712438
228	0x3cefa196	0.029251855
229	0x3c3a40c7	0.011367983
230	0xbdce7be5	-0.10082225
231	0x3c88d9fc	0.016705506
232	0x3da2a1b8	0.07941002
233	0xbdd0727f	-0.101780884
234	0xbc5f238a	-0.013619313
235	0x3bbebf20	0.0058211237
236	0x3c9ba17d	0.018997902
237	0xbcc5cad0	-0.02414456
238	0xbcb508a0	-0.02209884
239	0x3ce5e3b4	0.028062679
240	0x3b20f4bb	0.0024559933
241	0xbc50e2c2	-0.012749376
242	0xbceaf1db	-0.028679779
243	0x3c7c2f4a	0.015392134
244	0x3c0c081c	0.008546855
245	0x3d2e046f	0.042484697
246	0xbd143769	-0.036185656
247	0x3d28f74a	0.04125146
248	0x3d4373cb	0.04771785
249	0xbc0b344a	-0.008496353
250	0x3ccee1d5	0.02525417
251	0x3cf6fb8c	0.030149244
252	0xbcdfadbe	-0.027304526
253	0x3d859b74	0.06523791
254	0x3cdefb5a	0.027219463
255	0xbc3fadef	-0.011699184

head.conv.bias f4 [64]
0	0xbdad8208	-0.08472067
1	0x3d4f5b72	0.05062432
2	0xbd5e89cd	-0.054330636
3	0x3d78ae55	0.06071313
4	0xbc15507f	-0.00911343
5	0xbd902cc1	-0.07039786
6	0xb9cce413	-0.0003907984
7	0x3d695063	0.05696143
8	0xbce07cd1	-0.027403267
9	0xbcf1c19b	-0.029511264
10	0x3d353664	0.044241324
11	0x3d43b7e7	0.047782805
12	0xbd9ec308	-0.07752043
13	0x3d04ef89	0.032455
14	0xbcdd5e05	-0.027022371
15	0xbdabcb94	-0.08388439
16	0x3d19eca5	0.037579197
17	0xbd7e5140	-0.062089205
18	0xbc8a4d48	-0.016882554
19	0xbd801dcb	-0.062556826
20	0x3d8c2102	0.06842233
21	0xbd37448c	-0.044743106
22	0xbd62e94e	-0.055398278
23	0x3dcc36fa	0.099714234
24	0x3dd55fad	0.10418639
25	0x3cebdbcf	0.028791336
26	0x3d48de61	0.049040202
27	0x3d40a993	0.04703672
28	0xbc89eb45	-0.016835818
29	0xbd8d4c5a	-0.068993285
30	0x3df99b58	0.121878326
31	0x3e12e4df	0.1434512
32	0xbd31139c	-0.04323159
33	0xbc9dbe05	-0.019255647
34	0xbd41799c	-0.047235116
35	0x3df81909	0.1211415
36	0xbd9e8761	-0.07740665
37	0x3b01e6cc	0.0019821404
38	0xbda54071	-0.08068932
39	0x3dcaad19	0.09896297
40	0xbd1e38d5	-0.038628418
41	0x3caa638f	0.020799426
42	0x3d77b656	0.060476623
43	0x3c7bf231	0.015377567
44	0x3dc10997	0.09425657
45	0xbd138fdb	-0.036025863
46	0x3d5f2b67	0.05448475
47	0xbda6c12c	-0.08142313
48	0xbd25bfdb	-0.04046617
49	0xbd0f0031	-0.034912292
50	0x3cc29b2a	0.023755629
51	0x3dbb160b	0.09135064
52	0xbb6d1653	-0.0036176636
53	0x3d7c6b9f	0.061626073
54	0xbd847c61	-0.06469036
55	0x3c500217	0.012695811
56	0xbd710c29	-0.058849487
57	0xbdad6ae9	-0.08467657
58	0x3ddad620	0.10685372
59	0x3d5f8e2f	0.054578956
60	0x3c8b2800	0.016986847
61	0x3db0c674	0.08631602
62	0xbd0d04a0	-0.03442824
63	0x3d3f2e0c	0.046674773

head.norm.weight f4 [64]
0	0x3f76d4d2	0.9641849
1	0x3f781649	0.96909004
2	0x3f86385a	1.0485947
3	0x3f71a1bc	0.9438741
4	0x3f822fcb	1.0170835
5	0x3f89f278	1.077712
6	0x3f6a59df	0.9154338
7	0x3f7147cc	0.9425018
8	0x3f697c4e	0.912053
9	0x3f8568dc	1.0422626
10	0x3f7b1ee6	0.9809402
11	0x3f687c91	0.90815073
12	0x3f6604de	0.89851177
13	0x3f863176	1.0483844
14	0x3f5d600c	0.8647468
15	0x3f7202b6	0.94535387
16	0x3f87a2f7	1.0596608
17	0x3f871e4e	1.0556123
18	0x3f78a0c4	0.9712031
19	0x3f85818b	1.0430158
20	0x3f6138cb	0.87977284
21	0x3f7d37c0	0.9891319
22	0x3f815156	1.0102947
23	0x3f81140c	1.0084243
24	0x3f7bf161	0.9841519
25	0x3f71aca2	0.9440404
26	0x3f670b88	0.9025197
27	0x3f79e8c2	0.97620785
28	0x3f6f32a7	0.93436664
29	0x3f77570d	0.96617204
30	0x3f59a23a	0.85013163
31	0x3f6c1709	0.9222265
32	0x3f7ba270	0.98294735
33	0x3f7761d6	0.9663366
34	0x3f7f5cae	0.9975079
35	0x3f80e313	1.0069298
36	0x3f793253	0.97342414
37	0x3f8137cf	1.0095156
38	0x3f870192	1.0547354
39	0x3f874504	1.0567937
40	0x3f9c529f	1.2212714
41	0x3f6d4b54	0.92693067
42	0x3f743ab0	0.9540205
43	0x3f738f82	0.9514085
44	0x3f616d54	0.88057446
45	0x3f620772	0.8829261
46	0x3f669d97	0.90084213
47	0x3f6b8f71	0.9201575
48	0x3f84e73a	1.0383065
49	0x3f708cd1	0.9396487
50	0x3f83ce3c	1.0297313
51	0x3f781d21	0.9691945
52	0x3f668250	0.9004259
53	0x3f79b65a	0.9754387
54	0x3f834d7d	1.0258023
55	0x3f6d9912	0.9281169
56	0x3f91eda0	1.1400642
57	0x3f7c74f5	0.9861596
58	0x3f72b9ae	0.94814575
59	0x3f79e7a1	0.9761906
60	0x3f509782	0.8148118
61	0x3f7bfff1	0.9843741
62	0x3f88c820	1.0686073
63	0x3f6106f8	0.8790126

head.norm.bias f4 [64]
0	0xbe8a9451	-0.2706628
1	0xbe362269	-0.17786564
2	0xbef32404	-0.47488415
3	0xbf02a108	-0.51026964
4	0x3ae53fc1	0.0017490314
5	0xbd9cbe47	-0.0765348
6	0xbe895d7e	-0.2682914
7	0xbea205fb	-0.31645188
8	0xbe8729a3	-0.26398954
9	0xbed205e2	-0.41020113
10	0xbe694fcc	-0.22784346
11	0xbe13c5c7	-0.14430915
12	0xbec2529e	-0.37953657
13	0xbdc10482	-0.09424688
14	0xbecfca28	-0.4058392
15	0xbe1a4226	-0.15064296
16	0xbb2a08c0	-0.0025945157
17	0xbebfc4ae	-0.37454742
18	0xbe377d8a	-0.17918983
19	0xbdfaa7c9	-0.12239034
20	0xbe98bfb9	-0.29833773
21	0xbe1c98bf	-0.15292643
22	0xbee2a193	-0.44263896
23	0xbea23dc9	-0.31687763
24	0x389bc204	7.427114e-05
25	0xbe34b3e9	-0.17646755
26	0xbe6c6e37	-0.23088919
27	0xbeee15c4	-0.4650098
28	0xbe6c0255	-0.23047765
29	0xbe83579b	-0.25652775
30	0xbe4e5183	-0.20148282
31	0xbe1534df	-0.1457095
32	0xbe44adf5	-0.19206984
33	0xbe279b2e	-0.1636779
34	0xbe89d38d	-0.26919213
35	0xbe72cdbc	-0.23711294
36	0xbd02eb2a	-0.03196255
37	0xbcc86d9c	-0.024466328
38	0xbe90b28d	-0.28261223
39	0xbf14751b	-0.5799119
40	0xbec9bcf4	-0.39401972
41	0xbdf1dbde	-0.118095145
42	0xbeae0f74	-0.33996165
43	0xbeb18b66	-0.34676665
44	0xbec63697	-0.38713524
45	0xbe7b6db0	-0.24553561
46	0xbe945255	-0.28969064
47	0xbea2e596	-0.31815785
48	0xbe659763	-0.2242103
49	0xbe05e14b	-0.13074224
50	0xbeaf9bb7	-0.34298488
51	0xbd468db1	-0.04847497
52	0xbe8b7083	-0.27234277
53	0xbf16cc34	-0.5890534
54	0xbd2b299c	-0.04178773
55	0xbdbb4ea7	-0.09145861
56	0xbec71d56	-0.3888957
57	0xbe51921e	-0.20465896
58	0xbeda856e	-0.42679924
59	0xbe9469ca	-0.2898696
60	0xbe398650	-0.18117642
61	0xbec65409	-0.3873599
62	0xbf2cadc4	-0.67452645
63	0xbe9d1299	-0.3067825

head.norm.running_mean f4 [64]
0	0xbdb6bf40	-0.08923197
1	0xbdf7cb64	-0.120993406
2	0xbdfae4b1	-0.12250651
3	0x3d1ba4d8	0.037999004
4	0xbdac8dc5	-0.08425478
5	0x3d009ddb	0.031400543
6	0xbc24d51c	-0.010060575
7	0xbd8fbf80	-0.070189476
8	0x3c5d9a47	0.013525552
9	0xbdbdb3a8	-0.09262782
10	0x3c92ffa7	0.01794417
11	0xbdf0a113	-0.117494725
12	0xbe5600f7	-0.20898806
13	0x3e1974de	0.14985988
14	0xbd953f9b	-0.072875224
15	0xbd99ea59	-0.075154014
16	0x3e11b796	0.14230189
17	0xbe091c6a	-0.13389745
18	0xbdf90b4a	-0.12160356
19	0xbe112714	-0.14175063
20	0x3d2acd6e	0.04169982
21	0xbe20e847	-0.15713607
22	0xbd38a521	-0.045079354
23	0x3db28073	0.08715906
24	0x3dbf1b0e	0.09331332
25	0x3c31a8c4	0.0108434595
26	0x3bccb559	0.0062472043
27	0xbc7186eb	-0.01474164
28	0x3d0648d6	0.032784306
29	0xbdd55b80	-0.10417843
30	0x3c9bc38d	0.019014144
31	0x3e07e636	0.13271412
32	0xbdad1e15	-0.08453003
33	0xbe220d7f	-0.15825461
34	0xbde2ad75	-0.110682406
35	0x3e5ba2b6	0.21448788
36	0x3d6f275d	0.05838715
37	0x3e2590be	0.16168496
38	0xbe0ce334	-0.13758546
39	0x3ce258d1	0.027630242
40	0xbdb380c3	-0.08764794
41	0x3dee667c	0.11640641
42	0x3c7501d1	0.014954046
43	0x3d4bce4a	0.04975728
44	0x3d43eb64	0.047831908
45	0x3d990091	0.07470811
46	0x3c5db7a8	0.013532557
47	0xbe20858c	-0.15675944
48	0xbdab5d3e	-0.08367394
49	0xbd67c060	-0.056579947
50	0xbd86edcc	-0.06588325
51	0x3e3f085a	0.1865553
52	0xbd8d5446	-0.069008395
53	0x3d171922	0.036889203
54	0x3dcc95a2	0.09989478
55	0x3e08ef9e	0.13372657
56	0xbdf76286	-0.12079339
57	0xbdcdcdf0	-0.10049045
58	0x3d7b73f2	0.06138987
59	0xbd035da8	-0.03207174
60	0x3d9e4871	0.07728661
61	0x3b91130f	0.004427321
62	0xbd780b19	-0.06055746
63	0x3e122888	0.14273274

head.norm.running_var f4 [64]
0	0x3b43a25a	0.0029851408
1	0x3bce6aab	0.006299337
2	0x3b192c50	0.002337236
3	0x3b144d8d	0.0022629232
4	0x3c3c5570	0.011494979
5	0x3c0484a4	0.008088265
6	0x3aed5668	0.0018107416
7	0x3c2a47d4	0.010393102
8	0x3bfbacc0	0.0076805055
9	0x3b29f0a5	0.0025930789
10	0x3c1003ca	0.008789966
11	0x3c4a7457	0.012356839
12	0x3c2283d0	0.009919122
13	0x3bccc894	0.0062494967
14	0x3b69afb6	0.003565771
15	0x3cbe6aef	0.02324435
16	0x3bf82a01	0.0075733666
17	0x3b2c9f1a	0.002633995
18	0x3c362ed3	0.011119562
19	0x3c69e809	0.014276513
20	0x3b575a90	0.0032860376
21	0x3c448d14	0.011996526
22	0x3b16b0ee	0.0022993642
23	0x3b451931	0.003007483
24	0x3ba99ab1	0.0051759114
25	0x3b21469e	0.0024608742
26	0x3b3f4cd1	0.0029190073
27	0x3b1e690c	0.00241715
28	0x3bdfced2	0.006830075
29	0x3bde3f66	0.00678246
30	0x3c2b816e	0.01046787
31	0x3bf888fc	0.007584689
32	0x3c2d7c44	0.010588709
33	0x3ca59c28	0.020216063
34	0x3c09b030	0.008403823
35	0x3cc68454	0.02423302
36	0x3bc227a8	0.0059251375
37	0x3c2eab62	0.010660978
38	0x3baf8838	0.0053568147
39	0x3b29e710	0.0025925077
40	0x3bb062e7	0.005382884
41	0x3cbcb26c	0.023034297
42	0x3b0dacad	0.0021617815
43	0x3bcb5ed7	0.006206374
44	0x3b2fb983	0.0026813454
45	0x3b8ee439	0.0043607024
46	0x3c269f2f	0.010169788
47	0x3badb893	0.005301544
48	0x3bd862cf	0.006603576
49	0x3c043573	0.008069384
50	0x3c0f0a04	0.008730415
51	0x3bd11fc1	0.006381959
52	0x3b4bc06d	0.0031090037
53	0x3b63251f	0.0034659577
54	0x3c87e53a	0.016588796
55	0x3bdc1141	0.006715924
56	0x3ba9eae5	0.0051854723
57	0x3b32db1f	0.002729125
58	0x3ba9a987	0.00517768
59	0x3b8e0b9b	0.0043348796
60	0x3b9b56dd	0.0047405795
61	0x3b6760c9	0.0035305491
62	0x3b06c299	0.0020562767
63	0x3b7d4adf	0.0038649363

body.block1.conv.weight f4 [64, 64, 3, 3]
0	0x3d6e136e	0.058124
1	0xbc25cdf3	-0.010119903
2	0x3d21154c	0.03932695
3	0x3d156716	0.036475264
4	0x3d5d1a48	0.053980142
5	0x3c3d428a	0.011551509
6	0xbcbb6291	-0.022874149
7	0xbcd8ebee	-0.026479688
8	0xbd1f1e4e	-0.03884726
9	0xbcc8b5a4	-0.024500675
10	0xbc5da97b	-0.013529177
11	0x3b37420f	0.0027962958
12	0x3ca6b851	0.02035156
13	0xbdb5217c	-0.08844277
14	0xbc21d734	-0.009877969
15	0x3da43386	0.0801764
16	0xbcb4d7bb	-0.022075525
17	0x3c0f1e70	0.008735284
18	0xbd02b9c6	-0.03191545
19	0x3d0f41a4	0.03497471
20	0xbb88af38	-0.0041712783
21	0xbd015a6c	-0.031580374
22	0xbd33de06	-0.04391291
23	0xbccfa911	-0.025349172
24	0x3d0aca69	0.03388444
25	0xbd88b5c8	-0.06675297
26	0xbd31a29e	-0.043367974
27	0xbd54caf6	-0.05195137
28	0xbd31aabb	-0.043375712
29	0xbcf19cf4	-0.029493786
30	0x3cb66588	0.02226521
31	0x3d98d495	0.07462422
32	0x3c289158	0.010288559
33	0x3b74ea7d	0.0037371211
34	0x3bbfbf43	0.0058516576
35	0xbca331c5	-0.019921193
36	0x3b7ef560	0.003890358
37	0xbd296f00	-0.041365623
38	0xbd7c7142	-0.06163145
39	0xbd64363b	-0.05571578
40	0xbd7d330b	-0.061816256
41	0xbdbd797e	-0.092516884
42	0x3cfcb5ed	0.030848468
43	0xbca104a5	-0.019655535
44	0xbcd600eb	-0.026123485
45	0x3c83e376	0.016099673
46	0x3cba3d74	0.022734381
47	0x3d29f751	0.041495625
48	0xbd32e25e	-0.04367291
49	0xbb1d8ecb	-0.002404141
50	0x3d00137b	0.031268578
51	0xbd635039	-0.05549643
52	0x3ba3d045	0.004999193
53	0xbc073f80	-0.008254886
54	0xbd2eb79c	-0.042655572
55	0xbc18eb72	-0.009333478
56	0x3bba2394	0.005680511
57	0x3cbf86e6	0.023379754
58	0xbd504d2f	-0.050854858
59	0x3ba6b02b	0.005086919
60	0x3c5eccc2	0.013598623
61	0xbd2a91ed	-0.041643072
62	0x3ce63da4	0.028105564
63	0x3b0185f5	0.0019763683
64	0xbd389fc2	-0.045074232
65	0xbd0de861	-0.034645442
66	0x3a95c4e9	0.0011426482
67	0xbcf37611	-0.029719384
68	0xbce7b711	-0.028285535
69	0xbd2f9f36	-0.042876445
70	0xbcad838d	-0.021180892
71	0xbd441ae1	-0.047877196
72	0xbc8f8d3b	-0.017523399
73	0xbcd5edd4	-0.026114382
74	0x3b952c7f	0.0045524235
75	0x3dd123ec	0.1021193
76	0x3d27511d	0.04084884
77	0x3d856fb7	0.065154485
78	0x3da80a45	0.08205084
79	0xbcb819db	-0.022473266
80	0x3d2887f4	0.04114528
81	0x3ce96d72	0.02849457
82	0x3cdf2249	0.027238028
83	0xbd41f271	-0.04735035
84	0xbc88d2db	-0.016702106
85	0xbcc87577	-0.024470074
86	0xbc3dd2bc	-0.0115858875
87	0x3a8c7530	0.0010716077
88	0x3c552b29	0.013010778
89	0xbcebf7a6	-0.028804611
90	0xbca2aec9	-0.019858735
91	0xbd81336b	-0.06308635
92	0xbc8f7fdc	-0.017517023
93	0xbda5769f	-0.08079266
94	0xbd20dc51	-0.03927261
95	0xbd2c51f8	-0.04207036
96	0xbd23d943	-0.04000212
97	0xbd17ba3a	-0.037042834
98	0xbce3efeb	-0.027824363
99	0xbd8a7deb	-0.06762298
100	0x3d2fb812	0.042900153
101	0xbcf1058b	-0.029421588
102	0xbd7cdb94	-0.061732844
103	0x3caf1548	0.021372452
104	0xbb81dfba	-0.003963438
105	0xbceecaeb	-0.029149493
106	0x3cafc6a9	0.021457033
107	0xbd523a2a	-0.051325
108	0x38b115cf	8.44408e-05
109	0x3d59657d	0.053075302
110	0x3cc270cf	0.023735432
111	0xbdd17025	-0.10226468
112	0x3b549dbf	0.0032442657
113	0x3ce274e3	0.027643627
114	0xbc849de2	-0.016188566
115	0x3be78152	0.0070649767
116	0x3d52cb16	0.05146321
117	0x3d7f4f5d	0.062331546
118	0x3d0a36f8	0.03374383
119	0x3d307229	0.04307762
120	0x3acd113d	0.0015645396
121	0x3cb8b001	0.022544863
122	0x3cc554cf	0.024088291
123	0xbc55c34f	-0.0130470535
124	0xbd14e4e2	-0.036351092
125	0xbbe54e32	-0.006997847
126	0x3db7d5ae	0.08976303
127	0xbd3a6063	-0.045502078
128	0x3d037993	0.032098364
129	0xbcb73cb1	-0.022367807
130	0xbd70e86a	-0.058815397
131	0xbc33641b	-0.01094916
132	0xbce5b2d6	-0.028039377
133	0xbd1ad478	-0.037800282
134	0xbcba8a24	-0.022770949
135	0xbcf561d3	-0.029953873
136	0xbb7e0972	-0.0038762954
137	0xbdac7065	-0.08419875
138	0x3d521123	0.051285874
139	0x3d3c2658	0.045935005
140	0x3a904b93	0.0011008851
141	0xbc499eb0	-0.0123059
142	0xbd6665da	-0.056249477
143	0xbd230226	-0.03979697
144	0xbd9fdf29	-0.07806236
145	0xbc339ed7	-0.010963163
146	0xbd24b0ea	-0.04020778
147	0x3c837bd9	0.016050266
148	0xbd04f6af	-0.03246182
149	0xbd0bcaaa	-0.034128822
150	0xbd2e80e5	-0.042603392
151	0x3c49f39b	0.0123261465
152	0xbd8c6872	-0.06855859
153	0x3bd13cab	0.006385406
154	0x3d5789a2	0.05262149
155	0xbcb71a40	-0.022351384
156	0x3cc17013	0.023613011
157	0x3cf2ddac	0.029646717
158	0xbcb655b3	-0.022257661
159	0xbd1fd4b3	-0.039021205
160	0xbd22d9bf	-0.03975844
161	0x3ca7ca16	0.020482104
162	0x3d3d0cb0	0.046154678
163	0x3d140404	0.036136642
164	0x3d281fd8	0.041045994
165	0x3dac7720	0.08421159
166	0x3bcb0060	0.006195113
167	0x3d818434	0.06324044
168	0x3bec8d62	0.0072190026
169	0xbc69f228	-0.014278926
170	0x3d2ef284	0.04271175
171	0xbd73af83	-0.059493553
172	0xbd7daada	-0.061930515
173	0xbd8112c3	-0.06302407
174	0xbde55e60	-0.11199641
175	0xbce633bf	-0.028100846
176	0xbd3d1576	-0.046163045
177	0x3d27a263	0.04092635
178	0x3dafd20c	0.08584985
179	0x3bb5fde3	0.0055539473
180	0x3c244c03	0.010027888
181	0x3ba7bcc8	0.00511894
182	0xbd8bc9e5	-0.06825618
183	0x3d6a6a65	0.057230372
184	0x3cdea89a	0.027180005
185	0xba142911	-0.00056518713
186	0xbd39bb87	-0.045344856
187	0xbd618854	-0.055061653
188	0xbd293b65	-0.04131641
189	0x3d3947af	0.04523438
190	0xbbf41c04	-0.007449629
191	0xbcd475ee	-0.02593514
192	0x3c02f465	0.0079928385
193	0xbd16e3a4	-0.03683819
194	0xbda12f5f	-0.078703634
195	0xbd8a2693	-0.06745639
196	0xbce3a24a	-0.027787346
197	0xbd6f1ddb	-0.05837808
198	0x3c76c319	0.015061163
199	0x3b997de4	0.004684197
200	0x3d1dbd70	0.03851074
201	0xba7116e2	-0.000919683
202	0x3d9c932f	0.076452605
203	0xbbe71de2	-0.007053123
204	0x3d62c24f	0.05536109
205	0xbceb0cf4	-0.0286927
206	0x3c1a43bd	0.009415564
207	0x3c231e15	0.009955903
208	0xbc247a9b	-0.010038997
209	0x38c08939	9.180833e-05
210	0xbd0531f3	-0.03251834
211	0x3cb9c2b2	0.022675846
212	0xbc23916f	-0.009983405
213	0xbcb92c28	-0.022604063
214	0xbda53125	-0.08066014
215	0xbdc5b9b4	-0.09654561
216	0xbd58a825	-0.05289473
217	0xbc51d8a4	-0.012807999
218	0xbc4793e9	-0.012181261
219	0xb9f9b351	-0.00047626582
220	0xbd4d9ed6	-0.050200306
221	0xbda42489	-0.08014781
222	0x3dabeb0a	0.083944395
223	0xbd718264	-0.05896224
224	0x3c6468db	0.013941015
225	0x3d9cc9b8	0.07655662
226	0xbd037ceb	-0.032101553
227	0x3d7b5b55	0.061366398
228	0xbd5c9b1f	-0.053858873
229	0xbd66da7c	-0.056360707
230	0x3d0ff7cc	0.035148427
231	0x3d04c60a	0.032415427
232	0x3a542c94	0.0008093801
233	0xbc80ed70	-0.015738219
234	0x3d207991	0.039178435
235	0xbc478465	-0.012177561
236	0x3d147b37	0.03625032
237	0xbd1ec510	-0.038762152
238	0xbc115e38	-0.008872561
239	0xbd839812	-0.064254895
240	0x3ca5df24	0.020248003
241	0xbceb2c2f	-0.028707592
242	0x3ca4c905	0.020115385
243	0x3c85ed77	0.016348584
244	0x3db9028e	0.090336904
245	0x3d423208	0.047410995
246	0x3d0eb9b9	0.034845088
247	0x3d2bbee7	0.041930106
248	0xbd28bb5a	-0.041194297
249	0xbd8e9911	-0.06962789
250	0x3d823301	0.063573845
251	0xbb1c29d3	-0.002382864
252	0xbc1ca5e2	-0.009561034
253	0x3cdc7e68	0.026915744
254	0xbadbdf1d	-0.0016774867
255	0x3d200bf1	0.03907389

body.block1.conv.bias f4 [64]
0	0x3d6299d1	0.055322472
1	0xbbc3c00e	-0.0059738224
2	0x3c38a29a	0.011269236
3	0xbd34da3d	-0.04415344
4	0x3ca10789	0.019656913
5	0xbc07b1b6	-0.008282116
6	0xbd2f50fa	-0.042801835
7	0xbd1618c7	-0.036644723
8	0xbbf25f63	-0.007396625
9	0xbc691fd2	-0.014228778
10	0x3d0dec7e	0.034649365
11	0x3c24b32f	0.010052486
12	0xbc582c7f	-0.013194202
13	0xbc81db82	-0.01585174
14	0xbd052919	-0.032509897
15	0xbcf606a6	-0.030032467
16	0x3c897eb4	0.01678405
17	0x3c6f2950	0.014597252
18	0x3cf10b77	0.029424412
19	0xbca829f5	-0.02052782
20	0xbc52b2be	-0.012859998
21	0xbcc46b4f	-0.02397695
22	0x3ce59681	0.028025867
23	0xbcb38217	-0.021912618
24	0xbce362dd	-0.027757103
25	0x3d19cf4f	0.03755122
26	0xbd12734d	-0.03575449
27	0x3c88a4a7	0.016680075
28	0xbcfbf781	-0.030757667
29	0xbb5aba01	-0.0033375027
30	0x3cfc99f6	0.030835133
31	0x3ca85bef	0.02055165
32	0xbc887a7c	-0.016659968
33	0x3c31e84f	0.010858609
34	0xbd0a6e2b	-0.03379647
35	0xbc369e26	-0.011146104
36	0x3cd9aa9c	0.02657061
37	0x3cf4ab7c	0.029866926
38	0xbcf3b132	-0.02974758
39	0xbc2f45ef	-0.010697826
40	0x3c258ed6	0.0101048555
41	0xbbd001d1	-0.006347873
42	0xbd1e6f39	-0.03868029
43	0xbc17a50e	-0.009255661
44	0x3c3942d8	0.011307441
45	0x3b7f30ec	0.0038939072
46	0xbcd26545	-0.025683055
47	0xbcd9bf7d	-0.026580567
48	0x3cc6b5a4	0.024256535
49	0x3cdb3195	0.026757041
50	0xbc8bfd66	-0.017088603
51	0x3ac2a2f3	0.0014849588
52	0xbd128ff5	-0.03578182
53	0x3cc36a21	0.023854317
54	0x3bb84d1a	0.0056244256
55	0x3cfbff5a	0.03076141
56	0xbc379b8b	-0.011206518
57	0xbcadb47b	-0.021204224
58	0xba806f6c	-0.0009798831
59	0x3cdd4cf9	0.027014242
60	0x3d44fec8	0.04809454
61	0xbcd541aa	-0.026032288
62	0x3d00f689	0.031485114
63	0x3c85a5c2	0.016314391

body.block1.norm.weight f4 [64]
0	0x3f9ae0c0	1.2099838
1	0x3f8e3012	1.110842
2	0x3f9a0c80	1.2035065
3	0x3f922cbc	1.1419902
4	0x3f87c44e	1.0606782
5	0x3f92a39c	1.145618
6	0x3f87b0b2	1.0600798
7	0x3f8ef933	1.11698
8	0x3f8bdb2d	1.0926262
9	0x3f869cf1	1.0516645
10	0x3f8c5ec0	1.0966415
11	0x3f887bb6	1.0662754
12	0x3f960ab6	1.1722019
13	0x3f84b850	1.0368748
14	0x3f892bd9	1.0716506
15	0x3f8476d9	1.034877
16	0x3f92a58f	1.1456774
17	0x3f8ab702	1.08371
18	0x3f846703	1.0343937
19	0x3f8cd43c	1.1002269
20	0x3f90e764	1.1320615
21	0x3f994750	1.1974888
22	0x3f894a1c	1.0725741
23	0x3f86315e	1.0483816
24	0x3f862fd2	1.0483344
25	0x3f9ebfa0	1.2402229
26	0x3f86fd49	1.0546046
27	0x3f8fab36	1.1224124
28	0x3f81a93d	1.0129772
29	0x3f87e0b4	1.0615449
30	0x3f7ff284	0.99979424
31	0x3f8826b9	1.0636817
32	0x3f9c1d8c	1.2196517
33	0x3f91b242	1.1382525
34	0x3f87a150	1.0596104
35	0x3f91601b	1.1357454
36	0x3f8c5042	1.0961993
37	0x3f945805	1.1589361
38	0x3f8562c0	1.0420761
39	0x3f8c22ac	1.0948081
40	0x3f935012	1.150881
41	0x3fb3b1d4	1.4038644
42	0x3f8adbe6	1.0848358
43	0x3f93cc76	1.1546772
44	0x3f9f1566	1.2428405
45	0x3f880431	1.0626279
46	0x3f9046e0	1.1271629
47	0x3f91fafb	1.1404718
48	0x3f8e3516	1.110995
49	0x3f867582	1.050461
50	0x3f84f685	1.0387732
51	0x3f94ed1c	1.163486
52	0x3f8603c0	1.0469894
53	0x3f84d497	1.0377377
54	0x3fa121d2	1.2588446
55	0x3f7d0639	0.9883762
56	0x3f8bb88a	1.0915692
57	0x3f8eb655	1.1149393
58	0x3f8938f9	1.0720512
59	0x3f8ecc9c	1.1156192
60	0x3f7fce68	0.99924326
61	0x3f9cbb4a	1.2244656
62	0x3f8936b2	1.0719817
63	0x3f8ad126	1.0845077

body.block1.norm.bias f4 [64]
0	0xbd918e4d	-0.0710722
1	0xbd26b181	-0.040696625
2	0xbde8d6d7	-0.113691024
3	0xbd788c6e	-0.0606808
4	0x3d605334	0.05476685
5	0x3cce4020	0.025177062
6	0xbd8992bc	-0.067174405
7	0x3b7bdb86	0.0038430407
8	0x3d98d7f0	0.07463062
9	0xbd80a90a	-0.06282242
10	0xbc50ff56	-0.012756189
11	0xbd3a4632	-0.0454771
12	0xbcef655f	-0.029223142
13	0xbe99bc92	-0.3002668
14	0x3926f803	0.00015923385
15	0xbd43df87	-0.047820594
16	0xbe5598de	-0.20859095
17	0xbe388148	-0.18018067
18	0x3da30c67	0.0796135
19	0x3d79784e	0.060905747
20	0xb93c78bd	-0.00017974056
21	0xbf05e384	-0.52300286
22	0xbb8ae2f4	-0.0042384807
23	0xbe2d1752	-0.16903427
24	0xbd02405a	-0.03179965
25	0xbdccc312	-0.09998144
26	0xbccd3ca8	-0.025053337
27	0xbd925d79	-0.07146735
28	0xbdb393b1	-0.08768404
29	0xbd017a73	-0.031610917
30	0xbd3382f1	-0.043826047
31	0xbd8e8787	-0.069594435
32	0xbd957d12	-0.07299246
33	0xbd380ee7	-0.044936087
34	0xbdc8fa4f	-0.098133676
35	0xbd2d849a	-0.042362787
36	0xbdb102d2	-0.08643116
37	0x3d1fc382	0.03900481
38	0x3ca0b5c2	0.019617919
39	0xbd26f559	-0.040761326
40	0xbcd9c9bf	-0.026585458
41	0xbdd83240	-0.105564594
42	0xbeb1402b	-0.3461927
43	0xbd3a2a16	-0.045450293
44	0xbe86af2a	-0.26305515
45	0xbe615670	-0.2200563
46	0x3d0ba90d	0.034096766
47	0xbe59e3ab	-0.21278255
48	0xbe1970e8	-0.14984477
49	0x3d254378	0.040347546
50	0x3da52cc7	0.08065181
51	0xbd29be69	-0.041441355
52	0xbd09c1c1	-0.033632044
53	0xbd8c04c4	-0.068368465
54	0xbed5a4f8	-0.41727424
55	0xbd53e357	-0.05173048
56	0xbd8ccf77	-0.06875508
57	0x3cab1c85	0.020887623
58	0x3c2076d6	0.009793958
59	0xbd029352	-0.031878777
60	0xbdc30517	-0.09522455
61	0xbe978a34	-0.29597628
62	0xbc26de50	-0.010184839
63	0xbd9ec9e5	-0.07753352

body.block1.norm.running_mean f4 [64]
0	0xbedd51f9	-0.43226603
1	0xbe852d36	-0.26011056
2	0xbf1d0f2a	-0.61351264
3	0xbde80f3a	-0.11331029
4	0xbe304739	-0.1721467
5	0xbd92935a	-0.07157011
6	0x3e8b4840	0.2720356
7	0xbea5dede	-0.32396597
8	0x3eebdddc	0.46067703
9	0x3e1103d0	0.1416161
10	0xbe60bc0a	-0.21946731
11	0x3ea16bfe	0.31527704
12	0x3dc782cb	0.09741744
13	0xbe73634a	-0.23768345
14	0xbd67a4fe	-0.056553833
15	0xbd7942bb	-0.060854655
16	0xbe354104	-0.17700583
17	0xbef013ba	-0.4689005
18	0x3d804e13	0.062648915
19	0x3e5859bc	0.21127981
20	0x3cc7d251	0.024392279
21	0xbf0777d2	-0.52917206
22	0x3dd0bf4b	0.10192736
23	0x3ecd2bf7	0.40072605
24	0x3e3f2cb4	0.18669397
25	0xbf031a22	-0.5121175
26	0x3e712444	0.2354899
27	0xbf08c2af	-0.53422064
28	0x3c2256e6	0.0099084135
29	0xbd162871	-0.03665966
30	0x3e0e9ed1	0.13927771
31	0xbe3625ea	-0.177879
32	0xbeaed4c9	-0.34146717
33	0xbf44d2d7	-0.76884216
34	0xbeac3d4d	-0.3364052
35	0xbefbcd17	-0.4917991
36	0xbec9745c	-0.39346588
37	0x3e819e8e	0.2531628
38	0x3ed767e0	0.42071438
39	0xbf2ea904	-0.6822665
40	0xbe26eb8a	-0.16300789
41	0xbeabe4f8	-0.33573127
42	0xbf282c24	-0.65692353
43	0xbdb6b912	-0.08922018
44	0xbf0d31e0	-0.5515423
45	0xbecafdcc	-0.39646757
46	0xbeec8329	-0.46193817
47	0xbebdf65d	-0.37102023
48	0xbf0632ec	-0.5242145
49	0xbc600ece	-0.013675405
50	0x3e16dc32	0.14732435
51	0xbe61d3fb	-0.2205352
52	0x3dde040e	0.10840617
53	0xbe8c61f7	-0.2741849
54	0xbedcf56c	-0.43155992
55	0xbefac376	-0.4897725
56	0x3da518c3	0.080613635
57	0x3daa77cd	0.083236314
58	0x3efcdede	0.49388784
59	0x3eaa3624	0.3324443
60	0x3d430e74	0.047621205
61	0xbecc5add	-0.39913073
62	0x3e1a35f1	0.1505964
63	0xbee262f7	-0.4421613

body.block1.norm.running_var f4 [64]
0	0x3e5b6881	0.21426584
1	0x3f429fcf	0.760251
2	0x3f1359d1	0.57558924
3	0x3f322432	0.6958648
4	0x3ec9bf8d	0.39403954
5	0x3f829a07	1.0203255
6	0x3f761ba5	0.9613593
7	0x3e9b2919	0.30304793
8	0x3fee65c1	1.8624803
9	0x3ebb9e0b	0.36644015
10	0x3f650e79	0.8947521
11	0x3f1b7527	0.60725635
12	0x3e89bf6d	0.2690386
13	0x3e917896	0.28412312
14	0x3fe4ec3b	1.7884592
15	0x3f9b685c	1.2141223
16	0x3e581918	0.21103323
17	0x3f198d9e	0.59981716
18	0x3f40f559	0.7537437
19	0x3fa62c6b	1.2982305
20	0x3f53d60b	0.8274848
21	0x3d98393b	0.07432791
22	0x3ead9032	0.33899075
23	0x3f4ae4ab	0.7925517
24	0x3ee0b795	0.43890062
25	0x3e712461	0.23549034
26	0x3f7624c0	0.96149826
27	0x3e48a36a	0.19593588
28	0x3f791729	0.97300965
29	0x3f182991	0.59438425
30	0x3f14e4be	0.5816153
31	0x3ea33a00	0.31880188
32	0x3ea036af	0.3129172
33	0x3fcf3c3c	1.6190257
34	0x3f335a3b	0.70059556
35	0x3e4ccbf9	0.19999684
36	0x3e518d55	0.2046407
37	0x3ee4112d	0.44544354
38	0x3fa41acd	1.2820679
39	0x3e8200fd	0.2539138
40	0x3fc73b50	1.5564976
41	0x3e18d735	0.14925845
42	0x3e1ee52a	0.15517107
43	0x3f57a972	0.8424293
44	0x3e5e996a	0.2173821
45	0x3f00c2c0	0.50297165
46	0x3fc0ddd6	1.5067699
47	0x3f868f2f	1.0512446
48	0x3e3bc4e5	0.18336828
49	0x3ed8d9a1	0.42353538
50	0x3f3fd9d3	0.7494175
51	0x3e7cc556	0.24684653
52	0x3f1c4207	0.6103825
53	0x3f2da021	0.6782246
54	0x3e1d5777	0.15365396
55	0x3ed744fc	0.42044818
56	0x3ec51859	0.38495138
57	0x3f306a71	0.68912417
58	0x3eed0232	0.46290737
59	0x3f8537bd	1.0407635
60	0x3eaaf1f3	0.33387718
61	0x3e0422f7	0.12903963
62	0x3f602120	0.87550545
63	0x3f3de57d	0.74178296

tail.0.weight f4 [12, 64, 3, 3]
0	0x3c876387	0.01652695
1	0xbd2ec0b2	-0.042664237
2	0x3d29f586	0.041493915
3	0xbca554ee	-0.0201821
4	0xbd9f8e22	-0.077907816
5	0x3d227472	0.039661832
6	0xbd029853	-0.03188355
7	0x3ddd118a	0.10794361
8	0xbcaab477	-0.020838005
9	0xbc414e38	-0.011798434
10	0x3da7b91f	0.08189606
11	0xbc925160	-0.017861068
12	0xbce08037	-0.027404888
13	0x3cba090f	0.022709398
14	0x3d571de1	0.05251873
15	0x3c8e875c	0.017398529
16	0xbd9b88a6	-0.07594423
17	0x3d3f9354	0.046771362
18	0xbd1b584a	-0.037925996
19	0x3ca2a798	0.019855306
20	0xbcfc6655	-0.030810514
21	0x3c8f9baa	0.017530281
22	0x3c12a36c	0.008950096
23	0xbc8a3104	-0.016869076
24	0x39d3d0c0	0.00040400587
25	0xbb7ebef4	-0.003887114
26	0x3c5a83d5	0.013337095
27	0xbd5b540b	-0.053546946
28	0x3bb86370	0.0056270882
29	0xbc17ca06	-0.009264475
30	0x3b7eec98	0.0038898345
31	0xbd2bcf8b	-0.041945975
32	0x3c897f8d	0.016784454
33	0xbc2ebefb	-0.0106656505
34	0xbd00e69e	-0.031469934
35	0x3dad15d9	0.08451433
36	0x38a58100	7.891841e-05
37	0x3a96c0ca	0.0011501547
38	0x3cfce4bc	0.030870788
39	0x3d873097	0.06601065
40	0x3d83f6ca	0.06443556
41	0xbc30bb85	-0.010786896
42	0xbd9a301f	-0.075287096
43	0x3bc7e7e6	0.0061006425
44	0x399fba67	0.00030465724
45	0xbc6ad383	-0.014332655
46	0x3b7b89ec	0.0038381768
47	0x3b09615b	0.002096257
48	0x3d428a46	0.04749515
49	0xb9e5bbbf	-0.00043818165
50	0x3d497f2f	0.049193557
51	0x3d8cfad1	0.06883777
52	0xbc7b8b15	-0.015352984
53	0xbc04ddd6	-0.00810953
54	0x3ba821b4	0.005130971
55	0x3c846bf0	0.01616475
56	0xbb69a39f	-0.0035650504
57	0x3c305121	0.01076153
58	0xbd115f48	-0.035491258
59	0x3d283a18	0.041071028
60	0xbc700c77	-0.014651409
61	0x3cbdc772	0.023166392
62	0x3d5fe11e	0.054658048
63	0xbc4b4ec4	-0.012408916
64	0x3d8fd473	0.07022943
65	0x3da30d5d	0.07961533
66	0x3db0f6af	0.08640801
67	0xbdba7fc2	-0.09106399
68	0x3d8af686	0.06785302
69	0xbcc3b675	-0.023890713
70	0xbd45837b	-0.048221093
71	0x3da8541c	0.082191676
72	0xbb667b98	-0.0035168882
73	0x3d8a2066	0.06744461
74	0x3d74e1ed	0.059785772
75	0x3c56098b	0.013063799
76	0xbc4e59c8	-0.012594648
77	0x3cfa5b6e	0.030561175
78	0x3ccf8758	0.025333092
79	0x3c6073e3	0.013699505
80	0x3aaee174	0.0013342337
81	0xbd07cb69	-0.03315297
82	0xbbc0b577	-0.0058810073
83	0xbdd3847f	-0.10328006
84	0x3d13e64d	0.036108304
85	0x3e59c8ab	0.21267955
86	0xbe549240	-0.20758915
87	0xbc6ff922	-0.0146468
88	0x3cfd7a95	0.03094224
89	0x3ce2649a	0.027635861
90	0x3d827c19	0.06371326
91	0x3ce00a5d	0.027348692
92	0xbd1ed6b5	-0.03877898
93	0x3de6599c	0.112475604
94	0x3b4c2594	0.0031150328
95	0xbba2c169	-0.004966904
96	0x3c645b0c	0.013937723
97	0x3cd9dca6	0.026594471
98	0x3ce7382d	0.028225029
99	0xbccce912	-0.02501348
100	0x3da83d67	0.082148366
101	0xbbabd14d	-0.0052434565
102	0xbdcb62f5	-0.09930984
103	0x3cc82d46	0.02443565
104	0x3d1f9b68	0.038966566
105	0x3d350e83	0.044203293
106	0x3daf8ad8	0.08571404
107	0xbcbdb36c	-0.023156844
108	0x3bd5dbb1	0.0065264334
109	0xbd58628e	-0.052828364
110	0x3ca32064	0.019912906
111	0x3d98ff34	0.07470551
112	0xbc0fedf5	-0.008784761
113	0xbccc61fd	-0.024949068
114	0x3cbe5963	0.023235982
115	0xbdaffba4	-0.085929185
116	0x3d6e8dd3	0.058240723
117	0xbd01503e	-0.031570666
118	0x3d4511bf	0.048112627
119	0x3d0927c7	0.0334852
120	0x3d653330	0.05595702
121	0x3d549d6b	0.051907938
122	0x3bd04f9c	0.0063571464
123	0xbbe35aed	-0.0069383294
124	0x3d7873e5	0.0606574
125	0xbd5ca0c0	-0.05386424
126	0xbd9bd6e6	-0.07609348
127	0xbcb7510e	-0.022377517
128	0xbd20af5d	-0.03922974
129	0xbc436f94	-0.011928458
130	0xbb98a4b8	-0.004658308
131	0xbbc79e02	-0.006091834
132	0x3cbb94cc	0.0228981
133	0x3d4babbf	0.049724337
134	0xbccccaa1	-0.024998965
135	0x3d208b42	0.039195307
136	0x3d1e3d25	0.03863253
137	0x3cdd5856	0.02701966
138	0xbd542dcf	-0.0518015
139	0xbb522299	-0.003206408
140	0x3d4d9e21	0.05019963
141	0x3d3dc396	0.046329103
142	0xbcce9fcc	-0.025222681
143	0xbb1bbbb5	-0.0023763005
144	0x3c90c303	0.017671114
145	0xbd5036f9	-0.050833676
146	0xbd9adb2b	-0.07561334
147	0x3d3a4170	0.045472562
148	0x3dcd4d2f	0.10024487
149	0x3de825de	0.113353476
150	0xbd408010	-0.04699713
151	0xbd37bdc4	-0.04485871
152	0x3cb3e3d9	0.021959232
153	0xbc069a59	-0.00821551
154	0x3ccc9445	0.024973044
155	0x3d9cd4d7	0.076577835
156	0xbc5da490	-0.013528004
157	0xbd666d86	-0.056256793
158	0x3d0b2284	0.033968464
159	0x3d2cf6ab	0.04222743
160	0xbd35dccf	-0.044400033
161	0x3d0f05a8	0.034917504
162	0x3dad838a	0.08472355
163	0x3be61fa4	0.007022815
164	0x3dba7a2d	0.091053344
165	0xbca1ac00	-0.019735336
166	0xbd538434	-0.05163975
167	0x3cf82c29	0.030294495
168	0x3dbc1093	0.09182849
169	0x3dd1083c	0.10206649
170	0xbbece491	-0.0072293957
171	0x3cdec3cb	0.02719297
172	0x3c771a61	0.015081973
173	0xbdeccf3e	-0.11562966
174	0xbe29fa2f	-0.16599344
175	0xbdf08a7f	-0.11745166
176	0xbd2b8d9d	-0.0418831
177	0x3ca79684	0.020457514
178	0x3c886394	0.016649045
179	0x3c145db5	0.009055545
180	0x3c351465	0.011052226
181	0x3d0a61dc	0.033784732
182	0x3d482dfd	0.048871983
183	0xbafeec1d	-0.0019449029
184	0x3d6b2f00	0.05741787
185	0x3d8ccd67	0.06875115
186	0xbd2efe64	-0.042723075
187	0x3d7d9fca	0.061919965
188	0xbc21d34c	-0.009877037
189	0x3d70c806	0.058784507
190	0x3d49d0d3	0.049271416
191	0xbd87407e	-0.06604098
192	0xbdbe8465	-0.09302596
193	0xbcc1128c	-0.023568414
194	0x3cafd974	0.021465994
195	0x39bb336a	0.00035705726
196	0x3cfc840e	0.030824687
197	0x3cd888d1	0.026432427
198	0x3c19565a	0.009358967
199	0x3d67ab8c	0.056560084
200	0x3d5e4082	0.05426074
201	0xbc3ac1fc	-0.011398789
202	0x3d8d99b3	0.069140814
203	0x3c7587cc	0.01498599
204	0xbc780ec2	-0.015140237
205	0xbd7f51a8	-0.062333733
206	0x3c5a282d	0.013315243
207	0xbca12e12	-0.019675288
208	0xbc0752a9	-0.008259454
209	0x3c8c5fee	0.017135587
210	0xbd110d06	-0.03541281
211	0x3e1e7fc0	0.1547842
212	0xbdf3dbf7	-0.11907189
213	0x3d4e004e	0.05029326
214	0x3c3a7199	0.011379623
215	0xbcf38c0a	-0.029729862
216	0xbd7f631c	-0.062350377
217	0xbe08a1ea	-0.13343015
218	0xbd89491f	-0.067034
219	0x3df5a84d	0.119949915
220	0xbd91c3ea	-0.07117446
221	0x3d8b6e3a	0.068081334
222	0x3c9c2913	0.019062554
223	0xbd5a69a1	-0.05332339
224	0x3c84e1db	0.016220978
225	0xbd32fe39	-0.043699477
226	0x3d1dbb0c	0.03850846
227	0x3d1d2a61	0.038370494
228	0xbd6003d5	-0.054691155
229	0xbba01ede	-0.004886492
230	0x3c7b739c	0.015347388
231	0xbc7e1a90	-0.015509263
232	0xbd3b5380	-0.04573393
233	0x3d3d7dee	0.046262674
234	0xbc373eac	-0.011184376
235	0xbe079ecf	-0.13244174
236	0x3b989155	0.004655997
237	0xb6bcd8d6	-5.6280796e-06
238	0x3d256081	0.040375236
239	0xbda402e3	-0.08008363
240	0xbc7acaf5	-0.015307178
241	0x3d03c234	0.03216763
242	0xbd4fdad7	-0.05074581
243	0x3cc86eac	0.024466835
244	0x3df0b0f6	0.117525026
245	0xbdbb4ffa	-0.09146114
246	0xbb027682	-0.0019907062
247	0xbcd00174	-0.025391318
248	0xbd363a11	-0.04448897
249	0x3ce1be34	0.027556516
250	0x3abeadec	0.0014547682
251	0x3c71490e	0.01472689
252	0xbd52202a	-0.051300205
253	0xbdb170a8	-0.086640656
254	0xbc83cc9c	-0.016088776
255	0x3d04824a	0.032350816

tail.0.bias f4 [12]
0	0xbc261611	-0.010137097
1	0x3b6a2a6e	0.0035730856
2	0xbd9eef32	-0.07760467
3	0x3cea8d78	0.02863191
4	0x3d0eaea4	0.03483452
5	0x3d8cde5d	0.0687835
6	0x3cbabc86	0.022794973
7	0x3da88d1b	0.08230039
8	0xbcf3133e	-0.029672261
9	0xbcf871d6	-0.030327719
10	0x3cd979a4	0.02654726
11	0x3cfa29c3	0.030537492
