3layer_5000its/files/2/D.pth (torch, 184629 bytes, 13 tensors)

head.conv.weight f4 [64, 12, 3, 3]
00000000: a6a8 febc 3468 f33b fed9 92bd 1006 923c
00000010: e4c4 54bd 8e44 85bc 2c67 c1bb 4727 25bd
00000020: 5ba6 99bc 3cb5 1c3d d4bb 0abd 6c82 623c
00000030: e0b0 35bd 217c 653d bf26 bf3c 027b e83d
00000040: 636f 1f3d 808b 433b e4fe 5cbc 4095 ef3c
00000050: 96b8 c2bc acbc 28bc 7d61 9e3b d299 5cbc
00000060: c1f1 acbc 0519 abbc b9c2 f53b 2048 16bc
00000070: 8dd7 e63b 748c 0dbd f580 50ba 3f8a dcba
00000080: f623 85bc 821b d4bb d4fc 173b 29d5 23bc
00000090: 5804 3dbd 3de9 743d 943f cabc 70ce bebb
000000a0: da3a 8fbb f232 95bc 594e 8d3b ea07 073b
000000b0: bbfc 0cbd 098b 96bc 9a9d 033b f4ec acbc
000000c0: 7cd2 9fbc c82f 75bb 649f c5bc 6fbb 33bc
000000d0: 3389 dbbb 7b21 49bc 8785 183e bcb8 76bc
000000e0: b095 2e3e 912c 553d 8f64 b9bc 983f 8a3c
000000f0: 9504 c03c 031d 9b3c 9254 2d3d b956 22bd
00000100: c445 093d 2693 22bb 7b19 01bd 838d eb3c
00000110: 0a33 2ebc 0259 01bc be1d b5bc 4d4c debc
00000120: 0d97 ddbc 5d27 5fbc 60fd 09bb ebe7 893d
00000130: 4602 33bb f3b0 943a d466 5b3c 3101 4d3d
00000140: ba0c 1d3d 4908 5b3c 231b 8d3c 16bd cdbc
00000150: 8eb1 7dbc e11c fbbc 684a 2c3c b9e2 debb
00000160: 8763 ccbc bd33 ad3c a8b6 633b 57d5 92bc
00000170: 183e 8bbc 57fc 0a3c e10e 6dbc 25b8 93bb
00000180: e34c 00bc f892 88bc 3076 c8bc e6d0 33bd
00000190: a486 063c 9acf a03c 5696 42bd 3098 4e3d
000001a0: 8a22 383d ccf0 90bd 89bf cb3b 2e20 853c
000001b0: 1cbb 8b3c d35d 1ebb 2222 9b3c 2e37 b63b
000001c0: b8ae f63b 9cbd 3aba 67fe f53b 5270 babc
000001d0: 8a9b d63b 3194 0fbd 6b7c fd3c ffa3 2abc
000001e0: 9dc9 c23c 66fd 45bd e903 c43c fb95 103d
000001f0: df56 a83d f6c6 45bd 536c 3d3d 040b d3bc
00000200: abc2 be3c e73f 05bd e4bf 073d dbb5 33bd
00000210: e52f e73b 78c1 b5bc 3ab2 45bd a277 0b3b
00000220: 17a6 8dbb 25c8 723c e87c 92bc fc89 123c
00000230: e708 db3b 3729 cf3b 7eb0 0b3c a910 f43a
00000240: 434d ddb8 2d42 0a3d 61a2 273c 1571 033b
00000250: f92f f8bb 5bb8 c939 4b6a e83b e4bb cc3b
00000260: 3aba 963c c7f3 223c 098b 2ebc 511f 32bc
00000270: 4a89 46bc ed7e 21bb 6536 063b 80f7 c8ba
00000280: 5a03 e53a 72cd 173c 2e18 2b3d 2627 bc3b
00000290: b9a3 d83c dba6 93bc c7b6 02bc 21ee 663c
000002a0: 3e39 e83b ab82 ad3c bc6d 09bd 6033 203c
000002b0: dbdc 143b 37b0 cebb 6596 5fbc acb8 28bb
000002c0: 0d36 a6bb 263c 97bb 050a d53b ee89 193c
000002d0: f056 17bd 22ba afbc c6e1 10bd 3cb8 333d
000002e0: fb32 f53c 2de0 193d 2a27 e5bd b717 6cbd
000002f0: 31d7 b83b 7a54 0bbb 10c1 e3bb 5265 f9bc
00000300: 3137 a8b9 a56f 82bc 859d 9ebc 0892 b13d
00000310: 2dde 61bb 2d99 0d3d c65c bbbb ba96 50bc
00000320: 361d 04bc ba04 59bc 06de c6bc 4881 e8bb
00000330: 938c d83a e794 41bc eba1 9f3c f44a 4dbb
00000340: 8a90 983b d15c f4bb 7abe ebbb eb55 5f3c
00000350: 3dd9 bebc 8478 62bc de94 3f3c 9923 723c
00000360: 0b92 99bc dacc bcbb 46ce 2e39 2739 dcbb
00000370: 2d07 3dbc 8127 a53c 3343 4c3c be10 9abc
00000380: 43ee b13c 613e 19bd c0f3 a5bc 8e97 75bd
00000390: e64c babc 1d6f 54bc 0d1b aabd 42b2 773c
000003a0: 4f32 553c ce35 163d 90f4 a33b 5762 d23d
000003b0: f4ef c23d 0e0d 2cbc 549a 1d3c b2d2 07bc
000003c0: 77b9 28bc 2930 41bd 8c84 cbbc 5244 9a3b
000003d0: d0cb 0ebc 99b2 4ebc 3d61 3f3c aacb 31bc
000003e0: 1dc0 813b b2ae 113c c06e 54bc 37a1 063d
000003f0: 4c16 803b 9170 9fbc 4e9f 173c 0501 a236
-0.031086277 0.0074281935 -0.07170485 0.017825156 -0.051945582 -0.016268041 -0.0059021916 -0.04032066
-0.018756082 0.038258776 -0.033870533 0.01382504 -0.044358134 0.05602658 0.023333905 0.11351587
0.038924586 0.0029837787 -0.013488505 0.029245973 -0.023769658 -0.010298889 0.004833399 -0.013464408
-0.021111371 -0.020885954 0.0075000194 -0.009172469 0.0070447386 -0.034557775 -0.00079537864 -0.0016825869
-0.0162525 -0.0064730057 0.0023191469 -0.009999552 -0.04614672 0.059792746 -0.02468852 -0.005822949
-0.0043710293 -0.01821277 0.0043123183 0.0020604082 -0.03442071 -0.018376844 0.0020082952 -0.021109082
-0.019509546 -0.0037412513 -0.024123855 -0.010969981 -0.006699705 -0.012276049 0.14894687 -0.015058693
0.17049289 0.052044455 -0.022630958 0.016876027 0.023439685 0.018934732 0.04231698 -0.039633486
0.0335138 -0.0024806946 -0.03151844 0.028754001 -0.010632286 -0.007894756 -0.022108909 -0.027135992
-0.027049566 -0.013620225 -0.0021055564 0.06733688 -0.0027314587 0.0011344239 0.013391215 0.050049964
0.038342215 0.013368675 0.017224854 -0.025114577 -0.015484227 -0.030653419 0.010515787 -0.00680193
-0.024949802 0.021142835 0.0034746323 -0.017923994 -0.016997382 0.008483014 -0.014468879 -0.0045080357
-0.007830831 -0.016671643 -0.024470419 -0.043900393 0.008210812 0.019630242 -0.047506653 0.050438106
0.044954814 -0.07077178 0.006217901 0.016250696 0.017056994 -0.002416481 0.018937174 0.005560777
0.0075281523 -0.0007123591 0.0075071338 -0.022758637 0.0065493034 -0.035053436 0.030943116 -0.010415076
0.023777777 -0.048337363 0.023927646 0.035299283 0.08219694 -0.048285447 0.046245884 -0.025762089
0.023286184 -0.032531645 0.033141986 -0.043874603 0.00705527 -0.02218698 -0.048265673 0.0021281024
-0.004322778 0.014818226 -0.017881826 0.008944031 0.006684411 0.006322052 0.008525966 0.0018620688
-0.00010552492 0.033754516 0.010231585 0.0020056416 -0.007574078 0.00038475063 0.0070927492 0.0062479842
0.018399347 0.009945816 -0.010653266 -0.010871724 -0.012117693 -0.0024642304 0.00204792 -0.001533255
0.0017472312 0.009265291 0.041771106 0.0057419715 0.026445257 -0.018023899 -0.007978148 0.01409486
0.007086902 0.021180471 -0.033551916 0.009777874 0.0022714648 -0.0063076275 -0.013646697 -0.0025744839
-0.0050723613 -0.0046153245 0.0065014386 0.009371264 -0.036948144 -0.02145106 -0.035371564 0.04387687
0.029931536 0.037567306 -0.111891106 -0.057639804 0.005640887 -0.0021260069 -0.006950505 -0.030443821
-0.00032084578 -0.015922377 -0.01936222 0.086704314 -0.0034464702 0.034569908 -0.0057178466 -0.0127312485
-0.008063605 -0.013245756 -0.02427579 -0.0070954897 0.0016521387 -0.011815286 0.019486388 -0.0031325193
0.0046559023 -0.0074573536 -0.0071943374 0.013631324 -0.023296947 -0.0138226785 0.011693208 0.014778995
-0.018746397 -0.005761725 0.00016670776 -0.0067206803 -0.011537355 0.020160438 0.012467193 -0.018806811
0.021720057 -0.037413005 -0.02025783 -0.059958987 -0.022741746 -0.012965945 -0.08305941 0.015118184
0.013012483 0.036672406 0.0050035194 0.10272663 0.09518424 -0.010501159 0.009619314 -0.00828998
-0.0102981245 -0.04716507 -0.024843477 0.0047078514 -0.008715585 -0.012615823 0.011680898 -0.01085178
0.0039596693 0.008891748 -0.012965858 0.03286859 0.003908908 -0.019462856 0.00925429 4.828095e-06

head.conv.bias f4 [64]
00000000: e80c a4bd 4013 d33b fc6b b7bd 8a22 c93d
00000010: 00e1 d7bd 4b19 a6bd 944d a8bd 3e1a b43d
00000020: be69 0fbd 836a d63d 18f8 10bd ce7e 8a3d
00000030: dab1 b23d 8047 b9bc 4029 b7bb 3051 583d
00000040: 78fe d2bd 4621 bc3d 3139 233c cf47 013e
00000050: 3a75 43bd 02b4 1f3e 419b 123d fbeb 0f3c
00000060: 3dee 00bd 998c aa3c 1e59 fb3b a618 05bd
00000070: b481 74bd 7824 66bd f2d7 0abe 3d28 a03c
00000080: 7450 b4bd d801 a6ba 3e0e 6bbd 10cd 3bbd
00000090: 21a2 a43d 2dfd 3dbd 25c5 80bd 1cdf 563d
000000a0: 7f0e 5fbd 5c69 26bd a6bb 77bd f35f 963a
000000b0: e63a a1bb dba7 38bc 3a2d a53d 3444 e6bc
000000c0: ee8c f3bc 89d5 903d 843c 09bd fdd3 ec3c
000000d0: eee4 66bd 39d2 bb3d 6aaa 943d a63e 6bbd
000000e0: c935 57bc aef3 06bd b71b 3d3d 18af a53d
000000f0: 727a 8fbc 54f6 06bb 597a 903d 7388 403d
-0.08010274 0.0064415038 -0.08956143 0.09821041 -0.10540962 -0.08110293 -0.08217922 0.08794068
-0.035012953 0.10469534 -0.03539285 0.06762467 0.08725329 -0.022617102 -0.005589634 0.0528118
-0.10302442 0.09186034 0.009962366 0.12625049 -0.047719218 0.15596011 0.035792593 0.0087842895
-0.0314772 0.020818995 0.0076705357 -0.03249421 -0.059694007 -0.056187123 -0.13558939 0.019550437
-0.08804408 -0.0012665344 -0.05738663 -0.04584986 0.08038736 -0.046384025 -0.06287602 0.052458867
-0.054457184 -0.040627822 -0.06048169 0.0011472687 -0.0049203513 -0.011270489 0.08065267 -0.028108694
-0.029730286 0.070719786 -0.033504978 0.028909678 -0.056370668 0.09170956 0.072590664 -0.057432793
-0.013135382 -0.032947235 0.04616901 0.08090037 -0.017514441 -0.00205936 0.07054586 0.047005128

head.norm.weight f4 [64]
00000000: 509e 713f 5c9f 783f e90a 783f 73be 863f
00000010: a843 813f cb56 783f e067 883f da94 6b3f
00000020: 1fed 8a3f e127 8a3f 9689 693f 5ec0 783f
00000030: af5e 703f 1669 833f 7ed2 6f3f d18d 4c3f
00000040: 87db 623f 680f 5c3f dc93 783f dd0d 6b3f
00000050: ae12 833f e1fb 793f 6c31 8b3f 7fc2 853f
00000060: 01f0 6a3f 5011 933f f46d 823f 643f 683f
00000070: 97cd 843f 46d0 833f b32c 6a3f 9e11 813f
00000080: 7483 7c3f 7696 543f 38bd 653f 94dc 6e3f
00000090: def9 813f 1bea 893f 93f3 873f 6e47 793f
000000a0: 65f6 813f 525d 833f db54 833f e41d 643f
000000b0: 1b1d 8e3f 3222 723f 48d8 7c3f 2839 833f
000000c0: a715 7d3f fd01 7a3f 41c0 803f 9ea5 7a3f
000000d0: 133b 6a3f 9b1c 523f ddda 843f e0d1 5b3f
000000e0: 90c5 6e3f 3b89 823f 3d38 683f 897e 823f
000000f0: dc44 6e3f ac88 8e3f 2339 723f 9b34 6f3f
0.9438219 0.97118163 0.9689165 1.052687 1.0098772 0.97007436 1.06567 0.92024004
1.0853614 1.079342 0.91225564 0.9716853 0.93894476 1.0266445 0.9368056 0.79903895
0.8861622 0.8596101 0.97100616 0.9181803 1.0240076 0.9764996 1.0874457 1.044998
0.91772467 1.1489658 1.0189805 0.90721726 1.0375241 1.0297935 0.91474456 1.0083501
0.9863808 0.83042085 0.8974185 0.93305326 1.0154378 1.0774568 1.0621208 0.9737462
1.0153319 1.0262854 1.0260271 0.8910811 1.1102632 0.9458343 0.9876752 1.0251818
0.98861164 0.97659284 1.0058671 0.9790896 0.9149639 0.820749 1.0379292 0.8586712
0.93270206 1.019813 0.9071081 1.0194865 0.9307382 1.1135459 0.94618434 0.93439645

head.norm.bias f4 [64]
00000000: 5759 8bbe 13bb 563e d069 933d 0719 663d
00000010: 5a60 0d3e fda1 0abd a131 4cbd b936 143e
00000020: 3993 b8bc a248 abbc 29b1 f83c a40f 61bd
00000030: 3673 85be 0e3f 26bd 6d7e 4c3e 60a5 1d3e
00000040: fb8f 30bd 2384 53bd 939c 803c 810f 4d3e
00000050: 5407 cd3d fe0a 983d 181c 1ebe 32a2 823e
00000060: 216b 3fbe 86a4 303e 41e8 273d 234e 503e
00000070: 4584 8d3e be59 0f3e 39ff 0f3e da42 1fbe
00000080: e418 cabd 7232 913e 3842 7b3c 6de6 ad3e
00000090: d834 903d 4c71 383e 6a69 873e ca11 003e
000000a0: d2ee bcbc 618f 8b3e 9160 b03d 3f44 2ebe
000000b0: 304a b23d 1684 ba3c 3dfd e93e f467 833d
000000c0: 153d e93e c2b7 a13d acfa b6bb 35f2 6f3d
000000d0: a1ea 5a3e cd47 1b3e 188f 063d 03de 7c3e
000000e0: d177 963e 44f7 363e 977a 2d3e 64c1 b0bd
000000f0: 89c6 1abd 01bd 86bd 6b93 e13d 6977 263e
-0.27216598 0.209698 0.071979165 0.05617621 0.13806286 -0.03384589 -0.049852017 0.14474
-0.022531139 -0.020908657 0.030357914 -0.054946557 -0.2606446 -0.040587477 0.19970103 0.15395117
-0.04310606 -0.051639687 0.01569966 0.20025446 0.10011163 0.074239716 -0.15440404 0.2551437
-0.1869321 0.1725026 0.04099298 0.20342307 0.27639976 0.13999078 0.14062203 -0.15552846
-0.09868029 0.283588 0.015335612 0.33964863 0.07041329 0.1801197 0.26447612 0.12506786
-0.023063097 0.27257827 0.086121686 -0.17018221 0.087055564 0.022768062 0.45701018 0.06416312
0.45554414 0.07896377 -0.0055840816 0.058580596 0.21378566 0.15164109 0.03285131 0.24694066
0.29388288 0.17867762 0.16941296 -0.08630636 -0.037786994 -0.065790184 0.11014446 0.16256489

head.norm.running_mean f4 [64]
00000000: e3ef 1bbd 1bd5 9dbd addf 4d3d 03bc 933d
00000010: 2010 13be 3323 e63c 78eb cdbc 966d a1bd
00000020: 0c98 0b3d df68 163e 0433 3fbe 68b3 ea3c
00000030: b17a 94bd eb06 94be e261 19bd 09b3 94bd
00000040: 034d e4bd c474 e13c fb3f 14be d649 8b3e
00000050: 6c5d 8c3d 4f80 4d3e 0e15 77bc 8f26 ed3e
00000060: d6bc 82be c6c4 943e 6af6 9ebd 3a97 34be
00000070: 9fe9 363e 4e6f c9bd b5af 33be 8867 03be
00000080: 4483 e9bd 0002 383e 7c0b 06bd 2204 cdbc
00000090: 66ee 16be 7af5 f6bc 83ae 4e3e fbd9 bdbd
000000a0: 8041 d3bd 9a21 373d a65b fb3d c881 8ebe
000000b0: 4b93 603e 4628 b63d f2f2 213d 8a9c 90be
000000c0: 7a02 843e 5c8a b83c 2c5e 47bc d0fb cbbd
000000d0: dc93 a9be ed78 023d 02d5 b43d 0fe3 51bd
000000e0: b09b 76bd 98fb be3d 9a9a 863b c661 b2bc
000000f0: 76ab 81bd bd7e f03d 9562 ecbd dc09 29bd
-0.03807057 -0.07706662 0.050262142 0.07213595 -0.1436162 0.028092956 -0.025136694 -0.0788223
0.03408055 0.14688443 -0.18671805 0.02865 -0.07249964 -0.28911528 -0.037446864 -0.07260711
-0.11147501 0.027521499 -0.14477532 0.2720477 0.06853756 0.20068477 -0.015080703 0.4631848
-0.25534695 0.29056376 -0.077618435 -0.17635813 0.17862557 -0.09835683 -0.17547496 -0.12832463
-0.1140199 0.17969513 -0.032725796 -0.025026385 -0.1473938 -0.03014635 0.20183758 -0.09270092
-0.103152275 0.04470978 0.1227334 -0.2783339 0.21931188 0.088944 0.03953833 -0.2824443
0.2578314 0.022526912 -0.012168448 -0.09960139 -0.3312062 0.031853605 0.088296905 -0.05124193
-0.06020707 0.093253314 0.0041077854 -0.021775138 -0.06331532 0.117429234 -0.115422405 -0.04126917

head.norm.running_var f4 [64]
00000000: a607 d93b 4075 ed3a e42c e03b cbc2 973c
00000010: 3e9a 7e3b e969 5c3b 561a 343b cf57 4d3b
00000020: b414 933b ac07 443c 19c0 623b 3551 e83a
00000030: 0293 ab3b 47ca 773b aeeb b13a b4a6 093b
00000040: fc43 2a3b 1004 c33a 8600 3d3b 5fc4 bf3b
00000050: 34b7 983b f087 633b 66ca 223c 7647 683c
00000060: 34e3 993b 64f2 ee3b b67d 6b3b 0f97 0e3b
00000070: b0ec 403c cd22 b63b ea69 7c3b 5095 933b
00000080: 3cce 6f3b 2f64 a43a 85ca b53a 76bd 263b
00000090: 6006 c63c 3b79 1d3c 02b3 393c 87c6 243c
000000a0: c0c1 513b 992c d73b 8574 2e3c 3422 b73b
000000b0: 26c5 cc3c c523 2d3b 509c a83c a3cc 1d3c
000000c0: 156e 373c 99de 1a3b 0832 5a3b b21e 573b
000000d0: f5b0 2c3c 907e 773b 5301 403b 9380 493b
000000e0: 06c5 d33a cb39 bf3b f70f 153b 1116 a43b
000000f0: 6544 c23a e48a d43b 92ad 6f3b bfe6 8f3b
0.006623226 0.0018116608 0.006841289 0.018525502 0.003884926 0.0033632463 0.0027481518 0.0031332856
0.004488552 0.01196472 0.0034599362 0.0017724397 0.0052360306 0.0037809776 0.0013574266 0.0021003904
0.0025980463 0.001487853 0.0028839423 0.0058522667 0.0046605114 0.0034718476 0.009935951 0.014177194
0.004696274 0.007292079 0.0035933084 0.0021757518 0.011775181 0.005558348 0.0038515278 0.0045038834
0.003659143 0.0012542064 0.001386956 0.0025442517 0.024172962 0.009611423 0.011334183 0.010057098
0.0032006353 0.0065665958 0.010647898 0.005588794 0.024996351 0.0026419025 0.020582348 0.009631309
0.011195679 0.0023631214 0.003329398 0.0032824692 0.010540237 0.0037764646 0.0029297664 0.0030746802
0.001615674 0.005835747 0.0022745111 0.0050075133 0.0014821409 0.0064862836 0.0036571962 0.0043915207

body.block1.conv.weight f4 [64, 64, 3, 3]
00000000: 13c5 31bd 495b 4c3d 8696 9c3b 26f4 c93c
00000010: 4387 303d 6da4 74bd 7025 babc ba49 90bd
00000020: e75e 763c f154 1dbd 3680 023c f3b4 003c
00000030: 1a19 dcbc 6adb dabc 191d 9c3c e079 343d
00000040: 74b0 303d 033f 06bd 293f 27bb fc8d ac3b
00000050: 8783 f73a 33f7 423c be8d 7abd 3d10 64bd
00000060: cc95 523d fe48 44bd 065e 7b3d e662 3f3d
00000070: bbcf 9e3a df30 233d 96eb 533d 937c 9b3c
00000080: eef6 d73d 3f93 8a3d 4f80 9ebc 6100 19bd
00000090: ee6e be3b f113 3c3c d9a9 623c 706f 7f3d
000000a0: d355 8b3c c3d8 0fbd 01aa 79bd ffa5 f63c
000000b0: d0a7 a03c 3492 d73b b743 eebb 9bc2 273d
000000c0: da17 f4bc a514 babc 315b 81bd 947f 833d
000000d0: 2bd9 aa3a 4454 993c 2f5e 8d3d 4e36 633d
000000e0: 34b9 8bbc 5641 bc3b 2ae6 523c 291a 683c
000000f0: 929e 12bd 55d4 433d 89f1 2f3c 80a8 473b
00000100: 8fae f83c 74f8 42bc 13ec a4bc 7d21 66bd
00000110: cf5b 48bd 3236 2939 80e5 a0b8 1695 f4bb
00000120: a375 37bd 4559 343d 9783 16bc 4db0 6bbd
00000130: c83c 47bc ee53 47bc 5252 f8bb 790d 1a3d
00000140: 8d75 50bd a171 32bc 985a 4fbd 7f6a c7b8
00000150: 908c 82bc 03cb 21bd c40a 98bd 5ef4 d2bc
00000160: 48a9 85bc dc5a b43c 32a4 983c 5170 5839
00000170: b651 bd3c 6d6a 20bd cdd7 973b 152f 23bd
00000180: de5c 6dbc 44cb e23c 5970 2dbd c5d8 f9bc
00000190: bd87 aa3b 8b15 f63a 07d6 243b 400b 45bd
000001a0: 0aa8 ebbb dcfc 0fbc ff8a dcbc fab5 093c
000001b0: 761d 573c c370 9b3c 40bc 543b 099b 92bc
000001c0: 778a 09bd 2683 8f3b 1dd1 543d 5e9c 033d
000001d0: cd86 15bd 236d 7c3d 5264 cdbc 6e61 24bd
000001e0: d964 b4bc 2e70 853d 5849 1f3c d360 85bd
000001f0: c023 9bbc e7e3 96bc 6179 33bd dd9d 3d3c
00000200: 6969 6d3c 47b4 603c 171b b33b 3a7f ffbc
00000210: 25bc c7bb 0283 54ba 3aa9 5ebd 15e8 37bd
00000220: 31b8 553d 4cfc 6d3c ed02 f1bc 0fe2 f83c
00000230: 70fb 41bc 697c 98bd 73aa 2d3d f715 8bbd
00000240: bd34 15bd dd74 503c b239 66bd 15ab 12bd
00000250: 7b3a f43c 98e1 eebc 9277 8d3c d78e 7a3c
00000260: bdfc cdbc 0287 a63d b7ae 90bc 3c54 95bb
00000270: c0fe 95bd edae 39bc 017c abbc 2f74 51bd
00000280: 3304 f5bb f7b7 3cbd 6679 e6bc 00cd 32bd
00000290: 0b21 a33b 6ceb 44bc 44f3 4f3d 3ff9 903c
000002a0: efa7 61bd d901 243d 91fd 863c d314 19bc
000002b0: daf4 803c a977 19bd 0c47 a43b f25f 523d
000002c0: 2456 12bd 949f 9f3c 8bb9 ee3c 9e76 413d
000002d0: a278 ed3c dc8c ed3c 3b60 833d 0b08 f53c
000002e0: 53cb d3bc 4bdf 6bbd 6907 a83c 74b1 5f3d
000002f0: dd85 53bc ef1a 1c3c 704e 873c e4cb 703d
00000300: 3923 213d c81e 103c b4a6 80bd fb01 dc3b
00000310: 987a b43c f748 283d 71ac 91bc fae6 e93c
00000320: 1b97 8b35 ed0f 4fbc 2973 493d 35a2 193d
00000330: cfc8 1c3d fe6d f63c 8bf7 56bc b8f2 4bbc
00000340: e9a7 b5bb e739 dfbc a46e f9bc 2452 223c
00000350: ee98 bbbc a679 933c bd39 243c 3938 01bd
00000360: 94cd 253b d0af 25bc 3aac 85bc 15e4 423d
00000370: 6fce 7d3d 9295 e3bb 4b96 59bd b8dc 53bd
00000380: 1e0f 183c 47e7 74bc 1ded ff3c 19d6 38bd
00000390: 232a 44bd 2109 5b3d 9fb0 bfbc 99b2 98bd
000003a0: b2a0 12bd 0720 8fbb 7968 81bd 2f34 32bc
000003b0: ddd3 0dbd 92d6 c8bc a0db 74bd 8bf9 edbc
000003c0: a7c2 93bd b5dc 353d 2cbd 313d 8d07 ff3b
000003d0: fa0e ab3d 1b26 bc3b 64f2 4b3d ef8d 483a
000003e0: 01fa 8a39 713f 9a3a 0258 933c 53c0 11bd
000003f0: af36 b0bc ad56 30bc 2f4a fb3c 0cec 903c
-0.043400835 0.049891744 0.004778686 0.024652552 0.043097746 -0.05972712 -0.02272293 -0.07045312
0.015037275 -0.038411085 0.007965138 0.007855642 -0.026867438 -0.026715953 0.019056844 0.04406154
0.04313703 -0.032774936 -0.0025519824 0.0052659493 0.0018883803 0.011899757 -0.061170332 -0.05567955
0.05141239 -0.047921173 0.061368965 0.046725176 0.0012116352 0.03984153 0.051738344 0.0189803
0.10545145 0.06766366 -0.019348292 -0.037353877 0.0058115637 0.011479364 0.01383444 0.062362134
0.017008698 -0.03511883 -0.060953144 0.03010845 0.01961127 0.006578708 -0.007271256 0.040957075
-0.02979653 -0.022714922 -0.063162215 0.06420818 0.0013034692 0.018716939 0.0690273 0.05547171
-0.017056085 0.0057450933 0.012872258 0.014166393 -0.035795756 0.047809917 0.010738739 0.0030465424
0.030356674 -0.011900056 -0.0201321 -0.05618428 -0.04891568 0.00016137285 -7.672142e-05 -0.0074640615
-0.04478992 0.044030447 -0.009186647 -0.05754118 -0.0121604875 -0.0121660065 -0.0075781727 0.037610505
-0.050893355 -0.010891349 -0.050623506 -9.508896e-05 -0.015936166 -0.039500248 -0.074239284 -0.025751289
-0.016316071 0.022015981 0.018632982 0.00020641206 0.023110252 -0.039163996 0.0046338798 -0.039839823
-0.014487473 0.027684815 -0.04234347 -0.030498872 0.0052041695 0.0018774731 0.0025151984 -0.048106432
-0.0071916627 -0.008788314 -0.026921747 0.008405203 0.013129583 0.018974667 0.0032460839 -0.017896192
-0.033579316 0.004379648 0.05195724 0.032131545 -0.03650551 0.06162752 -0.02507225 -0.04013198
-0.022020744 0.06515537 0.009722076 -0.065126084 -0.018937945 -0.01841922 -0.043816928 0.011573282
0.014490464 0.0137148565 0.005465876 -0.031188596 -0.0060954266 -0.000810668 -0.054360606 -0.044899065
0.05217761 0.014525484 -0.02942034 0.03038123 -0.0118397325 -0.07445604 0.04239888 -0.06791299
-0.03642725 0.012723175 -0.056207366 -0.035807688 0.029813042 -0.029160306 0.01726893 0.015292845
-0.025144929 0.081312194 -0.017661436 -0.0045571607 -0.0732398 -0.011333209 -0.020933153 -0.051136192
-0.007477307 -0.04607388 -0.02813406 -0.043652534 0.0049783043 -0.01201902 0.050769106 0.017696975
-0.055091795 0.040040825 0.016478332 -0.009343344 0.015741754 -0.037467632 0.0050133523 0.05136103
-0.03572668 0.019485272 0.029141208 0.047232263 0.028988186 0.028997831 0.06414839 0.029911062
-0.025853788 -0.057585996 0.020511346 0.054612592 -0.012910333 0.009527906 0.016516894 0.058788195
0.03934023 0.008796401 -0.06281796 0.0067141033 0.022031114 0.04108521 -0.017782422 0.028552521
1.0400285e-06 -0.012638074 0.04918209 0.03750821 0.038277443 0.030081745 -0.013120542 -0.012448005
-0.005543698 -0.02724929 -0.030448265 0.009907279 -0.022900071 0.018002342 0.0100235315 -0.03154776
0.0025299536 -0.010112718 -0.016317476 0.047580797 0.06196445 -0.0069453204 -0.053121846 -0.051724166
0.009280948 -0.014947719 0.031240994 -0.045126054 -0.047891747 0.053475503 -0.02339965 -0.0745594
-0.035797782 -0.0043678316 -0.06318755 -0.010876699 -0.034625877 -0.024516378 -0.059779763 -0.029049655
-0.07214861 0.044399936 0.0433933 0.0077828825 0.08352466 0.005741847 0.04979171 0.0007650544
0.0002650768 0.0011768175 0.017986301 -0.035583805 -0.02151045 -0.010762853 0.030675022 0.01769068

body.block1.conv.bias f4 [64]
00000000: 7c6f 1ebb d8c7 9dbc de56 893a 7c5a 633c
00000010: 5add 9a3c dba3 79bd e5bd ae3c 2d04 343b
00000020: da73 95bd 2d8a a4bc 877e 663d 7c8f 02bd
00000030: cb40 c73c 24fb e33c 32ec 7ebd 03a9 4abc
00000040: dbd7 4b3d 6959 22bd 63a7 bcbc cb35 6b3d
00000050: 6365 9bbb a744 c8bc 32e9 1e3d 530b 193d
00000060: 4fd7 1a3d 483b 4f3c 1938 1a3b 5a3b 09bd
00000070: 0a72 05bd fda3 70bb b600 9cbc 129b 85bc
00000080: 0c8b 103d f24b 183b 294c 753c 47f7 653c
00000090: 0475 b53b 827f 30bc ba14 55bd 2015 2c3d
000000a0: e3b0 72bd fc9b 79bc 9e32 943d 91d1 89bd
000000b0: 6512 0e3d 0161 783c 1bed ccbc 78e8 3fbd
000000c0: 78f7 2fbd d64a a3b9 88a9 9dbc f96a a8bd
000000d0: 8722 7cbc 3924 323c e2bf 873d ac97 27bd
000000e0: 7be8 87bd d0d6 8b3c 5277 f7bc bbb9 ef3b
000000f0: 8476 6bbd 5cf3 923b 8428 5fbc 990c 6abd
-0.0024175337 -0.019260332 0.0010478159 0.013876554 0.018904377 -0.06094728 0.021330783 0.002746831
-0.072974876 -0.020085419 0.05627301 -0.03187512 0.024322888 0.027829714 -0.062236972 -0.012369397
0.049766403 -0.03963605 -0.023029035 0.057424348 -0.004742311 -0.024446798 0.03879661 0.037364315
0.03780299 0.012648411 0.0023531972 -0.033503868 -0.03257946 -0.0036718838 -0.019043308 -0.016309295
0.035288855 0.0023238626 0.014971771 0.014036006 0.005537631 -0.010772588 -0.05202172 0.042012334
-0.059250724 -0.0152349435 0.07236217 -0.06729425 0.03468551 0.015159846 -0.025015404 -0.04685256
-0.042960614 -0.0003114554 -0.019245878 -0.082235284 -0.015389091 0.010872894 0.066283956 -0.04091613
-0.06636139 0.017070204 -0.030208264 0.007315842 -0.057486072 0.004484577 -0.0136204995 -0.05714092

body.block1.norm.weight f4 [64]
00000000: b01e 833f 38ce 7f3f 84af 883f 38e1 813f
00000010: 4743 993f 1d0d 7e3f af36 7b3f cbae 803f
00000020: aeb7 663f 9180 833f 3688 6b3f f30a 873f
00000030: b00b 863f d915 8f3f 2093 803f 0b12 843f
00000040: fd1a 733f 05f0 7f3f 02c8 853f 95be 823f
00000050: 1cf6 8b3f f84b 7e3f 38b2 833f 8d42 7e3f
00000060: d29a 7e3f 92a4 8f3f 4d79 803f 9a88 6e3f
00000070: e53c 873f c97e 7f3f 52a0 7d3f a5bf 7e3f
00000080: 1674 753f c089 7f3f 7ccf 8c3f b0da 723f
00000090: 3cd3 803f 5ae2 8d3f 8973 6c3f 12d0 713f
000000a0: e371 653f 5734 6d3f 2f72 923f f326 793f
000000b0: 6f87 823f 86c2 813f 48e0 543f c35a 8a3f
000000c0: 9113 8e3f 5311 8a3f 8bc9 8b3f 8945 7a3f
000000d0: 9471 9b3f 49a0 873f 0730 843f 7502 823f
000000e0: 0a01 783f 89fc 773f 8990 813f ae45 8b3f
000000f0: f9b9 893f 1e24 713f f538 7d3f be7d 753f
1.024374 0.9992404 1.0678563 1.0146856 1.1973656 0.9923876 0.98130316 1.0053343
0.9012402 1.027361 0.92004716 1.0550216 1.0472317 1.1178542 1.0044899 1.0318006
0.94963056 0.99975616 1.0451663 1.0214411 1.0934482 0.9933467 1.0288763 0.993203
0.9945499 1.1222098 1.0037018 0.9317719 1.0565459 0.99802834 0.99072754 0.99511176
0.9588026 0.99819565 1.1000819 0.9486494 1.0064464 1.1084702 0.9236379 0.94458115
0.896269 0.9265799 1.1441096 0.97325057 1.0197581 1.0137489 0.83154726 1.0808948
1.1099721 1.0786537 1.0920881 0.9776235 1.2144036 1.059579 1.0327157 1.0157
0.96876585 0.96869713 1.0122234 1.088064 1.0759879 0.94195735 0.98915035 0.9589499

body.block1.norm.bias f4 [64]
00000000: 80fe e23d e8a8 1b3f 2d6b febc 61d8 c33a
00000010: 1496 87be bdc7 1ebd 7cb5 a6bc 1157 9cbe
00000020: 8049 fabe 75ab c9be b15d a4be 7312 04be
00000030: 55ef 08be a40a ebbe 96ae 543e ea81 e4bd
00000040: 3a45 10bf dd88 853e f340 e4be d4ea 08be
00000050: 629c f73e e0a4 173f 7424 5bbe f795 f6be
00000060: 5eb9 fbbd 7653 1bbe e674 fcbe 92d4 bb3f
00000070: 3146 f9bd 9a6e 6dbe 7448 2c3e daa4 d13e
00000080: 5c10 6d3e 4ef0 073f 7749 c7bd e485 5cbe
00000090: cb9c 983e 05ad 91be 7509 25bf 55be 51be
000000a0: d8fb 15bf 8f53 ed3e aa23 753d 40eb bfbe
000000b0: e5b7 dc3e 93c7 9dbe 5920 91bf ab8e 19bf
000000c0: c633 c8be 558e 95be 93ac 0dbe 05b0 0e3e
000000d0: a09c b4bd 29e9 46be b02f f4be 988a 8e3e
000000e0: cb8c 8dbe 59db 333f aad9 e03e 1440 293f
000000f0: 3215 fcbd 6cb7 56bd 57bd 8f3e 3801 1c3f
0.11083698 0.60804605 -0.031056965 0.0014941805 -0.26481688 -0.038764704 -0.02035021 -0.30535176
-0.488842 -0.39388624 -0.3210273 -0.12897663 -0.13372548 -0.45906556 0.20769724 -0.11157592
-0.5635563 0.2608098 -0.44580802 -0.1337083 0.48361498 0.59235954 -0.21400625 -0.4816129
-0.12291215 -0.15168557 -0.49307936 1.4674246 -0.12171591 -0.23186722 0.16824514 0.40946084
0.23150772 0.5310105 -0.09730809 -0.2153545 0.29807124 -0.28452316 -0.64467555 -0.20482762
-0.5858741 0.46352813 0.059848465 -0.3748417 0.4310905 -0.30816326 -1.1337997 -0.5998332
-0.39102 -0.29210153 -0.13835363 0.13934334 -0.08818936 -0.19424881 -0.47692633 0.27840114
-0.2764648 0.7025657 0.43916065 0.661134 -0.1230873 -0.05242102 0.28074142 0.6093936

body.block1.norm.running_mean f4 [64]
00000000: f210 6bbd 8217 6ebe b120 933f 6834 803f
00000010: da91 e7be 3f4c 1b3f 33f8 a9be 6399 9d3e
00000020: ec9a 3dbf f538 41bf b71f 0cbe 6927 1bbf
00000030: 4a74 743e 40d4 f63e 5819 f7bf 7540 38be
00000040: af8a 6ebf d057 de3e 895e c8be 4a4b 5abf
00000050: d3e2 ef3e 3649 a7bd 5868 48be 7691 c83d
00000060: 11ec 2a3f bf92 9cbd d7eb 2fbf 1bab 4440
00000070: 0a98 1bbe 0e2c 993f 0b97 113e 4d12 db3e
00000080: cde7 6ebf aac6 cf3c 1298 a03e a129 efbe
00000090: 85fd c7be 628a 2f3e 5aad e03f fb41 12be
000000a0: 9412 8bbf b326 9abe f2b5 9b40 e736 f3be
000000b0: be20 9f3e 62eb 32bf dc44 a3be 245c 20bf
000000c0: 9669 fdbe 500e 59be 7a58 393e 8027 3bc0
000000d0: 0eca 023e d2ec 703c ef46 74bf 93ea ff3e
000000e0: b661 39be 383b 3b3f 207b 2c3e 73a4 8bbf
000000f0: 65c2 7abe b8f1 dcbe 1979 f5be 2d85 b2be
-0.057389207 -0.23251155 1.1494352 1.0015993 -0.45228463 0.6066322 -0.33197173 0.30781087
-0.7406452 -0.75477535 -0.13683973 -0.6060701 0.23872486 0.4820881 -1.9304609 -0.17993338
-0.93180364 0.4342637 -0.39134625 -0.8527113 0.4685274 -0.08168261 -0.19571054 0.097933695
0.6676646 -0.07645177 -0.6871924 3.0729434 -0.15194717 1.196657 0.14217775 0.427874
-0.9332245 0.025363285 0.3136602 -0.46711448 -0.39060608 0.17142633 1.7552903 -0.14282982
-1.0865045 -0.3010765 4.86596 -0.47502825 0.31079668 -0.69890416 -0.31888473 -0.62640595
-0.49494618 -0.21196866 0.18100157 -2.924286 0.1277239 0.0147049 -0.95420736 0.49983653
-0.1810368 0.73137236 0.16843843 -1.0909561 -0.24488218 -0.43153167 -0.47943953 -0.3486723

body.block1.norm.running_var f4 [64]
00000000: 745e 713e 4fd9 d23e 81d2 cf3e 866d fe3d
00000010: eea6 903e c0ab 2540 54a7 0f3e e865 b13e
00000020: 3145 a43e 40fc df3e e0ad dc3e 9038 473e
00000030: c758 9b3e b592 ae3e dfec 8f3e 9e65 563e
00000040: 5c4a b13e b1e2 163e cd9b 8d3e 6a55 343e
00000050: 7283 e03e 9813 3a3f d802 7a3e bca0 a83e
00000060: e3a0 183f 8988 ba3e 03d3 7f3e 355b 9f3e
00000070: 443b 423e 1bfb b93e 1d95 103e e300 323f
00000080: df11 1e3e 24f6 e53e f00a 433e db60 223f
00000090: 6236 e43d 1cc8 ec3d 0adc 943e 220c 8f3e
000000a0: e239 bb3e 93b1 f53e d8f7 ad3e 8076 873e
000000b0: 3cf7 253f 4503 a33e 180d 563e 86ef 0e3f
000000c0: 0642 9e3e e238 643e c384 f13d cc3a 3f3e
000000d0: e3ae 543e 3f9e a83e 0310 2d3f 533d 253e
000000e0: e671 633e 6b79 883e 4c38 eb3e 1572 9d3f
000000f0: af4c 163e 0ed3 433e 643a db3d d118 633e
0.23571187 0.41181418 0.4059029 0.12423234 0.28252357 2.5886078 0.14028674 0.3464806
0.3208404 0.4374714 0.43101406 0.1945517 0.3034117 0.34096304 0.28110406 0.20937201
0.34627044 0.14734913 0.2765793 0.17610708 0.43850285 0.7268615 0.24415147 0.3293513
0.59620494 0.36432293 0.24982838 0.31124273 0.1896792 0.3632439 0.14119382 0.69532603
0.15436505 0.44914353 0.19047141 0.6342904 0.11143185 0.11561605 0.29074126 0.27938944
0.365676 0.4798704 0.33978152 0.26457596 0.64830375 0.31838432 0.20903432 0.55834234
0.30909747 0.22287324 0.117929004 0.18674773 0.20769839 0.32933232 0.67602557 0.16136675
0.22211418 0.26655135 0.4594139 1.230044 0.1467769 0.1912348 0.107044965 0.22177435

tail.weight f4 [1, 64, 3, 3]
00000000: 8088 7f3c 464d fb3c f8d8 693c af82 4c3d
00000010: 8da0 d03c d17e fd3c 25df 853d b38e 8cbc
00000020: db83 d7bc b088 833d c26a dd3c 5015 6c3d
00000030: 0b35 be3d 6811 943d 09b1 f23d 0f92 13be
00000040: cebb 22bd 0d9b 78bd 28e4 9abd 444d 9bbd
00000050: 684b a5bc 1184 763d bc9b d13d 123e 983d
00000060: dfde 19bd ff7c 29bd d0b8 68bc a649 21bc
00000070: fb81 1fbd 01a8 4cbd 3f13 153c ae86 673b
00000080: 1f0b 90bc 6741 38bd 51ea 0e3d 4c2c 593d
00000090: 8c6d 8cbd 31e1 15bd ff9d 113d 1077 b73d
000000a0: b8a9 123e c414 183e a1c4 e6bd 9e9d 26bd
000000b0: d8b3 9d3c 1398 f4bc 9b1c 4abd 810a 9cbd
000000c0: 48cb f7bc aa8d 01bd 9388 f2bc 206d f93c
000000d0: 2e13 02ba d0a5 26bd 00d1 eebc 13f7 26bd
000000e0: 0fb0 9abc 1a7b 64bc 51ea d2ba 4354 9ebc
000000f0: 11b5 283d 3635 15bc 61c8 323d 80e6 5cbd
00000100: a0e6 7fbd 8bb7 8ebc 3abd 2b38 ee7b 323d
00000110: 8058 443c 0245 a23d ec46 953d 9a2a 8a3d
00000120: 5eca 27bd cb37 8fbd 0a43 11bd 0e8e 4cbd
00000130: bed7 6dbb 0eac 3a3c 7dd0 063d 51d4 623c
00000140: 9d1f 753d 7fca 97bc f642 21bd 7077 a8bc
00000150: 1c7c a9bb d26c 0ebd c32b a0bd 57e7 e53d
00000160: 4657 983d 0763 c43d b561 02bc ac9f 1f3c
00000170: 5a8a 6abc ddc8 14bd 2d65 31bd 7193 e1bc
00000180: 46f6 703d 3d91 ff3c d502 1dbd 49a3 2f3c
00000190: 9d75 13bc 151c ccbc 3406 90bb b8d8 43bd
000001a0: 4564 58bd 63c2 643d b2c4 683d f309 e9bb
000001b0: 05e6 473c 4ad4 773a 70f9 b3bc 0065 b0bd
000001c0: a1e0 09bd b6a8 8f3c d8a1 0e3c 1df6 1c3d
000001d0: 37d4 223d 9371 80bd 989c b7bd a806 d8bd
000001e0: caf9 db3d d9f0 b03d 94ac ea3d 17ca 00bd
000001f0: da9a 24bd e0ec da3c 8569 5abb dc80 21bc
00000200: b369 18bc 4afd 143d 64be 823d 3b73 d73c
00000210: cef9 e6bb ea7c a5bc 3ca5 b0bd acde 073d
00000220: a3da f63c e2e9 f13c a148 2f3c 0755 60bc
00000230: 0941 82bd a331 df3d 23c7 883d 340b 233c
00000240: 5b15 75bd 012d 58bd 95e0 9fbd 2b16 d4bc
00000250: a4af b13c d3b2 793b 8e92 c8bc 4c2b 183b
00000260: 763f 933d b3e1 bd3d 0396 6b3d 6724 b73d
00000270: 8d84 a03c d05c 91bc 7cf4 cfbc bca7 9fbc
00000280: a51d 37bd 9262 5bbd b955 c6bd eef1 91bd
00000290: 2883 c5bd b91d 863d ebd2 483d 0376 363d
000002a0: 8471 443d 3fdb d73c 8724 5abc f0bb e9bc
000002b0: 5867 f33b ec77 08bb 48d2 9ebb 6406 e23c
000002c0: feae 7c3c c10b 7fbb af26 1bbd 6d82 8cbb
000002d0: bd57 bd3d a3a0 7e3d e26a d23c 4a2b bf3d
000002e0: 7072 c33d 4851 963d 96bf 02be 7cb7 f6bd
000002f0: 6e70 1fbe 1e5f c63d 199b 623d 64e8 383d
00000300: 4f93 e33d fa48 b23d 3a31 db3d e357 9bbd
00000310: d340 f6bd aa0e 0cbe 12e0 52bc be90 9cbd
00000320: 5271 83bd f7ed 973d 62d5 9b3d c1f3 8c3d
00000330: 8cbe e83c a581 a9bb ff12 033c bec4 6dbd
00000340: 73a8 39bd d8a1 45bd 6a43 153d 6a8a e13b
00000350: 8d03 15bd 3430 df3d dcaa 723d 0fc8 9b3d
00000360: 435f 6fbc ba2b f7bb 9de9 f1bb b464 783d
00000370: d5ed 043d b0ce 4c3d 92b4 713d 67d9 773d
00000380: d7d6 543c 6d70 d93c 596d 8c3d 665f 4b3c
00000390: e810 363e debb c93d 1c4d bb3d 513c 74bd
000003a0: 9b81 e9bd 6473 85bd 8e21 0ebd 018b 1bbd
000003b0: 50de ce3c b117 90bd 1845 69bd 9900 6cbd
000003c0: d83f 613d eeae 993d 7c09 c83d 733a 7a3d
000003d0: 8cdb 8f3d ddf8 983d ee62 073d 96c5 95bc
000003e0: 3b39 d53b 5872 80bd 81bd cbbd 276f e8bd
000003f0: bbf7 e3bc b00d dfbc 9e04 bebc 8ac2 353a
0.015596509 0.030676495 0.014272921 0.049929317 0.025467182 0.03094426 0.06536702 -0.017157888
-0.02630799 0.064225554 0.027028445 0.057637513 0.09287461 0.072298825 0.11850173 -0.14411186
-0.039729886 -0.060694743 -0.075630486 -0.075830966 -0.020177558 0.060184542 0.10234782 0.07433714
-0.037566062 -0.04137897 -0.014204219 -0.009844219 -0.03894232 -0.04996491 0.009098827 0.0035328078
-0.017583428 -0.044984248 0.03489143 0.05302076 -0.06856832 -0.036591712 0.035551067 0.08958256
0.14322555 0.14851671 -0.11267973 -0.04067766 0.019250795 -0.02985767 -0.049343687 -0.07619191
-0.0302483 -0.031629242 -0.02960614 0.030447543 -0.00049619644 -0.040685475 -0.029152393 -0.040762972
-0.01888278 -0.013945365 -0.001609156 -0.019327288 0.041188303 -0.009106925 0.043648127 -0.05393076
-0.0624758 -0.017421504 4.0945808e-05 0.04357522 0.011983991 0.079233184 0.07288918 0.06746407
-0.040964477 -0.069930635 -0.035464324 -0.04994016 -0.0036291922 0.01139356 0.032913674 0.0138445655
0.059844602 -0.018529175 -0.0393705 -0.020564765 -0.0051722657 -0.034771748 -0.07820847 0.11225765
0.07438521 0.095892005 -0.0079578655 0.009742659 -0.014315212 -0.03632437 -0.04330938 -0.027536126
0.058828615 0.031197185 -0.03833278 0.010720083 -0.009000209 -0.024915734 -0.0043952707 -0.0478141
-0.05283 0.055849444 0.05682821 -0.0071117817 0.012200837 0.0009453936 -0.021969527 -0.08613014
-0.03366149 0.017536502 0.008705579 0.03832065 0.039753165 -0.062716626 -0.08965415 -0.105481446
0.10741003 0.08639688 0.11458698 -0.031442728 -0.04018674 0.026724279 -0.0033327055 -0.009857383
-0.009302544 0.036374368 0.063839704 0.026300063 -0.007048822 -0.020201165 -0.08625266 0.03317134
0.030133551 0.02953047 0.010698468 -0.013692147 -0.06360061 0.10898139 0.06678607 0.0099514015
-0.05983482 -0.052777294 -0.078065075 -0.025889477 0.021690197 0.0038100972 -0.024483945 0.0023219166
0.071898386 0.09271564 0.05751611 0.0894249 0.019594455 -0.017744452 -0.025385134 -0.019489162
-0.044706006 -0.0535608 -0.09684319 -0.071262226 -0.09644157 0.06548638 0.049029272 0.04454614
0.04795982 0.026349662 -0.013314373 -0.028531998 0.007428091 -0.0020823432 -0.004846845 0.027590938
0.015422581 -0.0038916918 -0.03787869 -0.004288009 0.092452504 0.062164914 0.025685731 0.093344286
0.095433116 0.07339722 -0.12768397 -0.120467156 -0.15570232 0.09686111 0.055323694 0.0451435
0.11112081 0.087053254 0.107027486 -0.075851224 -0.12024083 -0.13677469 -0.012870805 -0.07644795
-0.064180985 0.07418435 0.07609059 0.0688243 0.028411172 -0.0051729255 0.0080001345 -0.058048956
-0.04532666 -0.04825005 0.036441244 0.0068829553 -0.03638034 0.10897866 0.059244975 0.076065175
-0.0146101145 -0.0075430544 -0.007382585 0.060642913 0.032453377 0.0500018 0.059010096 0.060510065
0.012990675 0.026542867 0.06856794 0.0124128815 0.17779887 0.09850286 0.09145567 -0.059627835
-0.114016734 -0.0651615 -0.03469997 -0.03797436 0.025252491 -0.07035769 -0.05695066 -0.057617757
0.054992527 0.07504068 0.09767434 0.061090898 0.07024297 0.07469342 0.03305333 -0.018282693
0.0065070665 -0.06271809 -0.099482544 -0.113493256 -0.027828088 -0.027228206 -0.023195561 0.00069335906
