3layer_5000its/files/2/G.pth (torch, 210037 bytes, 14 tensors)

head.conv.weight f4 [64, 12, 3, 3]
0	0xbd3656db	-0.044516426
1	0x3b8c5b9f	0.004283383
2	0x3d975aa0	0.07390332
3	0xbd1c36bc	-0.038138136
4	0x3d6ab3d4	0.057300404
5	0x3d91f3b9	0.071265645
6	0xbd8ba175	-0.06817905
7	0x3d1867be	0.03720831
8	0x3d28a411	0.04117209
9	0x3d47ba60	0.048761725
10	0x3c73accb	0.01487274
11	0x3cd3bdd8	0.02584736
12	0x3c89ecad	0.016836489
13	0xbcfd7dbb	-0.030943742
14	0x3d7e4506	0.062077545
15	0x3c6ba6aa	0.0143829975
16	0xbc554935	-0.013017942
17	0x3d1f4270	0.03888172
18	0x3d265167	0.040604975
19	0xbc7a7aff	-0.015288114
20	0xbc87bf21	-0.01657063
21	0x3d7e4840	0.06208062
22	0x3d33330a	0.043749847
23	0xbcb0886b	-0.021549424
24	0x3c077f14	0.008270044
25	0x3aa5b84f	0.0012643429
26	0x3d20dcf5	0.03927322
27	0xbd9f924b	-0.07791575
28	0xbd28cf59	-0.041213367
29	0xbd1b3c56	-0.037899338
30	0xbd9ada3d	-0.07561157
31	0xbd502384	-0.05081512
32	0x3c2151f8	0.009846203
33	0xbd533814	-0.051567152
34	0xbcaf6b95	-0.021413604
35	0xbd6e57dc	-0.058189258
36	0xbe2e6516	-0.17030749
37	0xbe1b41da	-0.15161839
38	0x3d2c340a	0.042041816
39	0x3c9fb48a	0.019495267
40	0x3ccf8d96	0.025336068
41	0x3d4cddb9	0.05001614
42	0x3ca10537	0.019655807
43	0xbd52da99	-0.051478002
44	0x3c954d77	0.018225415
45	0xbe1b3d49	-0.15160097
46	0x3d407044	0.046982065
47	0xbc0fcf03	-0.008777383
48	0xbe1a5d50	-0.15074658
49	0x3d9de8c3	0.077104114
50	0x3dcefb2a	0.101064995
51	0xbd99e1cf	-0.07513773
52	0xbcfcfeec	-0.030883275
53	0x3c6768e7	0.014124132
54	0x3b1ba050	0.0023746677
55	0x3d44951c	0.047993764
56	0x3c6e31d9	0.014538252
57	0x3c2fe507	0.010735757
58	0x3d02378d	0.03179126
59	0x3c9909c7	0.01868142
60	0xbc597954	-0.013273556
61	0x3d21a0e7	0.03946009
62	0x3cc5c833	0.024143314
63	0xbe0b9ac2	-0.13633254
64	0xbd8e73fd	-0.06955717
65	0xb918e294	-0.00014580257
66	0xbbcb33b3	-0.0062012314
67	0x3b18ca8c	0.0023314087
68	0x3cc995ad	0.024607504
69	0xbca5095b	-0.020146063
70	0xbc048bff	-0.008090018
71	0x3d114b06	0.03547194
72	0x3db02867	0.08601456
73	0x3d160877	0.036629166
74	0x3d6ba136	0.05752679
75	0x3d09d5c7	0.03365114
76	0xbb9eca14	-0.004845867
77	0xbb5a4279	-0.003330378
78	0x3d6b06c2	0.05737949
79	0xbb8ebb38	-0.0043558143
80	0x3c611801	0.013738633
81	0xbcb1b7ca	-0.021694083
82	0x3de09abf	0.109670155
83	0xbd28b44b	-0.041187566
84	0x3cf50e0f	0.02991393
85	0x3d4fc152	0.050721474
86	0xbc26f4f3	-0.010190236
87	0x3d8a4772	0.06751908
88	0x3d04dcf9	0.0324373
89	0x3ceee08d	0.029159809
90	0xbe347367	-0.17622148
91	0xbdcd7704	-0.10032466
92	0xbdf2325c	-0.118260115
93	0xbe0a4768	-0.13503802
94	0xbcaec59d	-0.021334464
95	0xbcb6ee61	-0.022330465
96	0xbdac9888	-0.084275305
97	0xbd5d1b5c	-0.05398117
98	0xbc9dc64a	-0.01925959
99	0xbcb68a68	-0.022282794
100	0xbd86dab0	-0.0658468
101	0xbc841634	-0.016123869
102	0x3d09f6d2	0.03368265
103	0x3cbb99d9	0.022900509
104	0x3da87da5	0.0822709
105	0x3c26bcb5	0.010176827
106	0xbcd6d9db	-0.026226928
107	0xbcdd8da8	-0.027045086
108	0x3bd11411	0.006380566
109	0x3c3b137b	0.011418219
110	0xbc800849	-0.01562895
111	0x3da309a0	0.0796082
112	0x3dae9af6	0.0852565
113	0xbd40dd14	-0.047085837
114	0xbba53cee	-0.005042664
115	0x3d016be5	0.031597037
116	0xbdc5b8f4	-0.09654418
117	0x3d22b135	0.03971978
118	0x3cdf6399	0.027269172
119	0x3d57f784	0.052726284
120	0xbddeac34	-0.10872689
121	0xbd666e5f	-0.0562576
122	0xbd47a353	-0.048739742
123	0x3d1d030a	0.038332976
124	0xbd03795b	-0.032098155
125	0xbd0218c8	-0.031761914
126	0x3ccc7f7e	0.024963137
127	0xbc9dc148	-0.019257203
128	0xbb404fc4	-0.002934442
129	0xbb6d637d	-0.003622263
130	0xbd146770	-0.03623146
131	0xbd0b3973	-0.033990335
132	0x3d21d3be	0.039508574
133	0x3ca8ddf8	0.020613655
134	0xbcb1a011	-0.02168277
135	0x3c1a6acf	0.009424879
136	0x3c573610	0.013135448
137	0xbd4652a4	-0.048418656
138	0x3d7c08c1	0.061531786
139	0x3d3d091b	0.04615126
140	0xbd0acf3d	-0.033889044
141	0x3c869b44	0.016431458
142	0x3c8edf22	0.017440382
143	0xbdad6a58	-0.08467549
144	0x3c43fdd8	0.011962377
145	0xbd04a0e4	-0.03238
146	0x3b10fce6	0.0022123395
147	0xbc24e0f6	-0.0100634005
148	0xbc895d76	-0.016768198
149	0x3cd26fea	0.02568813
150	0x3b8c37e7	0.004279125
151	0x3da55f6c	0.08074841
152	0xbc149ece	-0.009071065
153	0x3c1cca66	0.00956974
154	0x3d854988	0.065081656
155	0x3bfea7f2	0.0077714855
156	0x3d05aaa0	0.032633424
157	0x3d5eaa83	0.05436183
158	0x3c5b6ebd	0.013393101
159	0xbc8b56de	-0.017009195
160	0xbc00d560	-0.007863373
161	0xbd952d5b	-0.072840415
162	0xbda76328	-0.081732094
163	0x3d28dda2	0.04122699
164	0xbdc41cf1	-0.09575833
165	0xbd35ce75	-0.044386346
166	0x3e1a2e53	0.15056734
167	0xba15af90	-0.000571006
168	0xbc8feeec	-0.017569982
169	0x3cff2921	0.031147541
170	0xbd9f4995	-0.077777065
171	0x3c273a76	0.010206809
172	0xbca1a0cb	-0.019729992
173	0x3d810cca	0.063012674
174	0x3dbfe3d5	0.093696274
175	0x3d2390c9	0.039933
176	0x3db5ce05	0.08877186
177	0x3d0a4e5b	0.03376613
178	0xbdabf71e	-0.08396743
179	0xbdb551d3	-0.08853497
180	0x3ad692b2	0.0016370623
181	0xbbd4cb74	-0.00649398
182	0x3bf08daf	0.0073411088
183	0x3c9c2d63	0.01906461
184	0xbcd4349b	-0.02590399
185	0xbcbb0b6d	-0.022832597
186	0x3bdb9e80	0.0067022443
187	0xbd2de4f7	-0.042454686
188	0xbd08b37e	-0.033374302
189	0xbe27ed98	-0.16399229
190	0xbdcec2b7	-0.10095733
191	0xbe05fbeb	-0.1308438
192	0x3d27db42	0.040980585
193	0x3d77f0fe	0.060532562
194	0x3d969c23	0.073539995
195	0xbccd80e0	-0.025085866
196	0x3a782093	0.0009465303
197	0x3d068903	0.03284551
198	0x3cf10791	0.029422553
199	0x3c926fe4	0.01787562
200	0xbc911ab9	-0.017712938
201	0xbc802c77	-0.015646202
202	0x3d51cc9d	0.051220525
203	0xb97a2b28	-0.00023857935
204	0x3c80e5ba	0.015734542
205	0xbc767ee2	-0.0150449
206	0xbd37f2e3	-0.04490937
207	0x3da79163	0.08182027
208	0xbc1a48bd	-0.009416756
209	0x3d2cad74	0.042157605
210	0x3d838513	0.06421866
211	0x3d237551	0.039906804
212	0x3cdfe30e	0.027329948
213	0xbc3d84fe	-0.011567352
214	0x3c85b4a7	0.016321493
215	0xbcdf3912	-0.027248893
216	0x3d516adf	0.05112731
217	0x3d60ce5f	0.05488431
218	0x3bcbb1df	0.0062162722
219	0x3c54dc6f	0.012992009
220	0x3bcbabaf	0.0062155346
221	0xbc5dc600	-0.013535976
222	0xbcddba3a	-0.027066339
223	0xbd015cc1	-0.031582598
224	0x3bafafdd	0.0053615407
225	0xbcdc793f	-0.026913283
226	0x3da2ef27	0.07955771
227	0x3c2a5fbd	0.010398802
228	0x3b83d825	0.004023569
229	0x3d9c4e3c	0.076321095
230	0x3c5a0564	0.013306949
231	0xbdc68b80	-0.09694576
232	0xbcf6e865	-0.030140111
233	0x3bcdb326	0.0062774597
234	0x3c3487b5	0.011018683
235	0xbd1eed92	-0.038800783
236	0x3c86b7a0	0.016444981
237	0xbbfb242e	-0.007664225
238	0xbd262713	-0.040564608
239	0xbc2451d5	-0.010029276
240	0x3d928350	0.07153952
241	0x3bb41fc9	0.005496953
242	0xbc5b7125	-0.013393675
243	0x3a6e1f87	0.00090836774
244	0x3cfedbb3	0.03111062
245	0x3dc2ecd3	0.09517827
246	0xbcce024f	-0.025147585
247	0xbcb2bb97	-0.021817965
248	0xbb6c4822	-0.0036053737
249	0x3d11dcbb	0.035610896
250	0x3d27b4f2	0.040944047
251	0xbbb473a4	-0.0055069495
252	0x3b73d21b	0.003720409
253	0x3cc4c592	0.02401999
254	0x3d8936fa	0.06699939
255	0x3c48d08b	0.012256752

head.conv.bias f4 [64]
0	0x3bcc8050	0.006240882
1	0x3c34293f	0.010996162
2	0xbd2a2521	-0.041539315
3	0x3cacffb8	0.02111803
4	0xbc4bbb77	-0.012434832
5	0xbd93f109	-0.07223708
6	0xbd6937e3	-0.056938063
7	0x3c69c2b7	0.014267615
8	0xbd5977d0	-0.053092778
9	0x3c858f83	0.016303783
10	0x3d0ab254	0.033861473
11	0xbd4cebef	-0.05002969
12	0x3cdf5ee1	0.027266921
13	0x3d004c8a	0.031322993
14	0xbaae82c9	-0.0013314123
15	0xbd7eee8f	-0.062239226
16	0x3d87b0f9	0.06625552
17	0xbd20d3ac	-0.039264366
18	0xbd59039f	-0.05298197
19	0xbce7993c	-0.02827131
20	0x3ce3f351	0.027825983
21	0x3d482b56	0.048869453
22	0xbd581f28	-0.052764088
23	0x3d84e823	0.06489589
24	0xbc9a4a84	-0.01883436
25	0x3d95585c	0.07292244
26	0x3d2d0b79	0.04224727
27	0xbda4e098	-0.0805065
28	0xbd9e3b78	-0.077261865
29	0xbd40d827	-0.04708114
30	0xbcf812e9	-0.030282455
31	0xbd742139	-0.059601996
32	0x3d17a0a9	0.03701845
33	0x3d4867ac	0.048926994
34	0xbd6ce461	-0.057834987
35	0xbd91d5aa	-0.07120831
36	0x3dc0af92	0.094084874
37	0x3cd273fc	0.025690071
38	0xbc30b33d	-0.010784921
39	0xbc167204	-0.009182457
40	0x3bca79b1	0.0061790575
41	0x3d0d714b	0.034531873
42	0xbda11680	-0.0786562
43	0x3caa36e1	0.020778121
44	0xbc409a9c	-0.011755612
45	0x3d4610fa	0.048356034
46	0xbd8bb86f	-0.06822287
47	0xbd806ba1	-0.062705286
48	0x3dcb2381	0.09918881
49	0x3d8f6d6a	0.07003291
50	0x3d495ada	0.04915891
51	0x3c8f2ec1	0.017478349
52	0xbd3ed4a7	-0.04658952
53	0x3d77b885	0.060478706
54	0x3d539a81	0.05166102
55	0x3da5b1e9	0.08090574
56	0x3de453fd	0.11148832
57	0xbd83e448	-0.064400256
58	0x3c5b3f5e	0.013381807
59	0xbdbb7bc1	-0.091544636
60	0x3dd7ca1e	0.10536598
61	0xbcc5e411	-0.024156602
62	0x3d89aa39	0.067219205
63	0xbd41cfdd	-0.047317374

head.norm.weight f4 [64]
0	0x3f763d56	0.9618734
1	0x3f68dea0	0.909647
2	0x3f6f4e41	0.9347878
3	0x3f82f40d	1.0230728
4	0x3f73bb9e	0.95208156
5	0x3f6dcb70	0.92888546
6	0x3f78324b	0.9695174
7	0x3f657955	0.89638263
8	0x3f84327d	1.0327908
9	0x3f76adff	0.96359247
10	0x3f805620	1.0026283
11	0x3f6f453b	0.9346501
12	0x3f76fb08	0.96476793
13	0x3f6b6c74	0.9196236
14	0x3f75ae28	0.95968866
15	0x3f865970	1.0496044
16	0x3f829116	1.0200527
17	0x3f6cb3bc	0.9246175
18	0x3f7dc909	0.9913488
19	0x3f767c1c	0.96283126
20	0x3f86e1a2	1.0537608
21	0x3f4d3758	0.8016257
22	0x3f588dca	0.8459135
23	0x3f7a7fb0	0.97851086
24	0x3f8717a7	1.0554093
25	0x3f6cd90c	0.9251869
26	0x3f7e5425	0.99347144
27	0x3f818e50	1.0121555
28	0x3f6c8753	0.9239399
29	0x3f7d9437	0.9905428
30	0x3f756d71	0.9587012
31	0x3f7776a5	0.9666541
32	0x3f854ef1	1.0414716
33	0x3f82831d	1.0196263
34	0x3f7f9618	0.998384
35	0x3f797c9e	0.97455776
36	0x3f85a4cb	1.0440916
37	0x3f7dd0c5	0.9914668
38	0x3f6d128e	0.9260644
39	0x3f7c05b8	0.98446226
40	0x3f7179ba	0.94326365
41	0x3f529c5f	0.82269853
42	0x3f78dc61	0.9721127
43	0x3f7e6299	0.993692
44	0x3f59fd3c	0.8515203
45	0x3f7782a4	0.96683717
46	0x3f78ae64	0.971411
47	0x3f7ef198	0.9958739
48	0x3f842b84	1.032578
49	0x3f76fd8d	0.9648064
50	0x3f6723f5	0.9028924
51	0x3f73302a	0.9499537
52	0x3f78d4c4	0.97199655
53	0x3f77430b	0.96586674
54	0x3f811f7d	1.0087734
55	0x3f7cb069	0.9870668
56	0x3f6a692d	0.91566736
57	0x3f815c8d	1.0106369
58	0x3f78a8ea	0.9713274
59	0x3f6bba8f	0.9208154
60	0x3f85391b	1.0408052
61	0x3f6d8993	0.92788047
62	0x3f5f27fc	0.87170386
63	0x3f5449e0	0.82925224

head.norm.bias f4 [64]
0	0xbde92790	-0.11384499
1	0xbea7fc94	-0.3280989
2	0xbe9623a4	-0.29324067
3	0xbd9562eb	-0.07294258
4	0x3ceb4a7f	0.028722046
5	0xbe94d717	-0.2907035
6	0xbeeff37e	-0.46865457
7	0xbe473a1d	-0.19455762
8	0x3d20a870	0.039223135
9	0xbd836124	-0.064150125
10	0xbdb59d7b	-0.08867928
11	0xbe2c313f	-0.16815661
12	0xbe0ec67e	-0.13942906
13	0xbeb2232c	-0.3479246
14	0xbe6556f2	-0.22396448
15	0xbd99231a	-0.07477398
16	0xbe8dbe34	-0.27684176
17	0xbf003397	-0.5007872
18	0xbe988ce9	-0.29795006
19	0xbd9df0fc	-0.0771198
20	0xbc0e7cb4	-0.008696724
21	0xbed067ce	-0.40704197
22	0xbe46031d	-0.19337125
23	0xbe2487f6	-0.1606749
24	0xbe266687	-0.16250049
25	0xbde1cc4e	-0.11025296
26	0xbe08b932	-0.13351896
27	0xbe97eea2	-0.2967425
28	0xbea7134e	-0.32631916
29	0xbe615a8d	-0.22007199
30	0xbe927403	-0.28604135
31	0xbe5bc6cd	-0.21462555
32	0xbd858566	-0.06519584
33	0xbe666deb	-0.22502868
34	0xbed7e782	-0.42168814
35	0xbea5b401	-0.32363895
36	0xbe64d5e4	-0.22347218
37	0xbeb04d21	-0.34433845
38	0xbe68030d	-0.22657414
39	0xbead72ae	-0.33876556
40	0xbe2fb3ac	-0.17158383
41	0xbe6f2045	-0.23352154
42	0xbe45488f	-0.1926596
43	0xbd345f30	-0.04403609
44	0xbe22d352	-0.15900925
45	0xbdbf405d	-0.09338448
46	0xbe03251c	-0.12807125
47	0xbec4a889	-0.38409832
48	0xbe2ef66d	-0.17086191
49	0xbeb81fe8	-0.35961843
50	0xbea8bc0d	-0.3295597
51	0xbeca5fa8	-0.39526105
52	0xbd8a7c5e	-0.067620024
53	0xbe3139d6	-0.17307219
54	0xbeb65e7d	-0.35618964
55	0xbdc474a5	-0.09592561
56	0xbdd7f4c9	-0.10544736
57	0xbe9ba5a4	-0.3039981
58	0xbe2f1b7b	-0.17100327
59	0xbe8b0de7	-0.27159044
60	0xbf3bffd1	-0.7343722
61	0xbe8caf93	-0.27477702
62	0xbe9be440	-0.30447578
63	0xbe75990b	-0.23984163

head.norm.running_mean f4 [64]
0	0x3e2eceb7	0.17071043
1	0xbd1ce6d7	-0.038306084
2	0xbd506360	-0.05087602
3	0x3dc09090	0.09402573
4	0xbd4350ea	-0.047684588
5	0xbe5c779d	-0.21530004
6	0xbdd1e1cc	-0.102481455
7	0xbd128530	-0.03577155
8	0x3c0671a2	0.008205803
9	0x3de56ec3	0.11202767
10	0x3d0e50d1	0.03474504
11	0x3d1c95fb	0.03822897
12	0x3d70ed2c	0.058819935
13	0x3cea3a23	0.028592175
14	0x3c402e45	0.0117297815
15	0xbd97611e	-0.073915705
16	0xbb651d8d	-0.003496024
17	0xbda5b6d4	-0.08091512
18	0xbd2481b9	-0.040162776
19	0xbd85953b	-0.06522604
20	0x3e4b5ce8	0.1985966
21	0xbd502895	-0.050819952
22	0xbbeea301	-0.007282615
23	0xbde30823	-0.11085536
24	0xbd2b4a2e	-0.04181879
25	0x3dfdf5d5	0.12400404
26	0xbdfe8f1e	-0.12429641
27	0xbe22f24e	-0.15912744
28	0xbe13a127	-0.14416943
29	0xbd6a746d	-0.05723994
30	0xbc40f29e	-0.011776594
31	0xbe89c674	-0.2690922
32	0xbd2998ff	-0.041405674
33	0xbc9fe65a	-0.01951902
34	0xbd8c0cc9	-0.06838376
35	0xbe0f7ced	-0.14012499
36	0x3d282f91	0.041060988
37	0x3c5511fb	0.013004775
38	0x3dd009c1	0.101581104
39	0xbda9ddd9	-0.08294267
40	0xbda9a058	-0.08282536
41	0xbdf25ade	-0.11833738
42	0xbe7c9f60	-0.24670172
43	0x3e534d92	0.2063506
44	0xbcddace5	-0.027059982
45	0xbc266610	-0.0101561695
46	0xbd50e381	-0.050998215
47	0xbd8169a1	-0.06318975
48	0x3dc8e774	0.09809771
49	0xbd34eff8	-0.044174165
50	0x3d1d4d48	0.03840378
51	0xbd689dc9	-0.0567911
52	0x3defba42	0.11705448
53	0x3b799aea	0.003808672
54	0xbd918660	-0.07105708
55	0x3e93bfa0	0.28857136
56	0x3e15fd2b	0.14647357
57	0xbe0e78fc	-0.1391334
58	0xbe50f6b5	-0.20406611
59	0xbe250d63	-0.16118388
60	0x3d1c0f64	0.038100615
61	0xbdcc462f	-0.09974324
62	0x3c4525e5	0.012032961
63	0xbd11d977	-0.03560778

head.norm.running_var f4 [64]
0	0x3bde1c39	0.0067782667
1	0x3b8823f1	0.004154675
2	0x3b3a863a	0.0028461353
3	0x3c1f5f67	0.009727336
4	0x3bccb5b5	0.006247247
5	0x3c58dc1b	0.013236071
6	0x3b910ae5	0.0044263476
7	0x3bc6d37c	0.0060676914
8	0x3d35038a	0.04419283
9	0x3c3afe89	0.011413225
10	0x3cb9dce9	0.022688346
11	0x3c6bdcd8	0.014395915
12	0x3c2903ff	0.010315894
13	0x3b54db9a	0.0032479526
14	0x3c0bd2a6	0.008534109
15	0x3c070ef6	0.008243313
16	0x3c8d0d13	0.017218148
17	0x3b572434	0.0032827975
18	0x3c278f47	0.010227031
19	0x3c14e131	0.009086893
20	0x3c8724be	0.016497012
21	0x3c89e596	0.016833108
22	0x3bb6d549	0.005579625
23	0x3c2f8b61	0.010714383
24	0x3c3fed0b	0.01171423
25	0x3c2e08d1	0.010622219
26	0x3bed6bae	0.0072455024
27	0x3bac6020	0.0052604824
28	0x3b719d52	0.0036867452
29	0x3b89a210	0.0042002276
30	0x3b6f2575	0.0036490832
31	0x3c7cffea	0.015441874
32	0x3c328c1b	0.010897662
33	0x3cb0080d	0.021488214
34	0x3bc08de4	0.0058762897
35	0x3b9acb46	0.004723939
36	0x3c8b82aa	0.017030079
37	0x3c00d0ce	0.007862283
38	0x3bc8f394	0.0061325524
39	0x3b1d2354	0.0023977356
40	0x3babc313	0.0052417605
41	0x3bcc7175	0.006239111
42	0x3c655098	0.013996266
43	0x3c4d95e3	0.012547943
44	0x3bc38a0c	0.005967384
45	0x3b9131ac	0.00443097
46	0x3b938ff2	0.0045032436
47	0x3bcf2bae	0.0063223457
48	0x3c506848	0.012720175
49	0x3b8f6fc0	0.0043773353
50	0x3ba088ea	0.004899134
51	0x3b499f5c	0.0030765152
52	0x3bfa0434	0.0076298956
53	0x3be89db8	0.0070988797
54	0x3bdd649d	0.006756379
55	0x3c699582	0.014256837
56	0x3bcdfd32	0.0062862867
57	0x3c702e05	0.014659409
58	0x3c2ffb8d	0.010741127
59	0x3c019a39	0.007910305
60	0x3b7c691e	0.0038514803
61	0x3be9cc4f	0.007134951
62	0x3b6e9e68	0.0036410335
63	0x3b3fc460	0.0029261336

body.block1.conv.weight f4 [64, 64, 3, 3]
0	0x3c405212	0.011738317
1	0xbccc8ad5	-0.024968544
2	0xbd5b6e72	-0.053572126
3	0xbbf63120	-0.0075131804
4	0xbd0004d6	-0.031254612
5	0xbc011645	-0.007878845
6	0x3caec06e	0.021331992
7	0x3b7c743c	0.003852143
8	0x3d8f7e67	0.07006531
9	0xbb2bcfcc	-0.0026216386
10	0xbd0c821d	-0.034303773
11	0x3acabc6b	0.001546753
12	0xbcdbceab	-0.026831945
13	0xbbfca4c8	-0.007710073
14	0xbd4726cb	-0.04862098
15	0x3ce17e96	0.027526181
16	0x3d040591	0.03223187
17	0x3cec8ab8	0.02887474
18	0xbc017c16	-0.00790312
19	0x3d3891b4	0.04506083
20	0x3b51b924	0.0032001222
21	0xbd1867fb	-0.03720854
22	0xbbce6931	-0.006299161
23	0xbd151951	-0.036401097
24	0x3d39f8f2	0.04540343
25	0x3b8ebfdd	0.004356368
26	0x3b6aaa92	0.0035807234
27	0xbced7c12	-0.028989825
28	0xbcc1f596	-0.023676675
29	0xbd22fd78	-0.039792508
30	0xbd2ce24d	-0.042208005
31	0xbd4d7f4b	-0.050170224
32	0xbd04a924	-0.032387868
33	0xbd6f29a5	-0.058389325
34	0xbcac9df4	-0.021071412
35	0xbcf1821d	-0.029480988
36	0x3c9c54f0	0.01908347
37	0x3d87a616	0.06623475
38	0x3d42cccc	0.04755859
39	0xbd4c648c	-0.049900576
40	0xbcf38b4f	-0.029729513
41	0xbd418969	-0.047250185
42	0xbd7a8e56	-0.0611709
43	0xbd7665e1	-0.060155753
44	0xbbacabf9	-0.005269524
45	0x3b41ae2c	0.0029553277
46	0x3c9605c0	0.018313289
47	0xbc363059	-0.011119925
48	0x3cbffb63	0.0234353
49	0x3d69f2ab	0.05711619
50	0xbc9ac9aa	-0.018894989
51	0xbbf45a03	-0.0074570193
52	0xbc2369bf	-0.009973942
53	0x3c0abe89	0.008468279
54	0xbb68fad2	-0.0035549891
55	0xbcdd9658	-0.027049229
56	0xbc6e07ae	-0.014528198
57	0x3c8d3cc6	0.017240893
58	0xbc0ba875	-0.00852405
59	0xbd23024a	-0.039797105
60	0xbda0ecbd	-0.07857654
61	0xbdb9318d	-0.09042654
62	0xba91623f	-0.0011091902
63	0x3c45a212	0.012062566
64	0x3ca5a775	0.020221451
65	0xbc19c172	-0.0093845
66	0x3cd90b7c	0.026494734
67	0x3d348d84	0.044080272
68	0x3d3b45bf	0.045720812
69	0x3d45a554	0.048253372
70	0x3d63c6eb	0.055609625
71	0x3cdce716	0.02696566
72	0x3d9ee1e2	0.077579275
73	0x3c0e1bd9	0.008673632
74	0x3cc1ad4d	0.023642207
75	0x3d94e6d0	0.072705865
76	0x3d4cb3cd	0.04997616
77	0x3d884594	0.06653896
78	0x3d1e44aa	0.038639702
79	0x3d5a5c41	0.053310636
80	0x3bdfb048	0.0068264343
81	0x3c82e932	0.015980337
82	0x3cd0009e	0.02539092
83	0x3ccd4f69	0.02506228
84	0x3dace1de	0.08441518
85	0x3d847ee8	0.06469518
86	0x3d05a403	0.032627117
87	0xbb0d3d5f	-0.0021551473
88	0x3d72e608	0.059301406
89	0x3c700248	0.014648981
90	0x3d25e9bf	0.04050612
91	0x3c9d41ca	0.01919641
92	0x3c8f62fc	0.017503254
93	0x3d0a6752	0.03378994
94	0x3c14ff59	0.009094083
95	0x3cd0c53c	0.025484674
96	0x3d905448	0.070473254
97	0x3ca259fb	0.019818297
98	0x3c2873f0	0.010281548
99	0xbd71f5db	-0.059072357
100	0xbdd0335a	-0.101660445
101	0xbda3f2a2	-0.08005263
102	0xbd5e5e87	-0.054289367
103	0xbd95a095	-0.07306019
104	0xbd8e947b	-0.06961914
105	0xbd91c7bd	-0.07118175
106	0xbc8a4fbb	-0.016883722
107	0xbd1bf5d3	-0.038076233
108	0xb8c2c509	-9.2873415e-05
109	0x3d40aaec	0.047038004
110	0x3d37f88b	0.044914763
111	0x3c3d78f8	0.011564486
112	0x3bfe697d	0.00776404
113	0xbc2c90e7	-0.010532594
114	0xbbebdd62	-0.0071980217
115	0xbd572a26	-0.05253043
116	0x3a6f36f4	0.0009125315
117	0x3d529e59	0.051420543
118	0x3d42ef2a	0.047591366
119	0xbc92c7f9	-0.01791762
120	0x3d63277d	0.05545758
121	0x3c6c0c6d	0.014407259
122	0xbc0ad1ef	-0.008472904
123	0x3c12fba1	0.008971126
124	0x3d9826a9	0.07429249
125	0xbca2422b	-0.019806942
126	0xbc8183ee	-0.01580998
127	0xbc50e222	-0.012749227
128	0x3baa2bb3	0.0051931976
129	0xbc4a51d8	-0.012348615
130	0xbd0ec4fe	-0.034855835
131	0xbb63ae88	-0.003474148
132	0x3d0543e7	0.03253546
133	0xbc19ebcc	-0.009394597
134	0x3cd7fae0	0.026364744
135	0xbcc455a3	-0.023966616
136	0xbd33d667	-0.043905642
137	0xbd869166	-0.06570701
138	0xbc0cdd76	-0.008597722
139	0xbb6170b4	-0.0034399452
140	0x3c8d3dd2	0.017241392
141	0x3cba408e	0.02273586
142	0x3c359953	0.011083919
143	0x3d65eda9	0.056134854
144	0x3d1da1c2	0.038484342
145	0x3ddacebc	0.10683963
146	0x3d5de779	0.054175828
147	0x3bb06130	0.0053826794
148	0x3d00cdcb	0.03144626
149	0xbcbe2184	-0.02320934
150	0xbc927131	-0.01787624
151	0x3be64122	0.0070268074
152	0xba63b9a8	-0.0008687028
153	0xbc817308	-0.015801921
154	0x3aee90a3	0.0018201064
155	0xbbca9144	-0.006181868
156	0xbbd31494	-0.006441662
157	0x39b6d468	0.00034872
158	0xbc83384e	-0.01601806
159	0xbbe05e11	-0.006847151
160	0xbd2891f9	-0.041154835
161	0x3d4af500	0.049550056
162	0xbbca3573	-0.0061709224
163	0xbcb8c4c3	-0.02255476
164	0x3c910621	0.017703118
165	0x3c50585c	0.012716379
166	0x3cccda5b	0.025006464
167	0x3a247a87	0.00062743615
168	0x3cfc455a	0.030794788
169	0x3d92cc39	0.07167859
170	0x3d728a30	0.059213817
171	0xbd21a5be	-0.039464705
172	0xbb77a1d4	-0.0037785666
173	0xbd2e2cb1	-0.04252309
174	0xbd1cbb6e	-0.038264684
175	0xbca01024	-0.019538946
176	0xbcda2529	-0.026629047
177	0x3c36a4a8	0.011147656
178	0xbb816fad	-0.0039500804
179	0x3d141333	0.036151122
180	0xbcb2a7fb	-0.021808615
181	0xb9d7a128	-0.00041128066
182	0x3b574a0e	0.0032850537
183	0x3cec3209	0.028832452
184	0x3d0b2a21	0.033975724
185	0xba86228b	-0.0010233683
186	0xbcb6d975	-0.022320488
187	0xbc61bdc6	-0.013778156
188	0x3c8042f4	0.015656926
189	0x3ce4492a	0.027866919
190	0x3c1e5687	0.009664184
191	0xbd075193	-0.03303678
192	0x3d2bb976	0.041924916
193	0x3ce0b8d5	0.027431885
194	0x3d30fa88	0.043207675
195	0x3d38d3cc	0.04512386
196	0xb9ab4c4f	-0.00032672516
197	0xbcb88781	-0.02252555
198	0xbd73033e	-0.059329264
199	0xbdb832f3	-0.08994093
200	0xbda56f4c	-0.08077869
201	0xbca0c5a4	-0.019625492
202	0x3c0f9a19	0.008764767
203	0xbcd5db3a	-0.026105512
204	0xbc1b356e	-0.009473188
205	0xbcc07b4f	-0.023496298
206	0x3cc2acd6	0.023764055
207	0xbc82d08a	-0.01596858
208	0xbb546be4	-0.003241294
209	0xbc9ecc0e	-0.01938441
210	0x3c5554d0	0.013020709
211	0xbcd7ad7e	-0.026327845
212	0x3c0afdde	0.008483378
213	0x3c4bf8ab	0.012449424
214	0xbc7b3f27	-0.015334881
215	0xbce613d8	-0.028085634
216	0xbd615268	-0.05501023
217	0xbdb84dac	-0.0899919
218	0xbd9554cd	-0.07291565
219	0xbd9c5ba5	-0.07634667
220	0xbdbfea3b	-0.09370848
221	0xbdf142f5	-0.11780349
222	0xbd1ab854	-0.037773445
223	0xbdc53cad	-0.096307136
224	0xbd7ac214	-0.061220244
225	0xbba0476a	-0.0048913257
226	0xbce0f6d1	-0.027461441
227	0xbc416898	-0.011804722
228	0x3d1965cf	0.037450608
229	0xbca93920	-0.020657122
230	0xbc7a69ef	-0.015284046
231	0x3cf89c48	0.030347958
232	0xbafd9986	-0.0019348122
233	0xbc3bb45a	-0.011456573
234	0xbc13fff4	-0.009033192
235	0xbd0af199	-0.03392181
236	0xbd421351	-0.047381703
237	0x3ce37423	0.02776534
238	0x3c2da331	0.01059799
239	0xbc4c160f	-0.012456431
240	0xbd013e94	-0.03155382
241	0xbcd55905	-0.026043424
242	0x3ca8c57c	0.02060198
243	0xbd895ec9	-0.06707532
244	0xbdb0b3ed	-0.08628068
245	0xbd1d0dcb	-0.038343232
246	0xbc3f6d3c	-0.011683758
247	0xbc020809	-0.007936486
248	0xbcb6a9cf	-0.022297768
249	0xbc7b65b8	-0.015344076
250	0x3cb17d09	0.021666067
251	0xb9ebb706	-0.00044959056
252	0x3bb9fac2	0.0056756446
253	0xbd0e7583	-0.034780037
254	0x3d51dcb4	0.05123587
255	0xbd96033b	-0.07324835

body.block1.conv.bias f4 [64]
0	0x3d0e1fc9	0.03469828
1	0x3c6595c2	0.014012756
2	0x3c59660f	0.013268962
3	0xbd1cbc9f	-0.03826582
4	0xbcb95800	-0.02262497
5	0x3d1cf325	0.03831782
6	0x3ccdcea5	0.02512295
7	0xbcdbff54	-0.026855148
8	0x3d626365	0.05527057
9	0x3c7489e9	0.0149254585
10	0xbbb31760	-0.005465433
11	0x3d409d3d	0.047024954
12	0xba2399fc	-0.0006240902
13	0xbb928d9c	-0.0044724476
14	0xbd339444	-0.04384257
15	0xbc7dbce7	-0.015486932
16	0x3c7b123c	0.015324172
17	0xbd0f2df1	-0.034955923
18	0x3ca2e854	0.019886173
19	0xbd0f9f0b	-0.035063785
20	0x3c7be66f	0.015374764
21	0x3c534c76	0.012896648
22	0xbc8f9fb2	-0.017532203
23	0x3cd321ef	0.025773017
24	0x3ce78f9c	0.02826672
25	0x3d0f45d6	0.03497871
26	0xbcd4146a	-0.02588864
27	0x3cb851a3	0.022499865
28	0x3c987956	0.018612545
29	0x3d1589e6	0.036508463
30	0x3be6367b	0.0070255375
31	0x3c55b234	0.013042975
32	0x3ce7ce6a	0.028296668
33	0x3ced88ee	0.028995957
34	0x3c4162a6	0.011803305
35	0x3ba63ca3	0.0050731464
36	0x3d471539	0.048604224
37	0x3d28064d	0.041021634
38	0x3d0fe77b	0.035132866
39	0x3c38b6fb	0.011274095
40	0xbb05ea8f	-0.0020433997
41	0xbc0c0dba	-0.008548195
42	0x3d35d4e6	0.04439249
43	0xbc7898ca	-0.0151731465
44	0xbc871627	-0.016490055
45	0x3c964ce4	0.018347211
46	0xbc42d988	-0.011892684
47	0xbd05f5c7	-0.032705095
48	0xbd48ab3d	-0.04899143
49	0xbc8dbe17	-0.017302556
50	0x3ba0b93a	0.004904893
51	0xbc03b7fe	-0.008039473
52	0xbb9cef4e	-0.0047892695
53	0x3c2f0558	0.010682426
54	0x3cd5463a	0.026034463
55	0xbcd8fefa	-0.02648877
56	0xbc159f82	-0.009132268
57	0x3d3df527	0.046376374
58	0xbd0c69f8	-0.034280747
59	0xba91b960	-0.0011117868
60	0x3b04e067	0.0020275356
61	0x3cb0de88	0.021590486
62	0xbd0722d0	-0.032992184
63	0x3d224e09	0.0396252

body.block1.norm.weight f4 [64]
0	0x3f836d94	1.0267816
1	0x3fb991a1	1.4497567
2	0x3f746657	0.9546866
3	0x3f82d8cc	1.0222411
4	0x3f78cd39	0.97188145
5	0x3f8d8e05	1.1058966
6	0x3f822f94	1.017077
7	0x3f972541	1.1808244
8	0x3fb93644	1.4469686
9	0x3f82cadb	1.0218157
10	0x3f83d741	1.0300065
11	0x3f896210	1.0733051
12	0x3facd438	1.3502264
13	0x3f87ff33	1.0624756
14	0x3f8e28ed	1.110624
15	0x3f8385aa	1.0275166
16	0x3f993ca1	1.1971627
17	0x3f8a7e71	1.0819837
18	0x3f951259	1.1646224
19	0x3f847f7c	1.0351405
20	0x3f8a2e4a	1.0795376
21	0x3f849a78	1.035964
22	0x3f9506f2	1.1642745
23	0x3f8a6904	1.0813298
24	0x3f8cebfa	1.1009514
25	0x3f8cb5f9	1.0993034
26	0x3f848d62	1.0355647
27	0x3f827904	1.0193181
28	0x3f859cd8	1.043849
29	0x3fa6052f	1.2970332
30	0x3f912e77	1.1342305
31	0x3f809fd5	1.0048777
32	0x3f888e3d	1.0668408
33	0x3fa0d346	1.2564476
34	0x3f9afd2f	1.2108516
35	0x3f95a378	1.1690512
36	0x3f825f70	1.0185375
37	0x3f88a249	1.0674525
38	0x3f8c5ce0	1.0965843
39	0x3f91b0cb	1.1382078
40	0x3f89653e	1.0734022
41	0x3f81ff81	1.0156099
42	0x3f85b614	1.0446191
43	0x3f840e0d	1.0316788
44	0x3f93e27c	1.1553493
45	0x3f8ad61f	1.0846595
46	0x3f832e5a	1.024852
47	0x3f94c550	1.1622715
48	0x3f8b50dd	1.0884053
49	0x3f852145	1.0400778
50	0x3f8dea13	1.1087059
51	0x3f91d7d5	1.1393992
52	0x3f8b169f	1.0866278
53	0x3fa1e631	1.2648374
54	0x3f908046	1.1289146
55	0x3f86cf05	1.0531927
56	0x3f91b9e0	1.138485
57	0x3f82bc9f	1.0213813
58	0x3f8855f1	1.0651227
59	0x3f841c50	1.032114
60	0x3f86c50b	1.0528883
61	0x3f76c509	0.963944
62	0x3f84f79e	1.0388067
63	0x3f8e3dec	1.1112647

body.block1.norm.bias f4 [64]
0	0xbd54b05e	-0.05192601
1	0xbed26a3e	-0.4109668
2	0xbd40015c	-0.046876296
3	0x3bd4b253	0.0064909845
4	0xbd403b6a	-0.04693166
5	0x3cfca9fe	0.030842777
6	0xbd857ef8	-0.06518358
7	0xbe098ca8	-0.13432562
8	0xbeec8b75	-0.46200147
9	0xbe1941ca	-0.14966503
10	0x3af21aed	0.0018471159
11	0x3a98d5fd	0.0011660453
12	0xbf094158	-0.5361533
13	0xbd151836	-0.036400042
14	0x3d369c9e	0.044582956
15	0x3cf2c973	0.029637074
16	0xbeca52a5	-0.39516178
17	0x3c72ace0	0.014811724
18	0xbcd5d307	-0.026101602
19	0x3d3ddac6	0.046351217
20	0xbe6bd2d6	-0.23029646
21	0xbe8c20b0	-0.2736869
22	0x3d002746	0.031287454
23	0x3d36e3be	0.044650786
24	0xbd11e450	-0.035618126
25	0xbd4e2d15	-0.050335962
26	0xbe42ddc0	-0.19029903
27	0xbca063f1	-0.019578906
28	0xbc927604	-0.01787854
29	0x3d03e6cf	0.032202538
30	0xbd84e753	-0.06489434
31	0x3d20e574	0.039281324
32	0xbbdcc5af	-0.006737433
33	0xbd5a1283	-0.05324031
34	0xbecbcb99	-0.3980377
35	0x3d6f7e77	0.058470216
36	0xbe4b099e	-0.19827887
37	0x3d05217d	0.03250264
38	0xbd95731f	-0.07297348
39	0xbdc935de	-0.098247275
40	0xbe10e89a	-0.1415123
41	0xbca9941b	-0.020700505
42	0x3b90e4c1	0.004421801
43	0x3d21c3b3	0.039493274
44	0xbe4a8c4d	-0.19780083
45	0x3cbf07a9	0.023319082
46	0xbe7fee0d	-0.24993153
47	0xbda0e6f5	-0.078565516
48	0xbda84668	-0.08216554
49	0xbe71bf28	-0.23608077
50	0xbd3e85be	-0.046514265
51	0xbbb4d3f7	-0.0055184322
52	0xbe8399da	-0.25703317
53	0xbec5ae2d	-0.38609448
54	0xbdd6f8f0	-0.104967
55	0x3db76b7d	0.08956049
56	0xbe6bcbe5	-0.23026998
57	0xbd076bc0	-0.033061743
58	0xbdfac3fc	-0.12244412
59	0x3d26f234	0.040758327
60	0xbcde2809	-0.0271187
61	0xbc71fabe	-0.014769254
62	0xbe1da4d5	-0.1539491
63	0xbe47acde	-0.19499537

body.block1.norm.running_mean f4 [64]
0	0xbf07a0b1	-0.5297957
1	0xbeb2c064	-0.34912407
2	0x3f1be6ac	0.6089885
3	0xbe4d470e	-0.20046636
4	0xbd175863	-0.036949527
5	0x3e0d00a5	0.13769777
6	0x3f696774	0.9117348
7	0xbe496adb	-0.19669668
8	0xbf001065	-0.50025016
9	0xbdf88d84	-0.12136367
10	0xbde253c2	-0.11051132
11	0x3edd82c2	0.43263823
12	0xbeb8f08e	-0.3612103
13	0xbd3382af	-0.0438258
14	0x3f157e74	0.5839608
15	0x3e05d34e	0.13068888
16	0xbea9f549	-0.3319495
17	0x3eab4eff	0.33458707
18	0xbdc992da	-0.09842463
19	0xbf2a2352	-0.66460145
20	0xbe84c723	-0.2593318
21	0xbe999b48	-0.30001283
22	0xbf4fb682	-0.8113786
23	0x3f5d2832	0.8638946
24	0xbd6774f9	-0.05650804
25	0x3d63228c	0.05545287
26	0x3d9ea0b5	0.07745496
27	0x3e387c16	0.18016085
28	0xbc527a69	-0.012846568
29	0xbe299e42	-0.16564277
30	0x3de0792b	0.10960611
31	0x3e021c1e	0.12706038
32	0xbe4f8d49	-0.2026874
33	0xbdf02b05	-0.11726955
34	0xbeff2f42	-0.49840742
35	0xbd678b79	-0.056529496
36	0xbed8eca6	-0.42368048
37	0x3dcf6ba5	0.101279534
38	0xbe8e5a2d	-0.27803174
39	0xbf00ea19	-0.50357205
40	0xbebe1f6a	-0.37133342
41	0x3ee18956	0.44050092
42	0x3e69aeb2	0.22820547
43	0x3e48a138	0.1959275
44	0xbe8bd4ba	-0.27310735
45	0x3ec78412	0.3896795
46	0xbe92bbe8	-0.28658986
47	0xbe83ccff	-0.25742337
48	0xbf05c0ea	-0.5224749
49	0xbf319f57	-0.6938376
50	0xbe91528e	-0.28383297
51	0xbed557cb	-0.41668543
52	0xbf19f962	-0.6014615
53	0xbf1024ab	-0.5630595
54	0xbe0e65e8	-0.13906062
55	0xbec31a99	-0.3810623
56	0xbf2a6dce	-0.665738
57	0xbccb1644	-0.02479089
58	0xbe304fe4	-0.17217976
59	0xbd89e4b0	-0.06733072
60	0x3d23636e	0.039889745
61	0xbed6137c	-0.4181174
62	0xbda65dc6	-0.081233546
63	0x3dc1cac4	0.094625026

body.block1.norm.running_var f4 [64]
0	0x4064854f	3.5706365
1	0x3e1f0512	0.15529278
2	0x3f9fbaff	1.2478942
3	0x3eb53d34	0.35398257
4	0x3fae2771	1.3605787
5	0x3e8a8594	0.27055037
6	0x401a3425	2.4094326
7	0x3ed3da07	0.4137728
8	0x3dc0d6d7	0.094159774
9	0x3f3621c9	0.711453
10	0x4031ef80	2.780243
11	0x3f70deba	0.94089854
12	0x3dc76ebf	0.0973792
13	0x3fc24789	1.5178081
14	0x3f4b1d14	0.79341245
15	0x3f4bea5d	0.79654485
16	0x3df75a1e	0.12077735
17	0x402de49d	2.7170784
18	0x3e1df69e	0.15426108
19	0x400c0caf	2.1882741
20	0x3efc5c4c	0.49289167
21	0x3e761fa3	0.24035506
22	0x3fc0ec8d	1.507219
23	0x401e20c1	2.4707491
24	0x3f84cbec	1.0374732
25	0x3f149a63	0.58048075
26	0x3ed5af6b	0.41735396
27	0x3eccd3c9	0.4000533
28	0x3ef18933	0.47174987
29	0x3e00f48f	0.12593292
30	0x3e4df1a9	0.20111717
31	0x403fbd13	2.9959152
32	0x3ec1d8ae	0.37860626
33	0x3e3aef50	0.18255353
34	0x3e16f747	0.14742766
35	0x3eeb5ccf	0.45969245
36	0x3e22b947	0.1589099
37	0x3f08eb5f	0.5348415
38	0x40049abe	2.0719447
39	0x3fb0e418	1.3819609
40	0x3e8ea74b	0.2786201
41	0x3f94073c	1.1564708
42	0x3ed3c875	0.41363874
43	0x3fc2e4ea	1.5226109
44	0x3e13c664	0.14431149
45	0x3f3c6a59	0.73599774
46	0x3e2362d1	0.15955664
47	0x3df5d203	0.12002947
48	0x402e0808	2.7192402
49	0x3f055cc8	0.520947
50	0x3e7c0d9c	0.24614567
51	0x3ed5d914	0.4176718
52	0x3f15e6e6	0.5855545
53	0x3da1baf1	0.07896984
54	0x3ea66363	0.324977
55	0x3f7898a0	0.9710789
56	0x40087d5b	2.132651
57	0x3f0a5ad6	0.54044855
58	0x3e631f5d	0.22179933
59	0x3ef9770c	0.48723638
60	0x3efc85d0	0.4932084
61	0x3f90f90f	1.1326007
62	0x3eceb5f0	0.40373182
63	0x3e9d1812	0.30682427

tail.0.weight f4 [12, 64, 3, 3]
0	0x3cb8eb02	0.022572998
1	0x3ba0db61	0.0049089645
2	0x3a53bb84	0.0008076953
3	0x3cc4704a	0.023979325
4	0xbc247dba	-0.010039741
5	0xbcd69caf	-0.02619776
6	0xbc88e7ae	-0.016712036
7	0x3ccc1f83	0.02491737
8	0xbc5e1068	-0.013553716
9	0xbc81b72e	-0.015834417
10	0x3cba9c7d	0.022779698
11	0x3d2f9b00	0.04287243
12	0xbae253e2	-0.0017267431
13	0x3c4aa4b2	0.012368368
14	0xbdd7ab8f	-0.10530769
15	0x3d0ba672	0.03409428
16	0x3d898c9d	0.06716273
17	0xbd8f0b3a	-0.06984563
18	0xbd0fc5f4	-0.035100892
19	0xbaf36ad7	-0.001857127
20	0x3bf22f64	0.0073909033
21	0x3ce5e7a8	0.028064564
22	0x3d4768e1	0.048684005
23	0x3cecaab5	0.028889993
24	0x3b8143f7	0.0039448696
25	0x3c42fa64	0.011900518
26	0x3c74e50b	0.014947186
27	0x3db00cff	0.08596229
28	0xbe259f62	-0.16174081
29	0xbdf552b6	-0.119786665
30	0x3da6eb7d	0.081503846
31	0xbdfadb78	-0.122488916
32	0xbd8fd3f7	-0.07022851
33	0x3b957a8c	0.004561728
34	0x3d725125	0.059159417
35	0xbcc77e3f	-0.024352191
36	0xbd3dbc8f	-0.0463224
37	0x3ce134e0	0.027491033
38	0xbc17f7a4	-0.009275351
39	0x3d27d4b3	0.04097433
40	0x3c43a493	0.011941093
41	0x3b9b913f	0.0047475393
42	0x3cc84489	0.024446743
43	0xbbcf726c	-0.006330779
44	0xbc2f9ae1	-0.010718078
45	0xbd1b215b	-0.037873607
46	0xbd96c41a	-0.07361622
47	0x3c05697c	0.008142825
48	0x3c743e6e	0.0149074625
49	0x3b8d0f19	0.0043047783
50	0x3d49840b	0.04919819
51	0xbbf537d1	-0.0074834605
52	0x3d26e3ff	0.040744778
53	0x3b90a770	0.0044144914
54	0xbd37e2ff	-0.044894215
55	0xbd045a72	-0.032312818
56	0xbd913a18	-0.07091159
57	0xbcf62e04	-0.030051239
58	0xbc7606b0	-0.015016243
59	0xbc326924	-0.010889325
60	0x3b2aedde	0.0026081721
61	0xbb8db241	-0.004324228
62	0xbc762316	-0.015023014
63	0xbd93779f	-0.0720055
64	0x3de2c23d	0.11072204
65	0xbd2d007e	-0.042236798
66	0xbd109f46	-0.035308145
67	0x3dd842c7	0.10559612
68	0x3cb8fe44	0.02258218
69	0x3d4a1a95	0.049341757
70	0xbd0921c3	-0.033479463
71	0x3b20e75b	0.002455196
72	0xbcc2d9bf	-0.02378547
73	0xbd0b2285	-0.033968467
74	0xbb82fc4e	-0.003997362
75	0xbcb1ee8d	-0.021720195
76	0x3c1f6ce7	0.009730554
77	0x3d948b23	0.07253101
78	0x3d398b8f	0.04529911
79	0xbd0e9a19	-0.034814928
80	0xbcce15a5	-0.025156805
81	0x3d4cfa7d	0.05004357
82	0xbca252b5	-0.019814828
83	0x3cc671a9	0.02422412
84	0x3d03cd58	0.032178253
85	0xbdadcda9	-0.08486492
86	0xbcd9bec5	-0.026580224
87	0xbca05f60	-0.019576728
88	0xbc4fc16d	-0.012680394
89	0xbd5934da	-0.05302892
90	0xbce1d1a6	-0.027565788
91	0x3c50cf2e	0.012744708
92	0x3c158c0b	0.009127627
93	0xbb7918d6	-0.0038009188
94	0x3d8ebf09	0.06970031
95	0x3c6c4e77	0.014423004
96	0x3c8789a6	0.016545128
97	0x3da5dcad	0.08098731
98	0x3ca4abb0	0.020101398
99	0x3b816f04	0.0039500017
100	0x3a920a00	0.0011141896
101	0x3c905e32	0.01762304
102	0x3cea03ca	0.02856626
103	0xbcaedc61	-0.02134532
104	0x3d65029b	0.055910688
105	0x3c61f372	0.013790952
106	0xbbc9f3c7	-0.0061630937
107	0x3cfd96cd	0.030955696
108	0x3b6625f0	0.0035117827
109	0x39ffef6e	0.0004881578
110	0x3c0df9e4	0.008665536
111	0x3c332baa	0.010935703
112	0x3cff1c7b	0.03114151
113	0x3d6fef98	0.058578104
114	0x3bd0b58c	0.0063692983
115	0xbc550ff3	-0.013004291
116	0x3b61068c	0.0034336178
117	0xbc8cff41	-0.017211558
118	0x3d526144	0.05136229
119	0x3d409584	0.04701759
120	0x3cfe370a	0.031032104
121	0x3da8bac0	0.08238745
122	0x3d8ecd88	0.06972796
123	0xbc8880f1	-0.016663047
124	0xbac0171d	-0.0014655326
125	0x3d131182	0.03590537
126	0x3cd678be	0.026180621
127	0x3d7deadc	0.061991557
128	0x3c8bac28	0.017049864
129	0x3d468a77	0.048471894
130	0x3d8eb4d9	0.06968088
131	0x3c04450f	0.0080731055
132	0xbd70c82a	-0.05878464
133	0x3d2793eb	0.04091255
134	0xbd0b3cc4	-0.033993497
135	0xbcd24fab	-0.025672754
136	0x3cc858b8	0.024456367
137	0xbd4a745d	-0.04942738
138	0xbc0e996e	-0.008703573
139	0x3c85aa3d	0.016316528
140	0xbdb0f061	-0.08639599
141	0x3cf33a30	0.029690832
142	0xbd05aa04	-0.032632843
143	0xbd5a432d	-0.05328672
144	0xbbffa94f	-0.0078021656
145	0xbc82185a	-0.015880752
146	0x3c80940c	0.015695594
147	0xbd817d22	-0.06322695
148	0xbc96c9ff	-0.018406866
149	0xbd121bcd	-0.035671044
150	0xbc88eb67	-0.016713811
151	0x3d17b490	0.037037432
152	0xbd155274	-0.036455587
153	0x3da46bc3	0.080283664
154	0x3d239e4f	0.039945897
155	0x3c686ed8	0.014186583
156	0x3a4cfcc5	0.0007819648
157	0xbd1361ae	-0.035981826
158	0x3b6481d7	0.003486743
159	0x3c72f600	0.014829159
160	0x3a7f5bd1	0.000974116
161	0x3d5cba53	0.05388863
162	0x3c11676f	0.008874758
163	0x3c97c03a	0.018524278
164	0xbcfdc7b5	-0.030979017
165	0x3d885aba	0.0665793
166	0x3b8a9b2a	0.004229923
167	0xbb987dd6	-0.0046536727
168	0x3d157895	0.03649195
169	0xbd0b61d0	-0.03402883
170	0xbd4a45dd	-0.049383033
171	0xbc754497	-0.014969966
172	0xbd2e419d	-0.042543042
173	0xbd43bc3e	-0.047786944
174	0x3c3f8372	0.011689054
175	0xbcb0ece0	-0.021597326
176	0xbcb4d99b	-0.022076419
177	0xbcfa1888	-0.030529276
178	0xbb5690c8	-0.0032740105
179	0xbca45e23	-0.02006442
180	0xbcbdadcb	-0.02315416
181	0xbcf9e9ad	-0.030506933
182	0x3cf3fc8e	0.029783513
183	0x3c0a6a5c	0.00844821
184	0x3e0625a8	0.13100302
185	0x3dde5111	0.10855306
186	0xbc3f3aeb	-0.011671762
187	0x3db25534	0.087076575
188	0xbde2d628	-0.11076003
189	0xb94f6ee2	-0.00019782365
190	0xbca0a907	-0.019611849
191	0x3bafa508	0.0053602494
192	0x3d5cd84d	0.053917218
193	0xbd2912bc	-0.041277632
194	0xbd1f114e	-0.038834862
195	0x3b93d251	0.0045111557
196	0x3d3038fa	0.043023087
197	0x3cd1ccce	0.025610354
198	0x3ca03eac	0.019561134
199	0x3b6ec1fe	0.0036431546
200	0x3b321115	0.0027170826
201	0xbce8b7d4	-0.028407969
202	0xbcd4aaf6	-0.025960427
203	0x3a7c6bcc	0.00096291
204	0xbbd21ac8	-0.006411884
205	0xbca10305	-0.01965476
206	0x3ba51e7a	0.0050390335
207	0xbc4934dd	-0.01228067
208	0x3b953029	0.0045528603
209	0xbc009d4b	-0.007850002
210	0xbd89d57c	-0.06730172
211	0xbaacf0f6	-0.001319437
212	0xbcb104a3	-0.021608656
213	0x3d286677	0.041113343
214	0x3c58c61b	0.013230826
215	0x3c016372	0.007897245
216	0xbd0e277b	-0.03470562
217	0x3c89ceee	0.016822305
218	0xbd90f7d5	-0.0707852
219	0xbc26eeec	-0.010188799
220	0x3cb6235e	0.022233661
221	0xbd1e9879	-0.038719628
222	0xbd2770be	-0.040879004
223	0xbd45cf40	-0.048293352
224	0xbc852e12	-0.01625732
225	0xbc820d86	-0.01587559
226	0x3d1eda65	0.038782496
227	0x3d483c2c	0.04888551
228	0xbbe32ce2	-0.0069328407
229	0xbcdd0e56	-0.026984375
230	0x3c886f08	0.016654506
231	0x3b966562	0.0045897225
232	0xbd8b2709	-0.06794555
233	0x3c9a0b3f	0.01880419
234	0x3b9227fb	0.0044603324
235	0x3c497b8a	0.01229752
236	0xbb0ee4b1	-0.0021803791
237	0x3c796ceb	0.015223722
238	0x3cf61c77	0.03004287
239	0xbcba1015	-0.022712747
240	0x3c1d266e	0.009591682
241	0xbc96eb6f	-0.01842281
242	0xbdbb5583	-0.091471694
243	0xbd2b609d	-0.041840184
244	0x3a9d9682	0.0012023004
245	0x3d7805af	0.060552295
246	0xbd043e90	-0.032286227
247	0xbd0b8d20	-0.034070134
248	0x3aa542b5	0.0012608381
249	0x3d24f86d	0.04027598
250	0x3d259e4d	0.04043417
251	0x3cafb1cb	0.021447083
252	0x3cc8ab0c	0.024495624
253	0xbc684caa	-0.014178434
254	0x3d824eeb	0.06362709
255	0xba9c0f83	-0.0011906478

tail.0.bias f4 [12]
0	0x3d20574e	0.03914576
1	0x3c317456	0.010830959
2	0xbce19336	-0.027536016
3	0x3de92602	0.113842025
4	0x3dbe49c5	0.09291414
5	0x3daf0c24	0.085472375
6	0x3c3b09dd	0.011415926
7	0x3dca6691	0.09882844
8	0xbd793cc2	-0.06084896
9	0xbdfcb8d6	-0.12339942
10	0x3d80dc14	0.062919766
11	0x3d236e8e	0.039900355
