3layer_5000its/files/3/D.pth (torch, 184629 bytes, 13 tensors)

head.conv.weight f4 [64, 12, 3, 3]
0	0x3c2d79a6	0.010588085
1	0x3bf2f890	0.007414885
2	0x3b943f96	0.0045241816
3	0xb7c12727	-2.3025625e-05
4	0x3b40d172	0.0029421714
5	0x3b96634d	0.0045894743
6	0x3c3cfe75	0.011535277
7	0x3da8b15b	0.08236953
8	0xbcd68379	-0.026185738
9	0xbbdd7c2f	-0.0067591886
10	0x3a0e05c7	0.0005417731
11	0x3a3b8a10	0.0007154057
12	0x3db3beed	0.087766506
13	0x3da920ef	0.08258235
14	0x3c2e72c8	0.010647483
15	0xbcc068d5	-0.023487488
16	0xbda3c10a	-0.07995804
17	0x3b0933db	0.002093545
18	0xbbdddafd	-0.00677049
19	0x3ae178c9	0.0017202134
20	0xb9e6324f	-0.000439065
21	0x3beceaca	0.0072301375
22	0xbb879f91	-0.004138895
23	0x3c2d9fd8	0.010597192
24	0x3d83f19a	0.06442566
25	0xbda3b5ec	-0.07993683
26	0x3c1ae412	0.00945379
27	0xbc814c00	-0.01578331
28	0xbbb8a3ea	-0.0056347745
29	0x3ab08711	0.0013467987
30	0xb906d228	-0.00012857525
31	0xbc3c542f	-0.01149468
32	0x3b81db9a	0.003962946
33	0x3b4e1a49	0.0031448773
34	0xbaef6a2f	-0.0018265898
35	0xbaada354	-0.0013247528
36	0x3bb95141	0.005655438
37	0x3c1e5061	0.0096627185
38	0xbaf28679	-0.0018503211
39	0x3b1c5de3	0.0023859672
40	0x3b4f004b	0.0031585868
41	0x3b52f6b9	0.0032190515
42	0x3c4b9c95	0.012427469
43	0xbd62f482	-0.055408962
44	0xbcf29112	-0.02961019
45	0xbc66b3a8	-0.014080919
46	0xbbb873f9	-0.0056290594
47	0xbb918ff6	-0.0044422103
48	0xb8f6443b	-0.00011742903
49	0xbbeed06d	-0.00728803
50	0x3b8bc6a8	0.004265625
51	0xbc2eed03	-0.010676625
52	0x3b9ab14a	0.0047208415
53	0x3cd620cc	0.026138686
54	0xbc676412	-0.01412298
55	0xbcbc669c	-0.022998147
56	0xbbff29b7	-0.007786955
57	0xb8fa92aa	-0.00011948247
58	0xbb889371	-0.004167967
59	0x3b57faa8	0.00329558
60	0xbcdd18bb	-0.026989331
61	0x3d2def3f	0.04246449
62	0xbcc68f33	-0.024238205
63	0x3a9a6cd4	0.0011781701
64	0x3ae2b162	0.0017295296
65	0x3cb736c1	0.022364976
66	0x3c168650	0.009187296
67	0x3adf15c7	0.001702004
68	0x3c8152fc	0.01578664
69	0x3c9f0581	0.019411804
70	0x3ca276d3	0.01983205
71	0xbc2bb829	-0.010480919
72	0x3d014a0a	0.03156475
73	0x3d0c8ad0	0.03431207
74	0x3cd39fd3	0.025833046
75	0x3c29deac	0.0103680305
76	0xbd867fc1	-0.06567336
77	0xbcd11021	-0.025520386
78	0x3d07d97b	0.03316639
79	0x3c3227f7	0.010873786
80	0x3d17f56e	0.037099294
81	0xbbde8107	-0.0067902836
82	0x3adc2391	0.0016795268
83	0xb9daea9f	-0.00041755007
84	0xb8fd165c	-0.00012068145
85	0xbc3c405f	-0.011489957
86	0x3a90e0ca	0.001105332
87	0x3cd950df	0.02652782
88	0xbdb2bfed	-0.08728013
89	0xbd191d55	-0.03738149
90	0xbc0e600c	-0.008689892
91	0xbc1b1992	-0.009466546
92	0xbb841b82	-0.0040315995
93	0xbc134a74	-0.008989919
94	0xbccf1f9d	-0.02528363
95	0xbbbb42ba	-0.0057147415
96	0x399295d8	0.00027958932
97	0x3be29bbc	0.0069155376
98	0xbb88f10c	-0.0041791257
99	0xbc7f3105	-0.015575652
100	0x3c2bcfe4	0.010486577
101	0xbcac5ff3	-0.021041846
102	0xbdd26a8f	-0.10274231
103	0x3ccadc9c	0.024763398
104	0xbd5d8b2b	-0.0540878
105	0xbe025366	-0.12727126
106	0x3e3dfff6	0.18554673
107	0x3db30828	0.0874179
108	0xbcf69798	-0.030101582
109	0x3d39cea4	0.045363083
110	0xbd84c056	-0.06481998
111	0x3cf1d18d	0.029518867
112	0xbd383e01	-0.044981007
113	0x3dd84f03	0.10561945
114	0xbc0a6d26	-0.008448875
115	0xbd79c234	-0.060976222
116	0xbc4c9b06	-0.012488132
117	0xbdbf5274	-0.093418986
118	0x3d361f30	0.044463336
119	0xbc46aa37	-0.012125543
120	0x3d295b26	0.04134669
121	0xbd2d8b43	-0.04236914
122	0xbc4f1150	-0.012638405
123	0x3c821ca3	0.015882796
124	0xbb50eb5f	-0.0031878573
125	0xbd2ba242	-0.041902788
126	0x3c9b2e34	0.01894293
127	0xbc832133	-0.016007042
128	0x3bd6ab1d	0.00655116
129	0xbcf4600a	-0.029830951
130	0x3c2e50f6	0.01063942
131	0xbc5d8f7b	-0.013522978
132	0xbdc70372	-0.09717454
133	0x3d078658	0.033087105
134	0x3d1aecbf	0.037823435
135	0x3c3440b7	0.011001757
136	0xbcc93558	-0.02456157
137	0x3cbb1545	0.02283729
138	0x3aca65f0	0.0015441757
139	0xbca935ff	-0.02065563
140	0x3cd20711	0.025638135
141	0xbc53e63e	-0.012933312
142	0x3c62990f	0.013830437
143	0xbb9ec908	-0.004845742
144	0xbbf83ea1	-0.0075758253
145	0x3bac8ff2	0.005266183
146	0xbd1cc0fb	-0.038269978
147	0x3d02467b	0.031805497
148	0xbc12c338	-0.008957677
149	0x3ddaecb2	0.10689677
150	0x3c4b48ec	0.012407523
151	0xbdae127e	-0.08499621
152	0xbd0ca4c5	-0.034336824
153	0xbc56b962	-0.013105722
154	0xbc01a16b	-0.00791202
155	0x3c55570a	0.01302124
156	0xb9ad6eb1	-0.00033079603
157	0x3d164701	0.03668881
158	0xbcd735c9	-0.026270764
159	0x3ca649ba	0.020298827
160	0xbb567dd1	-0.00327288
161	0xbb8dd9a7	-0.0043289247
162	0x3d552c7d	0.05204438
163	0xbcf56f18	-0.0299602
164	0x3d7437ec	0.059623644
165	0xbd4e8ac6	-0.050425313
166	0x3c88cc78	0.01669906
167	0xbd97a505	-0.07404522
168	0x3beba8b5	0.0071917423
169	0x3ccb15a3	0.02479059
170	0x3bf536bc	0.0074833315
171	0x3d211c66	0.039333723
172	0xbc27c780	-0.010240436
173	0xbbd42733	-0.0064743995
174	0xbce0dc27	-0.027448727
175	0x3c929295	0.017892161
176	0xbd2f53c3	-0.04280449
177	0xbc1c019a	-0.009521866
178	0x3d052896	0.03250941
179	0x3c1fd386	0.009755021
180	0x3c997a11	0.018734964
181	0x3be71ff6	0.0070533706
182	0x3c02e94a	0.007990191
183	0xbacb13d3	-0.0015493579
184	0x3af5ede0	0.0018762909
185	0x3af79225	0.0018888159
186	0x3ce9dbe9	0.028547244
187	0x3cb75c13	0.022382772
188	0x3d2ccc35	0.042186935
189	0x3c64f83b	0.013975198
190	0xbcedbe2e	-0.029021349
191	0xbd37a03b	-0.044830542
192	0xbcc38268	-0.023865893
193	0x3c97e8c8	0.018543616
194	0x3ca0d6cb	0.019633671
195	0x3c8d3726	0.01723821
196	0xbcb3c062	-0.021942321
197	0x3ae8b2fc	0.0017753537
198	0xb93ecdcc	-0.00018196477
199	0xb99be033	-0.00029730945
200	0x3b734b2b	0.003712366
201	0x3c5b6284	0.013390187
202	0xbc305dd4	-0.010764558
203	0xbc668a99	-0.01407113
204	0xbcd814fe	-0.026377197
205	0x3c1d09f6	0.009584894
206	0x3c1c9615	0.009557267
207	0xbb6e4b07	-0.0036360638
208	0xba7a9f0e	-0.0009560444
209	0x3d0dcb74	0.034617856
210	0x3d368db6	0.04456874
211	0x3bd3fb27	0.0064691487
212	0xbd1ea04d	-0.038727093
213	0x3d2fc0c2	0.042908438
214	0xbacd6b8e	-0.0015672313
215	0xbd37af6b	-0.044845026
216	0x3d06b128	0.032883793
217	0x3d0bec8d	0.03416114
218	0xbbb1d7db	-0.0054273433
219	0x3d02e116	0.03195294
220	0xbdb81f28	-0.089903176
221	0x3ccca8f9	0.024982916
222	0x3cc1b734	0.023646928
223	0x3d3c8822	0.046028264
224	0x3bf5c58a	0.007500355
225	0xbc0e9b82	-0.008704068
226	0x3ccba827	0.024860455
227	0xbd82f95b	-0.06395217
228	0xbd24550f	-0.04012018
229	0x3c919921	0.017773213
230	0xbce8377b	-0.028346768
231	0xbd9d760d	-0.07688532
232	0x3d10ed61	0.035382632
233	0x3d16b541	0.03679395
234	0xbc8b1e2b	-0.016982159
235	0xbd0c249b	-0.034214597
236	0x3c700665	0.014649962
237	0x3cf6a0db	0.030105999
238	0x3d182bae	0.03715103
239	0xbce5b65c	-0.028041057
240	0xbc33b157	-0.010967574
241	0xbd19cae0	-0.037546992
242	0xbd5f6c43	-0.054546606
243	0x3ba5da4a	0.0050614225
244	0xbc8eabeb	-0.017415961
245	0x3ce93d62	0.028471652
246	0xbce94d67	-0.028479291
247	0x3d5ac6a5	0.0534121
248	0xbd074a08	-0.033029586
249	0xbd31c052	-0.0433963
250	0x3ce10a7b	0.027470818
251	0xbc39e630	-0.011346385
252	0x3d3ff08c	0.046860263
253	0xbc5ebaf1	-0.013594375
254	0x3c472a2e	0.0121560525
255	0xbdeb8c2a	-0.115013435

head.conv.bias f4 [64]
0	0xbac43b0f	-0.0014971214
1	0xbda876e5	-0.08225802
2	0x3db9c1e3	0.09070184
3	0x3dab1696	0.08353917
4	0xbda8f831	-0.08250464
5	0x3d56f041	0.052475218
6	0xbddd471a	-0.10804577
7	0xbdc63f16	-0.096800014
8	0x3cd961a7	0.026535822
9	0x3d7755ec	0.060384676
10	0xbcfd01f4	-0.03088472
11	0xbcd8c108	-0.026459232
12	0xbd1ca117	-0.038239565
13	0xbcdffe60	-0.027342975
14	0x3d523b20	0.051325917
15	0xbd6e8503	-0.05823232
16	0x3d4176b5	0.04723235
17	0xbc2b1bfb	-0.010443683
18	0xbd9538f3	-0.07286253
19	0x3cd793e2	0.026315633
20	0xbcf94f8c	-0.030433439
21	0xbdbe4aa0	-0.09291577
22	0xbde0d060	-0.109772444
23	0xbd54fb81	-0.051997665
24	0x3d88a4b4	0.0667204
25	0xbcff1f4f	-0.031142859
26	0x3d23ee23	0.040022027
27	0x3d719080	0.058975697
28	0xba9ceff0	-0.0011973362
29	0xbda201d9	-0.07910509
30	0xbbeb8c38	-0.0071883462
31	0x39923514	0.00027886836
32	0xbd5970e1	-0.053086165
33	0x3cc42f75	0.02394841
34	0xbd116c34	-0.03550358
35	0xbd965e99	-0.07342262
36	0xbd195176	-0.037431203
37	0xbd9ae075	-0.07562343
38	0xbcac437b	-0.021028271
39	0x3cefcd13	0.029272592
40	0x3c08db7d	0.008353111
41	0x3cacdc3f	0.021101115
42	0xbc6cefd2	-0.0144614745
43	0x3dad8837	0.084732465
44	0x3d32b146	0.043626092
45	0x3d73c68c	0.05951552
46	0x3d02a4da	0.031895496
47	0x3d1838ab	0.037163418
48	0xbd964d00	-0.07338905
49	0xbcea3bec	-0.028593026
50	0xbd9b94ac	-0.07596716
51	0xbc66d820	-0.014089614
52	0xbdecdc5e	-0.11565469
53	0x3df3d477	0.11905759
54	0x3d013272	0.03154225
55	0xbda594f2	-0.0808505
56	0x3db3ee74	0.08785716
57	0x3d907c20	0.07054925
58	0xbce151cb	-0.027504822
59	0xbcbe0370	-0.023194999
60	0xbd46e4f2	-0.048558183
61	0xbdf347a2	-0.11878897
62	0xbe03a795	-0.12856896
63	0x3cee2f2f	0.029075233

head.norm.weight f4 [64]
0	0x3f5a30af	0.85230535
1	0x3f655536	0.89583147
2	0x3f5f42b7	0.87211174
3	0x3f7dbb03	0.9911348
4	0x3f749ceb	0.9555194
5	0x3f887cd4	1.0663095
6	0x3f6a6316	0.91557443
7	0x3f665ae5	0.89982444
8	0x3f82ff9a	1.0234253
9	0x3f7d45a5	0.98934394
10	0x3f8673b9	1.0504066
11	0x3f64ae5c	0.8932855
12	0x3f68ef5f	0.9099025
13	0x3f4f5491	0.80988413
14	0x3f8ab014	1.0834985
15	0x3f823679	1.0172874
16	0x3f68ca5e	0.9093379
17	0x3f8154ba	1.0103981
18	0x3f93cf75	1.1547686
19	0x3f50f496	0.8162321
20	0x3f82d85b	1.0222276
21	0x3f8165b3	1.0109161
22	0x3f801949	1.0007716
23	0x3f601d25	0.8754447
24	0x3f659bc4	0.89690804
25	0x3f857008	1.0424814
26	0x3f8d58bb	1.1042703
27	0x3f81cc03	1.0140384
28	0x3f820101	1.0156556
29	0x3f76f9fb	0.9647519
30	0x3f8596d0	1.0436649
31	0x3f7dbdc8	0.9911771
32	0x3f855b69	1.0418521
33	0x3f6bd581	0.92122656
34	0x3f5e0b3c	0.8673589
35	0x3f740f6f	0.9533605
36	0x3f88c146	1.0683982
37	0x3f6ffb43	0.9374277
38	0x3f869234	1.0513368
39	0x3f843988	1.0330057
40	0x3f7cd45d	0.9876154
41	0x3f6e7c70	0.93158627
42	0x3f5b6359	0.8569847
43	0x3f8c9da5	1.0985609
44	0x3f7fa6d2	0.9986392
45	0x3f788f7e	0.9709395
46	0x3f7a5881	0.97791296
47	0x3f8358ac	1.0261436
48	0x3f699794	0.91246915
49	0x3f635fb4	0.88817906
50	0x3f5e4523	0.86824244
51	0x3f87ab58	1.0599165
52	0x3f8481d6	1.0352123
53	0x3f5fb878	0.8739085
54	0x3f845ceb	1.0340856
55	0x3f892a4b	1.0716032
56	0x3f861549	1.0475246
57	0x3f724f70	0.9465246
58	0x3f8c0ced	1.0941445
59	0x3f8563b2	1.042105
60	0x3f6bb5d5	0.9207433
61	0x3f834929	1.0256702
62	0x3f7ba868	0.9830384
63	0x3f730aba	0.9493824

head.norm.bias f4 [64]
0	0x3e7de54a	0.24794498
1	0x3e92c090	0.2866254
2	0x3f05c1d0	0.5224886
3	0x3e3f82b8	0.18702209
4	0x3cb7e6f6	0.022448998
5	0xbe5c59a3	-0.21518569
6	0x3d96b64a	0.07358988
7	0x3e854602	0.26029974
8	0x3ea39287	0.3194773
9	0x3c27cb43	0.010241332
10	0x3e9c9067	0.3057892
11	0x3e701c4b	0.23448293
12	0x3dd16e1a	0.10226078
13	0x3e5d6156	0.21619162
14	0xbe224f5f	-0.1585059
15	0x3e64e65d	0.22353502
16	0x3e1c1927	0.1524397
17	0x3eb0cf3d	0.3453311
18	0x3e868112	0.26270348
19	0x3e4358ee	0.19076893
20	0x3e7a81e2	0.24463609
21	0xbc4eb502	-0.012616398
22	0xbd35d227	-0.04438987
23	0x3e47ff69	0.19531025
24	0x3e8e19a0	0.27753925
25	0x3eb43c4c	0.35202253
26	0x3ce914c2	0.02845228
27	0xbd0c72cd	-0.03428917
28	0x3e9ab85f	0.3021879
29	0x3e233e90	0.15941834
30	0xbe3f41b1	-0.18677403
31	0xbe17dfb1	-0.14831425
32	0xbc532803	-0.0128879575
33	0x3de117a6	0.10990839
34	0x3e765e4d	0.2405941
35	0x3eb3f899	0.35150602
36	0x3e13f940	0.1445055
37	0x3da75060	0.08169627
38	0x3e24fdc3	0.16112427
39	0x3c83506a	0.016029555
40	0x3cc07459	0.023492979
41	0x3e3cfb03	0.18455128
42	0x3f1012cd	0.5627869
43	0xbe2c31c7	-0.16815864
44	0x3e715fed	0.23571749
45	0x3e13176a	0.143644
46	0xbe2b18ce	-0.16708681
47	0xbcc6ba22	-0.024258677
48	0x3e46b442	0.194047
49	0x3e98d62b	0.29850897
50	0x3da1907c	0.07888886
51	0x3c8f86e4	0.017520376
52	0xbca0bd38	-0.019621477
53	0x3e011bb2	0.12608221
54	0xbe367a9a	-0.17820206
55	0xbe35aa56	-0.17740759
56	0xbe07f6f6	-0.13277802
57	0x3eaffdcf	0.34373328
58	0x3e10d509	0.14143766
59	0x3e994589	0.29935864
60	0x3ed9af91	0.4251676
61	0xbd5c1d63	-0.053738963
62	0x3ec8d2f8	0.39223456
63	0x3f0ed9b9	0.5580097

head.norm.running_mean f4 [64]
0	0x3d23ac74	0.039959386
1	0xbddd68ba	-0.10810991
2	0x3d240f6e	0.040053777
3	0x3d0f0b49	0.03492287
4	0xbdeaa597	-0.11457365
5	0xbe395106	-0.18097314
6	0xbe1acd75	-0.15117438
7	0xbe9a30f4	-0.30115473
8	0x3d90bc59	0.070671745
9	0xbd91829a	-0.071049884
10	0x3de2e7e6	0.11079387
11	0xbe7b0d52	-0.245168
12	0xbd93b61e	-0.072124705
13	0xbe42e1dc	-0.19031471
14	0x3e00a7ce	0.12564012
15	0xbd1552f2	-0.036456056
16	0xbc7a7281	-0.015286089
17	0x3e9e7636	0.30949563
18	0xbdbeec37	-0.09322398
19	0xbcaf6659	-0.021411108
20	0x3e5a8122	0.21338323
21	0xbdb4aca8	-0.08821994
22	0xbd5ee00b	-0.054412883
23	0xbe449455	-0.19197209
24	0xbaee8878	-0.001819863
25	0x3e97f741	0.29680827
26	0x3d760878	0.06006667
27	0x3e03d36a	0.12873617
28	0xbe20275a	-0.15640011
29	0xbdd8a0c6	-0.1057754
30	0xbd5613df	-0.052265044
31	0xbdfca9e4	-0.123370916
32	0xbdc0dfff	-0.09417724
33	0x3e5a2615	0.2130359
34	0xbe6a6401	-0.22889711
35	0x3d91ef60	0.07125735
36	0x3d97e068	0.07415849
37	0xbd6de984	-0.058084026
38	0x3e47d304	0.1951409
39	0x3dc034d9	0.0938508
40	0xbe332e6b	-0.17498176
41	0xbdd3559c	-0.10319063
42	0x3df5afbe	0.11996411
43	0x3eb2e476	0.34939927
44	0x3db58a47	0.08864265
45	0xbe14eb33	-0.14542846
46	0xbe0e0c50	-0.13871884
47	0x3c2d0669	0.01056061
48	0xbd8f684f	-0.07002317
49	0xbc4fb0d1	-0.012676434
50	0xbdce56d7	-0.10075157
51	0x3d39809d	0.04528867
52	0xbdfaf13a	-0.122530416
53	0x3e28a1d1	0.16467978
54	0xbd975e16	-0.07390992
55	0xbe24b3e5	-0.1608425
56	0x3d1c3dd1	0.03814489
57	0x3edf2bbf	0.43588063
58	0xbc246afa	-0.010035271
59	0xbcf485c2	-0.029848937
60	0xbdd6e494	-0.104928166
61	0x3d98b3b7	0.07456153
62	0x3de113d0	0.10990107
63	0x3e0d37cd	0.13790818

head.norm.running_var f4 [64]
0	0x3aff1d39	0.0019463665
1	0x3b76c6cf	0.003765512
2	0x3c08e2c4	0.008354846
3	0x3bc27139	0.0059339073
4	0x3a98e9d9	0.0011666372
5	0x3c45f644	0.01208264
6	0x3b813d3f	0.0039440687
7	0x3ab07c11	0.0013464709
8	0x3b648fbc	0.0034875711
9	0x3b5903b9	0.003311379
10	0x3b88e371	0.0041775038
11	0x3ac8f470	0.0015331637
12	0x3b5aa413	0.0033361956
13	0x3b069222	0.002053388
14	0x3b15518a	0.0022784197
15	0x3b173eb3	0.0023078143
16	0x3b0eaf96	0.0021772138
17	0x3bc8781d	0.0061178342
18	0x3b37304d	0.0027952373
19	0x3b39f467	0.0028374435
20	0x3bc0f6fb	0.0058888174
21	0x3b53c5e4	0.0032313997
22	0x3aa01b13	0.00122151
23	0x3b12092e	0.0022283304
24	0x3b331a25	0.0027328816
25	0x3c86af52	0.016441021
26	0x3bf99bc5	0.007617446
27	0x3b40ea93	0.0029436692
28	0x3c8ae9d2	0.016957197
29	0x3b572b4d	0.0032832206
30	0x3c215b68	0.009848453
31	0x3b669131	0.0035181756
32	0x3b9a45f3	0.0047080456
33	0x3ae6110a	0.0017552685
34	0x3b7f643d	0.0038969659
35	0x3b1d4468	0.0023997072
36	0x3bff416a	0.0077897804
37	0x3b3e87dd	0.002907268
38	0x3bd03a75	0.006354625
39	0x3aaf3a72	0.0013368858
40	0x3b138bc2	0.0022513722
41	0x3b06419e	0.0020485888
42	0x3b772b44	0.0037714997
43	0x3b8d4fe3	0.0043125018
44	0x3b872db0	0.0041253194
45	0x3b879417	0.0041375267
46	0x3c14c0c5	0.009079163
47	0x3afba5e9	0.0019199225
48	0x3aff6cb1	0.0019487349
49	0x3b5cc353	0.0033685758
50	0x3a44999b	0.00074996956
51	0x3bc0af87	0.0058802995
52	0x3b154bc7	0.0022780763
53	0x3b16bc8c	0.0023000566
54	0x3b776dc0	0.0037754625
55	0x3b90333a	0.004400638
56	0x3b50f1d6	0.0031882427
57	0x3b99da4a	0.0046952115
58	0x3bcfeeca	0.0063456045
59	0x3ae409ea	0.0017397974
60	0x3bc49fbb	0.0060004867
61	0x3bdae5d2	0.0066802287
62	0x3b3072cd	0.0026923895
63	0x3bf64e59	0.007516664

body.block1.conv.weight f4 [64, 64, 3, 3]
0	0x3cdad688	0.026713625
1	0x3ca6f5d2	0.020380888
2	0x3d945728	0.07243186
3	0xbcedf000	-0.029045105
4	0xbd96e3e2	-0.07367684
5	0xbd5f3a98	-0.05449924
6	0xbc853027	-0.016258312
7	0x3bc3e1d6	0.0059778495
8	0xbcefcab7	-0.029271467
9	0x3d3ea4ba	0.046543814
10	0x3d4402d8	0.047854275
11	0x3d62e6d1	0.055395905
12	0x3ce3a161	0.027786912
13	0xbb8252a5	-0.003977137
14	0xbd2fe261	-0.0429405
15	0xb9d53d5b	-0.0004067224
16	0x3cf69174	0.030098654
17	0x3c993621	0.018702568
18	0x3c99dd82	0.018782381
19	0x3d7bb54e	0.061452202
20	0x3ce43d4e	0.027861264
21	0xbb6f11e2	-0.0036479165
22	0x3cbc36a7	0.022975279
23	0x3cac34d0	0.021021277
24	0xbbbff1fc	-0.005857704
25	0x3cfc6c6c	0.030813418
26	0x3cbd9dd5	0.02314655
27	0x3d0a4051	0.033752743
28	0xbc9fd4d6	-0.019510668
29	0xbc0af812	-0.008481996
30	0x3b4eaad6	0.0031534932
31	0xbd6acd58	-0.057324737
32	0xbcf793a8	-0.030221775
33	0x3da0656f	0.07831847
34	0x3d6046f2	0.05475516
35	0x3d1a7b8a	0.037715472
36	0xbc93f432	-0.018060777
37	0xbd480e71	-0.048841897
38	0xbd258b2e	-0.040415935
39	0x3c8a4a48	0.016881123
40	0x3cd0201a	0.025405932
41	0x3c9ee9a0	0.01939851
42	0xbd1bfdec	-0.038083956
43	0x3cfe9f99	0.031081961
44	0x3c36653d	0.0111325355
45	0x3b4c962f	0.0031217446
46	0x3b308a30	0.0026937835
47	0xbbe38192	-0.006942936
48	0xbcd43c44	-0.025907643
49	0x3c2bbc3d	0.010481891
50	0xbb9ad4a8	-0.0047250576
51	0x3880e2dd	6.145772e-05
52	0xbcd5c48c	-0.026094697
53	0xbc41cc07	-0.011828429
54	0x3be3102c	0.006929418
55	0x3c74a0db	0.014930929
56	0x3cbf189b	0.023327162
57	0xbcf5d348	-0.030007973
58	0xbd4559fd	-0.048181523
59	0xbdb19a3b	-0.08671995
60	0x3d1ed728	0.038779408
61	0xbc9f6cdc	-0.019461088
62	0x3b3498ea	0.0027556964
63	0xbbaa1665	-0.005190658
64	0xbc083861	-0.008314223
65	0xbcd9187f	-0.026500938
66	0x3caa37cb	0.020778557
67	0x3d4e56a2	0.05037559
68	0x3d765bc0	0.060146093
69	0x3bebef29	0.007200141
70	0x3d875ffd	0.06610105
71	0x3c7b8674	0.01535188
72	0xbdba3c49	-0.0909353
73	0xbd12ae98	-0.035811037
74	0xbdc0161c	-0.09379217
75	0xbd979bf8	-0.074027956
76	0xbd788d59	-0.060681675
77	0xbd81b831	-0.0633396
78	0xbd0c447d	-0.034245003
79	0xbd2ac7e3	-0.041694533
80	0x3b9e30fb	0.0048276163
81	0xbd74d2c6	-0.05977132
82	0xbd627132	-0.055283733
83	0xbd2dee40	-0.04246354
84	0x3bc00487	0.0058599147
85	0xb928ef02	-0.00016110766
86	0x3c6a4195	0.014297863
87	0xbca51851	-0.020153197
88	0xbc6f692c	-0.014612477
89	0x3cd4374d	0.025905276
90	0x3d9f557e	0.07779978
91	0x3cbac96f	0.02280113
92	0x3d831ced	0.064020015
93	0x3d442740	0.047888994
94	0x3dd37266	0.10324554
95	0x3c51782a	0.012784997
96	0x3d7d56fa	0.061850525
97	0x3d92b752	0.07163872
98	0x3d9fffef	0.07812487
99	0xbb84b110	-0.004049428
100	0xbd1b4e55	-0.0379165
101	0xbc28edb8	-0.010310583
102	0xbcbf88de	-0.023380693
103	0xbc09dfff	-0.008415221
104	0xbc7a292d	-0.015268606
105	0x3d057b05	0.032588024
106	0xbbc5a426	-0.006031531
107	0x3c4518c7	0.012029833
108	0x3ce170a1	0.027519526
109	0xbd3bd9c4	-0.045861974
110	0xbd7fd89f	-0.062462445
111	0x3d89c15b	0.06726333
112	0x3cd8ed0d	0.026480222
113	0x3c1ace66	0.009448623
114	0x3d5fe248	0.054659158
115	0x3d4523b5	0.048129756
116	0x3d195edc	0.03744398
117	0xbc02d53a	-0.0079854075
118	0xbb0dec62	-0.0021655788
119	0xbcc82ecc	-0.024436377
120	0xbc4c2ba1	-0.012461574
121	0xbc29ca83	-0.010363224
122	0x3c5154f8	0.012776606
123	0xbcaefbb9	-0.021360265
124	0xbc52a03a	-0.012855584
125	0xbbf8f11e	-0.007597103
126	0xbd06db87	-0.0329242
127	0xbaf6a2a9	-0.0018816787
128	0x3bc29d28	0.0059391446
129	0xbc8e2090	-0.017349511
130	0xbc274a97	-0.010210655
131	0xbd4c307a	-0.04985092
132	0xbd847438	-0.064674795
133	0xbd898d9c	-0.06716463
134	0xbd79a5cd	-0.060949136
135	0xbc3ed6b8	-0.011647873
136	0xbc9761ec	-0.01847931
137	0x3c7ace6b	0.015308003
138	0xbac703cc	-0.0015183627
139	0x3c4ba4dd	0.012429443
140	0x3cc26ff6	0.023735028
141	0x3d82a264	0.0637863
142	0x3cd67f2e	0.02618369
143	0x3d7f6c36	0.062359057
144	0x3c5b5b64	0.013388488
145	0x3cf4ee07	0.029898657
146	0xbbc35af1	-0.005961769
147	0x3cedcf1d	0.029029423
148	0x3c094798	0.008378886
149	0xbc5a7306	-0.013333088
150	0xbc7a8d55	-0.015292485
151	0xbcd9bea9	-0.026580172
152	0xbce4b81e	-0.027919825
153	0x394fab98	0.00019804982
154	0x3d24d7fa	0.040245034
155	0x3d8188ca	0.063249186
156	0x3d20a18c	0.039216563
157	0xbd0e340e	-0.034717612
158	0x3c8dfe6b	0.01733323
159	0xbcafc7ed	-0.021457637
160	0xbd1c7b81	-0.03820372
161	0x3caa58fa	0.02079438
162	0xbdf01a5a	-0.11723776
163	0xbd695383	-0.05696441
164	0xbd391890	-0.04518944
165	0xbd2e8ed1	-0.04261667
166	0xbc4c7d1c	-0.012481
167	0xbd7a10eb	-0.06105129
168	0xbd19ae7c	-0.037519917
169	0xbd07ec54	-0.033184364
170	0x3d8286ff	0.06373405
171	0xbc8bd2c9	-0.017068284
172	0xbd196cd2	-0.037457295
173	0x3b6f1c84	0.0036485502
174	0xbb1202c2	-0.0022279476
175	0xbd0232f4	-0.031786874
176	0xbd09758a	-0.03355936
177	0xbc5b5126	-0.0133860465
178	0x3c0e0755	0.00866874
179	0xbb12d068	-0.0022402052
180	0xbdc08424	-0.09400204
181	0xbd7c8baa	-0.06165663
182	0xbcbd281e	-0.023090418
183	0x3c879dbe	0.01655471
184	0x3d029c50	0.031887352
185	0x3d8324bc	0.06403491
186	0x3cfc1360	0.030770957
187	0x3cc48bf4	0.023992516
188	0x3d42cd7f	0.047559258
189	0xbc75ffd4	-0.015014607
190	0xbd274f07	-0.04084685
191	0x3c3b7eb8	0.011443786
192	0xbd7b011d	-0.06128036
193	0xbd6a5efe	-0.057219498
194	0xbd34cb38	-0.044139117
195	0xbd91bbd7	-0.07115906
196	0x3ba887d7	0.0051431465
197	0x3baf6de5	0.0053536766
198	0xbd922ed2	-0.071378365
199	0xbda7a185	-0.08185104
200	0xbd6d2171	-0.05789322
201	0xbd0c6dfc	-0.034284577
202	0xbd81b7a3	-0.06333854
203	0xbd81adad	-0.06331954
204	0xbbf09a6d	-0.0073426277
205	0xbd0c480e	-0.034248404
206	0xbd62de22	-0.055387624
207	0xba834bd5	-0.0010017107
208	0x3b2df0e3	0.0026541285
209	0x3c943af6	0.018094521
210	0xbd24641c	-0.040134534
211	0xbb2efc8a	-0.0026700818
212	0x3c0b9970	0.008520469
213	0xbd3b5ab4	-0.045740798
214	0x3ad94c33	0.0016578495
215	0xbd850322	-0.06494738
216	0x3c69c295	0.014267583
217	0xbcdb498b	-0.026768466
218	0xbcfcd62f	-0.03086385
219	0x3b4efef4	0.003158507
220	0x3d4d29eb	0.050088804
221	0xbcaadc1d	-0.020856911
222	0xbbde2d7c	-0.0067803245
223	0xbc1bf18e	-0.00951804
224	0xbd34a1de	-0.04409968
225	0x3c568bc9	0.013094851
226	0x3c3133be	0.010815559
227	0x3d9456ca	0.07243116
228	0x3d2fd646	0.042928956
229	0x3d7602b0	0.060061157
230	0x3dbe8898	0.09303397
231	0x3d8fb708	0.07017332
232	0x3d8dd902	0.069261566
233	0x3d5c93ba	0.05385182
234	0xba874ff9	-0.0010323516
235	0xbd6303ad	-0.055423427
236	0xbc85613f	-0.016281722
237	0x3bb42131	0.005497121
238	0xbbdbb79d	-0.006705238
239	0xba15923b	-0.0005705689
240	0x3cfaa701	0.030597212
241	0x3cebc905	0.028782377
242	0x3bbe7d5b	0.0058132834
243	0xbdc0244a	-0.093819216
244	0xbdb3c69c	-0.08778116
245	0xbd2be518	-0.041966528
246	0xbd3cb0bf	-0.046066996
247	0xbd18e8ac	-0.03733127
248	0x3bb4e5ed	0.0055205734
249	0x3c10fd65	0.008849476
250	0xbd433d75	-0.047666032
251	0xbcfe0233	-0.031006908
252	0xbc98a3b8	-0.018632755
253	0xbd49c6d9	-0.0492619
254	0xbd3a2abb	-0.045450907
255	0xb9a74f55	-0.0003191183

body.block1.conv.bias f4 [64]
0	0xbd55234c	-0.052035615
1	0xbd4a623e	-0.049410097
2	0x3ca65666	0.02030487
3	0x3ca02717	0.01954989
4	0x3c1a1977	0.009405485
5	0xb96aadd1	-0.0002238073
6	0x3d006b4c	0.031352326
7	0x3d40e885	0.047096748
8	0x3d3dc93a	0.046334483
9	0x3cc213fc	0.02369117
10	0xbc4dbffc	-0.01255798
11	0xbcc88e5f	-0.02448195
12	0xbccb0364	-0.02478189
13	0xbd2577ab	-0.040397327
14	0xbdd0e13a	-0.101992086
15	0xbcc93651	-0.024562033
16	0xbceb7e2c	-0.028746687
17	0x3c54d614	0.012990493
18	0xbd06cf3c	-0.032912478
19	0xbc5c12b3	-0.013432193
20	0xbd88305d	-0.066498496
21	0x3d09326a	0.033495344
22	0xbc026c84	-0.007960442
23	0xbc591c08	-0.013251312
24	0xbc9637a5	-0.01833708
25	0x3be94577	0.0071188766
26	0x3d0b510e	0.034012847
27	0x3d2d467a	0.04230354
28	0x3ccd3340	0.025048852
29	0xbd2fbe2b	-0.042905968
30	0x3d90bd1b	0.07067319
31	0x3c74d475	0.014943232
32	0x3d5c33bd	0.05376028
33	0xbba831f0	-0.005132906
34	0xbcc8ccb8	-0.02451168
35	0x3d8addfa	0.0678062
36	0x3d482936	0.048867427
37	0xbd61b510	-0.055104315
38	0x3c0252d2	0.007954316
39	0x3d496875	0.049171884
40	0x3c404a70	0.011736497
41	0xbce0b532	-0.02743015
42	0x3cfe14d3	0.03101579
43	0xbb891b4e	-0.004184163
44	0xbcb0014e	-0.021484997
45	0x3d2df0e1	0.04246605
46	0xbd243022	-0.040084966
47	0xbcd60f16	-0.02613024
48	0x3d17e9fe	0.037088387
49	0x3d971245	0.073765315
50	0x3ce24b03	0.027623659
51	0x3d0ee400	0.034885406
52	0xbaf7a952	-0.0018895066
53	0xbb9a59b6	-0.0047104014
54	0x3d10b8b6	0.035332404
55	0x3ced8036	0.0289918
56	0x3c636772	0.013879644
57	0xbcac34b6	-0.021021228
58	0x3d180aee	0.0371198
59	0xbca4b1a9	-0.020104246
60	0x3d0bbe02	0.034116752
61	0x3ca22e00	0.019797325
62	0xbcadb50d	-0.021204496
63	0xbbaf56d0	-0.005350925

body.block1.norm.weight f4 [64]
0	0x3f802fbd	1.0014569
1	0x3f916c80	1.1361237
2	0x3f5de23b	0.86673325
3	0x3f71feb8	0.94529295
4	0x3f860e7c	1.047317
5	0x3f8ad70e	1.084688
6	0x3f589198	0.8459716
7	0x3f8b24e8	1.0870638
8	0x3f778243	0.9668314
9	0x3f784f4b	0.9699599
10	0x3f77a2c8	0.9673276
11	0x3f8901d4	1.0703683
12	0x3f8346cb	1.0255979
13	0x3f7fdcd7	0.9994635
14	0x3f836d97	1.0267819
15	0x3f65fe73	0.89841384
16	0x3f1ec0ad	0.6201275
17	0x3f871f7f	1.0556487
18	0x3f7fe016	0.99951303
19	0x3f848297	1.0352353
20	0x3f83ac12	1.0286887
21	0x3f7c25d7	0.9849524
22	0x3f777497	0.96662277
23	0x3f792624	0.9732382
24	0x3f7fcfc3	0.99926394
25	0x3f5db05b	0.8659722
26	0x3f6f69de	0.93520916
27	0x3f8362e4	1.0264554
28	0x3f697ea9	0.91208893
29	0x3f754ab4	0.9581711
30	0x3f8432aa	1.0327961
31	0x3f826f6e	1.0190256
32	0x3f87d3f7	1.0611562
33	0x3f834054	1.0254006
34	0x3f6c772d	0.9236935
35	0x3f80d75f	1.0065726
36	0x3f83b848	1.0290613
37	0x3f8e4740	1.1115494
38	0x3f81583c	1.0105052
39	0x3f761725	0.96129066
40	0x3f806950	1.0032139
41	0x3f7b5165	0.98171073
42	0x3f93ff96	1.1562374
43	0x3f8e7689	1.1129924
44	0x3f6555db	0.8958413
45	0x3f7e760b	0.9939887
46	0x3f791209	0.97293144
47	0x3f94ef9c	1.1635623
48	0x3f83d214	1.0298486
49	0x3f3fbf91	0.7490168
50	0x3f79092d	0.97279626
51	0x3f83f540	1.0309219
52	0x3f80bd9e	1.0057867
53	0x3f81a228	1.0127611
54	0x3f857ca5	1.0428663
55	0x3f815286	1.0103309
56	0x3f7404e1	0.95319945
57	0x3f84953b	1.0358042
58	0x3f7ad20c	0.97976756
59	0x3f828a6d	1.0198494
60	0x3f769723	0.96324366
61	0x3f914e18	1.1351957
62	0x3f6f1289	0.9338766
63	0x3f73a7aa	0.9517771

body.block1.norm.bias f4 [64]
0	0xbd49ba17	-0.049249735
1	0x3ed86ec9	0.42272022
2	0xbea1d995	-0.31611314
3	0xbe101fc8	-0.14074624
4	0xbe6d5f89	-0.23180975
5	0xbe884b95	-0.26620165
6	0xbdb798d2	-0.08964695
7	0xbe5d6d16	-0.21623644
8	0xbe3b8a16	-0.18314394
9	0xbed1b23a	-0.4095629
10	0x3e02e645	0.12783153
11	0x3f3141df	0.69241136
12	0xbca87208	-0.020562187
13	0x3e10a69b	0.14126055
14	0x3df5ed36	0.12008135
15	0xbde046c8	-0.109510005
16	0xbf9bfaac	-1.2185874
17	0xbf2fcc45	-0.68671066
18	0xbe50ed54	-0.20403033
19	0xbe7a3552	-0.24434403
20	0xbdc55e16	-0.09637086
21	0x3e9a7303	0.30165872
22	0x3e97a304	0.2961656
23	0xbe0cd2b4	-0.13752252
24	0x3e5a6256	0.21326575
25	0xbea01a73	-0.3127018
26	0x3e2cf6c9	0.16891016
27	0x3e6059d8	0.21909273
28	0xbeda9100	-0.4268875
29	0x3f0f89f6	0.56069887
30	0x3dae4e90	0.08511078
31	0xbdc68820	-0.096939325
32	0x3e439a4a	0.19101825
33	0x3e6a1273	0.228586
34	0x3e50d238	0.20392692
35	0x3f239ed6	0.6391424
36	0x3ed3593d	0.4127902
37	0x3e1efd3b	0.15526287
38	0x3cdc4bae	0.026891556
39	0x3f1b27ee	0.606078
40	0x3e985f66	0.29760283
41	0x3e9c7747	0.3055975
42	0xbe92f4f9	-0.28702524
43	0x3ed19a90	0.40938234
44	0x3d017017	0.031601038
45	0x3e29209a	0.16516343
46	0x3dad7396	0.08469312
47	0xbd9967ac	-0.07490477
48	0xbe959d8f	-0.2922177
49	0xbf44a318	-0.7681136
50	0xbe4467c4	-0.19180208
51	0x3d1706b2	0.03687162
52	0x3d106867	0.035255816
53	0x3f085f8f	0.5327081
54	0x3ecd60cd	0.40112916
55	0x3d66f0c1	0.056381945
56	0x3ea013ec	0.312652
57	0x3e98c638	0.2983873
58	0xbf146664	-0.57968736
59	0xbadc40ad	-0.0016803943
60	0xbd9aae9d	-0.07552836
61	0x3e1010cd	0.14068909
62	0x3e852b77	0.26009724
63	0x3deb6c8b	0.11495312

body.block1.norm.running_mean f4 [64]
0	0x3f487228	0.7829919
1	0x3f5e1bb5	0.8676103
2	0x3f831767	1.0241517
3	0x3f603c01	0.8759156
4	0xc00664d8	-2.099905
5	0x3f81ef8e	1.0151231
6	0xbf4b8c7e	-0.7951125
7	0xbfd6b93e	-1.6775281
8	0x3df83546	0.12119536
9	0xbeb71139	-0.35755327
10	0xbe5ffb7e	-0.2187328
11	0x3fa140f3	1.2597946
12	0xbf8c973f	-1.0983657
13	0x3f3a021c	0.7265947
14	0xbe5a881e	-0.21340987
15	0xbd90c81a	-0.07069416
16	0xc00e3a04	-2.222291
17	0x401511fa	2.3292222
18	0xbf1df4cd	-0.6170166
19	0x3f9cc7f6	1.2248523
20	0xbf381e4f	-0.7192125
21	0x3f877bae	1.0584619
22	0x3f2f237b	0.68413514
23	0xbedae1bd	-0.4275035
24	0x3eb07a97	0.3446853
25	0xbeabee7d	-0.3358039
26	0x3d9c06b6	0.076184675
27	0xbf13223e	-0.57474124
28	0xbf4f0999	-0.8087402
29	0x3dc3d729	0.09562523
30	0xbf6607ad	-0.8985546
31	0x3d883143	0.06650021
32	0x3c76ddf7	0.015067569
33	0xbc1eb200	-0.009685993
34	0xbe8533b5	-0.26016012
35	0xbf2553f1	-0.6458121
36	0x3f29b6d0	0.66294575
37	0x3f434e7d	0.7629164
38	0x3ff9495a	1.947551
39	0x3d726f99	0.05918846
40	0x3f76af02	0.9636079
41	0xbf6ac1b9	-0.9170185
42	0xbea7c1c5	-0.32765022
43	0x3d3981c4	0.04528977
44	0xbd587e1d	-0.052854646
45	0x3f2fa3b7	0.68609184
46	0xbe24131d	-0.16022916
47	0x3fc5abf3	1.54431
48	0xbf7184ef	-0.94343466
49	0xbfd139a3	-1.6345714
50	0xbf113863	-0.56726664
51	0xbe1bc2bc	-0.15211004
52	0xbef540be	-0.47900957
53	0xbeeacc11	-0.45858815
54	0x3fa11bd8	1.2586622
55	0x3fe36279	1.7764426
56	0x3f235fe3	0.63818187
57	0x3f5bd8c9	0.8587766
58	0xbfbf42d8	-1.4942274
59	0x3cfbcb81	0.030736687
60	0x3dc9a2ed	0.09845529
61	0x3ec6e271	0.38844636
62	0x3f28ac53	0.65887946
63	0xbf159ddd	-0.58444005

body.block1.norm.running_var f4 [64]
0	0x3ea1c8b3	0.31598434
1	0x3ee267ec	0.4421991
2	0x3ea09a9a	0.31367952
3	0x3ec50d84	0.38486874
4	0x3ebbe8a8	0.3670094
5	0x3ea4b426	0.32168692
6	0x3e838c6c	0.2569307
7	0x3efc4510	0.4927144
8	0x3eba487a	0.3638342
9	0x3e90f0b8	0.28308654
10	0x3ee1849c	0.44046485
11	0x3ed8f7db	0.423766
12	0x3e8277a1	0.25481895
13	0x3e647363	0.22309642
14	0x3ea15718	0.3151176
15	0x3efccc07	0.4937441
16	0x3e986c89	0.29770306
17	0x3e891eaa	0.26781207
18	0x3eb01da7	0.34397623
19	0x3e3127a5	0.1730028
20	0x3fcdcbbe	1.6077802
21	0x3f6bc0d5	0.92091113
22	0x3f2b9408	0.6702275
23	0x3f0d9323	0.5530264
24	0x3ee5604f	0.4480004
25	0x3f224d9d	0.6339968
26	0x3f47ee5f	0.780981
27	0x3f0916b7	0.53550285
28	0x3e9a636d	0.3015398
29	0x3e1d802e	0.15380928
30	0x3e28627a	0.16443816
31	0x3ed9e336	0.4255616
32	0x3e22db1f	0.159039
33	0x3eaf5411	0.34243825
34	0x3ed8a7a2	0.42315394
35	0x3f5621da	0.83645403
36	0x3f235835	0.6380647
37	0x3e972291	0.2951856
38	0x3f04a041	0.5180703
39	0x3e7e7f95	0.24853356
40	0x3f6055c4	0.8763087
41	0x3e5a4aea	0.2131764
42	0x3f8000c2	1.0000231
43	0x3f9f37d0	1.2438908
44	0x3f53d25e	0.8274287
45	0x3e5e9f7b	0.21740524
46	0x3eb6f55a	0.35734063
47	0x3e568e6a	0.20952764
48	0x3f95fc1e	1.1717565
49	0x3e93cb19	0.2886589
50	0x3f698d2f	0.91231054
51	0x3e8f6fb3	0.28014907
52	0x3ebcff67	0.36913607
53	0x3ea23611	0.31681874
54	0x3f95cdf5	1.1703478
55	0x3e9570d2	0.29187638
56	0x3e240d55	0.16020711
57	0x3f80acbd	1.0052716
58	0x3e863903	0.2621537
59	0x3ef2735b	0.47353634
60	0x3fcb7eee	1.5898111
61	0x3f06aaa0	0.52604103
62	0x3f487038	0.7829623
63	0x3de3a91b	0.11116239

tail.weight f4 [1, 64, 3, 3]
0	0xbd11e43b	-0.03561805
1	0xbcc9e9e8	-0.024647668
2	0xbd3f4012	-0.04669196
3	0xbd27c755	-0.040961582
4	0xbd5eed48	-0.054425508
5	0xbca0371c	-0.019557528
6	0x3d70cd46	0.058789514
7	0x3c9e4739	0.019321071
8	0x3ce49a25	0.027905533
9	0xbdfed8f3	-0.124437235
10	0xbdf3325d	-0.118748404
11	0xbe2bdf04	-0.16784292
12	0x3d90d066	0.07070999
13	0x3db83d1c	0.08996031
14	0x3da84c6b	0.082177006
15	0x3d2ce445	0.042209882
16	0x3c99b631	0.018763633
17	0x3d39982a	0.04531113
18	0x3d599943	0.053124677
19	0x3a9b7cc8	0.0011862749
20	0x3caa3817	0.020778699
21	0x3cb8ac1e	0.02254301
22	0xbc0e0de1	-0.008670301
23	0xbc3502fd	-0.011048076
24	0xbd45b53c	-0.04826854
25	0xbc8f9d60	-0.017531097
26	0xbc8e964d	-0.017405653
27	0x3c3cd715	0.011525889
28	0xbc33b24e	-0.010967804
29	0xbc3afd12	-0.011412876
30	0x3c620544	0.013795201
31	0xbc67ce85	-0.014148359
32	0x3d1a1eb3	0.037626933
33	0xbd44e96c	-0.04807417
34	0xbc98a7ae	-0.018634643
35	0xbccb2dcb	-0.02480211
36	0x3c9a866f	0.018862931
37	0xbd02f5cd	-0.031972695
38	0x3c6fde8a	0.01464046
39	0xbd28d817	-0.041221704
40	0xbd95b0d2	-0.073091164
41	0x3c1eae95	0.009685178
42	0x3d7bc535	0.06146737
43	0x3d8d950a	0.069131926
44	0x3d4da481	0.05020571
45	0x3d9bebad	0.07613311
46	0x3d1ba539	0.037999365
47	0x3d9848ca	0.074357584
48	0x3d949a9a	0.072560504
49	0x3d166bfa	0.03672407
50	0x3dcd2672	0.100170985
51	0xbe3f6e12	-0.18694332
52	0xbdee2658	-0.11628407
53	0xbd976688	-0.07392603
54	0x3c335784	0.010946158
55	0xbc39f556	-0.011349997
56	0x3cc71f32	0.024306867
57	0xbb0d62cc	-0.002157378
58	0xb87e4ecd	-6.0631708e-05
59	0xbc0a33c2	-0.008435192
60	0xbc49e9ac	-0.012323778
61	0x3b8d5b28	0.004313845
62	0xbc6f9f4b	-0.014625381
63	0x3dc531e7	0.09628659
64	0x3d8aed1b	0.067835055
65	0x3c7943b2	0.015213894
66	0xbca0ffb9	-0.019653188
67	0xbd2dbeba	-0.04241822
68	0xbda6ff4c	-0.08154163
69	0x3d1b0842	0.037849672
70	0x3ad2c22f	0.00160796
71	0xbd61a7bc	-0.055091605
72	0xbc4f6345	-0.012657945
73	0xbbf0f795	-0.007353733
74	0xbc1982a8	-0.00936953
75	0x3d6e68a7	0.058205273
76	0x3cb3cd25	0.021948406
77	0x3d6551e3	0.055986296
78	0xbdb54318	-0.08850688
79	0xbd2a92d4	-0.041643932
80	0x3a63cbaa	0.0008689711
81	0xbc735b29	-0.014853277
82	0x3c780640	0.015138209
83	0x3d89d705	0.06730465
84	0x3dc335c7	0.095317416
85	0x3d075c64	0.033047095
86	0x3d6bcaaf	0.05756634
87	0xbbf843f8	-0.007576462
88	0xbd51c5f6	-0.05121418
89	0xbc9762b4	-0.018479683
90	0x3c78fff2	0.015197741
91	0x3c3adcd2	0.011405187
92	0xbc7bdbf1	-0.015372262
93	0x3d4e4e76	0.050367795
94	0x3d3bde17	0.0458661
95	0x3c2aef3b	0.010433014
96	0xbd9e5611	-0.077312596
97	0xbd4e4f83	-0.050368797
98	0xbd307618	-0.043081373
99	0x3d86cdbb	0.06582209
100	0x3dd860a9	0.105653115
101	0x3dbeda4c	0.093189806
102	0x3d48a06b	0.04898111
103	0x3d2916ca	0.0412815
104	0x3d3f0ada	0.04664121
105	0xbdfc3956	-0.123156235
106	0xbe422c3f	-0.18962191
107	0xbdc01894	-0.09379688
108	0x3d0bd14e	0.034135155
109	0x3d8c84b1	0.068612464
110	0x3d6de018	0.05807504
111	0xbc09536d	-0.008381707
112	0x3cc65272	0.024209235
113	0xbc97b82d	-0.018520439
114	0xbd00de93	-0.031462263
115	0xbcd5b99a	-0.026089478
116	0xbc84ce82	-0.016211752
117	0xbc571326	-0.013127124
118	0xbc1edec8	-0.00969667
119	0xbcb50403	-0.02209664
120	0xbd0d7bd5	-0.034541924
121	0xbc899907	-0.016796602
122	0xbcb72b23	-0.022359436
123	0x3d7ddab0	0.061976135
124	0x3cb36eb4	0.021903373
125	0x3cc37a61	0.023862066
126	0xbbb38487	-0.005478445
127	0x3c876e7c	0.016532175
128	0x3bccd8f4	0.0062514488
129	0xbbedc24f	-0.0072558294
130	0xbd98e1b2	-0.07464923
131	0xbd407eb8	-0.04699585
132	0x3c48015f	0.012207358
133	0x3d75bb4a	0.059993066
134	0x3d038303	0.032107364
135	0xbc9f1a85	-0.019421825
136	0xbcda9208	-0.026680961
137	0x3c4bbf14	0.012435693
138	0x3cba6c57	0.022756739
139	0x3c5ae7d4	0.013360936
140	0x3cbb7d60	0.022886932
141	0xbb8d905c	-0.0043201875
142	0xbc670a14	-0.014101524
143	0xbd3e6390	-0.04648167
144	0xbdde28f0	-0.10847652
145	0xbe01121f	-0.12604569
146	0xbdcda34b	-0.10040911
147	0x3d8620c5	0.06549219
148	0x3da1b77a	0.078963235
149	0x3d99cb21	0.07509447
150	0x3cd0ff66	0.025512408
151	0x3d74951c	0.059712514
152	0x3dca6699	0.0988285
153	0x3d158c2f	0.036510643
154	0xbb9a70e9	-0.004713167
155	0x3b25d66e	0.0025304812
156	0x3d8247cb	0.0636135
157	0x3da3d48e	0.07999526
158	0x3d9e6dfc	0.077358216
159	0xbd9dfaf1	-0.07713879
160	0xbdb67c17	-0.08910387
161	0xbda7ec22	-0.08199336
162	0xbcac272e	-0.021014776
163	0xbd06383d	-0.032768477
164	0xbd84d095	-0.06485096
165	0x3d0ba69b	0.034094434
166	0x3cc5485d	0.024082357
167	0x3cc799d1	0.024365338
168	0x3cfa4749	0.03055157
169	0xbc592f87	-0.01325596
170	0xbbcccd3f	-0.006250053
171	0xbd82b110	-0.06381428
172	0xbd1f0883	-0.038826477
173	0xbd0af4f8	-0.033925027
174	0x3d7d15ff	0.061788555
175	0x3d67a317	0.05655202
176	0x3d2e23e1	0.042514686
177	0xbc4b65d0	-0.012414411
178	0x3cd61fc5	0.026138196
179	0xbccbe303	-0.024888521
180	0xbd49f188	-0.049302608
181	0xbcd649fd	-0.026158327
182	0xbc8d1cbf	-0.017225621
183	0xbd0d3da7	-0.034482624
184	0xbd36d0ae	-0.044632606
185	0xbc945343	-0.018106109
186	0x3d55f417	0.052234735
187	0x3d1dc712	0.038519926
188	0x3cac1cd7	0.021009846
189	0x3d6ede82	0.05831767
190	0x3d156bae	0.036479644
191	0xbd096ad0	-0.03354913
192	0x3cad9ff9	0.021194445
193	0x3c92cad4	0.017918982
194	0x3d0881f5	0.03332706
195	0x3ba1c2cd	0.004936552
196	0x3c45e7e9	0.0120792175
197	0x3d0924ff	0.033482548
198	0x3c762354	0.015023071
199	0x3c50417f	0.012710928
200	0xbd2569dd	-0.040384162
201	0x3ba8c851	0.0051508327
202	0x3c635b2d	0.0138767185
203	0x3d1bc0cf	0.038025673
204	0x3d15d0b3	0.036575984
205	0xbc68a730	-0.014200017
206	0x3d86241a	0.065498546
207	0xb914bb01	-0.00014184044
208	0xbd067e15	-0.032835085
209	0xbd5452a5	-0.05183663
210	0x3cca9363	0.024728483
211	0x3d3b3fc3	0.045715105
212	0x3c044aac	0.008074444
213	0x3ca7cd07	0.020483507
214	0x3b7e0974	0.0038762959
215	0xbd4dda0d	-0.050256778
216	0xbd84dacb	-0.06487044
217	0xbc2dbbb6	-0.010603836
218	0xbce5df51	-0.028060587
219	0xbd1c31d9	-0.038133476
220	0xbd6934cb	-0.056935113
221	0xbd8a5f9a	-0.06756516
222	0x3d83812d	0.06421123
223	0x3da7a7c7	0.08186298
224	0x3dbf6dbb	0.09347101
225	0xbd2b4563	-0.04181422
226	0xbd38f805	-0.045158405
227	0xbc322ca4	-0.010874901
228	0xbb0dd78b	-0.0021643366
229	0x3cace8d7	0.02110712
230	0xbc3249c9	-0.01088185
231	0x3c699dac	0.014258783
232	0x3c8144c6	0.015779864
233	0x3caf4437	0.021394832
234	0xbc624f4e	-0.013812853
235	0xbd53821e	-0.05163776
236	0xbde46f9b	-0.111540996
237	0xbbafa62a	-0.0053603845
238	0x3c5c9f28	0.01346568
239	0x3cf52fe2	0.029930059
240	0x3b0946b6	0.0020946688
241	0xba578b55	-0.0008222361
242	0x3cb31753	0.021861708
243	0x3ad49396	0.00162183
244	0x3d0e73db	0.034778457
245	0x3d3a471c	0.04547797
246	0xbd80e52d	-0.06293712
247	0xbd4ea1e2	-0.050447352
248	0xbd4c8e05	-0.049940128
249	0x3ce73703	0.028224474
250	0x3d0817ae	0.033225708
251	0x3d27a29c	0.04092656
252	0xbd81a67a	-0.06330581
253	0xbcd5e31d	-0.026109273
254	0xbcc50992	-0.024052415
255	0xbcc14659	-0.023593115
