3layer_5000its/files/3/G.pth (torch, 210037 bytes, 14 tensors)

head.conv.weight f4 [64, 12, 3, 3]
000000 bc b3 f6 3d 12 b1 b7 3d 26 77 a4 3d a5 c3 0f 3e
       0.12046 0.0896932 0.08030538 0.14039476
000010 67 69 de 3d cc b5 fb 3d 47 6e ea 3d 7c a6 04 3e
       0.10859948 0.122905344 0.11446815 0.12954134
000020 ab 4a e0 3d 50 54 e8 3c a7 d2 40 bd 47 e4 ec bc
       0.10951742 0.028360516 -0.047075894 -0.028917445
000030 8c ae b4 bc c6 de 54 bc cc 09 69 bb 7a fc 8d ba
       -0.022055887 -0.012992566 -0.0035558818 -0.001083269
000040 3d 1c 5e bc c1 ad a5 3a e0 6a 35 bd 5d fc 09 bd
       -0.013556537 0.0012640284 -0.044291377 -0.033687938
000050 cf ec 1a bd 54 47 4f bc de 67 01 bd 93 6d 39 bc
       -0.037823495 -0.012651283 -0.031593196 -0.011317628
000060 0d 1e a8 3c 79 a4 06 3c 77 b4 c0 3c e8 80 ff bc
       0.020522142 0.008217924 0.023523552 -0.031189397
000070 c0 f2 9d bb 29 db a7 bc ae cb 62 3b 75 3d c4 bc
       -0.004820198 -0.020490246 0.0034606266 -0.023955086
000080 48 90 d8 bc 03 25 a3 3c 26 f1 20 3c 5e bd 9e 3c
       -0.026435986 0.01991511 0.009823119 0.019377407
000090 3d bf a6 bc f5 cd b8 3c 5d 32 5d bc 4a d3 b3 bc
       -0.020354861 0.022559145 -0.013500777 -0.021951336
0000a0 87 7c 10 bd f8 42 af bc 88 2d ee 3c 9a 4d 7f bc
       -0.03527501 -0.021394238 0.029074445 -0.0155824665
0000b0 5a d3 0c 3d 9c 84 8e 3c 55 38 92 3b c2 74 02 3d
       0.034381248 0.017397217 0.0044622817 0.03184963
0000c0 0c c3 7d 3b d7 49 bc bc 5f 6b 5c 3d a1 2e ce 3c
       0.0038720993 -0.022984428 0.053813335 0.025168719
0000d0 84 5f 1d 3d 59 f3 34 3d c0 0a d5 3b 26 ad 2d 3c
       0.03842117 0.044177387 0.0065015256 0.010600364
0000e0 b8 09 82 b6 2d a0 cf 3c f9 9c fb 3c 4e 20 cf bc
       -3.8754333e-06 0.025344932 0.030714499 -0.025283959
0000f0 74 0f 19 3c 7b a3 8b 3d 4e df ad 3c 05 cb 8c bd
       0.009342063 0.06818291 0.021224644 -0.068746604
000100 64 3b 2f bd 33 87 35 bd 01 72 ae bc 00 52 8a bd
       -0.04278125 -0.04431839 -0.021294596 -0.067539215
000110 c6 4d 25 bd 73 ab 81 3d 07 55 de 3c 81 e9 1e 3d
       -0.040357374 0.063315295 0.027140154 0.038796905
000120 0f d9 c1 3b 2c e8 e1 bb aa 96 ab 3c d0 90 f9 bb
       0.005915768 -0.006894132 0.020945866 -0.00761614
000130 85 e6 1f 3c 2f 4f 82 3c 65 52 da 3c cd 94 4f bc
       0.00975955 0.015906898 0.026650617 -0.012669754
000140 bf 76 5d 3c be 30 70 3b 13 cb 92 3d ef 94 44 bc
       0.013517081 0.0036650146 0.071676396 -0.011998399
000150 8d 9a 33 bd 3c 69 cd 3b 61 cb 33 bd 7e 92 d9 3c
       -0.043848563 0.0062686484 -0.04389513 0.02655911
000160 09 fe 8e bc 73 9e ec 3b eb 0e 5d bc ee 5f 51 3c
       -0.017455118 0.007221037 -0.013492326 0.012779219
000170 61 f5 a2 bb e3 01 b6 3c e1 ca fa 3b 35 65 ef 3c
       -0.004973099 0.022217697 0.0076535796 0.029223064
000180 20 f1 5f 3d 79 9f 1c 3d 78 e5 1f 3d ad 3a d2 bc
       0.054673314 0.038238022 0.039037198 -0.025662744
000190 5a 6a 20 bd e4 40 91 bc 55 91 83 bd f5 d9 98 bc
       -0.039163925 -0.017731138 -0.06424204 -0.018658618
0001a0 b0 2e d9 bc bc 0f a4 bc d2 60 83 3a 8a f7 a1 bc
       -0.02651152 -0.020027034 0.0010023362 -0.019771356
0001b0 5d 8c f6 bc 67 c2 4a bc 3e 15 14 3d 45 b5 4e 3d
       -0.030096227 -0.012375451 0.03615307 0.05046584
0001c0 2b 39 24 bd a4 ce c4 bc d3 c1 78 3d 87 5f 34 3c
       -0.040093582 -0.024024315 0.06073172 0.011009104
0001d0 66 0d 3f bd cd d1 41 bd 8a a4 5b bc fc ff 5c 3c
       -0.046643637 -0.047319222 -0.013405928 0.013488766
0001e0 fa c4 32 bd 95 74 0a 3d a3 d3 26 3c 87 81 48 3c
       -0.043644883 0.033802588 0.010182294 0.012237913
0001f0 79 71 dc bb 8d 46 c7 bc 65 8e 90 3d 8f 2c 24 3d
       -0.006727394 -0.024325633 0.070584096 0.040081557
000200 1e 47 97 bc fa 98 06 bd 7f ec ac 3a ba 47 6d 3b
       -0.018466529 -0.032860734 0.001319304 0.0036206082
000210 af 00 ae bd a0 ed a0 bc 28 77 f2 bb 62 76 be bd
       -0.08496224 -0.019644558 -0.0073994584 -0.092999235
000220 bd bb d7 bd 73 9b a7 bd b8 ff 29 3c 67 ba 17 3d
       -0.10533855 -0.081839465 0.0103759095 0.037043
000230 25 5b 03 3d d3 e6 2f bc f4 13 be 3c 18 8a 27 bd
       0.032069344 -0.010736185 0.023202874 -0.04090318
000240 c3 14 28 bd 3c df 00 bd c3 38 09 3c f4 ac 5f 3c
       -0.041035425 -0.031462893 0.008375349 0.013652075
000250 9d 5b 2f 3c d9 e1 b0 bc 4a dc fa 3c b1 39 5e 3b
       0.010702995 -0.021592068 0.03062262 0.0033908898
000260 68 87 bb bd 31 cd b2 bc d7 86 72 bd 56 e2 b2 bc
       -0.09156686 -0.021826359 -0.059210625 -0.021836441
000270 b7 9b 23 3d bd 82 09 3c 4c 4e 78 3c d6 5c 38 bc
       0.039943423 0.008392987 0.015155386 -0.011252603
000280 b6 18 78 bc 5f 59 5a ba 90 e5 24 3d b3 00 00 bd
       -0.01514261 -0.00083293574 0.04025799 -0.031250667
000290 e4 51 83 bb e6 2e c0 bc c1 c7 92 bc ae 99 26 3d
       -0.004007565 -0.023459863 -0.017917516 0.040673904
0002a0 0d 14 97 bd a4 68 f3 bc 07 4b 61 bd e3 68 02 be
       -0.07376871 -0.029712982 -0.055003192 -0.12735324
0002b0 3a b7 94 bd 93 0f 11 bd 97 02 1d 3d a0 13 29 3d
       -0.0726151 -0.035415243 0.038332548 0.04127848
0002c0 b4 00 71 bc 9a b7 be bb 82 e7 a3 b8 3e 3d 7f bd
       -0.01470964 -0.005820227 -7.8155674e-05 -0.062314264
0002d0 22 7c 50 bc 3c c6 1c bd ec f5 19 bc b8 7b 2d bd
       -0.012724908 -0.03827499 -0.009397011 -0.042354316
0002e0 ec 32 31 3c 4a ce 56 bc ed c3 3f bd a4 bc ba bb
       0.010815363 -0.013110707 -0.04681771 -0.0056987572
0002f0 34 d6 97 3c 3c c9 ad 3c e5 f5 41 bd 1e 22 e1 bc
       0.018534757 0.02121412 -0.047353644 -0.027482089
000300 9a 9f ec 3d 93 f6 a0 bd 88 a8 91 3d 70 50 ea 3c
       0.11553879 -0.0785953 0.07112223 0.028602809
000310 69 f4 ea bd de 12 f3 3c 55 15 08 bd 9e 2e 47 bd
       -0.11472399 0.029672083 -0.03322347 -0.048628442
000320 ac f0 12 3c 04 47 53 3c 65 d0 2b 3b 5e 8d 93 3d
       0.008968513 0.012895349 0.0026216742 0.07204698
000330 54 52 81 3d ee 2e fe 3c 99 2b f2 bb b8 05 56 bd
       0.06314531 0.031028237 -0.007390451 -0.052251548
000340 4c 05 da 3b 44 55 38 3c c4 60 29 3d 53 21 27 bd
       0.0066534635 0.011250798 0.04135205 -0.040803265
000350 ec eb 20 bd 32 8b c6 bc 55 e9 11 bd e3 23 a3 bb
       -0.039287493 -0.024236295 -0.035622913 -0.0049786433
000360 bf 46 0f 3b 1c 8f 0e 3d 8a f9 47 3c fa 3f 5b 3d
       0.0021862236 0.03480445 0.012205491 0.05352781
000370 f9 84 06 bd 6d dd e0 bc 1a 73 88 bc ce 4d 8b bc
       -0.032841656 -0.027449334 -0.016656447 -0.017004874
000380 85 2f d4 bc 8d fd c7 b9 a9 d9 79 bc 4b 7e 1f bd
       -0.025901565 -0.00038145148 -0.015249648 -0.0389388
000390 3c d8 09 bd 2d e0 6b bd 30 0b a3 3c 6d e1 28 bd
       -0.033653483 -0.057586838 0.019902796 -0.041230608
0003a0 49 b1 8f 3c b7 ee 5a bc 2c 69 f6 3c 0f dc 82 3d
       0.01754059 -0.013362578 0.030079447 0.06389629
0003b0 9b 84 1d 3d 9c 1b 11 3d 19 16 e0 bc 97 3d 2f bd
       0.03845654 0.03542672 -0.027354287 -0.042783346
0003c0 2d 62 96 bb 28 d7 61 bd 8c 5a 9f bc f1 af bc bc
       -0.00458934 -0.05513683 -0.019452356 -0.023033114
0003d0 14 1a b5 bd 8b 61 31 bd 35 b6 6a bd ec f0 0b bd
       -0.08842865 -0.043305915 -0.057302672 -0.034165308
0003e0 d2 68 e7 bb be 12 4c bd ec 49 c3 3b da 02 96 bc
       -0.007062056 -0.04982256 0.00595974 -0.018311907
0003f0 5d 42 85 bc 0f e1 61 bd 39 c5 5d bd b3 e1 aa bc
       -0.016266996 -0.055146273 -0.054143164 -0.020859575

head.conv.bias f4 [64]
000000 eb 7d 6d 3c 8a 99 39 bd 72 a2 42 bd 2e 57 53 bd
       0.014495353 -0.045312442 -0.0475182 -0.051596813
000010 ab c8 cc bc ea de 0f 3d 4b a4 13 3d 11 78 bf 3d
       -0.02499803 0.035124697 0.036045354 0.09349073
000020 79 b0 52 bc d6 00 ee ba 28 1f bc bc 9b 11 9a 3c
       -0.012859457 -0.0018158208 -0.022964075 0.018807223
000030 5d 15 49 3d 37 a3 d9 bc 98 27 1c 3d c3 f0 2c 3d
       0.04909264 -0.026567085 0.038123697 0.042221796
000040 b5 09 0b 3e 9c 21 45 bd 4a c0 4c bd 7a 7f 0f 3a
       0.13577922 -0.048127756 -0.04998807 0.00054740126
000050 34 f0 6b bd 90 25 81 bc 0e db aa bd 33 51 a5 3c
       -0.057602122 -0.015764982 -0.083425626 0.02018032
000060 f2 2b cf bd e9 b3 43 ba 73 d4 ca bc cc d6 80 3c
       -0.10115804 -0.00074654684 -0.024759507 0.015727423
000070 dc 33 08 3e 37 87 0f 3d c6 50 20 3b 47 63 af bc
       0.13301033 0.03504106 0.0024462207 -0.021409644
000080 cb 48 cd bd 5b 46 b0 bd 72 b6 af 3d f5 cb a1 3d
       -0.1002365 -0.08607169 0.085797206 0.0790023
000090 25 16 ff 39 70 70 74 bc ad b9 07 3b 28 f9 94 bd
       0.0004865389 -0.014919385 0.0020710037 -0.07274085
0000a0 19 57 61 3d b4 32 d4 3d 06 e1 90 bd 90 77 cf 3d
       0.055014703 0.10361233 -0.0707417 0.101302266
0000b0 00 0f 0a bd 02 72 a8 3d c2 e6 53 bd 10 ed 02 3b
       -0.03370571 0.0822487 -0.05173374 0.0019977726
0000c0 c2 f5 de 3c 91 ad ed bc 30 b9 3f 3d bc 51 25 bd
       0.027216796 -0.029013427 0.046807468 -0.04036115
0000d0 f1 e6 76 bd a9 8e 15 bd 8f e4 bf bd 71 8f 46 bd
       -0.060278837 -0.036513004 -0.09369766 -0.04847664
0000e0 5b f9 d4 3b 93 61 21 3d 4d 25 88 3d 52 72 61 bd
       0.006499452 0.039399695 0.066477396 -0.055040665
0000f0 a7 39 9f bd 6a 0d 90 bd a1 45 74 3d 79 d1 9c bd
       -0.07774668 -0.070338085 0.059636716 -0.07657141

head.norm.weight f4 [64]
000000 c5 9c 77 3f d8 d8 72 3f 77 a3 7e 3f df 62 71 3f
       0.96723586 0.9486213 0.9946818 0.9429149
000010 51 a2 84 3f 58 8d 61 3f fd d9 70 3f ca 23 81 3f
       1.0362035 0.881063 0.94082624 1.0089047
000020 ef 12 66 3f d2 30 84 3f 76 cd 68 3f 38 7d 7b 3f
       0.8987264 1.0327399 0.9093851 0.98237944
000030 68 84 5e 3f 9b 9e 7d 3f 32 39 67 3f f6 8c 92 3f
       0.86920786 0.9907014 0.9032165 1.1449268
000040 0c fd 80 3f ae 22 71 3f 33 55 58 3f 94 3d 5d 3f
       1.0077224 0.9419354 0.84505004 0.86422086
000050 ba f2 69 3f a3 bd 67 3f d5 3e 56 3f 37 7e 71 3f
       0.91385996 0.9052374 0.83689624 0.94333214
000060 cf 45 65 3f b1 ae 81 3f 7b bc 7e 3f 46 40 75 3f
       0.89559644 1.0131437 0.9950635 0.958012
000070 55 98 77 3f 1b 71 80 3f 34 d3 82 3f 6b d3 62 3f
       0.96716815 1.0034517 1.0220704 0.8860385
000080 04 cd 74 3f e9 f8 75 3f ca af 82 3f de f6 58 3f
       0.9562533 0.9608293 1.0209897 0.8475169
000090 f3 40 78 3f c2 3d 8a 3f f4 8d 81 3f 76 f1 80 3f
       0.96974105 1.0800097 1.0121446 1.0073688
0000a0 fb ff 72 3f 0f 38 69 3f e1 ce 89 3f 62 ef 7e 3f
       0.94921845 0.91101164 1.076626 0.9958402
0000b0 79 99 88 3f 4c 53 6c 3f 20 6a 7b 3f 2c 8f 69 3f
       1.0671836 0.923146 0.9820881 0.9123409
0000c0 28 0c 80 3f 5c 20 7d 3f b9 91 73 3f da 69 82 3f
       1.000371 0.988775 0.9514423 1.0188553
0000d0 cb 48 74 3f 51 7c 5b 3f d9 66 8c 3f 31 f6 81 3f
       0.95423573 0.85736567 1.0968887 1.0153257
0000e0 db f0 74 3f e7 66 6b 3f 8c 7b 61 3f 43 af 8f 3f
       0.95680016 0.9195389 0.8807914 1.1225361
0000f0 b3 f2 76 3f 18 3d 81 3f 6a 54 70 3f a3 39 7d 3f
       0.9646408 1.0096769 0.93878806 0.9891607

head.norm.bias f4 [64]
000000 6d 51 7f be 59 34 50 be 54 9b 7f be ea de a0 be
       -0.24933405 -0.20332469 -0.24961597 -0.3142007
000010 10 3d f6 be c4 71 06 be 0b 8e 10 bd 6a d0 6c be
       -0.48093462 -0.13129336 -0.035291713 -0.23126379
000020 1d da 9d be b0 22 07 bf 42 8a d0 bd 18 96 a8 be
       -0.3083047 -0.52787304 -0.101826206 -0.32927012
000030 46 a7 ae be 96 85 be bc 9d f6 8c be 89 5f a5 be
       -0.34111995 -0.023257058 -0.275319 -0.3229945
000040 65 c6 55 bd 2a d3 cb be 5f 9b cc be 93 d6 a5 be
       -0.052191157 -0.39809543 -0.3996229 -0.3239027
000050 21 51 f4 bd e2 cb 87 be 21 7d e3 be 04 a5 5a be
       -0.119295366 -0.26522738 -0.44431403 -0.21352011
000060 ff 2f 1e be e8 28 d7 be 78 a5 2c be e7 9c 74 3e
       -0.15447997 -0.42023396 -0.16859996 0.23887978
000070 e2 35 8d be 78 5c 95 bd d4 57 aa bb b5 b9 78 be
       -0.27580172 -0.07293028 -0.005198458 -0.24289592
000080 4e a9 df be a8 b3 4d be a4 b3 70 be c5 3a 3f be
       -0.43683857 -0.20088065 -0.23506027 -0.18674763
000090 42 78 92 bd d3 60 31 3b 09 bd 92 be 3a 0f 6f be
       -0.071518436 0.0027065768 -0.28659847 -0.23345652
0000a0 50 7b 0f bf 72 07 af be 1c 05 32 be aa 19 00 bc
       -0.56047535 -0.34185368 -0.17384762 -0.007818619
0000b0 8f 7a 83 bd e3 e7 b9 be be d3 b6 bd 6c e0 5b be
       -0.064198606 -0.36309728 -0.08927105 -0.21472329
0000c0 0a f4 bf be 29 d6 f2 bd ce 9e 62 be 0c f3 3e be
       -0.37490875 -0.11857254 -0.22130892 -0.18647403
0000d0 1f d4 32 bd d6 ab 6a be fe 25 ba be d5 73 19 bf
       -0.043659326 -0.22917113 -0.3635711 -0.5994237
0000e0 10 cd 05 be 4c 22 db bd f9 66 99 be 7f 6f d2 be
       -0.13066506 -0.10699901 -0.29961374 -0.4110069
0000f0 93 a3 13 be c6 d4 86 3c 81 1e 80 bd 8f 0c 15 bd
       -0.14417867 0.01645888 -0.06255818 -0.03638893

head.norm.running_mean f4 [64]
000000 22 55 16 3d 6e dc 6b be 6a 47 0a be fd 40 37 be
       0.036702283 -0.23033306 -0.13503805 -0.17895885
000010 6e 5f 57 bd c7 72 85 be cb 72 57 3e 9f 48 08 3d
       -0.052581243 -0.2606413 0.21039884 0.033272382
000020 42 0e ac bd 25 cf fb bc 60 89 86 be d9 bf ad 3a
       -0.08401157 -0.030738423 -0.26276684 0.0013256028
000030 2b 20 6a ba a8 84 f4 3d 9f e2 7e 3a 09 f8 88 bd
       -0.0008931185 0.11939365 0.00097231 -0.06687934
000040 37 cf 36 3e 01 5d ab bd 87 67 fc bd dd 69 6a bc
       0.17852484 -0.083673485 -0.12324434 -0.014307466
000050 88 c0 85 be 49 5f 05 3e cf 12 1e bd d9 ea f0 3c
       -0.26123452 0.1302463 -0.038592156 0.02940886
000060 ac dd 68 be 93 1c 92 bd af d6 d6 bd b4 ef 1a bd
       -0.22740811 -0.07134356 -0.104901664 -0.037826255
000070 2b 5f cc 3d 50 40 d7 3d 1e 0a a4 3d fc cc 06 bc
       0.09979089 0.105103135 0.08009742 -0.008227583
000080 4b 42 79 bd e9 b3 1c be f6 c7 a4 bb a5 f6 8b 3e
       -0.060854238 -0.15303005 -0.00502872 0.27336612
000090 6c dc 4b 3e 15 8b 13 3e 6a 79 1c bd 96 40 86 bd
       0.19908303 0.14408524 -0.038201727 -0.065552875
0000a0 58 1d 27 3d 0d 26 c6 3d 7c 43 e0 bd 9b c3 68 3e
       0.04079947 0.09675226 -0.109503716 0.22730868
0000b0 b1 ce c2 3d df ed d9 3d 1c fe da 3c 50 32 de 3d
       0.095120795 0.106410734 0.026732497 0.1084944
0000c0 53 38 d0 bd 40 a5 19 be f1 70 49 3d e9 0a f8 bd
       -0.10166993 -0.15004444 0.049179975 -0.12111456
0000d0 70 a6 7f 3d 8f c1 eb bd 3c cd 30 be c4 32 82 bd
       0.062414587 -0.11511528 -0.1726579 -0.06357339
0000e0 60 5e 1c be 96 1f e9 3d 99 8e f3 3d 2b 3d 4a bd
       -0.15270376 0.11382978 0.11892433 -0.04937474
0000f0 9c 48 ec bd a1 fc 2a bd de 99 dc bd 5d 32 da bd
       -0.11537287 -0.041744832 -0.10771535 -0.10654137

head.norm.running_var f4 [64]
000000 a4 e9 c2 3b d6 4a b9 3b 5a d9 95 3b 20 df 07 3c
       0.0059482623 0.005654673 0.0045730295 0.008292943
000010 b5 4a 0e 3c f2 96 e6 3c 1d f3 2b 3c 9a 1d 84 3b
       0.008684804 0.028148148 0.010494974 0.004031849
000020 96 57 08 3b 68 b2 a2 3b 6f 74 76 3c ae 91 a6 3b
       0.0020804158 0.0049651153 0.015042408 0.0050832843
000030 10 77 39 3b 07 ec ae 3c 13 00 95 3b 27 c7 d0 3b
       0.0028299727 0.021352781 0.004547128 0.006371397
000040 2a 4a f3 3b b5 78 1e 3b 4a ba 95 3b 39 4b 02 3b
       0.0074246125 0.0024180834 0.0045693265 0.0019881262
000050 18 24 29 3c a0 71 b5 3b 14 61 3b 3b b8 58 a1 3c
       0.010323547 0.005537227 0.0028591799 0.019695625
000060 91 78 a1 3b 74 66 64 3b 7b 60 a6 3b b4 c6 8b 3c
       0.0049277027 0.0034851106 0.0050774193 0.017062522
000070 e7 c5 16 3b fa ca 4d 3c 70 af 80 3b 4b 7e 82 3b
       0.0023006143 0.0125606 0.003927164 0.0039823405
000080 09 41 b0 3a e3 83 5a 3b 47 5e 4f 3b 0f a8 0b 3c
       0.0013447116 0.003334277 0.0031641887 0.008523955
000090 64 3d 17 3c 0f fd a4 3b 17 34 bc 3b 97 d3 b7 3b
       0.009230945 0.0050350497 0.0057435143 0.0056099403
0000a0 e1 8e 75 3b 66 24 ff 3b a1 0e 18 3b fa b0 0b 3d
       0.0037469196 0.0077863215 0.002320208 0.034104325
0000b0 0f e1 8c 3b b5 50 81 3b 65 05 3f 3c 67 11 70 3b
       0.00429929 0.0039463886 0.011659001 0.0036631466
0000c0 02 d7 d6 3b d0 91 61 3c 4a 7d 84 3b a1 1c 0c 3c
       0.0065563926 0.013767675 0.004043256 0.008551748
0000d0 63 8f 46 3c ab 7b de 3b a8 dd e6 3b 80 86 90 3b
       0.012119147 0.0067896447 0.0070454665 0.004410565
0000e0 1a df 2d 3d d7 2a 8d 3c 71 82 1d 3c 64 33 d8 3b
       0.042449094 0.017232342 0.009613619 0.006597923
0000f0 15 9b a8 3b 59 27 cb 3b 40 e1 a4 3b a1 b6 bf 3b
       0.0051454403 0.006199759 0.0050317347 0.0058506285

body.block1.conv.weight f4 [64, 64, 3, 3]
000000 8f e5 0e bd 88 f2 0d bd 1e 2b e4 bc 71 97 18 3d
       -0.034886893 -0.034655124 -0.027852591 0.0372538
000010 5e c6 35 bc f0 36 4c 3c 22 ca a5 bc 02 4e e8 bb
       -0.011094658 0.01246427 -0.020237986 -0.0070893774
000020 7a c0 b5 3b a5 6a a7 3d ab 60 74 3d ba 03 aa 3c
       0.0055466266 0.08174638 0.059662502 0.02075373
000030 7c 64 6b 3d f8 ff e5 bc c0 d2 70 3a 37 f0 4d bd
       0.057468876 -0.028076157 0.00091866776 -0.050277915
000040 23 0f 1d bc 4f d0 b9 bc b3 b6 4a 3d 90 25 73 bb
       -0.009586128 -0.022682337 0.04949064 -0.0037101246
000050 6d 69 c5 3c 60 c0 2d bc 4f 48 80 3d 2e 4f 7b 3b
       0.024098122 -0.010604948 0.06263792 0.0038346755
000060 93 47 6b bd bb 08 e7 bc 53 92 69 3b 2a 32 a6 bc
       -0.057441305 -0.028202405 0.0035640195 -0.020287592
000070 1f 42 f4 3c 01 bc 55 3c 73 0a c3 bc fb 5e 3f bd
       0.029816685 0.013045312 -0.023808694 -0.04672144
000080 64 9e ec b9 48 79 76 3c 4c 0c e7 3c 3b 26 63 3c
       -0.00045131438 0.015043564 0.028204106 0.013864095
000090 cc bb 3c 3d d6 b2 64 3d b9 86 e9 3d d6 d8 82 bc
       0.046077535 0.055834614 0.114026494 -0.015972536
0000a0 5c da 78 bd f4 0b 5c bd 81 28 69 3d c8 ba ba bc
       -0.06075512 -0.053722337 0.056923393 -0.022794142
0000b0 b4 a3 c9 bc e0 36 02 bd 23 4c f6 3c 4f 23 dc bc
       -0.024614193 -0.031790614 0.030065602 -0.026872305
0000c0 79 cf 5c 3d f1 c6 8e 3d 14 28 4e 3d 22 1b b7 bc
       0.0539088 0.06971539 0.05033119 -0.022351805
0000d0 ff e9 64 bb 87 45 6b 3c 80 c3 5a 3c 65 52 86 3d
       -0.0034929512 0.014359838 0.013352275 0.06558684
0000e0 9b 17 c2 3c 57 ce d7 3c c1 3e 00 3d 3a c2 8d 3c
       0.023692897 0.026343508 0.031309847 0.017304529
0000f0 d3 9f 26 bc 81 17 bf 3c ba 7d 13 3d 03 77 31 bd
       -0.010169941 0.023326637 0.036008574 -0.04332639
000100 89 c0 de bb 1f d5 9b 3c 85 08 42 3d f7 b8 4b bc
       -0.0067978543 0.019022522 0.047371406 -0.012434236
000110 9b c3 9e bd 8c 02 ce bc 34 df 85 bc 48 5b 66 bd
       -0.077521525 -0.025147699 -0.016341783 -0.056239396
000120 a6 a7 d3 3b 4b 09 69 3b 68 20 82 bc 64 72 b5 bd
       0.0064591942 0.0035558518 -0.015884593 -0.08859709
000130 4c 79 e6 3c 93 ed 1e 3d 61 20 8e bd f2 b8 1c bc
       0.02813401 0.038800787 -0.069397695 -0.009565579
000140 e0 9f e9 3c ea 29 42 bc f4 98 6a bc 7e 74 28 bc
       0.028518617 -0.011850813 -0.014318693 -0.01028168
000150 05 b4 6a 3d 31 b5 01 3d a0 43 27 3c 58 02 3d bd
       0.057300586 0.03166694 0.010208994 -0.046144813
000160 5f 05 8e bc d7 7d 71 bd 3b 4b fa 3c 4a 9a dd bb
       -0.017336546 -0.0589579 0.03055345 -0.0067627775
000170 ed b0 3c 3b 74 0c f8 3c e8 7f 83 3d 5e aa 9b bc
       0.002879198 0.030279376 0.064208806 -0.019002136
000180 ba 2a 0e 3d 2c 65 ac bb a7 50 a5 3c 69 2d 96 bd
       0.034708716 -0.005261084 0.02018006 -0.0733288
000190 ea fd df bb 87 d0 27 3c 47 6a 6e 3d ef bf 97 3d
       -0.006835689 0.010242588 0.058206823 0.07409655
0001a0 d0 47 a9 3d b9 17 6b bd f3 f4 84 bd 3e 80 6a bd
       0.0826565 -0.05739567 -0.06492033 -0.057251208
0001b0 d3 99 b8 3d 92 a6 51 bd 1e af 8d bd 2a 05 3d 3c
       0.09013715 -0.051184244 -0.069181666 0.011536876
0001c0 be 25 69 bd 11 c7 92 bd d1 f4 d7 3b fa 1b 1e bc
       -0.05692076 -0.07166875 0.0065904637 -0.009650225
0001d0 fa e7 41 3b 0a 4a 82 3c 17 4b 59 bc 1e 02 63 bc
       0.0029587732 0.015904445 -0.013262532 -0.013855485
0001e0 03 f1 36 3c 1a 10 ce bb 0c 7e ee 3c 24 20 a1 3c
       0.01116586 -0.0062885405 0.029112838 0.019668646
0001f0 63 aa bc bc 8a 9b 61 bc 17 31 8a 3b 38 98 99 3c
       -0.023030465 -0.013769994 0.0042172777 0.018749341
000200 9e a2 44 39 81 a6 28 3d 6e e7 d2 3c 85 d3 df bc
       0.00018752596 0.041174415 0.02574512 -0.02732254
000210 cf bb 66 bd 18 3d da bc 28 b3 43 bd 62 b3 d8 bc
       -0.056331452 -0.02664046 -0.04777828 -0.026452724
000220 73 58 6c 3c e7 cf 18 3d a3 c1 93 bc 31 76 79 bd
       0.014425385 0.037307646 -0.01803667 -0.06090373
000230 58 53 fd bc ca 0a 10 3d 3c 91 9c 3c 9b 6b f7 3c
       -0.03092353 0.03516654 0.019112222 0.030202677
000240 18 50 9a 3d 65 7e 09 3d 7d fb e4 3c b8 a3 77 3c
       0.07534808 0.033567805 0.02795195 0.015114717
000250 8d 6d a2 3c be 4b c5 3c 60 83 dc 3c 5d 6b c2 3c
       0.019827629 0.024083968 0.026918113 0.023732835
000260 7a 44 25 3c 1e f6 20 3d c5 e7 12 3d 6b 41 2f 3c
       0.010087127 0.039297216 0.035865564 0.010696749
000270 b6 08 1a bc 70 20 c5 3b ff c5 9b bc dd 7e 61 bd
       -0.009401491 0.0060158297 -0.01901531 -0.055052627
000280 9b 13 95 bc 56 91 e2 3b f0 fd 67 bc b9 d7 93 b9
       -0.018197825 0.006914298 -0.0141596645 -0.0002819875
000290 0b 5a cf 3b da 93 2d bd 76 5f 9c 3c b1 2a d6 3b
       0.0063278726 -0.04237733 0.019088488 0.006535851
0002a0 df 7f a3 bc 43 d2 9d bc 39 9e e9 3c bb 5f 4a bc
       -0.019958435 -0.0192653 0.02851783 -0.0123519255
0002b0 62 52 89 bd ed dd 56 bd 8e ce bc 3c 80 1f 1c bd
       -0.067051664 -0.05245774 0.023047712 -0.03811598
0002c0 e4 be 3a bd 77 c2 d1 3d 28 f1 f1 3c 1c 0d ad 3b
       -0.045592204 0.10242169 0.029533938 0.005281104
0002d0 72 b8 20 bd a6 ed 03 bc 84 ce a1 ba 00 f3 c7 bb
       -0.0392384 -0.008052265 -0.0012344872 -0.006101966
0002e0 bd 4c c0 3d 34 35 25 3d 21 5a ac 3c 64 56 4c 3c
       0.09389637 0.04033394 0.02103907 0.012471769
0002f0 c4 88 7e ba ee 84 67 3d d5 4d 2b 3d 89 16 7d 3d
       -0.0009709711 0.056523256 0.041822273 0.06178907
000300 c4 10 36 bb 51 eb 27 3d 0e 99 3d 3c 31 af b7 bc
       -0.002778099 0.0409959 0.011572136 -0.022422405
000310 93 6c 03 3d af a6 20 3d 3d 7b a6 3c 8c 65 0f 3d
       0.032085966 0.03922146 0.020322436 0.035008952
000320 e8 bc ef 3c f6 63 e0 3c 66 99 89 3c 10 df af 3c
       0.029264882 0.027391415 0.016796779 0.02146867
000330 1c 4d 3a 3c 96 ed 32 bd 76 aa 0b bd 57 e4 c3 b8
       0.011370923 -0.04368361 -0.03409811 -9.340856e-05
000340 9a 58 40 bc 90 33 b4 3c 58 fc 34 3d 5f 7a 71 3d
       -0.011739874 0.021997243 0.044185966 0.058954593
000350 7e 8a eb 3c 5f 31 ec 3c 17 e7 00 3d c4 42 04 bc
       0.028752562 0.028832136 0.031470384 -0.008072559
000360 59 7b 62 3c 8a 26 96 3c a9 ef 1a 3d fb 27 8e bc
       0.013823354 0.018328924 0.037826214 -0.017353049
000370 4e 0f 10 3d b6 fd 77 bc cf 4a 42 bd 6b 58 92 3c
       0.035170846 -0.015136173 -0.047434624 0.017864427
000380 6e 27 ba bc dc 1e 1b bd b0 5d c4 3d c7 8f 4f 3d
       -0.02272388 -0.037871227 0.09588182 0.050674226
000390 7a 9f 20 bd 79 71 69 3d 42 3d ff bc 59 9f f8 3c
       -0.03921459 0.05699298 -0.03115714 0.03034942
0003a0 04 f7 02 3a cd 8d 4b bd 0f ec a8 3d 8f 94 4b 3d
       0.00049959146 -0.04969578 0.082481496 0.049702223
0003b0 bb f9 79 3d 51 ee 82 bc 5f 0a 73 bd b1 b7 08 bd
       0.061029177 -0.015982779 -0.059336063 -0.033378307
0003c0 7a 64 bb 3b 14 1c 84 bc 59 59 85 bc 69 85 25 3d
       0.005718765 -0.01612667 -0.016277956 0.040410433
0003d0 ca c3 11 bc 67 6c 57 3b c5 09 99 3c c5 a8 20 bc
       -0.008896777 0.003287101 0.018681416 -0.009805863
0003e0 83 0b 76 3b b9 37 12 3c cc c5 7e 3d 1d 17 a5 3b
       0.0037543483 0.008924418 0.062200353 0.0050381557
0003f0 06 58 93 3d be af 34 3d af d2 34 bb f0 d0 ba 3c
       0.071945235 0.044112913 -0.0027591398 0.022804707

body.block1.conv.bias f4 [64]
000000 f6 25 ea bc 89 e7 ef 3c db 11 43 bc 22 ca eb bc
       -0.028582554 0.02928521 -0.011906113 -0.028782908
000010 47 3e c1 bc f9 d9 83 3c 01 72 1e 3d 8e 47 0b bd
       -0.023589266 0.016095148 0.03868294 -0.034003787
000020 aa e3 e5 bc f7 b5 a1 3c d5 76 45 3c c0 f9 50 3c
       -0.02806266 0.019740088 0.012052258 0.012754858
000030 39 a2 21 bd 47 7b bb 3c 74 37 a9 3b 35 8d ad bc
       -0.03946135 0.022885932 0.005164081 -0.021185497
000040 52 c1 29 bb 29 2f 25 ba 32 a8 21 bb 71 1b cf 3c
       -0.0025902581 -0.0006301278 -0.0024666903 0.02528164
000050 82 16 e5 3b d2 41 4c 3b cc 9f 19 3d e4 93 a8 3c
       0.0069912085 0.0031167162 0.03750591 0.020578332
000060 df 7d 18 bd 34 d6 c0 3c ec 1e 03 bd 39 71 e5 ba
       -0.037229415 0.02353964 -0.03201191 -0.0017505056
000070 b6 70 fd bc 9c 57 e1 3c 40 30 fa bc c8 c5 8e 3c
       -0.030937534 0.027507596 -0.030540586 0.017428294
000080 ed b7 e9 3c 21 5b 20 bd d5 bf 22 bd f8 66 23 bd
       0.028530085 -0.039149407 -0.039733727 -0.03989312
000090 21 0b 26 3c 05 6b d1 b9 dc 04 db 3b c7 d4 3d 3b
       0.010134489 -0.00039943322 0.006683929 0.0028965937
0000a0 eb 53 68 3c e6 42 56 bc 2b 30 0f bd 4b 42 93 bb
       0.014180164 -0.013077473 -0.034958046 -0.0044939867
0000b0 cc 92 95 3c 21 72 0f bd 1f 8d 14 bc f8 0c 38 3c
       0.018258475 -0.03502095 -0.009066849 0.011233561
0000c0 a8 b6 8d bc e8 9d e4 bc db 57 86 bc 25 ef de 3c
       -0.017299011 -0.027907327 -0.016399315 0.027213642
0000d0 0c 5d d1 3c 95 32 0d bb 44 e6 92 3c 6f 10 ae 3b
       0.025557064 -0.0021545042 0.017932065 0.0053120176
0000e0 3e a6 ad bc ee 1f 95 3c fc 25 50 3c ff 1c ff bc
       -0.021197435 0.018203702 0.012704369 -0.031141756
0000f0 bb 0f 9d bc 39 8d 7e bc 13 54 34 bc 56 ad 3f 3d
       -0.01917254 -0.0155366 -0.011006373 0.046796165

body.block1.norm.weight f4 [64]
000000 6b 93 93 3f 00 9e 8c 3f bf 3e 89 3f 43 e0 93 3f
       1.1529363 1.0985718 1.0722274 1.1552814
000010 fc 34 88 3f e5 01 9b 3f ea b7 8d 3f 67 1d a6 3f
       1.064117 1.2109953 1.1071751 1.2977723
000020 be 28 8e 3f 99 8d a1 3f e2 7a 90 3f f7 4d 8a 3f
       1.1106184 1.2621337 1.1287501 1.0805043
000030 9e 4c 84 3f 95 35 88 3f 64 3b 9e 3f c3 37 9d 3f
       1.0335882 1.0641352 1.2361875 1.2282642
000040 39 a5 84 3f 8e 48 8f 3f 23 40 8d 3f 1f 98 95 3f
       1.0362922 1.1194017 1.1035198 1.1687049
000050 48 a5 82 3f 18 62 a5 3f 67 ab b7 3f 0a 9e 96 3f
       1.020669 1.2920561 1.4349183 1.176698
000060 ed 5a 84 3f 28 fc 8d 3f cb 56 8e 3f 70 c4 9b 3f
       1.0340248 1.1092577 1.1120237 1.2169323
000070 1b 84 89 3f 3a 4c 91 3f ec a7 87 3f 7c a8 93 3f
       1.074344 1.1351388 1.0598121 1.1535792
000080 63 35 95 3f 8c 34 88 3f 02 d5 87 3f 7e 54 bc 3f
       1.1656917 1.0641036 1.061188 1.4713285
000090 a3 ff 8b 3f e9 2c 93 3f be d5 85 3f b2 43 85 3f
       1.0937389 1.149808 1.0455854 1.0411284
0000a0 12 93 8b 3f 67 f8 92 3f 54 5b 93 3f 11 41 a0 3f
       1.0904257 1.1482056 1.1512246 1.2519857
0000b0 e1 89 91 3f 4b d6 8e 3f 15 af 8d 3f 97 76 99 3f
       1.1370202 1.1159147 1.1069056 1.1989316
0000c0 9e 84 90 3f 18 cf a8 3f 56 cf 8a 3f ec 7d 9d 3f
       1.1290472 1.31882 1.0844524 1.2304053
0000d0 2b ab 93 3f 17 07 97 3f ce db 90 3f 1d 8d 95 3f
       1.1536611 1.1799039 1.1317079 1.1683689
0000e0 59 26 94 3f 8a 63 98 3f 42 58 96 3f 6a 93 94 3f
       1.1574203 1.1905377 1.1745684 1.1607487
0000f0 4f 15 9c 3f 9b ed 8c 3f 9f 06 8e 3f de f1 90 3f
       1.2194003 1.1010011 1.1095771 1.1323812

body.block1.norm.bias f4 [64]
000000 8c 00 ea bd 2c c8 d3 bc ac 72 0f bc 0e d9 12 be
       -0.114258856 -0.025852285 -0.008755367 -0.14340612
000010 a8 47 c9 bd a6 c6 41 be 39 5e 41 bd 1b 02 8e be
       -0.098281205 -0.18923435 -0.047209 -0.2773598
000020 99 9e 60 be 5a d3 d2 be c9 c6 9b bd 0b 54 22 be
       -0.219355 -0.41176873 -0.07606275 -0.15852372
000030 ac 24 ae bd 21 40 d8 bd 68 31 29 bd 09 e4 88 bd
       -0.08503088 -0.105591066 -0.041306883 -0.06684119
000040 57 5c a7 be c6 87 cf bd b4 8f 1b bd 2d c2 b2 bd
       -0.32687637 -0.101333186 -0.037978843 -0.08728442
000050 66 fb 90 bd bf 5e fd bd a5 8f e1 be 80 70 45 bc
       -0.070792004 -0.12371587 -0.44054905 -0.012050748
000060 f6 22 f7 bd 36 15 60 bd 79 f8 ef bb 4f ef 14 be
       -0.12067215 -0.05470773 -0.0073233214 -0.14544414
000070 ba 9f 54 3d 80 62 80 be 9d 1e f6 bd d3 75 6c be
       0.05191014 -0.2507515 -0.12017558 -0.23091821
000080 61 d0 7c bd fb 24 ca bc 01 71 7b be a8 41 2e bf
       -0.061722163 -0.024675837 -0.24554826 -0.68068933
000090 e6 95 3f bc 2b ac 2a be 84 d1 37 bd bf e6 9d bd
       -0.011693453 -0.1666724 -0.044877544 -0.07710027
0000a0 dc 64 2f bd 70 7b 1f bd 33 b5 c9 bc 35 62 ac be
       -0.042820796 -0.03893608 -0.024622535 -0.33668676
0000b0 28 13 b2 3b 06 6c 3c bd 0b 24 5f bd af db d9 bd
       0.0054344125 -0.046001457 -0.054477733 -0.106376044
0000c0 e1 14 7a 3d 09 04 21 be 1d 8c ae bd 1a 89 a7 be
       0.061055068 -0.15724196 -0.08522818 -0.32721788
0000d0 60 f8 87 bd 34 ab a9 be 5b 86 fb bc 14 26 cc bd
       -0.06639171 -0.3313843 -0.030703714 -0.099682
0000e0 95 af 22 be 90 f8 77 be d2 fa fc bd 8d 67 15 be
       -0.15887292 -0.24215913 -0.12352528 -0.14590283
0000f0 22 5d 91 be f2 b0 8f bd 4b 9c 7b 3d eb c0 dc bb
       -0.28391367 -0.070161715 0.06142835 -0.006736865

body.block1.norm.running_mean f4 [64]
000000 36 9c 27 3f a3 c0 bd bd 57 87 a7 bd 8b c1 84 3e
       0.65472734 -0.09265258 -0.08180111 0.25928912
000010 9f c9 f3 be 81 11 76 be c0 a0 32 3e 56 9d 13 3e
       -0.47614762 -0.24030115 0.17444134 0.14415488
000020 9e 2e 08 bf 8f 36 7d 3e ac 8c 36 3f 8c e1 1f 3f
       -0.5319613 0.24727844 0.713084 0.6245353
000030 c0 2b 2c bf 31 ab a4 39 3d 80 80 3f 90 21 5a bf
       -0.6725426 0.00031408065 1.0039135 -0.8520746
000040 30 ce 5c 3e 83 6a 98 3d 5e 0b a6 bd cd df 69 3f
       0.2156303 0.074421905 -0.08107637 0.9135712
000050 26 c7 cc 3d ea 12 31 3d 6c 02 4a 3e 33 22 d6 3d
       0.09998922 0.04323093 0.19727486 0.10455742
000060 53 69 d6 3c 33 07 87 3d d8 8c a1 bd af 86 bb bd
       0.02617327 0.0659317 -0.07888192 -0.09156548
000070 bd 36 29 3e d2 11 1d bf 2e 1f 09 bf 72 ff cc bd
       0.16524787 -0.61355317 -0.535632 -0.1000966
000080 33 84 ea bb ed c4 95 3e ff 08 ce be ac 0e 2f bd
       -0.0071568727 0.29251805 -0.40241238 -0.0427386
000090 82 8e 45 bf 44 b3 0d 3f 0c 10 98 3e de f6 4f 3f
       -0.77170575 0.5535166 0.29699743 0.81236064
0000a0 19 74 97 3d f8 bf 11 be 79 e4 e4 be de 4c 13 be
       0.07395191 -0.14233387 -0.4470556 -0.14384791
0000b0 f2 51 5f 3e 72 a2 64 3e 19 16 3a 3e 20 8d 3c 3e
       0.21808603 0.22327593 0.18172492 0.1841321
0000c0 a3 a5 d1 3e ea f8 29 3e 98 b0 0b bf 43 6b f5 3e
       0.40946683 0.1659886 -0.54566336 0.47933397
0000d0 02 40 0f 3e 7f ff a7 be da 7e 80 be 6e 1e 78 3e
       0.13989261 -0.32812116 -0.2509678 0.24230358
0000e0 8e 52 fa bd e9 4d 6a be 1b e7 2b 3f 8c 94 bf be
       -0.12222777 -0.22881283 0.67149514 -0.3741802
0000f0 36 dd 84 be 2f 56 c9 3e d2 25 e0 3e fa af 58 be
       -0.2595002 0.39323565 0.43778855 -0.2116088

body.block1.norm.running_var f4 [64]
000000 2f 57 16 3e 54 bc aa 3f 77 d2 a0 3e 24 47 78 3e
       0.14681695 1.3338723 0.31410572 0.24245888
000010 f2 07 47 3e 38 b0 3e 3e b2 df 8c 3e a6 8a 4b 3e
       0.19436625 0.1862191 0.27514416 0.19877109
000020 10 45 12 3f 12 f8 d6 3d ac 0e 39 3e fa c6 03 3e
       0.5713663 0.104965344 0.18072003 0.12868872
000030 ae c4 9e 3e 35 57 38 3f 73 34 61 3e 93 aa 13 3f
       0.3100943 0.7200807 0.21992664 0.5768215
000040 65 2b 76 3e 15 2f e3 3e d2 5a 10 3f b6 48 48 3e
       0.24039991 0.44371858 0.5638858 0.19558987
000050 40 35 e8 3e 22 ed 2e 3e 64 f4 83 3d 38 0e bd 3e
       0.45353127 0.17082646 0.06443098 0.3692491
000060 c2 ba 1b 3f 3f 32 52 3f 1a f9 ee 3e 55 94 7f 3e
       0.60831845 0.8210792 0.46674424 0.24958928
000070 17 3a 0f 3f b0 cd 36 3e c7 92 45 3f 9c 25 6c 3e
       0.55948013 0.17851901 0.7717709 0.23061222
000080 31 f8 91 3e f9 49 50 3f ba 33 95 3e 88 7f 8b 3d
       0.28509668 0.81362873 0.29141027 0.06811434
000090 b9 05 10 40 b6 4f 07 3e f6 69 ec 3e 3a 61 5f 3e
       2.2503493 0.13214001 0.46174592 0.21814433
0000a0 74 b1 a7 3e 34 e9 ea 3e 20 27 2e 3f d2 b7 a4 3d
       0.32752573 0.45881045 0.6802845 0.080428734
0000b0 70 3c 19 3f c2 20 13 3f 3c 06 95 3e 21 60 c4 3e
       0.59857845 0.5747186 0.2910632 0.3835459
0000c0 38 ec b9 3f 12 e7 14 3e 18 f9 32 3e a5 82 ce 3d
       1.4525213 0.14541271 0.17477834 0.10083512
0000d0 d7 df 1f 3f 74 24 f6 3d 03 3b cd 3e c9 dc c1 3d
       0.6245093 0.12018672 0.40084085 0.094659396
0000e0 b1 d8 06 3e 3e c5 53 3e 45 17 2b 3e e8 52 fd 3d
       0.13168599 0.2068071 0.16708095 0.12369329
0000f0 a0 af 40 3e 59 62 36 3f 80 56 b0 3e 14 28 b2 3f
       0.18816996 0.71243817 0.34440994 1.3918481

tail.0.weight f4 [12, 64, 3, 3]
000000 60 bc ef bc ff dc e0 3d 49 52 c8 3c 74 60 13 3d
       -0.029264629 0.10979652 0.0244533 0.035980657
000010 09 48 52 3b fb 8d 66 3b 64 e3 80 bc 80 05 d6 bc
       0.0032086393 0.0035179842 -0.015733428 -0.02612567
000020 42 32 45 3b 76 1b 11 b9 7c be 6d bb c5 d0 54 ba
       0.003008977 -0.00013838508 -0.0036276868 -0.0008118267
000030 54 00 3a 3d 3e a6 2b bb a3 a2 b0 bc 3c 1f c2 3c
       0.04541047 -0.0026191617 -0.021561926 0.023696534
000040 52 b8 09 3d 03 10 4d bd 38 b2 e9 3c 30 28 7a 3d
       0.033623047 -0.050064098 0.028527364 0.061073482
000050 fe 16 13 3c a2 1d 11 3c 13 c1 e4 bb b5 01 a7 3c
       0.00897765 0.008857163 -0.006981024 0.020386556
000060 32 45 60 3d 1a 9b 84 3c 46 dd 37 3d 07 bb 4d bd
       0.05475349 0.01618724 0.044888757 -0.05022719
000070 f6 fc 3e be f2 26 2c 3d 5a ec 9b bd c3 e1 72 be
       -0.18651184 0.04202933 -0.0761344 -0.23718934
000080 1a 1a a7 3d b6 f8 dd 3d 38 57 b2 3b cb 6b 97 3d
       0.08159275 0.108384535 0.005442526 0.07393607
000090 1b 96 84 3c 34 6a 0d 3c 97 00 80 bb 31 09 8b 3d
       0.016184857 0.008631278 -0.0039063203 0.067888625
0000a0 e1 1b b6 bc 8e df e7 bc ce bb 8a bd 84 56 f0 3c
       -0.02223009 -0.028304841 -0.06774102 0.029338129
0000b0 f4 db 68 bd 18 6a 05 be 22 6e 9a 3b d8 11 1d bd
       -0.05685039 -0.13028753 0.004712836 -0.038347095
0000c0 a9 68 a6 3c 0e 43 6a 3c f9 32 cc 3c 60 cb d0 bd
       0.020313578 0.014298214 0.02492665 -0.10195041
0000d0 c4 f6 d4 3c 79 e9 aa bc 7b 8d c8 bb 7c 26 d2 bd
       0.025996573 -0.020863282 -0.0061203814 -0.102612466
0000e0 71 e9 00 bc 7b 56 c4 3d 56 66 c3 3b 54 b7 9b 3c
       -0.007868157 0.09586807 0.005963127 0.019008316
0000f0 c0 fb 5f 3d 1c 80 6d bb 83 84 02 3d a2 24 89 3d
       0.054683447 -0.003623969 0.031864654 0.0669644
000100 52 20 52 bd ed 79 42 bc 53 58 34 3d 08 f7 11 3d
       -0.051300354 -0.01186989 0.044029545 0.035635978
000110 bc 4b 20 bd 83 ac 27 bd 1b 54 3d 3d ef d9 46 bd
       -0.039134726 -0.040936004 0.046222787 -0.04854768
000120 84 56 1f 3c f0 eb e4 bc 27 36 9d bd 7c 49 8c 3d
       0.009725217 -0.027944535 -0.07676344 0.068499535
000130 db 6a bd 3d 35 df 16 3c 5a 16 23 bd 58 eb 8a 3d
       0.09248897 0.00920849 -0.039816238 0.067831695
000140 d6 7b 4a bc 1f e0 0f 3e 32 c8 15 3e e4 27 74 3d
       -0.012358626 0.14050339 0.1462715 0.059608355
000150 65 2b 59 be c1 40 3c be 01 0b 91 bd 98 6b 12 3d
       -0.2120796 -0.18384077 -0.07082177 0.03574714
000160 be 54 2f 3d 14 0a 3e bd 3f b8 23 bd b9 1f 5b bd
       0.042805426 -0.04639633 -0.039970633 -0.05349705
000170 66 93 dd bc 4c 15 b2 3d 9c 09 d9 bc 5f 79 45 3d
       -0.027047824 0.08695468 -0.02649384 0.04821145
000180 a5 e8 ba 3c 88 bd bf 3c e6 d0 6f bc 29 23 27 3d
       0.022816012 0.023405805 -0.014637208 0.040805016
000190 d3 e3 d0 3d 64 88 65 bc 18 2c 92 3d cd 6c 9b 3d
       0.10199704 -0.014009569 0.071373165 0.075891115
0001a0 3f ff a2 bd 2e 35 45 bd ab d1 a9 3c 3b 61 b6 3c
       -0.079588406 -0.04814642 0.02072986 0.02226316
0001b0 d9 fd 12 bb 96 ce 94 bd 17 44 84 bc b1 25 99 3d
       -0.0022429137 -0.07265966 -0.016145749 0.07477892
0001c0 34 de 55 bd 1a 3a 75 3d 90 3f 72 3c 43 57 11 3d
       -0.052213863 0.059869863 0.014785662 0.03548361
0001d0 83 0f e1 39 56 67 18 bd 16 b7 3d 3d 14 99 0e 3c
       0.000429269 -0.037207924 0.046317182 0.008703489
0001e0 3f 19 7f bb ee ea ef 3c 86 5d 88 bc 7d ac 9a bd
       -0.003892496 0.029286828 -0.016646158 -0.07552431
0001f0 5a db 7c 3c 68 87 a1 3d 30 22 17 bc f4 de 4f 3d
       0.015433157 0.07887155 -0.0092244595 0.050749734
000200 05 bc 2d 3b 3a 9f 79 3d 32 9d 9a bc 38 5f 9e bc
       0.0026509773 0.060942866 -0.018873785 -0.019332513
000210 d2 02 24 3c 21 be 48 3b e3 56 b9 3b 7d c4 07 bd
       0.010010438 0.0030630904 0.0056561097 -0.03314637
000220 85 53 35 3c 10 52 4e bd 1b a1 d2 bd fe de 95 bd
       0.011067276 -0.05037123 -0.10284635 -0.07317923
000230 c4 eb d0 bc 08 62 0d bd a5 bd 0d 3c 3f 8d 59 3c
       -0.025503047 -0.034517318 0.008651172 0.013278305
000240 86 10 d1 3c 32 2c cf 3d c3 16 ff 3b 96 1d 2f bb
       0.025520574 0.101158515 0.007784696 -0.0026720515
000250 ba 5d 1a be 55 2b 52 bd 6c 9b 76 3d 59 bf 8d bd
       -0.15074816 -0.051310856 0.060206816 -0.06921262
000260 4b 3a dd bc e4 7e 0a 3d a7 60 95 3c 53 8c 45 3d
       -0.027005335 0.03381242 0.018234564 0.048229527
000270 17 e0 b4 3d cc d2 05 bd d4 00 f6 bc 1f f1 b7 3c
       0.08831804 -0.032671735 -0.030029692 0.022453843
000280 32 35 77 3c 63 01 8b 3c 72 15 47 bd 9f 6e 3e bd
       0.015088366 0.016968435 -0.048604436 -0.046492215
000290 7c 30 94 3c 28 de d8 bc 17 a7 35 bd ff ed 80 3b
       0.018089525 -0.02647312 -0.044348802 0.0039346213
0002a0 94 11 aa 3b 90 ac 22 3d ff 49 83 3d 5c dd a0 bc
       0.0051900838 0.03971535 0.06410598 -0.019636802
0002b0 9b 4c 9b 3c fa 54 92 bc da 38 c3 3d ad f1 8f 3d
       0.018957427 -0.017862786 0.09532328 0.07028518
0002c0 25 d1 3f 3d 7f 1d 88 3a 5a 22 92 bc de 4d 93 3c
       0.046830315 0.0010384767 -0.017838646 0.017981466
0002d0 c9 dd 3f 3b 90 d9 72 3c 50 36 8c bd e2 3b 3c bc
       0.0029276481 0.014822379 -0.06846297 -0.011488887
0002e0 f7 ec 44 bc 20 78 2e bd 5f cc d2 3c e1 b3 95 3b
       -0.012019387 -0.04259503 0.025732217 0.0045685624
0002f0 e7 63 52 bd f6 a0 92 3d 4a 8f 07 3e 5f f2 d9 3d
       -0.051364806 0.07159607 0.13238254 0.10641932
000300 88 6b b6 3d 40 9d a7 3d 15 e4 b0 3c 85 3e 88 bc
       0.08907229 0.0818429 0.021593133 -0.016631374
000310 4e ab d6 ba 34 c4 d3 3c 1a 33 bc bc 50 e1 27 3c
       -0.0016377957 0.025850393 -0.022973586 0.01024659
000320 f8 ed 04 bd b2 21 31 bd 46 98 ae 3d c2 79 0b bd
       -0.032453507 -0.043245025 0.085251376 -0.034051664
000330 e6 ec 14 3d 2e aa 84 bc ed 56 73 3c f3 31 29 3c
       0.036358736 -0.01619443 0.014852268 0.01032685
000340 f7 6f 74 bd 30 62 a1 3d 98 70 83 3d 5c 0c 36 bb
       -0.05967709 0.07880056 0.0641796 -0.0027778363
000350 11 1b 3b 3d ba 38 9c b7 f2 c6 31 3d 59 d9 31 3d
       0.04568011 -1.8623065e-05 0.04340262 0.04342017
000360 25 6d c4 3d 9c d7 f7 bc 9c e6 b7 bb 02 f1 cd 3b
       0.0959113 -0.030254178 -0.0056122076 0.006284834
000370 9d ad 8c bd a5 6b 82 bc 1b b8 04 3e b0 a9 d3 bc
       -0.068690516 -0.01592047 0.12960856 -0.02583775
000380 72 1a 06 bd 94 2f 2c 3d ec 79 2a 3d ef d0 d4 3d
       -0.032740064 0.04203756 0.04162018 0.103914134
000390 6a de 8d bd 8a d8 eb bd 94 00 17 bd 25 d8 3b bd
       -0.06927188 -0.11515911 -0.036865786 -0.04586043
0003a0 c2 20 cd bd cd bd 70 bc be a1 8e bb 71 2f 50 3c
       -0.10016014 -0.0146936895 -0.0043527773 0.012706623
0003b0 e4 cf f4 bc 0a 2f 20 bd 5a ea 85 bc 6f 9f 3f 3c
       -0.029884286 -0.03910736 -0.0163471 0.011695727
0003c0 bb ee 8a ba 30 42 5a 3d 73 f8 64 3b 4f 6b ad bb
       -0.0010599712 0.053285778 0.0034938126 -0.005292333
0003d0 40 87 e9 bb c4 9f 3a 3b 98 0e 44 3d 16 e5 ce 3c
       -0.0071267188 0.0028476575 0.04786548 0.025255721
0003e0 df d8 8e 3d 86 3d 5c 3d 36 c6 29 3d 89 c7 58 3d
       0.06974959 0.05376961 0.041448794 0.052924667
0003f0 4d 0a 05 3d d1 82 70 3d e3 ac 61 bc de 06 bf 3c
       0.032480527 0.058718506 -0.01377413 0.023318704

tail.0.bias f4 [12]
000000 c9 9e f2 bd 68 2b 16 bd 0f 34 ca 3b 1a 96 96 3c
       -0.11846692 -0.03666249 0.0061707566 0.01838212
000010 4e 79 1b 3c cd 8e d4 bc 32 84 7a bc 90 06 30 3d
       0.0094893705 -0.025946999 -0.015290307 0.04297501
000020 3e 9b 59 3c ac c5 80 bd 1f ab b1 bc 56 42 c8 bc
       0.0132816415 -0.06287703 -0.021688042 -0.024445694
