3layer_5000its/files/0/D.pth (torch, 184629 bytes, 13 tensors)

head.conv.weight f4 [64, 12, 3, 3]
0	0x3d74dc5d	0.059780467
1	0xbd2a8437	-0.041629996
2	0x3de4c993	0.1117126
3	0x3d13e7ae	0.03610962
4	0x3d7063f0	0.058689058
5	0xbde56158	-0.112002075
6	0xbc2fdc56	-0.0107336845
7	0xbb147f5e	-0.0022658925
8	0x3c9c26d4	0.019061483
9	0x3b8ce305	0.004299524
10	0xbc427a8c	-0.011870038
11	0x3b99f6ab	0.0046985946
12	0xbcc0adde	-0.023520406
13	0xbd0376fb	-0.03209589
14	0x3dad6673	0.08466806
15	0xbda5c7ff	-0.08094787
16	0xbd068358	-0.032840103
17	0x3da77d27	0.08178168
18	0x3cc3598b	0.023846408
19	0x3b26e62c	0.0025466783
20	0xbd4e7e37	-0.050413337
21	0xbc9350b1	-0.017982813
22	0x3d0f87f4	0.035041764
23	0xbca477d1	-0.020076664
24	0xbb1a2dce	-0.0023525837
25	0x3d2e1f3b	0.042510252
26	0x3d73e8e9	0.059548292
27	0xbcaca412	-0.021074329
28	0x3ceee0b2	0.029159877
29	0x3c892212	0.016739879
30	0x3c933db1	0.017973753
31	0xbc5fb929	-0.013654985
32	0xbccea3b9	-0.025224553
33	0x3c3169dd	0.010828462
34	0xbaf044ee	-0.001833109
35	0xbc41adbf	-0.011821209
36	0xbc62e19e	-0.013847737
37	0x3d16dc29	0.036831055
38	0xbc6826c7	-0.0141694015
39	0x3d19e6c0	0.037573576
40	0x3bc21d03	0.0059238686
41	0x3a9e858b	0.0012094242
42	0xbd40642a	-0.046970524
43	0xbac3cebe	-0.0014938933
44	0x3bd60fb6	0.0065326346
45	0xbb372bdd	-0.0027949729
46	0xba77328e	-0.00094298355
47	0xbbb407b6	-0.0054940833
48	0x3ac82548	0.00152699
49	0xbc91bbdb	-0.017789772
50	0x3c58c1e1	0.013229818
51	0x3d1d067b	0.03833626
52	0xbbf7650a	-0.0075498866
53	0x3bc54e84	0.0060213227
54	0xbd0d61b1	-0.034516994
55	0xbb2e9309	-0.0026637933
56	0xbd229a0c	-0.03969769
57	0xbd1b69df	-0.037942763
58	0xbd5d12f4	-0.053973153
59	0x3d1173dd	0.035510886
60	0x3b7ad314	0.0038272785
61	0x3d3077d5	0.04308303
62	0x3c7b89f6	0.015352717
63	0x39d662e8	0.00040890952
64	0xbb19e29c	-0.0023481017
65	0x3aac8ae2	0.0013163949
66	0x3c28b9b9	0.010298186
67	0xbc82f643	-0.015986567
68	0x3bcfb0ef	0.006338231
69	0xbd1cd001	-0.038284305
70	0xbb6d703a	-0.0036230222
71	0xbd0cfa56	-0.034418426
72	0xba8fb771	-0.0010964704
73	0xbabf1962	-0.0014579708
74	0xba98127f	-0.0011602192
75	0xbca402d1	-0.020020874
76	0xbc85b854	-0.016323246
77	0xbc483bc8	-0.012221284
78	0xbc934869	-0.017978864
79	0xbd095324	-0.033526555
80	0xbd0f3f7d	-0.034972657
81	0xbc09e056	-0.008415302
82	0x3a42f265	0.00074366323
83	0xbc8bf8d3	-0.017086422
84	0xbd049850	-0.03237182
85	0x3c9fa771	0.019489022
86	0xbc9f9a54	-0.01948277
87	0x3d169388	0.03676179
88	0xbc849d32	-0.016188238
89	0xbd24e566	-0.040257834
90	0x3b1717cf	0.0023054963
91	0xb8a6b24e	-7.948709e-05
92	0xbbf79c5d	-0.0075564818
93	0xbadb50df	-0.0016732475
94	0xbc9d6dae	-0.019217338
95	0x3d3277a1	0.04357112
96	0x3ca6c8e0	0.020359457
97	0x3c143bbc	0.009047445
98	0xbc31d0e0	-0.010853022
99	0xb6f7fe3b	-7.39077e-06
100	0xbc100234	-0.008789588
101	0x3b98fb1f	0.004668608
102	0x3cf3bb8c	0.029752515
103	0x3d4fd4a9	0.050739918
104	0x3b906df9	0.004407641
105	0x3d9d66a9	0.076855965
106	0x3c5c57c1	0.013448657
107	0xbd82563e	-0.06364106
108	0x3cf7a522	0.030230109
109	0xbce0681f	-0.027393399
110	0xbca910ce	-0.020637896
111	0x3caa99a7	0.02082522
112	0x3cab466e	0.020907607
113	0xbd2731ba	-0.040818907
114	0x3d9126a8	0.07087451
115	0xbca80759	-0.020511316
116	0xbccc466c	-0.024935924
117	0xbc8c33bb	-0.01711451
118	0x3c7099ab	0.014685075
119	0xbcc5fa5c	-0.024167232
120	0xbd035344	-0.03206183
121	0xbd055a85	-0.03255703
122	0xbcfe77ee	-0.031063046
123	0x3ca45ac1	0.020062806
124	0xbcf25305	-0.029580602
125	0xbd35d0a0	-0.044388413
126	0x3d4d7697	0.050161924
127	0x3c9490a6	0.01813538
128	0xbd20a595	-0.03922041
129	0x3d0ab65b	0.033865314
130	0xbd42b2dc	-0.047533855
131	0x3ad378a4	0.0016133976
132	0x3c05d05e	0.008167354
133	0x3c91ef10	0.01781419
134	0x3c752e2f	0.014964624
135	0xbb7d5d45	-0.003866033
136	0x3c6e33ec	0.014538746
137	0x3babf965	0.005248236
138	0xbc5ea575	-0.013589253
139	0xbd2a2733	-0.04154129
140	0x3c168834	0.009187747
141	0x3babe2a1	0.005245522
142	0xbc158509	-0.009125956
143	0xbcd348a5	-0.025791476
144	0xbca26e79	-0.019828068
145	0x3d2e0f01	0.042494778
146	0xbc9a342a	-0.018823702
147	0xbc585085	-0.013202791
148	0xbdc3aed7	-0.095548324
149	0x3b128b3b	0.002236082
150	0xbb773983	-0.0037723489
151	0xbc0c00d4	-0.008545119
152	0x3ccfd608	0.025370613
153	0xb90369ba	-0.0001253252
154	0xbb03d162	-0.0020113816
155	0xbae6f6eb	-0.0017621195
156	0xbc77e786	-0.015130883
157	0xbc26c941	-0.010179819
158	0x3ca97646	0.02068628
159	0x3a97ef01	0.0011591614
160	0x3a90b83a	0.0011041232
161	0xbb642eba	-0.003481789
162	0x3c8e4e54	0.017371334
163	0x3b774e21	0.0037735777
164	0x3d2a0e46	0.04151752
165	0xbda787a8	-0.08180171
166	0x3d7fa803	0.062416088
167	0x3d910454	0.07080904
168	0xbcde41bc	-0.027130954
169	0xbd3f44df	-0.04669654
170	0xbd05b39a	-0.032641985
171	0xbc6dc29a	-0.014511729
172	0xbbc39040	-0.0059681237
173	0x3c0402cc	0.008057307
174	0xbb1a306e	-0.0023527401
175	0xbae7f9cb	-0.0017698345
176	0xbc201a4f	-0.009771897
177	0xbd14b51c	-0.03630553
178	0x3b9a42e5	0.0047076815
179	0xbd059246	-0.0326102
180	0x3c0df17a	0.0086635295
181	0x3a5b2815	0.00083601597
182	0x3936a885	0.00017419651
183	0x3c1a505c	0.009418573
184	0x3bd9fa1b	0.0066521293
185	0x3b9f18a1	0.004855231
186	0xbce22ef9	-0.027610289
187	0xbcb13769	-0.021632867
188	0xbc8c3f2c	-0.017119966
189	0xbd726340	-0.059176683
190	0xbd1c55b0	-0.038167655
191	0x3cc3009e	0.023804005
192	0x3b9f2c04	0.004857542
193	0x3e26e556	0.16298422
194	0x3c070bf4	0.008242596
195	0x3d4502da	0.048098423
196	0x3c150216	0.009094736
197	0x3db78254	0.08960405
198	0x3b5f1d4c	0.0034044562
199	0xbb0d317d	-0.002154439
200	0x3b6c9e3e	0.0036105062
201	0xbb60db56	-0.0034310422
202	0xbc3e0b86	-0.011599427
203	0xbb6b89d1	-0.00359403
204	0xbd10b9fe	-0.035333626
205	0x3d5c80b0	0.053833663
206	0xbc9391e6	-0.018013906
207	0x3b7a8595	0.0038226594
208	0xbcfa52bd	-0.03055703
209	0x3d236f14	0.039900854
210	0x3def0f4a	0.11672838
211	0xbc503118	-0.012707017
212	0xbd278f7e	-0.04090833
213	0xbca347b3	-0.01993165
214	0x3d01d29e	0.031695
215	0x3da96395	0.08270947
216	0xbd52b737	-0.05144426
217	0x3cb06ae1	0.021535339
218	0x3cdd614f	0.02702394
219	0x3cc765ee	0.024340596
220	0x3dc70a6c	0.09718785
221	0x3ca5c17c	0.020233862
222	0xbc927a6a	-0.017880637
223	0xbd0ca088	-0.034332782
224	0xbc537325	-0.012905871
225	0xbc39fded	-0.0113520445
226	0x3c108a77	0.008822075
227	0xbb601974	-0.0034194859
228	0xbc4756df	-0.012166708
229	0xbbbc0a77	-0.005738552
230	0xbd29869a	-0.04138813
231	0xbd32d33a	-0.043658473
232	0xbc829356	-0.015939396
233	0xbdb8add5	-0.09017531
234	0x3d94799d	0.072497584
235	0x3c0d3e2e	0.008620782
236	0x3cb716d4	0.022349752
237	0x3d31c3d0	0.043399632
238	0x3c815e8d	0.015792156
239	0xbdc209c2	-0.094745174
240	0xbb57c6db	-0.0032924924
241	0xbc0170b0	-0.007900402
242	0xbdb79538	-0.08964008
243	0xbc26494e	-0.010149313
244	0x3d138e14	0.036024168
245	0xbc6e07a0	-0.014528185
246	0x3c106d9a	0.008815194
247	0xbcc44d4c	-0.02396264
248	0xbc3d70b4	-0.011562515
249	0xbb567862	-0.0032725562
250	0x39c209a0	0.00037009735
251	0xbc92e242	-0.017930154
252	0x3b00d510	0.0019658245
253	0xbcceedc7	-0.025259865
254	0xbcc0b92e	-0.0235258
255	0xb902964e	-0.00012453759

head.conv.bias f4 [64]
0	0xbd87c6ef	-0.066297404
1	0x3daf01d2	0.08545269
2	0x3d4d67e6	0.050147913
3	0x3d429800	0.04750824
4	0x3b6fb599	0.0036576746
5	0x3d116abe	0.035502188
6	0xbdc4175d	-0.09574769
7	0xbd7a87ad	-0.061164547
8	0xbd84f8fc	-0.064928025
9	0xbd585d19	-0.05282316
10	0xbd8083f5	-0.06275169
11	0x3cdb4439	0.02676593
12	0xbdba796c	-0.09105191
13	0x3da4237a	0.08014579
14	0xbd85ad02	-0.06527139
15	0xbdfb2c90	-0.12264359
16	0xbd62ac11	-0.055339877
17	0xbdc0cbca	-0.0941387
18	0x3d0d5093	0.03450067
19	0x3ba9a2f3	0.0051768958
20	0x3d9ec76b	0.0775288
21	0xbd9342f3	-0.07190504
22	0xbd0ed92a	-0.034875073
23	0x3d0d359f	0.034474965
24	0x3bfcf7f3	0.0077199875
25	0xba0da01e	-0.00054025825
26	0x3ce760ba	0.028244365
27	0xbd8c7320	-0.06857896
28	0xbce22943	-0.027607566
29	0x3ca9bfde	0.020721372
30	0xbd06e2ce	-0.03293114
31	0x3cd8ae99	0.026450442
32	0x3cd1434f	0.02554479
33	0xbd36074e	-0.04444056
34	0x3cfe23f9	0.031023012
35	0xbc4b56f4	-0.012410868
36	0xbd9c0020	-0.07617211
37	0xbca0ce6b	-0.019629678
38	0x3d8aa019	0.067688175
39	0xbbcc6455	-0.0062375464
40	0xbcac1d5d	-0.021010095
41	0xbd6ad695	-0.057333548
42	0x3cf296cb	0.02961292
43	0x3d07b659	0.033132885
44	0x3d9cf5a2	0.07664038
45	0x3c265a09	0.010153302
46	0x3d5af732	0.0534584
47	0x3d536700	0.0516119
48	0xbcd1b540	-0.025599122
49	0xbdca5e39	-0.09881253
50	0xbdad7d2d	-0.08471141
51	0xbd0e664b	-0.034765523
52	0x3d13d319	0.03608999
53	0x3aba57d3	0.0014216847
54	0xbc839225	-0.016060898
55	0xbda375a3	-0.07981422
56	0xbd28d67e	-0.04122018
57	0xbdff6028	-0.12469512
58	0x3dd7a46b	0.10529407
59	0x3c773276	0.015087714
60	0xbdf002d3	-0.11719289
61	0x3c15b564	0.009137485
62	0xbd5ad5af	-0.05342644
63	0x3b6b6533	0.0035918474

head.norm.weight f4 [64]
0	0x3f861237	1.0474309
1	0x3f64ca9b	0.8937165
2	0x3f6c3f07	0.9228367
3	0x3f6afb8a	0.9179007
4	0x3f550517	0.8321089
5	0x3f87bbc6	1.0604179
6	0x3f61c3fd	0.8818968
7	0x3f8aa8fd	1.0832821
8	0x3f5a44db	0.85261315
9	0x3f7614c1	0.9612542
10	0x3f7ceb46	0.987965
11	0x3f661f08	0.898911
12	0x3f73ba47	0.9520611
13	0x3f839d41	1.0282365
14	0x3f891099	1.070819
15	0x3f7aeebf	0.9802055
16	0x3f72a8ab	0.94788617
17	0x3f626cb5	0.88447124
18	0x3f52ccfe	0.82344043
19	0x3f490440	0.7852211
20	0x3f7cf105	0.98805267
21	0x3f7ef942	0.9959909
22	0x3f73a23e	0.95169437
23	0x3f75e148	0.96046877
24	0x3f86d08b	1.0532392
25	0x3f804a13	1.0022606
26	0x3f836b8c	1.0267196
27	0x3f5f2238	0.8716159
28	0x3f8187ad	1.011953
29	0x3f634704	0.88780236
30	0x3f8ae84c	1.0852141
31	0x3f62327e	0.88358295
32	0x3f7fa9e2	0.99868596
33	0x3f7d12d8	0.9885688
34	0x3f90a861	1.1301385
35	0x3f6ec2a2	0.93265736
36	0x3f8aac48	1.0833826
37	0x3f6aa34e	0.91655433
38	0x3f864c76	1.0492084
39	0x3f884f74	1.0649247
40	0x3f899e51	1.0751439
41	0x3f8a9900	1.0827942
42	0x3f8d21ca	1.1025937
43	0x3f6f6016	0.9350599
44	0x3f719950	0.9437456
45	0x3f811a03	1.0086063
46	0x3f82ef74	1.0229325
47	0x3f7f837e	0.99810016
48	0x3f6a88b7	0.9161486
49	0x3f65f5f2	0.8982841
50	0x3f7f3894	0.99695706
51	0x3f7212cc	0.9455993
52	0x3f7de3bf	0.9917564
53	0x3f7b6668	0.98203135
54	0x3f6b9eb3	0.9203903
55	0x3f658287	0.89652294
56	0x3f83c056	1.0293071
57	0x3f8d9258	1.1060286
58	0x3f6415bd	0.8909567
59	0x3f706533	0.9390442
60	0x3f6de2bb	0.9292409
61	0x3f6af89b	0.9178559
62	0x3f58ff50	0.84764576
63	0x3f7c2a7e	0.9850234

head.norm.bias f4 [64]
0	0x3e2255ac	0.15852994
1	0x3e9814bf	0.29703328
2	0x3ea0e9d2	0.3142839
3	0x3d8810cd	0.066438295
4	0x3ee91718	0.45525432
5	0xba9fdc3b	-0.0012196371
6	0xbdc47228	-0.09592086
7	0x3e0c0f1d	0.1367764
8	0x3ec3dd59	0.38254812
9	0x3dcee01d	0.1010134
10	0x3d15d939	0.036584113
11	0x3ea37538	0.31925368
12	0x3ccc73cf	0.024957566
13	0x3da14e60	0.07876277
14	0xbda44ccb	-0.080224596
15	0x3dfcfae8	0.12352544
16	0x3eea3039	0.45739916
17	0x3e283bd9	0.1642908
18	0x3eab8314	0.33498442
19	0x3ebd8fb2	0.37023693
20	0x3e6155b7	0.22005354
21	0x3e65f262	0.22455743
22	0x3edd8554	0.43265784
23	0x3e67d823	0.22641043
24	0x3e3b1ac1	0.18271925
25	0xbdd9669b	-0.106152736
26	0x3b5dac6b	0.0033824693
27	0x3db1b7fa	0.08677669
28	0x3e415ad2	0.18882301
29	0x3e4634e7	0.19356118
30	0x3df479b8	0.119372785
31	0x3ea29ff9	0.31762674
32	0x3f032f29	0.51243836
33	0x3e0453c4	0.12922579
34	0x3b5da2f1	0.0033819044
35	0xbb5d949d	-0.0033810504
36	0x3e388006	0.18017587
37	0x3b9f596f	0.0048629562
38	0xbdc108bc	-0.09425494
39	0x3e39063b	0.18068783
40	0xbcc9addc	-0.024619035
41	0x3e2ef46b	0.17085426
42	0x3e638050	0.22216916
43	0x3eac6d30	0.33677053
44	0x3ef212d9	0.47280005
45	0x3ea5d14b	0.3238624
46	0x3e86a850	0.26300287
47	0x3e8385dd	0.25688067
48	0x3dde68a4	0.10859802
49	0x3e810008	0.25195336
50	0xbdbcc00a	-0.09216316
51	0x3d9f13bb	0.07767435
52	0x3e14dea8	0.14538062
53	0x3e41628e	0.18885252
54	0x3eb9118f	0.3614621
55	0x3ecf90e8	0.40540242
56	0x3d955650	0.072918534
57	0x3c63d12d	0.013904852
58	0x3e41f4a0	0.18940973
59	0x3eb7d487	0.35904333
60	0x3e8ef7ed	0.27923527
61	0x3e087e4d	0.1332943
62	0xbc13f688	-0.009030946
63	0x3e18b1a2	0.14911512

head.norm.running_mean f4 [64]
0	0xbd0fdb92	-0.035121508
1	0x3df3f93d	0.11912773
2	0x3d3a06c1	0.045416597
3	0x3d7a8e3b	0.061170798
4	0xbe6817b4	-0.22665292
5	0x3e43b45d	0.19111772
6	0xbe3cea8d	-0.18448849
7	0xbe4907ca	-0.19631878
8	0xbdc8f4d4	-0.09812322
9	0xbdbae4d8	-0.0912568
10	0xbe2deca8	-0.16984808
11	0x3d8de9c7	0.06929355
12	0xbe864b6e	-0.26229423
13	0xbd5e27b4	-0.054237083
14	0x3e2cf587	0.16890536
15	0xbe62b7af	-0.22140382
16	0x3e1157b8	0.14193618
17	0xbc9099b5	-0.017651418
18	0xbd95c2fb	-0.0731258
19	0xbdaccfa4	-0.08438042
20	0x3dc3611a	0.09540005
21	0xbe152020	-0.14563036
22	0xbd38ece0	-0.045147777
23	0xbdacbe7c	-0.084347695
24	0x3eb5ab48	0.3548224
25	0x3dd7a3d8	0.105292976
26	0xbd2ab282	-0.041674145
27	0xbe2fcaea	-0.1716725
28	0x3d3d5a0d	0.046228457
29	0xbe453725	-0.19259317
30	0xbd83d4d3	-0.064370774
31	0x3d8af29a	0.06784554
32	0x3daff29e	0.085911974
33	0xbe4b1c52	-0.19835022
34	0x3cb1d39b	0.021707347
35	0xbd0cbe22	-0.034361012
36	0x3d90832d	0.0705627
37	0x3dc600c1	0.096681125
38	0x3d76fb46	0.060298227
39	0xbd7e1f0e	-0.062041335
40	0x3d17a7eb	0.037025373
41	0xbe546459	-0.20741405
42	0x3de49a12	0.11162199
43	0x3d3995fc	0.045309052
44	0xbc99739d	-0.018731887
45	0xbd12c12a	-0.035828747
46	0xbe827e6c	-0.25487077
47	0x3e17e378	0.14832866
48	0xbd2069bd	-0.03916334
49	0xbea12423	-0.31472883
50	0xbe16c608	-0.1472398
51	0xbe392880	-0.18081856
52	0x3d2ec22c	0.042665645
53	0xbd0c0897	-0.03418788
54	0xbe1074a6	-0.14106998
55	0xbe47518e	-0.19464704
56	0xbded38e6	-0.11583118
57	0xbda5d17e	-0.08096598
58	0xbcc7dfb4	-0.024398662
59	0x3da9c16a	0.08288844
60	0xbe16a2d4	-0.14710552
61	0xbe520397	-0.20509182
62	0xbe076883	-0.13223462
63	0xbd9d2949	-0.0767389

head.norm.running_var f4 [64]
0	0x3ba66b11	0.0050786813
1	0x3b811d22	0.0039402405
2	0x3b9b757e	0.004744231
3	0x3b5c9df8	0.0033663493
4	0x3beb10b0	0.00717362
5	0x3c189902	0.009313824
6	0x3b533a0b	0.0032230641
7	0x3bdb8a50	0.0066998377
8	0x3b885075	0.004159982
9	0x3b311746	0.0027021929
10	0x3bc15554	0.0059000645
11	0x3badd7b5	0.0053052553
12	0x3bb85d9f	0.005626395
13	0x3c1bcfa6	0.009509956
14	0x3c07c2cb	0.008286188
15	0x3b8c346a	0.004278709
16	0x3c12bc1f	0.008955984
17	0x3b23734f	0.0024940555
18	0x3b630d91	0.0034645537
19	0x3b050e2c	0.0020302637
20	0x3b2e1526	0.0026562898
21	0x3b4b56c4	0.0031027058
22	0x3ba6c0b8	0.005088892
23	0x3b83ad08	0.0040184297
24	0x3bf1c8fc	0.0073786955
25	0x3c02e79e	0.007989792
26	0x3b9d8e19	0.004808199
27	0x3b2de63d	0.0026534938
28	0x3bac2b26	0.005254167
29	0x3b8273a1	0.003981069
30	0x3c0dcc5c	0.00865468
31	0x3b4bfb88	0.0031125266
32	0x3bbe0cc4	0.0057998616
33	0x3bcbdae7	0.0062211636
34	0x3be3bb0c	0.006949788
35	0x3b60f746	0.0034327074
36	0x3b823857	0.0039740014
37	0x3b5634da	0.003268531
38	0x3b41fe8f	0.0029601192
39	0x3c1190a4	0.008884583
40	0x3bbafc2b	0.0057063303
41	0x3c1259be	0.008932529
42	0x3bf426b3	0.0074509024
43	0x3b685ea2	0.0035456796
44	0x3c054cd3	0.008135992
45	0x3bb08791	0.0053872545
46	0x3c324f36	0.010883143
47	0x3b9df237	0.004820134
48	0x3b4734ef	0.003039654
49	0x3b8ce1b4	0.004299367
50	0x3b1f310b	0.0024290706
51	0x3b44ab60	0.0030009374
52	0x3b4853e2	0.0030567576
53	0x3b8a6335	0.004223252
54	0x3b612aa1	0.0034357684
55	0x3badb18f	0.0053007076
56	0x3b12f9e2	0.0022426774
57	0x3c123d38	0.0089257285
58	0x3b5c4c82	0.0033614938
59	0x3b1ceac7	0.002394365
60	0x3c2df926	0.010618484
61	0x3b3a6887	0.002844365
62	0x3b10dee4	0.002210551
63	0x3bae8b0c	0.0053266343

body.block1.conv.weight f4 [64, 64, 3, 3]
0	0xbcdd5001	-0.027015688
1	0xbc91d3e2	-0.017801229
2	0x3c1bcfaa	0.00950996
3	0xbcd98e4d	-0.026557112
4	0xb9b5fcf2	-0.0003471147
5	0xbc8589f2	-0.016301129
6	0x3c8b26c5	0.01698626
7	0x3cb3a40b	0.021928808
8	0x3bc5ac21	0.0060324823
9	0x3b03f543	0.00201352
10	0x3ba498bd	0.0050230906
11	0x3cbf58f3	0.023357844
12	0xbd3504ec	-0.044194147
13	0xbd13ceab	-0.036085766
14	0xbdb89e01	-0.09014512
15	0xbd100a2d	-0.035165954
16	0xbc5f28df	-0.013620584
17	0xbd0442be	-0.032290213
18	0xbd387650	-0.045034707
19	0x3c9ca8fa	0.019123543
20	0xbb17ddac	-0.0023172898
21	0xbbbc3d55	-0.005744616
22	0xbcf5b60e	-0.029994037
23	0xbd573418	-0.052539915
24	0x3d1a8c50	0.03773147
25	0x3d74e8d0	0.05979234
26	0x3d94e3a4	0.072699815
27	0x3c9f0f67	0.019416524
28	0x3d389489	0.04506353
29	0x3cb9b323	0.022668427
30	0xbb4ba4fa	-0.0031073675
31	0xbb4b6c22	-0.0031039794
32	0x3c5d340f	0.013501181
33	0x3d72630f	0.0591765
34	0x3d707189	0.058702026
35	0x3d71e852	0.05905945
36	0x3beedb22	0.0072893063
37	0xbc81f165	-0.015862176
38	0xbcad3efa	-0.021148194
39	0x3ca90484	0.020632036
40	0x3cc40b42	0.02393115
41	0x3d478cb1	0.04871816
42	0x3d1d1c76	0.03835722
43	0x3d13adb5	0.03605433
44	0x3d47b7bb	0.048759203
45	0x3d48da1e	0.049036138
46	0x3cb0b6b2	0.02157149
47	0xbb5fdb26	-0.0034157722
48	0xbd449822	-0.047996648
49	0xbc503826	-0.012708699
50	0xbb43cb00	-0.0029875636
51	0x3d415546	0.047200464
52	0x3dcfd0d8	0.10147256
53	0x3d2daa50	0.04239875
54	0xbca2bd4c	-0.019865654
55	0xbc1f2ee5	-0.00971577
56	0x3add8162	0.0016899521
57	0x3c1bec1d	0.009516743
58	0xbd2215e7	-0.03957167
59	0xbd358e53	-0.044325184
60	0xbd16acc2	-0.03678585
61	0xbcd1e9b8	-0.025624141
62	0xbd73d15e	-0.05952584
63	0xbc706730	-0.014673039
64	0xbc9ea878	-0.019367442
65	0x3c66575f	0.014058917
66	0x397ea590	0.00024285004
67	0x3d35d17f	0.044389244
68	0x3c8c4581	0.017122986
69	0x3d7ddbf2	0.061977334
70	0x3d1c7b6d	0.038203645
71	0x3db7bc0e	0.089714155
72	0xbd2b540d	-0.041828204
73	0xbcacc549	-0.021090167
74	0x3c4b027a	0.012390727
75	0x3aca831c	0.0015450451
76	0xbb61c317	-0.0034448558
77	0x3b04e3fb	0.0020277489
78	0xbca11642	-0.019663934
79	0x3c75f727	0.015012539
80	0x3d02efb0	0.031966865
81	0x3c53b182	0.012920739
82	0x3ce91923	0.028454369
83	0x3c98f087	0.01866938
84	0xbc18985b	-0.009313668
85	0x3d179aef	0.03701299
86	0xbcb032d5	-0.021508614
87	0xbd05a101	-0.03262425
88	0xbc8728d1	-0.016498955
89	0x3ccb73a0	0.024835408
90	0xbd4f0043	-0.05053736
91	0xbbbb36df	-0.0057133283
92	0xbca3f3f9	-0.020013796
93	0x3ce163f2	0.027513478
94	0x3c656919	0.014002108
95	0xbc4442b5	-0.011978795
96	0xbdddcae2	-0.108297125
97	0xbda92984	-0.082598716
98	0xbdc2bada	-0.09508295
99	0xbd1ee340	-0.03879094
100	0xbd18a8fe	-0.03727054
101	0xbce6ae47	-0.028159274
102	0xbd8225e4	-0.06354883
103	0x3b3ed386	0.0029117777
104	0xbcdb067c	-0.02673649
105	0x3cdf665a	0.027270485
106	0x3b84ad45	0.0040489757
107	0x3c163d07	0.0091698235
108	0x3c92b442	0.01790822
109	0x381fde9c	3.8115875e-05
110	0xbb9b0bbd	-0.004731624
111	0xbcde85aa	-0.027163345
112	0x3ce66f67	0.028129293
113	0x3ca4ce68	0.020117953
114	0xbd8a651f	-0.067575686
115	0xbdb94830	-0.09046972
116	0xbda03534	-0.07822648
117	0x3db1e3e3	0.08686044
118	0x3d9236cd	0.07139359
119	0x3db3e3c1	0.08783675
120	0xbd95a6c7	-0.07307201
121	0xbd48d1d5	-0.049028236
122	0xbd950393	-0.07276072
123	0xbc5b5848	-0.013387747
124	0xbce78e70	-0.028266162
125	0xbce21855	-0.027599493
126	0xbc6098db	-0.013708319
127	0xbd5c5fc8	-0.05380228
128	0xbd5e2489	-0.05423406
129	0x3d8df13f	0.0693078
130	0x3dbc544d	0.091957666
131	0x3db4d99d	0.08830569
132	0x3cfad3b7	0.030618532
133	0x3d840709	0.06446654
134	0x3da0f5bb	0.07859369
135	0xbd46db1f	-0.048548814
136	0xbcdb8ee4	-0.026801534
137	0xbd19527b	-0.037432175
138	0xbc987935	-0.018612484
139	0x3d200cdf	0.039074775
140	0x3c382973	0.011240351
141	0xbcccc782	-0.024997476
142	0xbd13af94	-0.036056116
143	0xbd9a4bca	-0.07533987
144	0xbcdeb629	-0.02718647
145	0xbcd143bc	-0.025544994
146	0xbc85ffb7	-0.016357286
147	0x3c8b8cd5	0.017034927
148	0x3c12e5c1	0.00896591
149	0x3c90f914	0.017696895
150	0xbcd39396	-0.02582721
151	0xbd1b218d	-0.037873793
152	0x3baae4be	0.0052152565
153	0xbd4314a0	-0.04762709
154	0xbca8c39c	-0.020601086
155	0xbcc823b5	-0.024431089
156	0xbdccceab	-0.10000356
157	0xbd774c39	-0.060375426
158	0x3d136be7	0.035991576
159	0xbd08beeb	-0.0333852
160	0x3bddd0e2	0.0067692855
161	0x3cffa931	0.031208606
162	0xbc38b114	-0.011272687
163	0xbc94e240	-0.01817429
164	0x3b499f79	0.003076522
165	0xbc431498	-0.011906765
166	0x3c265fd8	0.010154687
167	0xbc0574e7	-0.0081455475
168	0xbcc86405	-0.024461756
169	0x3d23cb03	0.03998853
170	0xbc867423	-0.0164128
171	0x3cfa45c3	0.030550843
172	0x3d317a60	0.043329597
173	0x3c0a679f	0.008447557
174	0x3ca95dc3	0.020674592
175	0x3ca195da	0.019724775
176	0x3d1eb886	0.038750194
177	0x3c2cf9f2	0.0105576385
178	0x3bb60bb5	0.005555595
179	0x3aa94e88	0.0012917081
180	0x3c3d92fe	0.01157069
181	0xbcbbe002	-0.022933964
182	0xbcd77218	-0.026299521
183	0x3cae3a5c	0.021268062
184	0x3c83de49	0.016097205
185	0xbbb19fca	-0.0054206597
186	0xbcccbd8b	-0.024992725
187	0xbc370ce2	-0.011172505
188	0x3cdf95c7	0.0272931
189	0xbba2ab7b	-0.0049642897
190	0xbc5ed8f4	-0.01360153
191	0x3ba28ee2	0.0049608806
192	0xba268935	-0.0006352843
193	0xbcd2f8a2	-0.025753323
194	0xbb9ffdac	-0.004882535
195	0xbd1fb6bf	-0.03899264
196	0xbaba155d	-0.001419704
197	0x3d031333	0.03200073
198	0x3c9be1f6	0.019028645
199	0x3c6d1df7	0.014472476
200	0x3cc0b5fa	0.023524273
201	0xbc8df91b	-0.017330697
202	0xba795cdf	-0.0009512435
203	0x3c17e01d	0.009269741
204	0x3d9458a8	0.07243472
205	0x3d09da5c	0.03365551
206	0xbcccc4fc	-0.024996273
207	0x3b343f75	0.0027503644
208	0x3c00ca6b	0.00786076
209	0x3b67663c	0.003530874
210	0x3b65c102	0.0035057669
211	0xbc12983b	-0.008947427
212	0x3d031fed	0.03201287
213	0x3d897bef	0.067130916
214	0x3d8e9716	0.06962411
215	0x3c2041f3	0.0097813485
216	0x3d532570	0.051549375
217	0x3dbb9961	0.09160114
218	0x3ca2128d	0.019784236
219	0xbbb7950f	-0.005602486
220	0x3c68d3bd	0.014210639
221	0x3cc5ed97	0.024161143
222	0x3c27550f	0.010213151
223	0xbd4c9bfe	-0.049953453
224	0xbc32db1b	-0.010916497
225	0x3b85fb42	0.00408879
226	0x3ba7c089	0.0051193875
227	0xbbcd0567	-0.0062567475
228	0x3ce72711	0.02821687
229	0x3c6cf359	0.0144623155
230	0x3d02df8e	0.03195148
231	0x3dafc998	0.08583373
232	0x3ca5a136	0.020218473
233	0x3dc98475	0.09839717
234	0xbd4fc007	-0.05072024
235	0xbd3190c6	-0.043350957
236	0xbc0fae8a	-0.008769641
237	0x3ba60b80	0.005067289
238	0x3b9cc2c4	0.00478396
239	0xbc829990	-0.015942365
240	0xbd9887ad	-0.07447753
241	0xbdf95959	-0.12175245
242	0xbd6877ee	-0.056755
243	0x3c0cd2f1	0.008595214
244	0xb78bbbe0	-1.6657577e-05
245	0xbc790ea5	-0.015201245
246	0x3d3a7dfa	0.045530297
247	0x3c7e797e	0.015531896
248	0xbb5b7e28	-0.0033491943
249	0xbd59d9a1	-0.053186063
250	0x3c6a2105	0.014290099
251	0xbd987eda	-0.0744607
252	0x3c8f53af	0.017495958
253	0x3ca6c681	0.020358326
254	0x3cf88534	0.030336954
255	0x3c98598a	0.018597383

body.block1.conv.bias f4 [64]
0	0x3aaaa16f	0.0013018082
1	0x3c663376	0.014050355
2	0x3d54621f	0.051851388
3	0xbdb6e5e2	-0.089305654
4	0xbd36083e	-0.044441454
5	0xbbced8ce	-0.006312466
6	0xbd3f430b	-0.046694797
7	0x3ca6344b	0.020288607
8	0xbda602e9	-0.08106024
9	0xbd172bbf	-0.036906954
10	0x3d1c0fcc	0.038101003
11	0x3d039699	0.032126043
12	0x3cab92ba	0.020943988
13	0xbb932f09	-0.004491691
14	0xbd07ac77	-0.03312346
15	0x3d288409	0.041141544
16	0x3d621b24	0.055201665
17	0xbc654505	-0.013993506
18	0x3d5618d9	0.05226979
19	0x3b676dc8	0.0035313237
20	0x3bd8d78a	0.006617491
21	0xbc969593	-0.01838187
22	0xbd2b0562	-0.04175318
23	0xbcac82b5	-0.02105842
24	0xbd3013a8	-0.042987496
25	0xbd4a12a0	-0.04933417
26	0x3d1f8abf	0.038950678
27	0x3d85e8f4	0.06538573
28	0x3d26f55b	0.040761333
29	0x3db95f0f	0.09051334
30	0xbd95851d	-0.0730078
31	0x3d0d51b7	0.034501757
32	0x3d43dd40	0.047818422
33	0xbd524c28	-0.05134216
34	0xbd0d25b4	-0.034459785
35	0xbc0babd9	-0.008524858
36	0xbd53a574	-0.05167146
37	0x3bef5ffd	0.007305144
38	0xbbcb1d61	-0.0061985706
39	0xbc6c1c74	-0.014411081
40	0x3da8ba14	0.082386166
41	0x3d8ed75e	0.06974672
42	0xbb3b7c6e	-0.0028608101
43	0xbc9a5a57	-0.018841906
44	0x3d276de3	0.04087628
45	0xbb8e3ab4	-0.004340494
46	0xbce668c0	-0.02812612
47	0x3cb02f6a	0.021506984
48	0x3c0a619f	0.008446126
49	0xbd553cc5	-0.052059907
50	0xbba48133	-0.0050202846
51	0xbd15f8fb	-0.0366144
52	0x3d6a55d7	0.05721077
53	0xbc053b35	-0.008131792
54	0x3c46a937	0.012125305
55	0x3bfeab09	0.007771854
56	0x3c1047b3	0.008806157
57	0xbdb4ceaf	-0.08828484
58	0xbcf440ab	-0.029815992
59	0x3c60c4ae	0.013718767
60	0xbd32cc01	-0.043651585
61	0x3cae75cd	0.021296406
62	0xbd3e461f	-0.04645359
63	0x3bbd76f3	0.005782002

body.block1.norm.weight f4 [64]
0	0x3f7db5f4	0.99105763
1	0x3faf0681	1.367386
2	0x3f965002	1.1743166
3	0x3f917192	1.1362784
4	0x3f9b52a7	1.2134598
5	0x3f906256	1.128001
6	0x3f9a33af	1.2047023
7	0x3f947768	1.159894
8	0x3f96779c	1.1755252
9	0x3f990c3b	1.1956857
10	0x3f97f88d	1.1872727
11	0x3f932f22	1.1498759
12	0x3f847e18	1.0350981
13	0x3fa1fbcc	1.2654967
14	0x3f8690d9	1.0512954
15	0x3f87b928	1.060338
16	0x3f8e1f16	1.1103237
17	0x3f8a43b3	1.080191
18	0x3f982f9d	1.188953
19	0x3f98dd52	1.1942542
20	0x3f8cc040	1.099617
21	0x3f90973d	1.1296154
22	0x3f8bdbdb	1.092647
23	0x3f8c2f3b	1.0951914
24	0x3f8e9e93	1.1142143
25	0x3f943e4f	1.1581515
26	0x3f909f16	1.1298549
27	0x3f8e9670	1.113966
28	0x3f938ff9	1.1528312
29	0x3f8dec58	1.1087751
30	0x3f8d3983	1.1033176
31	0x3f949d30	1.161047
32	0x3f894e41	1.0727006
33	0x3f8a6253	1.0811256
34	0x3f9674e6	1.1754425
35	0x3f8effa8	1.117177
36	0x3f94c62a	1.1622975
37	0x3f949fb5	1.1611239
38	0x3f8ae0ca	1.084985
39	0x3f9fd7ef	1.2487773
40	0x3f85a682	1.0441439
41	0x3f8ed6ab	1.1159261
42	0x3f81107e	1.0083158
43	0x3f9e4b06	1.2366645
44	0x3f95c8d3	1.1701912
45	0x3f94e185	1.1631323
46	0x3f8d504b	1.1040128
47	0x3f88f03f	1.0698317
48	0x3f9f5b6e	1.2449777
49	0x3f959388	1.1685648
50	0x3f97814d	1.1836334
51	0x3fb28055	1.3945414
52	0x3f90b7b0	1.1306057
53	0x3f89de07	1.0770882
54	0x3f931135	1.1489626
55	0x3f8c9afd	1.0984799
56	0x3fa9eff1	1.3276349
57	0x3f8d1658	1.1022444
58	0x3f90a701	1.1300966
59	0x3f8be0e7	1.092801
60	0x3fa06580	1.2530975
61	0x3f8fc1b6	1.1230991
62	0x3f93f169	1.1558048
63	0x3f839082	1.0278475

body.block1.norm.bias f4 [64]
0	0x3f2ef857	0.68347687
1	0x3ec15094	0.3775679
2	0x3f225a43	0.6341898
3	0x3f6ca4f4	0.924392
4	0x3c070aeb	0.008242349
5	0x3e9fb231	0.31190637
6	0x3c8237fb	0.015895834
7	0x3f009346	0.5022472
8	0x3de47b67	0.1115635
9	0x3edcbbc5	0.43112007
10	0x3eaf1861	0.34198287
11	0xbeb7453e	-0.35795015
12	0xbf29502f	-0.66137975
13	0x3e897d8b	0.26853594
14	0x3d9a8519	0.075449176
15	0xbe3393ba	-0.17536822
16	0x3f176392	0.5913631
17	0xbb106357	-0.0022031867
18	0xbd471cf4	-0.048611596
19	0x3f2202a7	0.632853
20	0x3eec9e5c	0.4621457
21	0x3c0c412c	0.00856046
22	0x3e03ec4b	0.12883107
23	0x3f1e6dee	0.6188649
24	0x3fe6940a	1.8013928
25	0x3e1fc488	0.15602314
26	0x3ec2979a	0.38006288
27	0xbd07f8dc	-0.033196315
28	0x3d1ab547	0.037770536
29	0x3ed134df	0.4086065
30	0x3f492bfa	0.7858273
31	0xbebfc28a	-0.3745311
32	0x3e7b2043	0.24524026
33	0x3d80678d	0.06269751
34	0x3e6e86d5	0.23293622
35	0x3efc48fc	0.49274433
36	0x3f0ff5f7	0.5623469
37	0x3e45ccc5	0.19316395
38	0x3f1c47ac	0.6104686
39	0x3e9c7ca9	0.30563858
40	0x3f826b0a	1.0188916
41	0x3db6b723	0.08921649
42	0x3f070d8e	0.5275506
43	0x3d69fc43	0.05712534
44	0xbe42dd56	-0.19029745
45	0x3f036f9a	0.51342165
46	0xbef4a5a4	-0.47782624
47	0xbead0ff4	-0.33801234
48	0xbd1bf613	-0.03807647
49	0x3eac03be	0.33596605
50	0x3e5e2409	0.21693434
51	0xbdcbc9b4	-0.09950581
52	0xbecc6898	-0.3992355
53	0x3fb4b9cb	1.41192
54	0xbe134611	-0.14382197
55	0xbc2f41ba	-0.010696823
56	0xbf0f6a4b	-0.56021565
57	0x3f49d25f	0.78836626
58	0xbeecea63	-0.46272573
59	0x3f5cbe4b	0.86227864
60	0x3eee21a8	0.46510053
61	0x3ce09c1c	0.027418189
62	0x3ebf8ce3	0.37412176
63	0xbf29d7f2	-0.6634513

body.block1.norm.running_mean f4 [64]
0	0x3eafea6d	0.3435854
1	0x3f33dde7	0.7026047
2	0x3f3a69a9	0.72817475
3	0xbf415a50	-0.7552843
4	0x3e1dde8e	0.15416929
5	0xbe8d159f	-0.27555558
6	0x3e74bea8	0.23900855
7	0xbf2e7b3e	-0.681568
8	0x3f46a6d8	0.77598333
9	0x3d6e8769	0.058234606
10	0xbec42147	-0.3830664
11	0xbebac002	-0.36474615
12	0xbf15b90e	-0.58485496
13	0x3f241d92	0.6410762
14	0x3e519639	0.20467462
15	0xbbefa04a	-0.007312809
16	0x3c097c98	0.008391522
17	0xbd2ccb6a	-0.04218618
18	0xbde3a43f	-0.11115312
19	0xbea47553	-0.3212076
20	0xbec72e33	-0.38902435
21	0xbefa770e	-0.48918957
22	0xbc4b3ca3	-0.012404594
23	0x3f2d5b2a	0.6771723
24	0x3eaa7fc9	0.33300617
25	0xbeec1cac	-0.46115625
26	0x3e9d49e4	0.30720437
27	0x3edbbd1c	0.42917717
28	0x3ea0f4d6	0.31436795
29	0x3f4867e0	0.782835
30	0xbf3f2334	-0.7466309
31	0xbe6e4c3f	-0.23271273
32	0x3e4341fd	0.19068141
33	0xbf536cd8	-0.8258796
34	0x3e6e2796	0.23257288
35	0xbfab0668	-1.336133
36	0x3ea1aa09	0.3157504
37	0x3e962deb	0.29331908
38	0x3ee2fb9c	0.44332588
39	0xbef6775d	-0.48137942
40	0x3eae09bc	0.33991802
41	0xbeb5de74	-0.3552128
42	0xc03e64e3	-2.9749076
43	0x3dc3c6c9	0.095594
44	0xbf11d3ec	-0.5696399
45	0x3e8051b5	0.25062338
46	0xbf368932	-0.71303093
47	0xbeb2a663	-0.34892568
48	0xbced07ef	-0.028934447
49	0x3f0ba0fa	0.54542506
50	0x3ebb6448	0.36599946
51	0xbf5ec072	-0.870124
52	0xbdcad532	-0.09903945
53	0xbf1c2b53	-0.6100361
54	0x3d9312a0	0.07181287
55	0xbeaddf19	-0.33959273
56	0x3f858bfe	1.0433347
57	0xbf528dee	-0.8224782
58	0x3f9b5809	1.2136241
59	0xbf9b41c6	-1.2129447
60	0x3e522577	0.20522104
61	0x3efd28bd	0.49445143
62	0x3f51f811	0.82019144
63	0xbfaf298e	-1.3684556

body.block1.norm.running_var f4 [64]
0	0x3f0bc3a2	0.54595387
1	0x3f388c1a	0.7208878
2	0x3e804574	0.2505299
3	0x3f099240	0.53738785
4	0x3e409742	0.188077
5	0x3e8b9bea	0.2726739
6	0x3ec2196d	0.37910023
7	0x3ef5f330	0.480371
8	0x3eb3d039	0.351198
9	0x3ea52ccc	0.3226074
10	0x3f07cc97	0.53046554
11	0x3e8a3e78	0.27000785
12	0x3e7400e0	0.23828459
13	0x3f19cbeb	0.6007678
14	0x3e1438e1	0.14474823
15	0x3e8afa88	0.27144265
16	0x3e9df5f6	0.30851716
17	0x3e9b3be8	0.30319142
18	0x3e2807f0	0.16409278
19	0x3e22a746	0.15884122
20	0x3e3546f7	0.17702852
21	0x3dc132c5	0.09433512
22	0x3ed80249	0.42189243
23	0x3e9d3fb5	0.30712667
24	0x3ee2e59b	0.443158
25	0x3e954d1c	0.29160392
26	0x3e16bf63	0.14721446
27	0x3e2193bc	0.15779012
28	0x3ee37c31	0.44430688
29	0x3e921452	0.28531128
30	0x3eeb1b28	0.45919156
31	0x3f0172e6	0.50565946
32	0x3e7fca55	0.24979527
33	0x3ec5f6f6	0.3866498
34	0x3e292203	0.1651688
35	0x3f4241ad	0.75881463
36	0x3e2b0ffc	0.16705316
37	0x3e0e00e4	0.13867527
38	0x3eb9943a	0.362459
39	0x3e232cc8	0.15935051
40	0x3ebd5b36	0.3698365
41	0x3e7a6abc	0.24454778
42	0x3e4ec234	0.2019127
43	0x3e43d8bc	0.19125646
44	0x3eb4a963	0.35285482
45	0x3ed01abc	0.40645397
46	0x3eec51c9	0.46156147
47	0x3e60386f	0.21896528
48	0x3e740dcc	0.23833388
49	0x3e996514	0.2995993
50	0x3ea747a4	0.32671845
51	0x3f1285df	0.5723552
52	0x3e9cf8da	0.3065861
53	0x3f4293b3	0.7600662
54	0x3e56540c	0.20930499
55	0x3e9e2626	0.3088848
56	0x3eeb18ea	0.45917445
57	0x3f035203	0.51297015
58	0x3e848059	0.25879171
59	0x3db4790d	0.08812151
60	0x3eac4df9	0.33653238
61	0x3e8aa812	0.27081352
62	0x3e9b3202	0.3031159
63	0x3f30ee9f	0.69114107

tail.weight f4 [1, 64, 3, 3]
0	0x3d2ab201	0.041673664
1	0x3d7e1a1f	0.06203663
2	0x3dade1b3	0.08490314
3	0x3e077603	0.13228612
4	0x3e11f631	0.14254071
5	0x3e197271	0.14985062
6	0xbdd9344f	-0.1060568
7	0xbda41d4c	-0.080134004
8	0xbdc6c8f1	-0.09706295
9	0x3e37595c	0.17905182
10	0x3dd20f23	0.10256793
11	0x3e1b66f8	0.15175998
12	0x3d064bb7	0.03278705
13	0x3d0cb12d	0.034348655
14	0x3d3fabe9	0.046794806
15	0x3ead6b82	0.33871084
16	0x3e562780	0.20913506
17	0x3e8242da	0.2544163
18	0x3db1d456	0.08683078
19	0x3d848e7f	0.064724915
20	0x3d5dc38d	0.05414157
21	0xbda0bb41	-0.07848216
22	0xbd96f66c	-0.0737122
23	0xbccc1377	-0.024911625
24	0x3e525eae	0.2054393
25	0x3e78324c	0.24237937
26	0x3e852581	0.26005176
27	0x3d6f2b50	0.058390915
28	0x3d40efda	0.04710374
29	0x3daee647	0.08540016
30	0x3e48df42	0.19616416
31	0x3e48b45b	0.1960005
32	0x3e746a5c	0.23868698
33	0xbe01a454	-0.12660342
34	0xbde463ee	-0.111518726
35	0xbd9262c3	-0.071477436
36	0xbc8a6d52	-0.016897831
37	0xbd5cca7a	-0.053904034
38	0xbcdcd151	-0.026955279
39	0x3e30c313	0.17261915
40	0x3e509b7f	0.20371817
41	0x3e455fd0	0.19274831
42	0xbd4f0f72	-0.05055184
43	0xbe1dc111	-0.1540568
44	0xbdfe6551	-0.12421668
45	0xbddc42d8	-0.10754937
46	0xbdd5cae0	-0.10439086
47	0xbdc1889b	-0.094498836
48	0x3d456e46	0.048200868
49	0x3d6434db	0.05571447
50	0x3c044671	0.008073435
51	0x3d4845ac	0.04889457
52	0x3dc4b687	0.09605127
53	0x3dcaca14	0.099018246
54	0x3ccbbbb3	0.024869775
55	0xbc864b39	-0.01639329
56	0x3b120861	0.0022282826
57	0x3ce5a8da	0.028034616
58	0x3cc9e68c	0.024646066
59	0x3dd2aa79	0.10286421
60	0x3e449913	0.19199018
61	0x3e2de3ff	0.16981505
62	0x3e43b612	0.19112423
63	0xbd084474	-0.033268407
64	0xbd3f6662	-0.0467285
65	0xbd1c418c	-0.038148448
66	0xbe4983c3	-0.1967917
67	0xbe44353d	-0.19160934
68	0xbdb841e2	-0.08996941
69	0xbdf8082e	-0.12110935
70	0xbdf57f67	-0.11987191
71	0xbc806c48	-0.015676633
72	0xbdc9e9ee	-0.09859072
73	0xbe1c0151	-0.15234877
74	0xbdf60425	-0.12012509
75	0xbe3a3078	-0.18182552
76	0xbe1bdbca	-0.15220562
77	0xbe3eed39	-0.18645181
78	0x3d64862b	0.055792015
79	0x3d70fb0e	0.058833174
80	0x3df759fc	0.1207771
81	0x3cbe3bbf	0.023221849
82	0x3d209f22	0.03921426
83	0x3d278f7b	0.040908318
84	0xbd9ea086	-0.07745461
85	0xbd845627	-0.06461745
86	0xbd4feaf6	-0.050761186
87	0x3e8127ac	0.2522558
88	0x3ea35b24	0.31905472
89	0x3e870606	0.26371783
90	0x3d127673	0.035757493
91	0xbb5c0573	-0.0033572584
92	0x3d54bb71	0.05193657
93	0xbda45d3c	-0.080255955
94	0xbd0fcdbf	-0.035108324
95	0xbce64cae	-0.028112736
96	0x3e0df5f4	0.13863355
97	0x3e2346a3	0.15944915
98	0x3e64181d	0.22274823
99	0x3cd66419	0.026170777
100	0xbb940624	-0.0045173336
101	0xbc13e375	-0.009026398
102	0xbdbef5ae	-0.093242034
103	0xbde5401c	-0.111938685
104	0xbe002c96	-0.12517008
105	0x3e428eb3	0.18999748
106	0x3e28a761	0.164701
107	0x3e47eaa8	0.19523108
108	0xbd3fa308	-0.046786338
109	0xbcf28d94	-0.029608525
110	0xbd5b6af9	-0.053568814
111	0xbc5be8b4	-0.01342218
112	0xbd830fd3	-0.063995026
113	0x3ca795e6	0.02045722
114	0x3e0c74fa	0.13716498
115	0x3e17e8ab	0.1483485
116	0x3e246a22	0.16056111
117	0x3de148f5	0.110002436
118	0x3d9505bd	0.07276485
119	0x3da43a22	0.080189005
120	0x3e15fcc7	0.14647208
121	0x3dbf1567	0.09330254
122	0x3dbb06a2	0.091321245
123	0x3e9e947f	0.3097267
124	0x3e6a42b5	0.22877009
125	0x3e621051	0.22076537
126	0x3c730379	0.014832371
127	0x3d64303f	0.055710074
128	0x3ca4aec1	0.02010286
129	0xbd7550ad	-0.05989139
130	0xbdb46288	-0.08807856
131	0xbe19e9ac	-0.15030545
132	0x3d18c663	0.03729857
133	0x3d490568	0.04907742
134	0x3d2a6012	0.041595526
135	0xbd01c7ba	-0.031684615
136	0xbd43c7cd	-0.047797967
137	0xbc7eb853	-0.015546876
138	0xbdeb80c3	-0.11499169
139	0xbde788c6	-0.11305384
140	0xbd754966	-0.05988445
141	0x3ccccf93	0.025001323
142	0x3cb7fa92	0.022458348
143	0x3de7682a	0.112991646
144	0xbd914ddc	-0.070949286
145	0xbc06261b	-0.008187796
146	0xbd136a57	-0.035990085
147	0xbe84bbe7	-0.25924608
148	0xbe5dca19	-0.21659125
149	0xbe1e7371	-0.15473725
150	0xbcdea768	-0.027179435
151	0x3d23ab38	0.03995821
152	0x3e16e4a6	0.1473566
153	0x3cc6a124	0.02424676
154	0x3c5c42ba	0.013443643
155	0x380eaee9	3.4018336e-05
156	0x3da917cc	0.08256492
157	0x3d4e27fb	0.050331097
158	0x3ca3f3da	0.020013738
159	0x3e156405	0.14588936
160	0x3d3ba3cf	0.045810517
161	0x3d9537e5	0.07286052
162	0xbcc76f6e	-0.024345126
163	0xbb98d33e	-0.004663854
164	0x3c44f471	0.01202117
165	0x3e355d43	0.17711358
166	0x3e09a86b	0.13443153
167	0x3e04126a	0.1289765
168	0xbd72530c	-0.05916123
169	0xbde5340b	-0.11191567
170	0xbdfa6cda	-0.12227793
171	0x3d57bb85	0.052669067
172	0x3d6cf65d	0.057852138
173	0x3d2463d1	0.040134255
174	0x3e03ca1a	0.12870064
175	0x3ddadce0	0.1068666
176	0x3e187b15	0.14890702
177	0xbdbc11db	-0.09183093
178	0xbe1814e8	-0.14851725
179	0xbe295b05	-0.16538627
180	0x3d0f0a7b	0.034922104
181	0x3bc6d5b3	0.0060679554
182	0x3c9f2813	0.019428289
183	0x3dcfeb5f	0.10152315
184	0x3dcbb7b3	0.09947147
185	0x3db75f1b	0.08953687
186	0xbe077f71	-0.13232209
187	0xbdda34b4	-0.106545836
188	0xbde0c368	-0.10974771
189	0x3dc40f07	0.09573179
190	0x3d576045	0.052582044
191	0x3ddc55fe	0.10758589
192	0x3cf07308	0.029351726
193	0xbd18041f	-0.037113305
194	0xbd4baa76	-0.04972311
195	0xba2caa07	-0.00065866153
196	0xbd0216c4	-0.031759992
197	0xbe019025	-0.12652643
198	0xbd503325	-0.050830025
199	0xbce75a2f	-0.028241245
200	0xbcd4f03a	-0.025993455
201	0xbe0fc1af	-0.14038728
202	0xbdf5fd8b	-0.1201125
203	0xbe282912	-0.16421917
204	0x3d2d291a	0.042275526
205	0x3d0cead2	0.03440363
206	0x3c225697	0.00990834
207	0x3d61a49d	0.055088628
208	0x3d9c814e	0.076418504
209	0x3d42531d	0.047442544
210	0xbd2cef19	-0.04222021
211	0x3b2d751e	0.0026467512
212	0xbc1cf1b6	-0.009579113
213	0x3e2c0ca5	0.16801699
214	0x3e3b0d7c	0.18266863
215	0x3e200bdd	0.15629525
216	0xbe1471c7	-0.14496528
217	0xbe2f7d1d	-0.1713757
218	0xbe67671a	-0.22597924
219	0xbe1d668a	-0.15371147
220	0xbe5194ab	-0.20466869
221	0xbe621924	-0.22079903
222	0x3db333f0	0.08750141
223	0x3dd0155c	0.10160324
224	0x3dac86c0	0.08424139
225	0x3caa0b0b	0.020757219
226	0xbc9a7fe5	-0.018859813
227	0x3c998401	0.018739702
228	0xbda613bc	-0.08109233
229	0x3c3e8910	0.011629358
230	0x3d3eb9f7	0.04656407
231	0x3d918e4c	0.07107219
232	0x3e2dd128	0.16974318
233	0x3e55e31b	0.20887415
234	0x3d815bc3	0.0631633
235	0x3d70d4f3	0.058796834
236	0x3d45937e	0.048236363
237	0x3e2bdc0b	0.16783158
238	0x3ded3436	0.11582224
239	0x3de97a1f	0.11400246
240	0xbd9aeb39	-0.075643964
241	0xbe256824	-0.16153008
242	0xbe11a9df	-0.14224957
243	0x3dc34216	0.09534089
244	0x3d2476ff	0.040152546
245	0x3d41f9d7	0.047357406
246	0x3d469408	0.048481017
247	0x3db915a1	0.090373285
248	0x3d515e22	0.051115163
249	0xbd23c756	-0.039985023
250	0xbdc8dda1	-0.09807897
251	0xbe10e749	-0.14150728
252	0xbdaa5b49	-0.083181925
253	0xbd55f102	-0.052231796
254	0xbd909ecb	-0.07061537
255	0xbe2fb893	-0.17160253
