3layer_4000its/files/1/D.pth (torch, 184073 bytes, 13 tensors)

head.conv.weight f4 [64, 12, 3, 3]
0	0xbbe9a818	-0.007130634
1	0xbaf3c1f3	-0.001859723
2	0xba60458f	-0.0008555287
3	0x3b7514b4	0.0037396373
4	0x3b84026d	0.0040286095
5	0x3afbb543	0.00192038
6	0x3c8fd719	0.017558621
7	0xbc798fa5	-0.015232001
8	0xbc281f6e	-0.0102614
9	0x3cc1aff6	0.023643475
10	0xbb96fae7	-0.0046075466
11	0xbc2a1918	-0.010381959
12	0x3b14d0a2	0.0022707363
13	0x3cdb8d6a	0.02680083
14	0x3cc28ccc	0.023748778
15	0xbc33816d	-0.0109561505
16	0xbd0ac9fd	-0.033884037
17	0xbba8b6ba	-0.005148736
18	0x3d12e644	0.03586413
19	0xbd1184c1	-0.035526995
20	0x3b8883b6	0.004166092
21	0xbd465418	-0.04842004
22	0x3d5f53bb	0.05452321
23	0xbb10639e	-0.0022032033
24	0xbde8d085	-0.11367897
25	0x3df8a8c0	0.121415615
26	0x3bcec92a	0.0063106017
27	0x3c2f8dd7	0.01071497
28	0xbb855b3e	-0.004069715
29	0x3bdd4bfb	0.0067534423
30	0x3c5e7c63	0.013579461
31	0xbb679de2	-0.0035341908
32	0x3bc7e0c6	0.006099793
33	0x3ba79939	0.005114701
34	0xbb786528	-0.003790209
35	0xbc27f887	-0.010252125
36	0xbbd4d69e	-0.006495311
37	0xb861cb64	-5.3833603e-05
38	0x3a218e0f	0.0006162831
39	0x3bee81cd	0.007278657
40	0x3c6e17ea	0.014532069
41	0xbbc67d3e	-0.0060574105
42	0x3bbc79d4	0.0057518277
43	0xbc9fe0c2	-0.019516353
44	0xbc0fa86b	-0.008768181
45	0x3a935691	0.0011241009
46	0x3c15af0d	0.009135974
47	0xbbb640af	-0.00556191
48	0x3bbe05b7	0.005799021
49	0x3bb87ba1	0.005629972
50	0xbb870cc4	-0.004121395
51	0x3c28f9ed	0.010313493
52	0xbc7ae553	-0.015313464
53	0xbb4e654b	-0.003149348
54	0xbcab3963	-0.020901388
55	0x3c2daa48	0.01059968
56	0x3be1ac90	0.006887026
57	0x3c718183	0.014740351
58	0xbb401c9e	-0.0029313932
59	0xbbd06a77	-0.006360348
60	0x3c9f3560	0.01943463
61	0xbc8ef0bb	-0.017448774
62	0xba0a5488	-0.00052768784
63	0xbc0cdebc	-0.008598026
64	0x3bcbfb93	0.0062250583
65	0xbb6f692b	-0.003653119
66	0x3b2aa20c	0.002603653
67	0x3abc58f4	0.0014369772
68	0x3b0a3c3c	0.0021093031
69	0x3b0a7fc9	0.0021133295
70	0xbc0e6876	-0.008691898
71	0xbb8b05bb	-0.0042426265
72	0xbc523743	-0.012830558
73	0x3bbb4b09	0.005715732
74	0xb9f1ee83	-0.00046144807
75	0xbd0e53b0	-0.03474778
76	0xbddd69d4	-0.10811201
77	0xbc483b71	-0.012221203
78	0x3d3317fb	0.04372404
79	0x3c5cd95d	0.013479558
80	0x3d499276	0.04921194
81	0x3ba0941d	0.004900469
82	0xbaed8360	-0.0018120818
83	0xbb83ecf6	-0.0040260507
84	0x3c9e4040	0.019317746
85	0x3b8dc43c	0.0043263715
86	0x3b8a0f8c	0.004213279
87	0x3c7dad0c	0.015483152
88	0xbbf03679	-0.0073307124
89	0xbc399a6a	-0.011328319
90	0x3a24d344	0.00062875845
91	0x3b9976b1	0.0046833386
92	0x3b8063ea	0.0039181607
93	0x3b1ccd05	0.0023925912
94	0x3bb5312c	0.0055295434
95	0xbb80b493	-0.003927776
96	0x3c066738	0.00820332
97	0xbc22c930	-0.009935662
98	0xbb83c5e9	-0.0040213955
99	0xbc1e62dc	-0.009667125
100	0x3c1e48a4	0.009660874
101	0x3b8a7602	0.0042254934
102	0x3c05a17a	0.008156175
103	0xbac933f8	-0.0015350571
104	0xbb10406e	-0.002201106
105	0x3ccbde8b	0.02488639
106	0xbce68f93	-0.028144633
107	0xbb98b354	-0.0046600495
108	0x3b491100	0.0030680299
109	0xbce4998f	-0.027905254
110	0x3945d651	0.00018867223
111	0x3c85254c	0.016253136
112	0xbd27e646	-0.04099109
113	0xbd468560	-0.04846704
114	0x3c0f1816	0.00873377
115	0x3cff3b53	0.031156218
116	0x3ce983a1	0.028505148
117	0xbcea8887	-0.028629554
118	0x3cfc182b	0.030773243
119	0x3bf027ca	0.007328962
120	0x3c9a0ec3	0.018805867
121	0xbbb5968b	-0.0055416278
122	0x3c89037d	0.016725296
123	0x3bebf29c	0.007200552
124	0x3d54250e	0.05179315
125	0xbcd63b66	-0.02615137
126	0xbafbb516	-0.0019203748
127	0x3c7cc94d	0.015428853
128	0xbcb6015c	-0.022217445
129	0xbc3c799a	-0.011503601
130	0x3de32bb8	0.11092323
131	0xbce2663c	-0.02763664
132	0x3bd5e1a4	0.0065271426
133	0xbe42cb13	-0.19022779
134	0xbcabde25	-0.02097995
135	0x3b97124a	0.0046103345
136	0xbc511d84	-0.012763385
137	0xbc65b8a1	-0.01402107
138	0xbb31a811	-0.0027108232
139	0x3bb6ab52	0.005574622
140	0xbcae4419	-0.021272706
141	0x3b8c636b	0.0042843125
142	0x3d463a7f	0.04839563
143	0xbcfdbd88	-0.030974165
144	0xbd3111fe	-0.04323005
145	0xbc09a4cd	-0.008401108
146	0xba187a4d	-0.0005816564
147	0x3c07898b	0.008272539
148	0xbc80b2ea	-0.015710313
149	0xbc72a2a1	-0.014809282
150	0x3b5ce503	0.0033705838
151	0x3cd25c4e	0.02567878
152	0xbca75cf2	-0.020430062
153	0xbcebce87	-0.028785003
154	0x3bc38934	0.0059672836
155	0xbba0a0b1	-0.0049019684
156	0xbc8ea413	-0.017412221
157	0xbc6ae279	-0.014336222
158	0x3b2f7fe8	0.002677912
159	0x3c0d2470	0.008614644
160	0xbc1ce597	-0.009576223
161	0xbb3ff61a	-0.0029290975
162	0x3aa3fd06	0.001251132
163	0x3d482a2e	0.04886835
164	0x3bb8d64b	0.00564078
165	0x3cd7d88e	0.026348379
166	0x3d210b32	0.039317317
167	0x3dabb43e	0.08383988
168	0xbd55d1e4	-0.05220212
169	0x3d40ca6e	0.047068052
170	0xbd100499	-0.035160635
171	0xbbddc664	-0.006768035
172	0xbd078bdd	-0.03309237
173	0xbc90a5ad	-0.017657125
174	0x3c45aba6	0.01206485
175	0xbcb1f0a1	-0.021721186
176	0x3cae1c9f	0.021253882
177	0x3cb244d2	0.021761332
178	0x3c63b301	0.013897658
179	0x3c5a168b	0.013311039
180	0x3cf86aad	0.030324304
181	0x3c308284	0.010773305
182	0x3b1ecce4	0.002423101
183	0x3d580a41	0.052744154
184	0xbcef0da0	-0.029181302
185	0x3b9b660c	0.0047423895
186	0xbcd47a4b	-0.02593722
187	0x3c213749	0.009839841
188	0x3d076014	0.03305061
189	0x3bfbdddd	0.0076863603
190	0xbd02b0ae	-0.031906776
191	0x3cd6bc3c	0.026212804
192	0xbd0c308d	-0.03422599
193	0xbcb01082	-0.021492247
194	0xbceef0fe	-0.029167648
195	0xbc7c3141	-0.015392602
196	0xbd11c2e3	-0.03558625
197	0x3d8ca7dc	0.06867954
198	0x3c671ea9	0.014106431
199	0xbc65e70c	-0.014032137
200	0x3ba8e28f	0.005153961
201	0x3b256106	0.0025234832
202	0xbcc8a4a2	-0.024492566
203	0x3be6afd1	0.007040002
204	0x3b696d64	0.003561818
205	0x3cd4d35b	0.025979688
206	0xbc131370	-0.008976802
207	0x3b25118a	0.0025187456
208	0x3b298575	0.00258669
209	0x3c942df1	0.018088313
210	0xbd277994	-0.04088743
211	0xbcfa52e7	-0.030557109
212	0xbb74fd30	-0.0037382357
213	0x3bf9b48d	0.0076204003
214	0x3be30ad4	0.006928781
215	0x3b07b6b5	0.0020708267
216	0x3b182212	0.0023213667
217	0xbc59e922	-0.013300212
218	0xbc59eccd	-0.013301087
219	0x3d504e15	0.050855715
220	0xbcd4e502	-0.025988106
221	0x3b500a5a	0.0031744451
222	0x3d9f8385	0.07788757
223	0x3d0b28a2	0.033974297
224	0x3c4c5768	0.012472011
225	0x3bed9393	0.0072502582
226	0xbd1724da	-0.03690038
227	0xbdd0d83e	-0.10197495
228	0x3c506bd0	0.012721017
229	0x3d3a2138	0.045441836
230	0xbd5401e6	-0.051759623
231	0xbc917141	-0.017754199
232	0xb990981e	-0.00027579156
233	0xbd097220	-0.033556104
234	0x3ae3e6e3	0.0017387535
235	0xbc942cc4	-0.018087752
236	0x3d85f4b2	0.065408126
237	0xbcaa313c	-0.02077543
238	0xbdcae058	-0.099060714
239	0xbd3cfcf2	-0.046139665
240	0xbcf69a1b	-0.03010278
241	0xbcf232ad	-0.02956518
242	0xbd8774be	-0.06614064
243	0x3bdad7a1	0.006678537
244	0x3c0e0558	0.008668266
245	0x3c9f1b26	0.019422125
246	0xbc9355d4	-0.017985262
247	0xbc00e97c	-0.007868167
248	0x3c12a697	0.008950851
249	0x3bd44f67	0.006479192
250	0x3cea53a8	0.028604344
251	0x3bce25b0	0.006291114
252	0x3bc461a3	0.0059930845
253	0x3b8891ef	0.0041677873
254	0x3d0fd499	0.03511486
255	0xbbc78c4a	-0.006089722

head.conv.bias f4 [64]
0	0xbd8b1660	-0.06791377
1	0xbd89823d	-0.06714294
2	0x3dbb58e1	0.09147812
3	0xbc403802	-0.011732103
4	0x3d2ff601	0.042959217
5	0x3dacb1e8	0.084323704
6	0xbd308ae4	-0.043101206
7	0xbe03e4cc	-0.12880248
8	0x3d9140fd	0.07092474
9	0xbc7eeff8	-0.015560143
10	0xbdb3f2f6	-0.087865755
11	0xbe11a693	-0.142237
12	0x3ce01fa6	0.027358841
13	0xbd4a7de6	-0.049436472
14	0x3c9b0295	0.01892213
15	0xbdadf97b	-0.0849485
16	0x3bcc23a1	0.0062298332
17	0xbcfd9444	-0.030954488
18	0xbd1a7389	-0.03770784
19	0x3d9580f7	0.07299989
20	0xbb66ecd2	-0.003523637
21	0x3da16da5	0.07882241
22	0x3ab58538	0.0013848906
23	0x3dde5866	0.108567044
24	0xbce3dd28	-0.027815416
25	0xbd6d79e0	-0.057977557
26	0x3c696779	0.014245861
27	0xbd46ab82	-0.048503406
28	0xbc8f0d4d	-0.017462397
29	0xbba64169	-0.0050737155
30	0xbd657f45	-0.056029577
31	0xbdb4e42e	-0.08832584
32	0x3c938d39	0.018011676
33	0x3d163dbe	0.036679976
34	0x3ddd81d7	0.108157806
35	0xbcce0eea	-0.025153596
36	0xbd6855b6	-0.056722365
37	0xbd93e3fb	-0.07221218
38	0x3d38afb7	0.04508945
39	0xbdaea74c	-0.08528003
40	0xbcd5c7cd	-0.026096249
41	0x3da77d8d	0.08178244
42	0x3d92cb2f	0.071676604
43	0x3d3a969e	0.045553796
44	0x3c80779e	0.015682038
45	0x3c80061c	0.015627913
46	0xbd429637	-0.047506537
47	0x3e0ce649	0.13759722
48	0x3dd9a1ea	0.10626586
49	0x3cd88657	0.026431246
50	0x3ca3d19c	0.01999741
51	0xbd7569d8	-0.059915394
52	0x3ca5a571	0.02022049
53	0x3d053eaf	0.032530483
54	0x3d2d5420	0.042316556
55	0xbde38d4b	-0.11110934
56	0xbd58a6e9	-0.052893553
57	0x3c541eab	0.012946765
58	0xbd095f7b	-0.033538323
59	0xbd72ff15	-0.059325296
60	0x3c93b904	0.018032558
61	0xbdd1a0fb	-0.10235783
62	0xbc92075f	-0.01782578
63	0x3d1a05c7	0.037603166

head.norm.weight f4 [64]
0	0x3f88c9fd	1.0686642
1	0x3f8400cc	1.0312743
2	0x3f6ee862	0.9332334
3	0x3f7accc7	0.97968715
4	0x3f70df67	0.94090885
5	0x3f79a220	0.9751301
6	0x3f72c322	0.94829
7	0x3f77cb51	0.9679461
8	0x3f5cd731	0.86265856
9	0x3f713a27	0.9422936
10	0x3f7fe16c	0.9995334
11	0x3f56c1c4	0.8388941
12	0x3f6d3567	0.9265961
13	0x3f6f3ff3	0.93456954
14	0x3f7478c6	0.95496786
15	0x3f8dd85f	1.1081656
16	0x3f7e7f07	0.9941258
17	0x3f8b7bea	1.089719
18	0x3f75f3cd	0.96075135
19	0x3f6d1f02	0.9262544
20	0x3f6314b1	0.8870345
21	0x3f6db0cf	0.92847914
22	0x3f84fdd2	1.038996
23	0x3f6d024a	0.9258162
24	0x3f834bea	1.0257542
25	0x3f713333	0.9421875
26	0x3f859638	1.0436468
27	0x3f839720	1.0280495
28	0x3f6e17c2	0.93005
29	0x3f82cc89	1.0218669
30	0x3f8d1197	1.1020993
31	0x3f87dd0f	1.0614337
32	0x3f86a226	1.0518234
33	0x3f8a47bc	1.0803142
34	0x3f549b0d	0.8304909
35	0x3f6a6dd5	0.9157384
36	0x3f8d24ae	1.1026819
37	0x3f85a61b	1.0441316
38	0x3f74e143	0.9565622
39	0x3f609cf9	0.8773952
40	0x3f868fe9	1.0512668
41	0x3f74c285	0.95609313
42	0x3f7773ee	0.9666127
43	0x3f6c10d0	0.92213154
44	0x3f83e37e	1.03038
45	0x3f714903	0.9425203
46	0x3f8280b9	1.0195533
47	0x3f7fe8ea	0.99964774
48	0x3f580a2b	0.84390515
49	0x3f7cc5d6	0.98739374
50	0x3f7e6f56	0.99388635
51	0x3f78a379	0.9712444
52	0x3f6daf03	0.9284517
53	0x3f8d724c	1.1050506
54	0x3f7b0b82	0.98064435
55	0x3f7d0de5	0.98849326
56	0x3f658063	0.8964903
57	0x3f6c720e	0.92361534
58	0x3f72837d	0.94731885
59	0x3f7347aa	0.95031226
60	0x3f85a53f	1.0441054
61	0x3fa001a7	1.2500504
62	0x3f90ee5f	1.1322745
63	0x3f7fedf8	0.99972486

head.norm.bias f4 [64]
0	0x3e6f7c7f	0.23387335
1	0xbdfac72d	-0.12245021
2	0x3c640712	0.013917701
3	0xbd525dac	-0.051358864
4	0x3e84475c	0.25835693
5	0x3e878c73	0.26474342
6	0x3cd88c15	0.026433984
7	0x3e943522	0.28946787
8	0xbd587ea5	-0.052855153
9	0x3d25ecbb	0.040508967
10	0x3dc81deb	0.097713314
11	0x3de5fc5d	0.11229775
12	0xbcc34cf2	-0.023840401
13	0x3cd09365	0.025460908
14	0x3d92c087	0.07165628
15	0xbe05f864	-0.13083035
16	0xbd17fa19	-0.037103746
17	0xbd1870de	-0.037217014
18	0x3f06eb0f	0.5270242
19	0xbd52a453	-0.051426243
20	0xbdd2b9e8	-0.10289365
21	0xbcbb1993	-0.022839343
22	0xbdde27a0	-0.108474016
23	0x3e0d9df3	0.13829784
24	0x3e9bafc7	0.30407545
25	0xbd8b4f3a	-0.06802221
26	0x3dde5d01	0.10857583
27	0xbd9e82bf	-0.077397816
28	0x3d4cd7a1	0.050010327
29	0x3dd25bae	0.10271393
30	0x3d26e624	0.040746823
31	0x3ea79fd0	0.32739115
32	0xbdaa12e6	-0.08304386
33	0x3e108f2b	0.14117114
34	0x3e235757	0.15951286
35	0xbd8eaa40	-0.06966066
36	0x3db5acfa	0.08870883
37	0x3dd9bc1c	0.10631582
38	0x3d22a62d	0.03970926
39	0xbd483dc0	-0.048887014
40	0x3d14e89e	0.036354654
41	0x3d40f8b9	0.0471122
42	0x3d174c80	0.03693819
43	0x3ded4ff7	0.11587518
44	0x3d82795b	0.06370803
45	0xbc23204f	-0.009956433
46	0x3d536e12	0.051618643
47	0x3e2f457e	0.17116353
48	0x3d8b3204	0.06796649
49	0x3bada5b7	0.0052992958
50	0xbc0c9515	-0.008580466
51	0x3e5ea64f	0.21743129
52	0x3e7cfa7b	0.24704926
53	0x3d6fb233	0.058519553
54	0x3ead8d10	0.33896685
55	0xbd9b31c6	-0.07577853
56	0x3dbc94bc	0.09208056
57	0x3e67dfe9	0.22644009
58	0xbe7821f9	-0.2423171
59	0x3e31bac1	0.17356397
60	0x3eb2695c	0.34846008
61	0x3dd49b87	0.10381227
62	0x3e5ffaad	0.21872969
63	0xbddd0e0f	-0.10793697

head.norm.running_mean f4 [64]
0	0xbd08a558	-0.03336081
1	0xbe4dc8ee	-0.2009618
2	0xbe49432a	-0.19654527
3	0xbe859107	-0.2608721
4	0xbdc389cd	-0.09547768
5	0x3e0120a5	0.12610109
6	0xbe19603c	-0.14978117
7	0xbdd32b26	-0.10310964
8	0x3d22f8a7	0.039787915
9	0xbd6f6371	-0.058444444
10	0xbc548dd1	-0.012973265
11	0xbe9666c3	-0.29375276
12	0x3e020212	0.12696102
13	0xbd979587	-0.07401567
14	0xbddacfe1	-0.10684181
15	0x3d8b4b35	0.06801454
16	0xbe79d985	-0.24399383
17	0x3e2fb78c	0.17159861
18	0x3e0ce721	0.13760044
19	0xbcc47c5d	-0.023985082
20	0xbcc2368b	-0.023707649
21	0x3e57a086	0.21057329
22	0xbd6e631a	-0.05819998
23	0xbcb6ba6c	-0.02230569
24	0x3e07d222	0.13263753
25	0xbc06cfbf	-0.0082282415
26	0xbe26046b	-0.16212623
27	0x3df5e64e	0.12006818
28	0xbe5d8e2d	-0.21636267
29	0xbe799241	-0.24372198
30	0x3e758831	0.23977734
31	0x3d11c52b	0.035588425
32	0x3e205e13	0.15660886
33	0x3d7af16d	0.061265398
34	0xbdfb6f21	-0.122770555
35	0xbe0952b5	-0.13410456
36	0xbbf75df6	-0.007549043
37	0x3e4a8619	0.19777717
38	0xbeb9d6b5	-0.3629662
39	0xbe22fa34	-0.15915757
40	0x3db98cce	0.090600595
41	0x3c651724	0.013982568
42	0xbe841a61	-0.25801376
43	0x3daa230e	0.083074674
44	0x3dea4442	0.114388004
45	0xbe73574d	-0.23763771
46	0xbee0f99b	-0.43940434
47	0x3ed9de16	0.4255225
48	0xbdea1f0b	-0.11431702
49	0xbe2ca2cb	-0.16858976
50	0xbe85e091	-0.26147893
51	0xbdbc4006	-0.09191899
52	0x3c756772	0.014978277
53	0x3e2e5bd9	0.17027225
54	0xbd0cd735	-0.034384925
55	0xbe15be11	-0.14623286
56	0xbe7d0d02	-0.24711993
57	0xbe6c23ec	-0.23060578
58	0xbe40d807	-0.18832408
59	0xbd87b13d	-0.066256024
60	0x3ed424cc	0.41434324
61	0xbc92359c	-0.017847829
62	0xbd8e0612	-0.069347516
63	0xbdea95cb	-0.11454352

head.norm.running_var f4 [64]
0	0x3b81501c	0.0039463174
1	0x3c41fedd	0.011840549
2	0x3c60512e	0.01369123
3	0x3c2eeedc	0.010677066
4	0x3be62730	0.0070237145
5	0x3bfaa55d	0.0076491074
6	0x3c44c3db	0.012009586
7	0x3c53c09f	0.012924342
8	0x3b91f164	0.004453825
9	0x3b8cf0f6	0.0043011857
10	0x3c111fcc	0.008857679
11	0x3bacd6da	0.0052746357
12	0x3b5ba1b6	0.0033513135
13	0x3bd56c16	0.006513129
14	0x3c42104c	0.011844706
15	0x3ca35090	0.019935876
16	0x3c784d90	0.015155211
17	0x3c458e8f	0.012057914
18	0x3bb8081e	0.005616202
19	0x3bcadd70	0.006190948
20	0x3c0c6a42	0.008570256
21	0x3bb555f1	0.0055339267
22	0x3c2bdaed	0.010489208
23	0x3c0207ca	0.007936427
24	0x3bb9dbad	0.0056719393
25	0x3b617ffc	0.003440856
26	0x3d291204	0.041276947
27	0x3cea92d5	0.028634468
28	0x3c946c60	0.018118083
29	0x3c24f1e5	0.010067438
30	0x3d1bed38	0.038068026
31	0x3c819694	0.015818872
32	0x3cccf11e	0.025017317
33	0x3bc4893d	0.0059978054
34	0x3c14c36f	0.009079798
35	0x3c41d8e4	0.011831496
36	0x3c96482d	0.018344963
37	0x3c99f7e9	0.01879497
38	0x3c4c6b7e	0.0124768
39	0x3bc5fe1b	0.0060422546
40	0x3bb78ebf	0.0056017335
41	0x3bb372c9	0.00547633
42	0x3c3ec0e3	0.011642667
43	0x3b54cecf	0.00324719
44	0x3c0ddb7e	0.008658288
45	0x3c4c1b23	0.012457642
46	0x3c867c4b	0.01641669
47	0x3c9d755b	0.019220999
48	0x3ba3d5f3	0.00499987
49	0x3bbb480a	0.005715375
50	0x3c8892b8	0.016671523
51	0x3bb471e4	0.005506741
52	0x3ba52bdf	0.00504063
53	0x3c0337be	0.008008895
54	0x3baefe6f	0.0053403894
55	0x3c6f0b56	0.014590105
56	0x3bee7e84	0.0072782654
57	0x3c2d1f5a	0.010566557
58	0x3bff0c91	0.0077834805
59	0x3bc093e2	0.005877004
60	0x3c7dd4dc	0.015492644
61	0x3b8a84b5	0.0042272457
62	0x3cd49f31	0.025954815
63	0x3c65ac1e	0.014018087

body.block1.conv.weight f4 [64, 64, 3, 3]
0	0xbda4ab31	-0.08040465
1	0xbdebd4c5	-0.11515192
2	0xbe294b40	-0.16532612
3	0xbce740fe	-0.028229233
4	0xbda48d6f	-0.08034789
5	0xbd2f3c9d	-0.042782415
6	0x3cbdd549	0.023172991
7	0x3d60b98a	0.054864444
8	0xbd0d5fc5	-0.03451516
9	0x3ce81902	0.028332237
10	0xbd0444db	-0.03229223
11	0xbd2d9cd5	-0.042385895
12	0xbcedad09	-0.029013174
13	0x3d052449	0.032505307
14	0xbd39b89b	-0.04534207
15	0x3d5ae057	0.053436603
16	0xbc33e7b5	-0.010980536
17	0x3c983e6a	0.018584449
18	0xbdc8c05b	-0.09802314
19	0xbd841f5d	-0.064512946
20	0xbdf558bf	-0.119798176
21	0x3c17d6da	0.009267533
22	0xbca47046	-0.020073067
23	0xbcd498cd	-0.025951767
24	0xbcc1819b	-0.023621371
25	0x3cba2335	0.022721866
26	0xbd1c7e2e	-0.03820627
27	0x3ca34236	0.019929033
28	0x3cdce49b	0.026964476
29	0x3c463d69	0.012099602
30	0x3d5e82ba	0.05432389
31	0x3da91b72	0.08257188
32	0x3c86906b	0.016426286
33	0x3babfaad	0.0052483887
34	0x3d00bc80	0.031429768
35	0xbdb1b68f	-0.086773984
36	0x3bc01d26	0.0058628498
37	0x3d753306	0.059863113
38	0x3dbabcdc	0.09118053
39	0xbd6848fd	-0.056710232
40	0xbaac2dd4	-0.0013136216
41	0x3b8a75ba	0.00422546
42	0xbc1d6444	-0.009606425
43	0xbc8c08fe	-0.017094132
44	0xbade393c	-0.0016954313
45	0x3d3d6556	0.04623922
46	0x3c57d4a8	0.01317326
47	0x3d278a7f	0.040903565
48	0x3d076c59	0.033062313
49	0xba9fd47c	-0.0012194063
50	0x3c63ab87	0.013895876
51	0x3d734750	0.05939418
52	0x3cdb7c1a	0.026792575
53	0x3dcaf130	0.09909284
54	0x3b14ad88	0.002268644
55	0xbbf58f6c	-0.007493904
56	0xbb912d9a	-0.004430485
57	0x3d546a1c	0.051859006
58	0x3d0e0845	0.034675855
59	0x3d4576cc	0.048208997
60	0x3d9abeec	0.07555947
61	0x3ad4a501	0.0016223491
62	0x3d4aa478	0.049473256
63	0xbcec9ce1	-0.0288834
64	0xbd15d9c5	-0.036584634
65	0x3c95bcf2	0.018278573
66	0x3c9f1088	0.019417062
67	0x3c85b6b5	0.016322473
68	0x3d583030	0.05278033
69	0xbcb4fc3c	-0.022092931
70	0x3c020d03	0.007937673
71	0x3cd9740c	0.026544593
72	0xbcb45f84	-0.022018202
73	0x3c3cc7b3	0.011522221
74	0x3af1786a	0.0018422727
75	0x3d1b43dc	0.037906513
76	0x3d504a1e	0.050851934
77	0x3d1a5938	0.037682742
78	0xbd2d3e80	-0.042295933
79	0xbc853432	-0.01626024
80	0x3c2d7514	0.010586996
81	0xbc2f6c35	-0.010706951
82	0xbd03aae6	-0.032145403
83	0xbcfcb6e7	-0.030848933
84	0xbd20c0ec	-0.039246485
85	0xbc69211a	-0.014229083
86	0x3c3d9a9c	0.011572506
87	0x3cea8694	0.028628625
88	0x3da4826a	0.08032687
89	0x3d834b65	0.06410865
90	0xbd027c24	-0.03185667
91	0xbd00bff6	-0.03143307
92	0x3d17ae5d	0.03703152
93	0xbd211a39	-0.03933165
94	0x3c0287ad	0.007966918
95	0xbd4bf6cb	-0.049795907
96	0x3d79c45c	0.06097828
97	0xbba4b777	-0.0050267535
98	0xbc10d241	-0.008839191
99	0xbc80ded3	-0.01573125
100	0x399b6f35	0.0002964676
101	0xbc964175	-0.01834176
102	0xbc4ff7fd	-0.012693402
103	0x3d1e8c04	0.038707748
104	0x3b8c1bb9	0.0042757657
105	0xbd15ff60	-0.036620498
106	0x3b2b6690	0.0026153661
107	0xbca0dabb	-0.019635549
108	0x3d1cb301	0.03825665
109	0x3d157f50	0.036498368
110	0xbbac7d1a	-0.0052639367
111	0x3c804b47	0.015660895
112	0x3d8d4bb9	0.068992086
113	0x3cddf21e	0.02709299
114	0xbb5c05dd	-0.003357283
115	0x3cfa70e6	0.030571412
116	0x3c4d4e84	0.012530927
117	0xbc90da9a	-0.017682362
118	0x3b9384f5	0.0045019337
119	0x3c70b541	0.014691652
120	0xbc6e06ad	-0.014527959
121	0xbcb0b1b1	-0.021569105
122	0xbd01dbf6	-0.03170391
123	0xbd00d041	-0.031448606
124	0x3cb515ef	0.022105185
125	0x3ca8ccfb	0.020605555
126	0x3d87ac00	0.06624603
127	0x3ccad0d9	0.02475779
128	0x3d6742d3	0.056460213
129	0xbd1cb94e	-0.038262658
130	0xb8ba0904	-8.8708504e-05
131	0x3d20fd80	0.039304256
132	0xbc77adda	-0.015117133
133	0x3b7ad7cc	0.0038275598
134	0xbcb7ef48	-0.022452965
135	0xbd18b807	-0.037284877
136	0xbd261736	-0.04054948
137	0x3c96802c	0.018371664
138	0xbd9acaa8	-0.07558185
139	0xbc9d08d6	-0.019169252
140	0xbd4279d9	-0.047479484
141	0xbe1d2e2d	-0.15349646
142	0xbd7f4947	-0.062325742
143	0xbe171ce6	-0.14757118
144	0x3d52be63	0.0514511
145	0x3dc7ce4c	0.09756145
146	0x3ca60b37	0.02026902
147	0x3db41189	0.08792407
148	0x3ddf60aa	0.10907109
149	0xb9469cd5	-0.00018941176
150	0x3d6c26fa	0.05765436
151	0x3d0f080b	0.03491978
152	0x3d59e950	0.05320102
153	0x3c89ed5b	0.016836813
154	0x3db02b10	0.086019635
155	0x3cf28c6e	0.029607978
156	0x3ce72b5b	0.028218916
157	0xbd1298c1	-0.03579021
158	0xbc7431ae	-0.014904423
159	0xbda2a323	-0.07941272
160	0x3c12933a	0.008946234
161	0xbd00656a	-0.031346716
162	0x3cad0171	0.021118851
163	0x3b4edd50	0.0031565018
164	0x3d4d47a3	0.050117146
165	0xb92a4d7e	-0.00016241331
166	0x3d31bcea	0.043393053
167	0x3caede87	0.021346344
168	0xbcecc9d9	-0.028904842
169	0x3c77106a	0.015079597
170	0xbd020872	-0.031746335
171	0xbd4c3598	-0.0498558
172	0x391daaa1	0.00015036251
173	0x3bd2df7d	0.0064353333
174	0xbd6eefcc	-0.058334157
175	0xbc82dc11	-0.015974076
176	0xbd29710e	-0.041367583
177	0xbd1e03e1	-0.038577918
178	0xbc614f87	-0.013751871
179	0xbcbd9da0	-0.02314645
180	0xbb88eb22	-0.0041784206
181	0x3cbbde3c	0.022933118
182	0x3d6afb5e	0.05736863
183	0xbc2181e1	-0.009857626
184	0x3b807fcb	0.003921484
185	0xbc1a3f6a	-0.009414533
186	0x3bdecaa8	0.006799061
187	0xbc4f9426	-0.012669599
188	0xbccfb79c	-0.025356106
189	0x3cdc4368	0.02688761
190	0x3c257bdd	0.010100332
191	0x3d304ba5	0.04304089
192	0x3c094b59	0.008379781
193	0x3d666456	0.05624803
194	0x3d4cb368	0.049975783
195	0x3cc9af2a	0.024619658
196	0x3cdcbc72	0.026945326
197	0x3ce0da77	0.027447922
198	0x3d4a9351	0.049456898
199	0x3d9b7a5e	0.07591699
200	0x3ccfcdf1	0.025366755
201	0x3d30fbc3	0.04320885
202	0x3d466aab	0.04844157
203	0xbca0508e	-0.019569661
204	0xbd7f8989	-0.062387023
205	0xbc249e40	-0.010047495
206	0xbd1b6a31	-0.03794307
207	0x3c907ba4	0.017637081
208	0x3b63c6b3	0.0034755885
209	0xbc943d15	-0.018095532
210	0xbd250bc6	-0.04029443
211	0xbca10f84	-0.019660719
212	0x3d3f5791	0.04671437
213	0xbd3e42e0	-0.046450496
214	0x3cd75c52	0.026289139
215	0xbd5d1e98	-0.053984255
216	0xbcf7d365	-0.030252168
217	0xbd1c3c46	-0.03814342
218	0xbd8f8e69	-0.070095845
219	0xbcfa619c	-0.030564122
220	0xbc46e049	-0.012138435
221	0xbc8cc540	-0.0171839
222	0x3c99e3b6	0.018785339
223	0x3d4c8a2d	0.049936462
224	0xbd554e21	-0.052076463
225	0x3c74b5af	0.014935895
226	0x3cdf07c6	0.027225386
227	0x3d42309e	0.047409646
228	0xbc9db73b	-0.01925241
229	0x3cd2d3eb	0.025735816
230	0xb92461b4	-0.00015676656
231	0x3c2bb99a	0.010481263
232	0xbc6f5d69	-0.014609673
233	0xba86583d	-0.0010249686
234	0xbdd66e45	-0.10470251
235	0xbcf0c0eb	-0.029388865
236	0xbdc13cd9	-0.09435434
237	0x3b2f37e6	0.00267362
238	0xbd55ef3e	-0.052230112
239	0xbd698ffc	-0.05702208
240	0xbd36bcde	-0.04461371
241	0xbd331571	-0.04372162
242	0xbcac0009	-0.02099611
243	0xbc912dd8	-0.017722055
244	0xbd89e323	-0.06732776
245	0xbd9af5ee	-0.075664386
246	0x3d465272	0.04841847
247	0xbccffed9	-0.025390076
248	0xbd4e074c	-0.050299928
249	0xbd67ae95	-0.05656298
250	0xbd3dc667	-0.04633179
251	0xbdc5153a	-0.09623189
252	0xbd3178c0	-0.043328047
253	0xbd029542	-0.031880625
254	0xbc762af1	-0.0150248865
255	0xbcb55da9	-0.022139387

body.block1.conv.bias f4 [64]
0	0x3ce3a84d	0.027790213
1	0xbd1f6bea	-0.038921274
2	0xbd71500a	-0.05891422
3	0x3cd7ad90	0.026327878
4	0x3bd6cfa8	0.0065555163
5	0x3c07eaa9	0.008295693
6	0xbcf8e522	-0.030382697
7	0x3cd17a6d	0.025571072
8	0xbd80e990	-0.062945485
9	0xbd738b4f	-0.059459027
10	0x3ce34dbc	0.027747028
11	0x3b58b593	0.003306721
12	0xbd332430	-0.043735683
13	0x3d6eaec5	0.058272142
14	0xbb86fbb6	-0.0041193618
15	0x3d34287b	0.043983918
16	0xbbd6b260	-0.0065520257
17	0xbc8eb853	-0.017421877
18	0xbc217a10	-0.009855762
19	0x3ab6fe1d	0.001396123
20	0x3d11637d	0.03549527
21	0xbc713f9f	-0.014724641
22	0x3c618033	0.013763475
23	0xbcca2cb5	-0.024679521
24	0x3d638d50	0.055554688
25	0xbcb428c8	-0.021992102
26	0xbd55bfb1	-0.052184764
27	0xbd585344	-0.052813783
28	0xbd204b99	-0.039134596
29	0x3cbf6b21	0.023366513
30	0x3cc7f0a3	0.024406737
31	0x3c686006	0.01418305
32	0x3d1c3292	0.038134165
33	0xbc488fa1	-0.012241275
34	0x3d813142	0.06308223
35	0x3d0c9393	0.034320425
36	0x3d85fb1f	0.06542038
37	0x3c185536	0.00929766
38	0xbac87b6f	-0.0015295575
39	0x3d14fa6d	0.036371637
40	0x3d81b25b	0.06332847
41	0xbd82eb24	-0.06392506
42	0x3da27dfd	0.079341866
43	0x3d3a3071	0.045456354
44	0x3c9d0e4e	0.01917186
45	0xbd2b7c89	-0.041866813
46	0x3d121122	0.03566087
47	0xbd8d1c6e	-0.06890188
48	0x3c8ce540	0.017199159
49	0xbd0209a6	-0.031747483
50	0x3b8a9c5d	0.0042300657
51	0xbd203e46	-0.03912189
52	0xbd61cb1f	-0.055125352
53	0x3b1b01dd	0.0023652234
54	0x3bb6de3a	0.0055806907
55	0x3cf27e50	0.029601246
56	0x3b83e9f0	0.0040256903
57	0xbd7878dc	-0.060662135
58	0xbcfc1714	-0.030772723
59	0x3c832b11	0.016011747
60	0xbd2677c0	-0.040641546
61	0x3cd4d88d	0.025982166
62	0xbda2a1be	-0.07941006
63	0xbd0de0e2	-0.034638293

body.block1.norm.weight f4 [64]
0	0x3f843620	1.0329018
1	0x3f6d6358	0.9272971
2	0x3f853261	1.0406
3	0x3f988c0b	1.1917738
4	0x3f81931b	1.0123018
5	0x3f88180d	1.063234
6	0x3f8b9f4f	1.0907992
7	0x3f831a9f	1.0242499
8	0x3f8465af	1.0343531
9	0x3f8d68d8	1.1047621
10	0x3f96b925	1.1775252
11	0x3f818693	1.0119194
12	0x3f885ad5	1.065272
13	0x3f8741c0	1.056694
14	0x3f9bc42f	1.2169245
15	0x3f8d24fb	1.102691
16	0x3f94c87a	1.162368
17	0x3f7ed47d	0.9954298
18	0x3f918632	1.1369078
19	0x3f86810f	1.0508136
20	0x3f7d7fee	0.9902333
21	0x3f8ee174	1.1162553
22	0x3f84144e	1.0318696
23	0x3f94a97f	1.1614226
24	0x3f8d0441	1.1016923
25	0x3f9b8d9d	1.2152592
26	0x3f882e48	1.0639124
27	0x3f85ec50	1.0462742
28	0x3f8b6746	1.0890892
29	0x3f836144	1.0264058
30	0x3f889408	1.0670176
31	0x3f7246c3	0.94639224
32	0x3f9f261a	1.2433503
33	0x3f7d4e9a	0.9894806
34	0x3f80bcae	1.005758
35	0x3f92fdef	1.1483744
36	0x3f8646ac	1.0490317
37	0x3f958254	1.1680398
38	0x3f8e13ea	1.1099827
39	0x3f80d9f8	1.0066519
40	0x3f94b087	1.1616372
41	0x3f825b51	1.0184118
42	0x3f87945a	1.0592148
43	0x3f88310a	1.0639966
44	0x3f88ed91	1.06975
45	0x3f9c967f	1.2233428
46	0x3f8128c6	1.0090568
47	0x3f7dd34a	0.99150527
48	0x3f803424	1.0015912
49	0x3f7ba3e8	0.98296976
50	0x3f84103f	1.0317458
51	0x3f8656be	1.0495222
52	0x3f8413a0	1.0318489
53	0x3f841575	1.0319048
54	0x3f7aaed9	0.97923046
55	0x3f7a7c0b	0.97845525
56	0x3f97fecd	1.1874634
57	0x3f888fd2	1.066889
58	0x3f8d0e2b	1.1019949
59	0x3f646bf5	0.8922723
60	0x3f8139bc	1.0095744
61	0x3f8b24da	1.0870621
62	0x3f7e7135	0.9939149
63	0x3f8d294b	1.1028227

body.block1.norm.bias f4 [64]
0	0xbedff3f2	-0.43740803
1	0xbf743154	-0.9538777
2	0x3dac72c5	0.08420328
3	0xbeb6c167	-0.3569443
4	0x3d865d78	0.065607965
5	0xbf1131d6	-0.5671667
6	0x3da0f347	0.078589015
7	0x3ec324ee	0.38114113
8	0x3d5116a0	0.051046968
9	0x3ea2f154	0.31824744
10	0xbf10c7fe	-0.56555164
11	0xbd6dbc2d	-0.058040787
12	0xbe947e39	-0.2900255
13	0xbe3a1f44	-0.1817599
14	0x3ddc9e9f	0.10772442
15	0x3f305f40	0.6889534
16	0xbeb4ad57	-0.35288498
17	0xbe8ffe60	-0.2812376
18	0xbe6311b3	-0.2217472
19	0xbe9fac51	-0.31186154
20	0xbd9c241c	-0.07624075
21	0xbe38a766	-0.18032607
22	0xbd9c30d7	-0.07626503
23	0xbebb1a2b	-0.36543402
24	0xbecda9bd	-0.40168563
25	0xbd78d51d	-0.060750116
26	0x3e96af3a	0.29430562
27	0x3d13c5c3	0.036077272
28	0x3e520cd7	0.2051271
29	0xbcabb717	-0.020961327
30	0xbd94bdca	-0.07262762
31	0x3efded31	0.49595025
32	0xbe92d578	-0.2867849
33	0x3ee2cf4d	0.44298783
34	0xbe1b8015	-0.15185578
35	0x3dd86bdd	0.10567448
36	0x3da5203f	0.08062791
37	0xbdea61bd	-0.11444423
38	0xbe20845b	-0.1567549
39	0x3eadc42d	0.33938733
40	0xbcc77791	-0.024349006
41	0xbe85f807	-0.26165792
42	0xbea8246d	-0.3284029
43	0xbdcad8ed	-0.099046566
44	0xbe8818b9	-0.26581362
45	0x3e106284	0.1410008
46	0xbf068ba2	-0.5255681
47	0x3eeb39cc	0.45942533
48	0xbeddf026	-0.4334728
49	0xbe9a4c72	-0.30136448
50	0x3ef41e9b	0.476796
51	0xbdb84d7e	-0.089991555
52	0x3dc28250	0.094975114
53	0x3f11748c	0.5681846
54	0xbe091845	-0.13388164
55	0x3da45e17	0.08025759
56	0x3e81ffe2	0.25390536
57	0xbe97487e	-0.29547495
58	0xbf1178e4	-0.5682509
59	0x3f291f06	0.66062963
60	0x3f0de794	0.55431485
61	0x3cd3d581	0.025858643
62	0x3e6c7366	0.23090896
63	0xbe96227c	-0.29323184

body.block1.norm.running_mean f4 [64]
0	0x3d7c3cfc	0.061581597
1	0xbef9a657	-0.4875972
2	0xbee34f14	-0.4439627
3	0xbedb3aa4	-0.42818177
4	0xc005feb7	-2.0936716
5	0xbd455b71	-0.04818291
6	0xbe5c50f7	-0.2151526
7	0xbec6201a	-0.38696367
8	0x3f3d295b	0.7389123
9	0xbf0a7722	-0.5408803
10	0xbc8f6570	-0.017504424
11	0x3fcfb5fb	1.6227411
12	0xbe283041	-0.16424657
13	0xbf9d9102	-1.2309878
14	0x3e0775dd	0.13228555
15	0x3f0ec772	0.5577308
16	0x3e6bbddd	0.23021646
17	0x3f3006d4	0.6876042
18	0xbe764c80	-0.2405262
19	0xc01645c2	-2.3480077
20	0x3d8f795b	0.070055686
21	0x3e679478	0.2261523
22	0x3e795c2c	0.24351567
23	0xbe348749	-0.17629732
24	0xbeb4543e	-0.35220522
25	0xbe6c7db9	-0.23094834
26	0xbf552a8a	-0.83268034
27	0x3f7e6396	0.99370706
28	0xbf036fca	-0.5134245
29	0x3f77e088	0.9682698
30	0xbe9def97	-0.30846855
31	0x3f4c2dd2	0.79757416
32	0xbd6a72d2	-0.057238407
33	0x3bd82c1c	0.006597055
34	0x3f6c6df4	0.92355275
35	0x3dfbaa49	0.12288339
36	0xbe9ed002	-0.31018072
37	0x3f161fab	0.5864207
38	0xbf0b18dc	-0.5433481
39	0x3d6d2aef	0.057902273
40	0xbe9b37d8	-0.30316043
41	0xbf126140	-0.5717964
42	0xbe418c67	-0.18901215
43	0x3f1475c7	0.57992214
44	0x3f599ddd	0.85006505
45	0x3eebff76	0.4609334
46	0x3eb68ab2	0.3565269
47	0xbecdc91f	-0.40192506
48	0x3d879890	0.06620896
49	0x3f5080e6	0.81446683
50	0x3f233491	0.63752085
51	0x3f1498a7	0.5804543
52	0xbeed3637	-0.46330425
53	0x3eb1fed9	0.34764746
54	0x3f8c6c8e	1.0970628
55	0x3ec69943	0.38788804
56	0xbd4f7eb5	-0.050657947
57	0xbf2a33f1	-0.66485506
58	0xbec2c3b8	-0.38039947
59	0xbfd1635e	-1.635845
60	0xbf459d9a	-0.77193606
61	0x3f136a58	0.5758414
62	0xbdae2945	-0.08503965
63	0xbde8b09f	-0.11361813

body.block1.norm.running_var f4 [64]
0	0x3e634e22	0.22197774
1	0x3e306fdb	0.1723017
2	0x3ecf505b	0.40490994
3	0x3e9ad74a	0.30242378
4	0x3e1f965a	0.15584698
5	0x3f0fa8fe	0.56117237
6	0x3e7119fe	0.23545071
7	0x3e2d2571	0.16908814
8	0x3f24e188	0.64406633
9	0x3ed71be4	0.42013466
10	0x3e4c8536	0.19972691
11	0x3de1b907	0.11021619
12	0x3e400edb	0.18755667
13	0x3e83ae85	0.25719085
14	0x3e2428af	0.16031145
15	0x3ee34ab9	0.44392946
16	0x3e288b4c	0.16459388
17	0x3e3630a6	0.17791995
18	0x3e171dbb	0.14757435
19	0x3e47729d	0.19477315
20	0x3e7e1d77	0.24815927
21	0x3e642f60	0.22283697
22	0x3e900805	0.28131118
23	0x3dcde040	0.10052538
24	0x3e1924c3	0.1495543
25	0x3e9588a2	0.29205805
26	0x3f144e7d	0.57932264
27	0x3e6f1f5f	0.23351811
28	0x3e36e230	0.17859721
29	0x3e8fd772	0.2809406
30	0x3ede0bee	0.43368477
31	0x3f13803e	0.5761756
32	0x3e5e43f3	0.21705608
33	0x3f2946fd	0.66123945
34	0x3e764ef4	0.24053556
35	0x3e27ec80	0.16398811
36	0x3e0c15e6	0.13680229
37	0x3f2ba11d	0.67042714
38	0x3e7a8541	0.24464895
39	0x3f873181	1.0561982
40	0x3e888861	0.2666655
41	0x3e3c8762	0.1841102
42	0x3e3d3b48	0.18479645
43	0x3e858512	0.26078087
44	0x3de4bba2	0.111686006
45	0x3e8aaaaf	0.27083346
46	0x3e38d3ec	0.18049592
47	0x3dfa50c1	0.12222434
48	0x3f00b771	0.5027991
49	0x3e20862b	0.15676181
50	0x3f119071	0.56861025
51	0x3d8f98b9	0.070115514
52	0x3eb22677	0.3479497
53	0x3f15e9ca	0.5855986
54	0x3dbb3a86	0.09142022
55	0x3db852bf	0.090001576
56	0x3e94782c	0.28997934
57	0x3ea2e8ba	0.3181818
58	0x3e5c8e64	0.21538693
59	0x3e9e78b9	0.3095148
60	0x3dff416e	0.124636516
61	0x3dc8e4a8	0.09809238
62	0x3fe433e2	1.7828333
63	0x3e29f5be	0.1659765

tail.weight f4 [1, 64, 3, 3]
0	0x3d915ffe	0.07098387
1	0x3dd63106	0.10458569
2	0x3df1fbaf	0.11815583
3	0x3cac8fae	0.021064606
4	0x3c60b5de	0.0137152355
5	0x3da08fe4	0.07839945
6	0xbc6e457a	-0.014542932
7	0xbcfe1566	-0.031016063
8	0x3cc0bec6	0.023528468
9	0xbdd8a345	-0.10578016
10	0xbde5b7f7	-0.11216729
11	0xbdfc91c2	-0.123324886
12	0x3c7c99b9	0.01541751
13	0x3d022c35	0.03178044
14	0x3d7c3860	0.0615772
15	0x3de9898c	0.11403188
16	0x3dd5a7dd	0.10432408
17	0x3df03584	0.11728957
18	0xbd9ba25f	-0.07599329
19	0xbd863d97	-0.06554716
20	0xbdc6e59b	-0.097117625
21	0xbd584552	-0.052800484
22	0xbd5e5215	-0.0542775
23	0xbda0ab1f	-0.07845139
24	0x3c618a1f	0.013765841
25	0x3ca5e4fb	0.020250788
26	0xbc8df92a	-0.017330725
27	0xbdf01d4c	-0.11724338
28	0xbdd2d084	-0.102936774
29	0xbe2e3b4f	-0.17014812
30	0xbbdf63b5	-0.006817306
31	0xbd85955a	-0.06522627
32	0xbd2394de	-0.039936893
33	0x3e4ab944	0.19797236
34	0x3dfd24c6	0.123605296
35	0x3dd0d0ef	0.10196101
36	0x3cca4fc9	0.024696248
37	0x3c01c1f9	0.007919782
38	0x3cfa4086	0.030548345
39	0xbd0c5184	-0.034257427
40	0xbc987f73	-0.01861546
41	0xbcca552c	-0.024698816
42	0xbd797997	-0.060906973
43	0xbd0cecdc	-0.034405574
44	0xbd735ea6	-0.059416436
45	0x3e3d7c86	0.18504533
46	0x3e409715	0.18807633
47	0x3e2ac884	0.16678053
48	0x3e00dc87	0.12584125
49	0x3dedaec7	0.11605602
50	0x3da00268	0.07812959
51	0x3d8bac04	0.06819919
52	0x3dbf4787	0.09339815
53	0x3d8a6787	0.067580275
54	0x3bc2b916	0.005942474
55	0x3a57aeeb	0.0008227664
56	0xbca50ab9	-0.020146715
57	0x3d87057e	0.065928444
58	0x3d752893	0.059853148
59	0xbd2ee25c	-0.042696342
60	0x3e0cb74a	0.13741794
61	0x3d447762	0.047965415
62	0x3cb62be0	0.022237718
63	0xbd2e1872	-0.04250378
64	0xbd71c128	-0.0590221
65	0xbd429ea3	-0.04751457
66	0xbc20f081	-0.009822966
67	0x3c444b42	0.0119808335
68	0xbc55db04	-0.013052706
69	0x3d2c2d2b	0.042035263
70	0x3c95ea99	0.018300341
71	0x3c07957f	0.008275389
72	0xbd4b098d	-0.049569655
73	0xbcab7065	-0.020927617
74	0xbd2a3e2d	-0.0415632
75	0xbd1dd974	-0.038537458
76	0xbce64446	-0.028108727
77	0x3d0539f8	0.032525986
78	0x3da7da70	0.081959605
79	0x3d75c710	0.060004294
80	0x3d922e89	0.07137782
81	0xbe2b7801	-0.16744997
82	0xbe0be9bb	-0.1366338
83	0xbdc07a7a	-0.093983606
84	0x3ce24942	0.027622823
85	0xbc851a0f	-0.016247777
86	0x3d663b60	0.05620897
87	0xbd172a21	-0.03690541
88	0xbd9b22ee	-0.07575022
89	0x3b86f13a	0.004118112
90	0xbdd91df2	-0.10601415
91	0xbdb599dc	-0.08867237
92	0xbe05f282	-0.1308079
93	0xbd755392	-0.059894152
94	0xbd3f8d33	-0.046765517
95	0xbdd67dea	-0.10473235
96	0x3dc50d32	0.096216574
97	0x3e2553ea	0.16145292
98	0x3e3c23e3	0.18373065
99	0xbd7f3797	-0.062308874
100	0xbd5ada65	-0.053430934
101	0xbd9a1593	-0.07523646
102	0x3c58b4b2	0.013226675
103	0xba8c4229	-0.001070087
104	0xbc9c67cb	-0.019092461
105	0x3d2c61f9	0.04208562
106	0x3cd82810	0.02638629
107	0x3d56004d	0.05224638
108	0x3db260aa	0.087098435
109	0x3dbddfc9	0.09271199
110	0x3de32045	0.11090139
111	0x3de82851	0.11335815
112	0x3db9f18b	0.09079274
113	0x3decdc7e	0.11565493
114	0xbd91d939	-0.0712151
115	0xbda2c6ec	-0.079480976
116	0xbbbdd20d	-0.0057928623
117	0x3db9e635	0.09077112
118	0x3d9592af	0.07303368
119	0x3dc08ab7	0.09401458
120	0xbc266c8e	-0.010157717
121	0xbcb9f4e4	-0.02269978
122	0x3ba0d62b	0.0049083433
123	0xbde407d9	-0.11134309
124	0xbd9cdb37	-0.076589994
125	0xbce90165	-0.028443048
126	0xbd911f9c	-0.07086107
127	0xbdd87dca	-0.10570867
128	0xbda3a816	-0.07991044
129	0x3b0b635f	0.0021268947
130	0xbd923534	-0.07139054
131	0xbcea92ff	-0.028634546
132	0x3e72e248	0.23719132
133	0x3e3919a6	0.1807619
134	0x3e80861a	0.2510231
135	0x3e09754b	0.1342365
136	0x3df293b2	0.11844577
137	0x3e18d91c	0.1492657
138	0x3da4fdee	0.08056246
139	0x3d43b7c4	0.047782674
140	0x3d9fdee1	0.07806183
141	0xbe735fae	-0.23766968
142	0xbe73e51b	-0.23817866
143	0xbe5f9e17	-0.2183765
144	0xbcb38b30	-0.021916956
145	0xbd7ad49b	-0.061237913
146	0xbbff3613	-0.0077884286
147	0xbce03899	-0.027370738
148	0xbd0d9e85	-0.034575004
149	0x3da93880	0.0826273
150	0xbc41db48	-0.011832066
151	0x3da4681f	0.08027672
152	0x3e96c22d	0.2944502
153	0xbd035d5a	-0.03207145
154	0xbcfc4ad5	-0.030797401
155	0xbd346b80	-0.044047832
156	0xbce689d9	-0.028141903
157	0xbd0050db	-0.03132711
158	0x3a159d1c	0.000570731
159	0xbcc33752	-0.02383009
160	0x3da1e773	0.079054736
161	0xbbf66ed1	-0.0075205346
162	0x3e23a418	0.15980566
163	0x3e21fe1d	0.15819593
164	0x3e63220c	0.22180957
165	0xbd5f9506	-0.05458548
166	0x3c6c686f	0.014429196
167	0x3d6b51f1	0.057451192
168	0xbe086274	-0.13318807
169	0xbd247565	-0.04015102
170	0x3c24ae73	0.010051358
171	0x3db69bca	0.08916433
172	0x3db8623a	0.0900311
173	0x3d88c93c	0.066790074
174	0xbd75c0f1	-0.059998456
175	0xbdbe2d1f	-0.0928595
176	0xbdaa8ef3	-0.08328047
177	0x3c8a42fd	0.016877646
178	0xbb6d08f6	-0.0036168671
179	0xbb7aac6f	-0.003824975
180	0x3c95ea47	0.018300189
181	0x3b806651	0.003918447
182	0xbd099332	-0.033587642
183	0xbc9b2fa2	-0.018943612
184	0xbbb6c64d	-0.0055778385
185	0xbcfd493c	-0.03091871
186	0xbd9bfe87	-0.076169066
187	0xbd625f0d	-0.05526643
188	0xbd6b2303	-0.057406437
189	0xbdc9e6f0	-0.09858501
190	0xbdd9721c	-0.10617468
191	0xbd98f13f	-0.07467889
192	0x3d574136	0.052552424
193	0x3cf5fe66	0.030028533
194	0x3d8335e6	0.06406765
195	0x3e28987d	0.1646442
196	0x3df8cb46	0.12148146
197	0x3e16e42a	0.14735475
198	0x3c410fc7	0.011783547
199	0xbc768fa2	-0.015048893
200	0xbad140ac	-0.0015964708
201	0xbd570cd5	-0.052502472
202	0xbcde7eab	-0.02716001
203	0xbcb8268a	-0.022479314
204	0xbcd899fc	-0.026440613
205	0xbd8f4627	-0.069958024
206	0xbd03df06	-0.032195114
207	0x3e3e7f3a	0.1860322
208	0x3e07a51d	0.1324658
209	0x3e2dd336	0.16975102
210	0x3c6b47fb	0.014360423
211	0xbd5d2bc4	-0.053996816
212	0xbd6c1c2e	-0.05764406
213	0xbc3443c3	-0.011002484
214	0xbd706985	-0.05869438
215	0xbdf570e7	-0.11984425
216	0x3d801fa3	0.06256034
217	0xbbeab070	-0.0071621463
218	0x3c714de9	0.014728048
219	0x3e3ee3f1	0.1864164
220	0x3df4118a	0.11917408
221	0x3ddce3aa	0.10785611
222	0xbc02313e	-0.007946311
223	0xbcb47fcc	-0.022033595
224	0xbd88b5f5	-0.066753305
225	0xbd71b9a9	-0.05901495
226	0xbd64d688	-0.055868655
227	0x3a98942b	0.0011640837
228	0xbd864754	-0.065565735
229	0xbdba5584	-0.09098342
230	0xbca1cbaa	-0.019750435
231	0x3e1652b7	0.1467999
232	0x3e1001a8	0.14063132
233	0x3e687dc2	0.22704223
234	0xbb5b59b3	-0.0033470213
235	0xbc239a22	-0.009985479
236	0xbd2c8f47	-0.042128827
237	0x3cd65b32	0.026166532
238	0x3d0301d9	0.031984184
239	0x3be48fa6	0.006975132
240	0xbe1c4a3e	-0.15262696
241	0xbdef7551	-0.11692298
242	0xbe1db289	-0.15400137
243	0x3a077ce8	0.0005168454
244	0x3d12fb07	0.03588393
245	0xbc92b985	-0.017910728
246	0x3ac8cab6	0.0015319202
247	0xbd1beb28	-0.03806606
248	0xbcd94d06	-0.026525985
249	0xbc2acfa5	-0.010425483
250	0xbd57e275	-0.0527062
251	0xbc9c5b6e	-0.019086566
252	0x3de375e5	0.11106471
253	0x3d959415	0.07303635
254	0x3e04fca7	0.12987004
255	0x3d965338	0.073400915
