3layer_5000its/files/generators.pth (torch, 848293 bytes, 56 tensors)

weight f4 [64, 12, 3, 3]
0	0xbc1d3fec	-0.00959776
1	0xbcbd5db7	-0.023115976
2	0xbd80d28c	-0.06290159
3	0xbbe182dd	-0.006882055
4	0xbcecbff9	-0.028900133
5	0xbd4b215f	-0.049592372
6	0x3cf9ca8b	0.030492088
7	0xbd6cd831	-0.057823364
8	0x3da17a16	0.07884614
9	0xbd8bbed1	-0.06823505
10	0xbccc4d3c	-0.024939172
11	0xbd199f05	-0.03750517
12	0x3cafc0a9	0.021454172
13	0xbcc06b99	-0.023488807
14	0x3b762104	0.00375563
15	0xbc988e24	-0.018622465
16	0x3cc81fdd	0.024429256
17	0xbd93e5d0	-0.07221568
18	0xbcfa91d7	-0.03058712
19	0xba66f0ea	-0.00088097027
20	0x3c6e7160	0.014553398
21	0xbc2d5814	-0.0105800815
22	0xba0388de	-0.0005017648
23	0xbcc15dcd	-0.023604298
24	0xbe621096	-0.2207664
25	0xbd9844e2	-0.07435013
26	0x3db27b33	0.08714905
27	0x3ced23d7	0.028947754
28	0x3cd6ae3f	0.026206134
29	0xbaccab00	-0.0015614927
30	0x3d056d32	0.03257484
31	0x3c4f50b6	0.01265352
32	0xbcd0923c	-0.025460355
33	0x3d08d965	0.03341045
34	0xbbb44503	-0.005501391
35	0xbcfe5866	-0.031048011
36	0x3b22c790	0.0024838187
37	0x3ca6921c	0.020333342
38	0x3d0e5e6b	0.034758013
39	0x3cb66a0a	0.02226736
40	0x3abdcdba	0.0014480867
41	0x3b6ff19b	0.0036612514
42	0xbd7f8ebc	-0.06239198
43	0x3dbeac28	0.0931018
44	0xbc8a6465	-0.016893575
45	0x3cf72401	0.030168535
46	0xbc04fbcd	-0.008116675
47	0x3c5b9a4b	0.0134034855
48	0x3d1d795f	0.038445827
49	0xbcde75f6	-0.027155858
50	0x3c984307	0.018586649
51	0xbdd35209	-0.10318381
52	0xbe0c3b8e	-0.13694593
53	0xbdc1a041	-0.09454394
54	0xbc02f472	-0.007992851
55	0xbd2edf20	-0.042693257
56	0x3d49c596	0.0492607
57	0xbd4364c6	-0.047703527
58	0x3d413f8a	0.047179736
59	0xbca40762	-0.020023052
60	0x3c5766be	0.013147054
61	0xbd227740	-0.039664507
62	0x3e0ea808	0.13931286
63	0x3cf35ed4	0.029708304
64	0x3cd336f1	0.025783034
65	0x3c9ac6d1	0.018893631
66	0xbd889305	-0.06668667
67	0x3bde8f74	0.0067920033
68	0xbc92425e	-0.017853912
69	0x3cd9b4c7	0.02657546
70	0x3d29c7bf	0.04145026
71	0x3c9da1ef	0.019242255
72	0x3d39e6ec	0.04538624
73	0x3bd104bc	0.006378738
74	0xbcd9d1e4	-0.026589341
75	0xbcbc0ff3	-0.022956824
76	0xbcdf6d68	-0.027273849
77	0xbbff1adf	-0.0077851857
78	0xbcf8f165	-0.030388543
79	0xbc06b330	-0.008221433
80	0xbbad5a5c	-0.0052903127
81	0xbd47dbd0	-0.048793614
82	0xbc97ad16	-0.018515151
83	0xbd9bafb7	-0.07601874
84	0xbc71e602	-0.014764311
85	0xbd0d70a9	-0.03453127
86	0xbbbf6f7d	-0.005842148
87	0xbd72cebb	-0.059279185
88	0xbd275977	-0.040856805
89	0x3d46d96d	0.048547197
90	0xbc194350	-0.009354427
91	0xbc0e40fb	-0.008682485
92	0xbbff55d0	-0.007792212
93	0x3ca93509	0.020655172
94	0x3cddfc9b	0.02709799
95	0xbc875a93	-0.016522681
96	0x3d9ba495	0.07599751
97	0xbd733584	-0.05937721
98	0x3de012cf	0.109410875
99	0xbca82b1b	-0.020528367
100	0x3c2a4b3e	0.010393916
101	0xbc21dd0c	-0.009879362
102	0x3d2868a8	0.041115433
103	0xbcbcf7e9	-0.023067432
104	0x3c37a63b	0.011209066
105	0xbd3f7961	-0.046746615
106	0xbda7051a	-0.0815527
107	0xbd3f54f1	-0.046711866
108	0x39974c1d	0.00028857673
109	0xbc321e67	-0.010871506
110	0x3b645075	0.0034837995
111	0xbccf6158	-0.025314972
112	0xbc1f0958	-0.009706818
113	0x3ad96b2c	0.0016587726
114	0x3d8b3402	0.06797029
115	0xbdeb4567	-0.11487847
116	0xbd03ad29	-0.03214756
117	0xbb9e2b01	-0.004826904
118	0xbbed43f0	-0.007240765
119	0x3b54b336	0.003245545
120	0xbc20ff97	-0.009826562
121	0xbbe07290	-0.0068495944
122	0x3b6cf5be	0.0036157216
123	0xbd863bae	-0.06554352
124	0xbe0e9c30	-0.13926768
125	0xbd5418f0	-0.051781595
126	0xbc5ef000	-0.013607025
127	0x3ae55091	0.0017495324
128	0x3bf0ef21	0.007352725
129	0x3b3c8f5b	0.002877197
130	0x3baa27fd	0.0051927553
131	0x3c5095c3	0.0127310185
132	0xbd04935b	-0.03236709
133	0x3e61c8b1	0.22049214
134	0xbde85b84	-0.1134558
135	0xbd19ee5c	-0.037580833
136	0xbbcd59d4	-0.006266812
137	0x3bc1bedc	0.005912645
138	0x3c662f2c	0.014049333
139	0xbbc3acf7	-0.0059715468
140	0xbb560485	-0.0032656502
141	0xbdeb3375	-0.11484424
142	0xbe1d98f7	-0.15390383
143	0x3c8841b7	0.016632898
144	0x3ba12a78	0.0049183927
145	0xbb919c2e	-0.004443667
146	0xbc496034	-0.012291003
147	0xbc0c0706	-0.008546596
148	0xbc30e8fc	-0.010797735
149	0x3a29eff1	0.00064825924
150	0xbba30af8	-0.004975673
151	0xba805794	-0.0009791725
152	0xbbbf458e	-0.005837149
153	0x3c7c8a36	0.015413811
154	0x3c9e32b4	0.019311287
155	0xbcf31517	-0.029673142
156	0x3ab849e6	0.0014060109
157	0x3bddae7a	0.006765184
158	0xbc2e387f	-0.010633587
159	0xbde8aa8f	-0.113606565
160	0x3d5a3cc1	0.053280596
161	0xbe0cca0f	-0.13748954
162	0x3d04ebb8	0.03245136
163	0xbcc84ad3	-0.024449741
164	0xbcbb7d12	-0.022886787
165	0xba97bd63	-0.0011576827
166	0xbc8f0513	-0.017458474
167	0x3c0ed3c1	0.008717478
168	0x3d4b9621	0.04970372
169	0x3e12884a	0.14309803
170	0xbc7a6910	-0.015283838
171	0x3bde8c4c	0.006791627
172	0x3cb1ba54	0.021695293
173	0x3c8460b4	0.016159393
174	0xbc71723e	-0.01473671
175	0xbc5bdab8	-0.013418846
176	0xbcbfec5a	-0.02342813
177	0x3c44425d	0.011978713
178	0xbcdd087b	-0.026981583
179	0x3df152d2	0.11783375
180	0x3aa2d00f	0.0012421625
181	0xbb05e30f	-0.0020429527
182	0xbd0e7712	-0.034781523
183	0xbb2cf8bc	-0.0026393374
184	0xbb8fabc8	-0.0043844916
185	0x3bb8983b	0.0056333817
186	0xbdd32b45	-0.103109874
187	0xbe05288f	-0.13003753
188	0xbc21946a	-0.009862045
189	0x3b296279	0.0025846048
190	0xbbda6834	-0.006665254
191	0xbc7e89ab	-0.015535752
192	0x3bc8098b	0.0061046532
193	0x3c5cc541	0.013474763
194	0xbcae2c76	-0.021261435
195	0xbc5d29d4	-0.013498742
196	0xbd852a1c	-0.06502172
197	0x3c67f799	0.014158153
198	0x3c08be42	0.008346142
199	0x3c0ac2b7	0.008469275
200	0xbb3796c7	-0.0028013454
201	0x3cd62022	0.026138369
202	0xbc09218d	-0.008369816
203	0xbb765f9b	-0.0037593606
204	0xbd5279f8	-0.05138585
205	0x3dc59444	0.0964742
206	0xbdd50f3a	-0.10403295
207	0xbccea5ad	-0.025225485
208	0x3c25cfe2	0.010120364
209	0x3c7713b1	0.015080378
210	0x3d005835	0.03133412
211	0xbc1d2410	-0.0095911175
212	0xbba3d11c	-0.004999293
213	0xbd89b24b	-0.0672346
214	0xbe391dc9	-0.18077768
215	0x3db480cf	0.08813631
216	0xbd04b638	-0.03240034
217	0xbd479110	-0.048722327
218	0xbcc3b74e	-0.023891117
219	0xbccd4cd4	-0.025061049
220	0xbd938576	-0.0720319
221	0xbcfba5fd	-0.030718798
222	0x3cc4fac7	0.024045361
223	0xbcb348df	-0.021885334
224	0xbd62f709	-0.055411372
225	0xbccb9788	-0.02485253
226	0x3a28a23f	0.0006432868
227	0xbcfb4435	-0.030672172
228	0xba6cefb6	-0.0009038405
229	0xbc98e2e4	-0.018662877
230	0x3c9d5b0f	0.01920846
231	0x3bd69dfe	0.006549596
232	0xbd8e4eb4	-0.06948605
233	0xbcf850ca	-0.03031196
234	0xbde828f9	-0.1133594
235	0x3bf7811a	0.007553232
236	0x3cc219f2	0.023694012
237	0x3c0d1288	0.008610375
238	0x3d4cf9ad	0.050042797
239	0xbc958594	-0.018252172
240	0xbc3a7736	-0.011380961
241	0xbc1ecce5	-0.009692405
242	0xbdbb0134	-0.09131089
243	0x3cc2647b	0.023729553
244	0xbd997e04	-0.07494739
245	0xbd113c11	-0.035457674
246	0x3d3269a5	0.04355778
247	0xbd1af4e1	-0.03783119
248	0x3d03334d	0.032031346
249	0xbd181b59	-0.037135456
250	0xbd8bbdbe	-0.068233
251	0x3dcff2d0	0.10153735
252	0xbd2ee764	-0.04270114
253	0x3db26a90	0.087117314
254	0x3c39990b	0.011327992
255	0xbc0ab4b4	-0.008465935

bias f4 [64]
0	0x3bd88ee1	0.0066088294
1	0xbcebdafd	-0.028790945
2	0xbd92e878	-0.07173246
3	0xbb534e22	-0.0032242616
4	0xbbeb594d	-0.0071822763
5	0xbd041324	-0.032244816
6	0xbd5510ed	-0.052018095
7	0xbcf849f2	-0.030308697
8	0xbdb22d9a	-0.08700104
9	0xbbd8fa72	-0.0066216523
10	0xbdf61e34	-0.120174795
11	0x3d3c0139	0.045899604
12	0xbdc5e0de	-0.09662031
13	0x3ce39691	0.027781757
14	0x3ca3faa8	0.020016983
15	0x3e037bfa	0.12840262
16	0xbd3e9a54	-0.046533898
17	0x3db0a72c	0.086256355
18	0x3d2c9afc	0.042139992
19	0x3da62a66	0.081135556
20	0xbc2c511b	-0.010517384
21	0x3d8595dc	0.06522724
22	0xbd12fa37	-0.035883155
23	0x3ca601b4	0.020264484
24	0x3deece8d	0.1166049
25	0x3d5613db	0.05226503
26	0xbce307be	-0.027713653
27	0xbdcb071c	-0.099134654
28	0x3c4f5830	0.012655303
29	0x3b5c4e7f	0.0033616123
30	0x3d7d0f43	0.061782133
31	0xbd0963a8	-0.033542305
32	0x3c6bd5f2	0.01439427
33	0x3cfee553	0.03111521
34	0xbddb93db	-0.107215606
35	0x3c73d214	0.0148816295
36	0x3d24e2b6	0.04025527
37	0x3cea790f	0.028622178
38	0x3d8847d4	0.06654325
39	0x3ca0907e	0.01960015
40	0xbbca401b	-0.0061721927
41	0xbcc7b609	-0.024378793
42	0x3c4c593f	0.01247245
43	0x3d9c4cd6	0.07631843
44	0x3d8cc3fd	0.06873319
45	0xbd7a950e	-0.061177306
46	0x3c36875f	0.011140673
47	0x3c040703	0.008058312
48	0xbdaf166e	-0.085492
49	0x3c74da7f	0.014944672
50	0x3cb80587	0.022463573
51	0xbda71b56	-0.08159511
52	0x3d657c9d	0.056027044
53	0xbd614b3f	-0.0550034
54	0x3def5f97	0.11688154
55	0x3c61573d	0.013753709
56	0xbe0ba6d5	-0.1363786
57	0x3d297b34	0.04137726
58	0x3d44cf4a	0.04804925
59	0x3ddb2f75	0.10702411
60	0x3d4ca726	0.049964093
61	0x3d2bdb90	0.041957438
62	0x3c75b7d9	0.014997446
63	0xbd84bb50	-0.064810395

weight f4 [64]
0	0x3f70cd35	0.9406312
1	0x3f99ee52	1.2025855
2	0x3f70580c	0.9388435
3	0x3f6f5bf1	0.93499666
4	0x3f762f28	0.96165705
5	0x3f84d9fa	1.0379021
6	0x3f641a48	0.891026
7	0x3f69acf8	0.91279554
8	0x3f8b1a98	1.0867491
9	0x3f83eaaa	1.0305989
10	0x3f87fdf6	1.0624378
11	0x3f6cd39e	0.925104
12	0x3f7b60cd	0.9819458
13	0x3f89ed44	1.0775533
14	0x3f77c7a7	0.9678902
15	0x3f8cf57c	1.1012416
16	0x3f855d0b	1.041902
17	0x3f829e55	1.0204569
18	0x3f6bda04	0.9212954
19	0x3f8a115a	1.0786545
20	0x3f81448d	1.0099045
21	0x3f809441	1.0045244
22	0x3f6a3bb7	0.9149737
23	0x3f70f649	0.941258
24	0x3f797643	0.9744608
25	0x3f6d2b63	0.9264433
26	0x3f75fd73	0.9608986
27	0x3f62b507	0.88557476
28	0x3f77370f	0.9656839
29	0x3f5d1dfe	0.8637389
30	0x3f72eabd	0.9488943
31	0x3f856d5f	1.0424002
32	0x3f6c7236	0.9236177
33	0x3f6200ba	0.8828236
34	0x3f7aa543	0.9790842
35	0x3f742387	0.9536671
36	0x3f7a99ac	0.97890735
37	0x3f7d6944	0.9898875
38	0x3f79e971	0.9762183
39	0x3f5cce66	0.8625244
40	0x3f8a4d40	1.0804825
41	0x3f80403b	1.0019602
42	0x3f73c275	0.9521859
43	0x3f5e6a05	0.8688052
44	0x3f74eb13	0.95671195
45	0x3f8a4c86	1.0804603
46	0x3f83297b	1.0247034
47	0x3f91d745	1.139382
48	0x3f832f08	1.0248728
49	0x3f7ce0ad	0.9878033
50	0x3f7260ac	0.9467876
51	0x3f8a3d1e	1.0799901
52	0x3f617838	0.88074064
53	0x3f5c6e9e	0.8610629
54	0x3f74e2fd	0.95658857
55	0x3f77f90f	0.9686441
56	0x3f749b6b	0.9554965
57	0x3f768e70	0.9631109
58	0x3f65d82f	0.89782995
59	0x3f677f34	0.9042847
60	0x3f7aeb4c	0.98015285
61	0x3f7c9665	0.98666984
62	0x3f7ea058	0.99463415
63	0x3f93cb49	1.1546413

bias f4 [64]
0	0xbe87b6ed	-0.2650675
1	0xbe84d63e	-0.25944704
2	0xbe2ae541	-0.16689016
3	0xbe15cf01	-0.14629747
4	0xbe5e5e47	-0.21715651
5	0xbe6696fb	-0.22518532
6	0xbe38bb7e	-0.18040273
7	0xbe280558	-0.16408288
8	0xbe2cdc7f	-0.16880988
9	0xbe6365e9	-0.22206844
10	0xbe0d2df7	-0.13787065
11	0xbe580d55	-0.21098836
12	0xbe6db66a	-0.23214117
13	0xbe60b1cb	-0.21942823
14	0xbe6e3c0d	-0.23265095
15	0xbe46efd9	-0.19427432
16	0xbe267713	-0.1625636
17	0xbe62ea16	-0.22159609
18	0xbdedb76a	-0.11607249
19	0xbe213aac	-0.15745038
20	0xbe9201aa	-0.28516895
21	0xbe14ef7c	-0.14544481
22	0xbe440883	-0.19143872
23	0xbe4d7b2e	-0.2006652
24	0xbe9aaf18	-0.3021171
25	0xbe41a49b	-0.18910448
26	0xbe3352b7	-0.17512022
27	0xbe3f3762	-0.1867347
28	0xbe895abb	-0.26827034
29	0xbe214433	-0.15748672
30	0xbe823b06	-0.25435656
31	0xbe545887	-0.20736896
32	0xbe0d3f86	-0.13793764
33	0xbe3d5bda	-0.1849207
34	0xbe31fd4e	-0.17381784
35	0xbe53b1b8	-0.20673263
36	0xbe6371d3	-0.22211389
37	0xbdd884b2	-0.105721846
38	0xbe170bd7	-0.1475061
39	0xbe3b3a58	-0.18283975
40	0xbe8a4b0b	-0.27010378
41	0xbe7b4f7a	-0.24542037
42	0xbe70cc8d	-0.2351553
43	0xbe1d639e	-0.15370032
44	0xbe81e191	-0.25367406
45	0xbe877aa7	-0.26460764
46	0xbe1d2f15	-0.15349992
47	0xbe4b593e	-0.19858262
48	0xbe72b6b1	-0.23702504
49	0xbe51af5d	-0.20477052
50	0xbe446f70	-0.19183135
51	0xbe208c44	-0.15678507
52	0xbe1caecb	-0.15301053
53	0xbe54cfe1	-0.20782425
54	0xbde2c004	-0.1107178
55	0xbe445afe	-0.19175336
56	0xbe07ae86	-0.13250169
57	0xbe674069	-0.22583164
58	0xbe81463f	-0.25248906
59	0xbe569e73	-0.20958881
60	0xbe5d3b06	-0.21604547
61	0xbe1acf6b	-0.15118186
62	0xbe362e65	-0.17791136
63	0xbe172713	-0.14761

running_mean f4 [64]
0	0x3c51c495	0.012803216
1	0xbcd1c317	-0.025605721
2	0xbd940e60	-0.07229304
3	0xbc79f9d3	-0.015257317
4	0xbc731af4	-0.014837969
5	0xbd1bacc7	-0.03800657
6	0xbd66bc7c	-0.056332096
7	0xbcadcd3f	-0.021216033
8	0xbdbc8905	-0.09205822
9	0xba85331d	-0.0010162328
10	0xbdf10e71	-0.117703326
11	0x3d3ecaf3	0.046580266
12	0xbdc15234	-0.09439507
13	0x3c9ecf0b	0.019385835
14	0x3ca678c9	0.020321267
15	0x3e0394bd	0.12849708
16	0xbd377d63	-0.044797312
17	0x3dada0ce	0.08477937
18	0x3d2fa42c	0.042881176
19	0x3da85323	0.08218982
20	0xbba982cf	-0.0051730643
21	0x3d836d8b	0.06417378
22	0xbd21e7d4	-0.03952773
23	0x3c94dc84	0.018171556
24	0x3debb1bb	0.11508509
25	0x3d5aea1b	0.053445917
26	0xbcbb6466	-0.022875022
27	0xbdc7eaf0	-0.09761608
28	0x3cac0044	0.02099622
29	0xbbdeaafc	-0.0067952853
30	0x3d86e8e4	0.06587389
31	0xbd028f8f	-0.03187519
32	0x3c64a103	0.013954404
33	0x3cc1cb8d	0.02365663
34	0xbdff36fd	-0.1246166
35	0x3c395012	0.011310594
36	0x3d2db40e	0.04240804
37	0x3cac4058	0.021026775
38	0x3d9595e6	0.073039815
39	0x3c6e64f6	0.014550438
40	0xbc922612	-0.017840419
41	0xbc802a40	-0.015645146
42	0x3b923cee	0.00446283
43	0x3da4b43d	0.0804219
44	0x3d8f2d3d	0.069910504
45	0xbd84c184	-0.06482223
46	0x3aae6246	0.0013304434
47	0x3cdf917f	0.027291058
48	0xbda44c6a	-0.08022387
49	0x3c83057e	0.01599383
50	0x3cf3a14f	0.029740004
51	0xbda15178	-0.07876867
52	0x3d63c5b1	0.055608455
53	0xbd47f55c	-0.048817977
54	0x3de3c7d7	0.11122101
55	0x3bd4ed8b	0.006498044
56	0xbe06d1a7	-0.13165914
57	0x3d2cc034	0.042175487
58	0x3d7111b4	0.058854774
59	0x3dd18274	0.1022996
60	0x3d7fe036	0.062469684
61	0x3d25f6fa	0.04051874
62	0x3c13557c	0.008992549
63	0xbd81bf4e	-0.063353166

running_var f4 [64]
0	0x3e2c635e	0.1683478
1	0x3e60d9f2	0.2195814
2	0x3e1db560	0.1540122
3	0x3e31b017	0.17352329
4	0x3e306016	0.17224154
5	0x3e3e16e5	0.18563421
6	0x3e2874a5	0.16450746
7	0x3e2b25e8	0.16713679
8	0x3e4d5c06	0.20054635
9	0x3e36ef03	0.17864613
10	0x3e3e5041	0.18585302
11	0x3e2248a8	0.15848029
12	0x3e3509c6	0.1767951
13	0x3e460edc	0.19341606
14	0x3e3029f0	0.17203498
15	0x3e4b7ae4	0.19871098
16	0x3e44a56d	0.1920373
17	0x3e39e392	0.18153217
18	0x3e3568dd	0.17715783
19	0x3e4a11a0	0.19733286
20	0x3e458705	0.19289787
21	0x3e3e2c04	0.18571478
22	0x3e448a7e	0.19193456
23	0x3e388662	0.18020013
24	0x3e28eb64	0.16496044
25	0x3e267a6f	0.16257642
26	0x3e2c1741	0.16805746
27	0x3e30f0e6	0.17279395
28	0x3e2bb475	0.16768058
29	0x3e1cca26	0.15311489
30	0x3e32c71f	0.17458771
31	0x3e348b8d	0.1763136
32	0x3e3791ce	0.17926714
33	0x3e26f48a	0.16304222
34	0x3e3d885a	0.18509045
35	0x3e274831	0.16336133
36	0x3e2f10c9	0.17096247
37	0x3e2e979e	0.17050025
38	0x3e421f05	0.18957146
39	0x3e179fda	0.14807072
40	0x3e41a837	0.18911825
41	0x3e448eb5	0.19195063
42	0x3e4a0f3f	0.19732378
43	0x3e2d2493	0.16908483
44	0x3e16cfde	0.14727733
45	0x3e43b100	0.19110489
46	0x3e369fcf	0.178344
47	0x3e4b7d14	0.19871932
48	0x3e449808	0.1919862
49	0x3e3a4726	0.18191203
50	0x3e3e4607	0.18581401
51	0x3e431ea2	0.19054654
52	0x3e2bfe69	0.16796269
53	0x3e360b82	0.17777827
54	0x3e2483c8	0.16065896
55	0x3e2fa4c7	0.17152701
56	0x3e4071f0	0.18793464
57	0x3e355582	0.177084
58	0x3e3cd54a	0.18440738
59	0x3e2828cb	0.16421811
60	0x3e49866e	0.19680187
61	0x3e3dc3aa	0.18531671
62	0x3e3a7a26	0.18210658
63	0x3e50cf60	0.20391607

weight f4 [64, 64, 3, 3]
0	0xbd6ee32d	-0.05832212
1	0x3d5a1bd9	0.053249214
2	0x3cb57f7a	0.022155512
3	0x3be07146	0.0068494407
4	0x3d1ef208	0.038805038
5	0x3cb2d2a1	0.021828951
6	0xbcbf523f	-0.023354648
7	0xbc977130	-0.01848659
8	0xbd5a0d1b	-0.053235155
9	0xbc07e694	-0.00829472
10	0xbcda5da6	-0.026655983
11	0xbd07e20a	-0.033174552
12	0xbd5b96a1	-0.053610448
13	0x3d5a7b51	0.05334026
14	0x3d604825	0.054756302
15	0x3e09f8d6	0.1347383
16	0x3d3d67d9	0.046241615
17	0x3d0b7056	0.03404268
18	0xbd8b545e	-0.06803201
19	0x3d4c922a	0.04994408
20	0xbc2f7224	-0.010708366
21	0x3d3a5ea1	0.0455004
22	0xbbef367a	-0.0073001953
23	0x3d8fcc08	0.07021338
24	0x3c7510ad	0.014957589
25	0xbce15c16	-0.02750973
26	0xb8a84e91	-8.0254984e-05
27	0xbd222f10	-0.039595664
28	0x3d26b0f2	0.040696092
29	0x3d0da43d	0.034580458
30	0x3d09d849	0.03365353
31	0xbd0bc1e5	-0.03412046
32	0x3cf1bdcc	0.029509448
33	0xbcdac455	-0.026704947
34	0xbddde362	-0.108343855
35	0x3c6d5776	0.014486184
36	0xbc4b879b	-0.012422468
37	0xbb1d906a	-0.0024042376
38	0xbd357705	-0.04430296
39	0xbcbe85f0	-0.023257226
40	0xbd518287	-0.05114987
41	0xbacc388d	-0.0015580818
42	0x3d2f5496	0.042805277
43	0xbb9dcdf4	-0.0048158113
44	0xbd741810	-0.05959326
45	0xbccdec36	-0.025137048
46	0xbc8e9869	-0.01740666
47	0xbb09f45b	-0.0021050188
48	0x3dddce3a	0.1083035
49	0xbc26c2ee	-0.010178311
50	0x3c3fe215	0.011711617
51	0x3de624a5	0.11237458
52	0x3d916355	0.07099024
53	0x3c929efe	0.017898079
54	0xbce728c3	-0.028217679
55	0xbd11ae9d	-0.035566915
56	0xbc8b27e1	-0.01698679
57	0x3d06f2d5	0.032946426
58	0xbc5e7384	-0.013577346
59	0x3c49bc11	0.012312905
60	0xbc9f33a3	-0.019433802
61	0x3d1d25f3	0.03836627
62	0xbc119369	-0.008885243
63	0x3d3ae5d8	0.045629352
64	0x3d8f73d2	0.07004513
65	0xbdab258f	-0.08356773
66	0xbcb5a449	-0.022173064
67	0x3b6d5fcf	0.0036220436
68	0x3b16ddc6	0.002302037
69	0xbdaed68b	-0.085370146
70	0x3d8a3225	0.067478456
71	0x3c86d599	0.016459273
72	0xbddd09b8	-0.10792869
73	0x3bb341fd	0.005470513
74	0x3ca4a92b	0.020100197
75	0x3c441351	0.011967496
76	0xbd34c137	-0.044129577
77	0xbc70b2c3	-0.014691058
78	0x3e07bfbe	0.13256738
79	0x3dbe6c90	0.092980504
80	0x3d9a4f5f	0.0753467
81	0xbd94021b	-0.07226964
82	0x3cca69dc	0.02470868
83	0xbd067987	-0.03283074
84	0x3d1e0041	0.03857446
85	0xbd3781bc	-0.04480146
86	0x3ae880ab	0.0017738541
87	0x3cd7481d	0.026279503
88	0xbc4f309f	-0.0126458695
89	0x3d8bc820	0.0682528
90	0xbce36db8	-0.027762279
91	0xbad6b9e0	-0.0016382299
92	0xbd167cfb	-0.036740284
93	0x3bdd0b84	0.0067457575
94	0x3c291ad1	0.010321335
95	0xbd1b29eb	-0.037881773
96	0xbde07591	-0.10959924
97	0xbcefbaf8	-0.029263958
98	0xbd9cba6a	-0.07652743
99	0xbd00ae48	-0.031416208
100	0xbca1a7f2	-0.019733403
101	0xbd460f97	-0.04835471
102	0x3d067633	0.032827567
103	0xbd3bc937	-0.04584619
104	0xbc6815db	-0.014165367
105	0x3cd28d49	0.025702136
106	0x3d2b06eb	0.041754644
107	0x3d44d295	0.04805239
108	0xbc9e7bbd	-0.019346112
109	0x3d061f15	0.032744486
110	0x3ae7271a	0.0017635555
111	0xbcc198cc	-0.02363243
112	0x3b9025b4	0.004399026
113	0x3d3ffecb	0.04687385
114	0xbd277dbb	-0.04089139
115	0xbc2edc33	-0.010672617
116	0x3d148164	0.03625621
117	0x3d62932c	0.055316135
118	0x3ca2a5ab	0.019854387
119	0xbd42c0c7	-0.047547128
120	0xbd917d8c	-0.07104024
121	0x3c92e5a5	0.017931769
122	0x3d572506	0.052525543
123	0x3e3b13c9	0.18269266
124	0x3d6eee1f	0.05833256
125	0x3d364850	0.044502556
126	0x3cc2bee2	0.02377266
127	0x3b116c8c	0.0022189943
128	0xbce79a34	-0.028271772
129	0xbd351820	-0.04421246
130	0x3d5f7bc6	0.0545614
131	0x3d398800	0.045295715
132	0x3c675517	0.014119408
133	0x3cc657b0	0.024211735
134	0xbd397fc3	-0.04528786
135	0x3d228885	0.039680976
136	0x3b106652	0.0022033644
137	0x3d26ed36	0.040753566
138	0x3c8d6d49	0.017264025
139	0x3d8c9946	0.06865172
140	0x3dd0da0d	0.1019784
141	0xbc2dcf4c	-0.010608505
142	0x3b367f5d	0.002784691
143	0xbbdfb34f	-0.006826795
144	0xbd48ca33	-0.049020957
145	0x3bb875c8	0.005629275
146	0xb93d53c4	-0.0001805565
147	0x3ce11873	0.027477479
148	0xbd0a014e	-0.03369265
149	0x3ca3e19e	0.020005044
150	0xbd8ca370	-0.06867111
151	0xbb8020ee	-0.0039101755
152	0xbd986443	-0.074409984
153	0xbd07923a	-0.033098437
154	0xbd7bc56d	-0.061467577
155	0xbd01da99	-0.03170261
156	0xbcfd4a30	-0.030919164
157	0x3bfdcc40	0.0077452958
158	0xbcfff4ab	-0.031244596
159	0x3d948710	0.07252324
160	0xbc691121	-0.014225275
161	0xbd1bf262	-0.03807295
162	0xbc2642b2	-0.010147737
163	0xbc974170	-0.01846382
164	0xbd33708a	-0.043808497
165	0xbb34519c	-0.0027514463
166	0x3c5e81c4	0.013580743
167	0x3cc0a199	0.023514556
168	0x3baadad0	0.0052140728
169	0xbd99be26	-0.07506971
170	0x3c6a9bb0	0.014319345
171	0xbd96176f	-0.07328688
172	0xbccad14b	-0.024758002
173	0xbd9f1381	-0.07767392
174	0x3d7135a3	0.058889043
175	0x3c9eadf5	0.019370059
176	0xbd9b9746	-0.075972125
177	0xbd679fb6	-0.056548797
178	0xbbf9fc49	-0.0076289517
179	0x3c092eba	0.008372957
180	0x3cf4304c	0.029808186
181	0xbd99cf0f	-0.075101964
182	0x3cd8c119	0.026459264
183	0x3c8167e3	0.015796607
184	0x3d6c9473	0.05775876
185	0x3d62d716	0.055380903
186	0x3daaaeb1	0.08334101
187	0x3de63fdd	0.1124265
188	0xbbdaa47b	-0.0066724396
189	0x3cf26ca7	0.029592825
190	0xbd40aa50	-0.047037423
191	0xbd09d0dc	-0.03364645
192	0xbc10b2e3	-0.008831712
193	0x3d8a992e	0.06767498
194	0xbd6aced0	-0.057326138
195	0xbd586f87	-0.052840736
196	0xbc9f9608	-0.01948072
197	0x3d0d6d18	0.034527868
198	0xbd4c0a8f	-0.049814757
199	0xbd7feb5d	-0.06248032
200	0xbd438bc6	-0.04774072
201	0xbd1104fe	-0.03540515
202	0x3be9b960	0.007132694
203	0xbce0f506	-0.027460586
204	0x3c8d0444	0.017213948
205	0xbd541f93	-0.051787924
206	0x3db41967	0.087939076
207	0x3c55d22a	0.013050595
208	0xbdb84751	-0.089979775
209	0xbdf0e7bf	-0.11762952
210	0x3d2cebf3	0.042217206
211	0x3c5a869e	0.013337759
212	0xbd2e65ef	-0.04257768
213	0xbc52cbfd	-0.012866017
214	0xba7a9287	-0.00095585774
215	0x3b7845c9	0.0037883392
216	0xbd5a5c3b	-0.053310614
217	0xbd5ff404	-0.05467607
218	0x3dbbcf3d	0.09170387
219	0x3d2ff1c9	0.042955194
220	0x3d4ae52b	0.049534958
221	0xbcc54405	-0.024080286
222	0x3db98ba0	0.090598345
223	0x3ddd40ce	0.10803376
224	0xbd85f1bd	-0.065402485
225	0x3bc8a63d	0.006123333
226	0x3dc539a8	0.09630138
227	0xbd4db01c	-0.05021678
228	0xbcccdea5	-0.025008509
229	0xbca95c50	-0.0206739
230	0x3cfcd225	0.030861923
231	0x3d6db240	0.05803132
232	0x3d453c8e	0.048153453
233	0x3d306a87	0.043070342
234	0xbcd021b6	-0.0254067
235	0xbd9b7849	-0.07591302
236	0xbddbc929	-0.10731728
237	0xbdb66178	-0.089053094
238	0x3cf2ae5f	0.029624162
239	0xbd0c7945	-0.03429534
240	0xbd63889d	-0.055550206
241	0xbd793d01	-0.060849193
242	0x3cd0d100	0.025490284
243	0xbdaa60f1	-0.08319271
244	0xbdce3e96	-0.10070531
245	0xbd1c89a2	-0.038217194
246	0x3d36b410	0.044605315
247	0x3d8f7633	0.070049666
248	0x3d4a8e7c	0.04945229
249	0x3d1640f4	0.036683038
250	0x3c7be299	0.015373849
251	0x3de135fd	0.109966256
252	0x3c8b50cf	0.017006306
253	0xbd2a3500	-0.04155445
254	0x3d91b335	0.07114259
255	0xbc72514d	-0.014789891

bias f4 [64]
0	0x39a3348d	0.00031128936
1	0xbbca052b	-0.006165167
2	0x3d650f2b	0.05592267
3	0xbcce0658	-0.02514951
4	0x3b00c66e	0.0019649523
5	0xbd46f5ec	-0.048574373
6	0x3cf5366f	0.029933183
7	0xbc976ec6	-0.018485438
8	0xbc577f65	-0.013152932
9	0xbd3d9ba6	-0.046291016
10	0x3c0d1b1c	0.00861242
11	0x3d11aef6	0.035567246
12	0x3d024eb9	0.031813357
13	0xbd52652c	-0.051366016
14	0x3d25fc40	0.040523767
15	0xbd0c4a87	-0.034250762
16	0xbd08b55b	-0.03337608
17	0x3d0badc6	0.03410127
18	0xbd068dff	-0.03285026
19	0xbd26229e	-0.040560357
20	0xbc9e76fd	-0.019343847
21	0xbbb38669	-0.0054786694
22	0xbcbaaacb	-0.022786519
23	0x3c737312	0.014858978
24	0xb9c495da	-0.0003749568
25	0xbcda2d77	-0.026633007
26	0xbd372023	-0.044708382
27	0x3cdae4cb	0.026720425
28	0xbcba5c79	-0.022749173
29	0x3b11dab3	0.00222556
30	0x3cad442e	0.021150675
31	0x3be314d4	0.006929973
32	0x3d331a2e	0.04372614
33	0xbc24d2dc	-0.010060038
34	0xbc7c8c0a	-0.015414247
35	0xbca24eab	-0.019812902
36	0xba7340c6	-0.00092793663
37	0x3d3f8f31	0.046767417
38	0x3d0bbb39	0.034114096
39	0xbb6655bc	-0.0035146317
40	0xbcdfe371	-0.027330132
41	0xbb99b4e8	-0.004690755
42	0x3d833f24	0.064085275
43	0xbbed176a	-0.007235457
44	0x3d0272a0	0.031847596
45	0x3cde17a7	0.027110888
46	0x3c37a3b4	0.011208463
47	0xbd55c4a6	-0.05218949
48	0x3bce2059	0.0062904772
49	0x3d139372	0.036029287
50	0xbc7b535d	-0.0153397
51	0xbc868e4f	-0.01642528
52	0x3c1a1f9c	0.00940695
53	0x3c05d595	0.008168598
54	0x3db02b98	0.08602065
55	0x3c31f0e1	0.010860653
56	0x3c67e53e	0.014153777
57	0x3cc03db9	0.023466932
58	0xbd24ab3a	-0.040202357
59	0xbca18252	-0.019715462
60	0x3cb992ec	0.022653066
61	0xbb546e30	-0.003241431
62	0x3c9d072f	0.019168464
63	0x3d8ec102	0.06970407

weight f4 [64]
0	0x3f995425	1.1978804
1	0x3fab145f	1.3365592
2	0x3fabf13f	1.3432997
3	0x3fa7c263	1.3106197
4	0x3fa3597f	1.2761687
5	0x3fac81ff	1.3477172
6	0x3f98ba25	1.1931807
7	0x3fa250fc	1.2680964
8	0x3f9e126b	1.2349371
9	0x3fa41b64	1.2820859
10	0x3fa3d5e6	1.2799652
11	0x3fa69cf2	1.3016646
12	0x3f9aa524	1.2081647
13	0x3fabdf91	1.3427602
14	0x3fa81729	1.3132068
15	0x3fae72ba	1.3628762
16	0x3f9ed897	1.2409848
17	0x3fa839c8	1.3142633
18	0x3fadfa79	1.3592063
19	0x3faac363	1.3340877
20	0x3fa096c8	1.2546015
21	0x3fa59b6a	1.2938054
22	0x3faa4c31	1.3304502
23	0x3fab2111	1.3369466
24	0x3f9ca01a	1.2236359
25	0x3f9f41e7	1.2441987
26	0x3f94c96a	1.1623967
27	0x3fb05860	1.377697
28	0x3fa56ddc	1.2924151
29	0x3fa4647f	1.2843169
30	0x3f9fb1bf	1.2476119
31	0x3fad21b3	1.3525909
32	0x3f9f14cb	1.242822
33	0x3fb4777d	1.4098965
34	0x3fb30d2f	1.3988398
35	0x3fa54e45	1.2914511
36	0x3f9f7216	1.2456691
37	0x3fa60a6c	1.297193
38	0x3fb41ab0	1.4070644
39	0x3fa6b987	1.3025368
40	0x3fa9b5d3	1.3258613
41	0x3fa866b3	1.3156341
42	0x3fa95b53	1.3230995
43	0x3fc1a4e6	1.5128448
44	0x3fa7d1fb	1.3110956
45	0x3fa0d6fc	1.2565608
46	0x3fa04f4e	1.2524202
47	0x3f9be907	1.2180489
48	0x3fb6e446	1.4288414
49	0x3f994016	1.1972682
50	0x3f99f56c	1.2028022
51	0x3fab93ff	1.340454
52	0x3fa41094	1.2817559
53	0x3fb292ba	1.3951027
54	0x3fb39418	1.402957
55	0x3fa14280	1.2598419
56	0x3fa29672	1.2702162
57	0x3f939149	1.1528713
58	0x3f9a5669	1.205762
59	0x3f9aec64	1.2103391
60	0x3fb03332	1.3765624
61	0x3fada828	1.3566942
62	0x3fa89ee4	1.317349
63	0x3fa6be8a	1.3026898

bias f4 [64]
0	0x3db700e2	0.08935715
1	0x3e25eef4	0.16204435
2	0x3dcdb71f	0.10044693
3	0x3e07e81b	0.13272135
4	0x3e051d48	0.12999451
5	0x3db82487	0.08991342
6	0x3d9c3d68	0.076289
7	0x3d549e75	0.05190893
8	0x3de8ef5d	0.1137378
9	0x3ddc7fb9	0.10766549
10	0x3d61d893	0.055138182
11	0x3deaae64	0.114590436
12	0x3d3196de	0.04335677
13	0x3e299e51	0.16564299
14	0x3e1c6116	0.1527141
15	0x3e2cfdc4	0.16893679
16	0x3debf78b	0.115218244
17	0x3dc4155d	0.09574387
18	0x3deb406e	0.11486898
19	0x3e25086e	0.16116497
20	0x3db96416	0.09052293
21	0x3d6cc77a	0.057807423
22	0x3e03e44d	0.12880059
23	0x3e0b5029	0.13604797
24	0x3daf9d36	0.085749075
25	0x3e000de6	0.12505302
26	0x3d8dd22f	0.06924855
27	0x3e3e9100	0.1861
28	0x3e0cbc06	0.137436
29	0x3df98b0f	0.121847264
30	0x3de3c945	0.111223735
31	0x3da43056	0.08017032
32	0x3bb3e03d	0.005489378
33	0x3e3582b6	0.17725644
34	0x3e1d848e	0.15382597
35	0x3dc33af0	0.09532726
36	0xbd3da7d2	-0.046302624
37	0x3de977ed	0.11399827
38	0x3e2c85f6	0.16847977
39	0x3db241b9	0.08703942
40	0x3d9ea3a4	0.07746056
41	0x3cd83a90	0.026395112
42	0x3e14a57d	0.14516254
43	0x3de52f21	0.1119063
44	0x3dffc957	0.124895744
45	0x3e011b34	0.12608033
46	0x3e099d82	0.1343899
47	0x3dd95838	0.106125295
48	0x3e1f58d0	0.15561223
49	0x3cf06b85	0.029348144
50	0x3db1b4f1	0.0867709
51	0x3df83c02	0.121208206
52	0x3e0d615c	0.13806671
53	0x3dee8836	0.11647074
54	0x3e457f43	0.19286828
55	0x3dc8fcbe	0.09813832
56	0x3de614a5	0.112344064
57	0x3dbae3a0	0.09125447
58	0x3d862c45	0.065514125
59	0x3d24ac3a	0.04020331
60	0x3ded0fe2	0.11575295
61	0x3e1674a1	0.14692928
62	0x3e0f243f	0.1397867
63	0x3d959a20	0.07304788

running_mean f4 [64]
0	0x3e5ca7e0	0.21548414
1	0xbf894d7e	-1.0726774
2	0xbfea9084	-1.8325353
3	0xbff89aee	-1.9422281
4	0xbff0731f	-1.8785132
5	0xbedd2052	-0.4318872
6	0xbf83edd7	-1.0306958
7	0xbf9853f5	-1.1900622
8	0x3cdc327b	0.02687954
9	0x3e6a48a5	0.22879274
10	0x3f1100ea	0.5664202
11	0x3e0e819b	0.13916628
12	0x3f8c9504	1.0982976
13	0x3f9c4803	1.2209476
14	0xc00acc3c	-2.1687155
15	0xbfb019d1	-1.3757879
16	0x3c6802b9	0.014160805
17	0x3f2688e1	0.6505261
18	0x3f2e7e00	0.6816101
19	0x3fa13709	1.259492
20	0x3f45c4e7	0.77253574
21	0x3f3a7a74	0.728431
22	0x3ed5dfbb	0.41772255
23	0xbf99bdf6	-1.2011096
24	0xbdee7768	-0.11643869
25	0xbf1fff5d	-0.6249903
26	0x3f6faf5b	0.93626946
27	0x3f9953fd	1.1978756
28	0x3f5e6c87	0.8688435
29	0x3f66ab90	0.90105534
30	0x3e4f3a2c	0.20237035
31	0xbe0ca90c	-0.13736361
32	0xbe949b33	-0.29024658
33	0xc018c3e7	-2.386957
34	0xc0200ff1	-2.500973
35	0xc02a9db2	-2.665875
36	0xbec6d8e6	-0.38837355
37	0x3fb1e82d	1.389898
38	0xbfaab56c	-1.3336616
39	0x3ed2fb23	0.41207227
40	0xbfb6a08a	-1.4267743
41	0x3f94d03f	1.1626052
42	0x3e295cfa	0.16539374
43	0xbfa7d485	-1.3111731
44	0x3f4b413c	0.79396415
45	0xbe19ff94	-0.15038902
46	0xbf85c6eb	-1.045133
47	0xbf240216	-0.6406568
48	0xc008d0aa	-2.1377358
49	0x3fe63cd5	1.7987314
50	0x3e3f6d97	0.18694149
51	0x3ffa8169	1.9570743
52	0xbf7eb502	-0.99494946
53	0xbf9808fb	-1.1877741
54	0xbfab77cf	-1.3395938
55	0x3f429170	0.7600317
56	0x3f7b7397	0.9822325
57	0xbe42f4cd	-0.19038697
58	0x3fcd1dbd	1.60247
59	0x3f9b11e6	1.2114837
60	0xbe613648	-0.21993363
61	0xc00a9256	-2.1651816
62	0x3fe20afe	1.7659605
63	0xbfc1bcd1	-1.5135747

running_var f4 [64]
0	0x3fac2266	1.3447998
1	0x3fef3e5c	1.8690906
2	0x3fda89ea	1.7073338
3	0x3febb7a6	1.841542
4	0x3f9ffd65	1.2499205
5	0x3f8f7e43	1.1210407
6	0x3fcca974	1.5989213
7	0x3fb49331	1.4107419
8	0x3fbdf196	1.4839351
9	0x3fa53a11	1.2908345
10	0x3fac351b	1.3453707
11	0x3fba0292	1.4532034
12	0x3fc32842	1.5246661
13	0x3fa44ef0	1.283659
14	0x3fd18e01	1.6371461
15	0x3f7b0510	0.980546
16	0x3fcc7773	1.5973953
17	0x3fd36ed6	1.65182
18	0x3fc10475	1.5079485
19	0x3fab64ef	1.3390177
20	0x3fc2a195	1.5205561
21	0x3fade1e8	1.3584566
22	0x3fe65ccd	1.799707
23	0x3f909a6c	1.1297126
24	0x3fa779cb	1.3084043
25	0x3fdee596	1.7413814
26	0x3f9ca52c	1.2237906
27	0x3fbebeb8	1.4901953
28	0x3f842a5f	1.0325431
29	0x3fb7c895	1.4358088
30	0x3fae4400	1.3614502
31	0x3faf0c94	1.3675714
32	0x3fc156a8	1.510457
33	0x3fedeb27	1.8587388
34	0x40042f0b	2.0653713
35	0x3ff882ed	1.9414955
36	0x3f917a60	1.1365471
37	0x3fd5f4dc	1.671535
38	0x3fad3ee3	1.3534817
39	0x3fbe20c1	1.4853746
40	0x3fa918ad	1.3210655
41	0x3fcf2909	1.6184398
42	0x3fb7c74d	1.4357697
43	0x3fbf6005	1.4951178
44	0x3fc1c7a2	1.5139048
45	0x3fd5c2e8	1.6700106
46	0x3f9a8232	1.2070982
47	0x3fabaad5	1.3411509
48	0x3fd88fbb	1.6918863
49	0x3fdf91f5	1.7466418
50	0x3fb830dc	1.4389911
51	0x3fdd5d62	1.7294123
52	0x3fbe1791	1.4850942
53	0x3f9b2487	1.2120522
54	0x3ffd6003	1.9794925
55	0x3fbec1fd	1.490295
56	0x3fae9906	1.3640449
57	0x3f9831fa	1.1890252
58	0x3fe65920	1.7995949
59	0x3ffd3c8a	1.97841
60	0x3f9838ae	1.1892297
61	0x3fc7d1e3	1.5610927
62	0x3fd03ea1	1.6269113
63	0x3fd36180	1.651413

weight f4 [12, 64, 3, 3]
0	0x3ca878b0	0.02056536
1	0xbc9608a0	-0.01831466
2	0x3dc2c93f	0.09511041
3	0x3dfa8ad0	0.12233508
4	0x3d904b16	0.070455715
5	0x3cd8155b	0.02637737
6	0xbc49419e	-0.012283711
7	0xbd419c1c	-0.047268018
8	0x3cd98333	0.026551818
9	0xbd761379	-0.060077164
10	0xbe3b2ee1	-0.18279602
11	0xbe4d9b9e	-0.20078894
12	0x3dfb4d6b	0.12270626
13	0x3dbbbed9	0.09167261
14	0x3da0aa86	0.07845025
15	0x3d666388	0.056247264
16	0xbdc2ef39	-0.09518284
17	0xbdd2ea07	-0.102985434
18	0xbe37a250	-0.17933011
19	0xbcba4e20	-0.022742331
20	0xbdc61f42	-0.09673931
21	0xbdd450ce	-0.10366975
22	0xbd6ebd70	-0.05828613
23	0xbd9722af	-0.07379662
24	0xbe0b0c08	-0.13578808
25	0xbe118422	-0.14210561
26	0xbddd420d	-0.10803614
27	0xbe2cb823	-0.16867118
28	0xbda41af6	-0.08012955
29	0xbdec1912	-0.11528219
30	0x3e1ed9f7	0.15512834
31	0x3d39429e	0.045229547
32	0x3d70fd36	0.05883523
33	0xbe55a4f2	-0.20863703
34	0xbd4ff44f	-0.0507701
35	0xbc9141e8	-0.017731622
36	0xbc2b19b5	-0.010443141
37	0xbd06d6e0	-0.032919765
38	0xbd922776	-0.07136433
39	0x3dce28c4	0.10066369
40	0xbded2fc6	-0.11581378
41	0xbd98155d	-0.0742595
42	0xbdfc07da	-0.12306185
43	0xbdc09679	-0.094037004
44	0xbdcb27c8	-0.09919697
45	0xbde5c174	-0.11218539
46	0x3cd8eee4	0.0264811
47	0x3be4e523	0.006985323
48	0xbe05516c	-0.13019341
49	0xbc9c7bdb	-0.019102028
50	0xbd62bb79	-0.05535457
51	0x3c3349da	0.010942901
52	0x3e34a3cd	0.1764061
53	0x3e2a05cc	0.16603774
54	0xbdcb1928	-0.099169075
55	0xbdf2ddca	-0.11858709
56	0xbe26cd7f	-0.16289328
57	0xbdf2c343	-0.118536495
58	0x3d7ca454	0.061680153
59	0x3d0a7108	0.0337992
60	0x3d8d9fd8	0.069152534
61	0x3da819c6	0.08208041
62	0xbe01a198	-0.126593
63	0xbd9e6abe	-0.07735203
64	0xbd091732	-0.033469386
65	0xbd8b1c65	-0.06792525
66	0xbd9f62aa	-0.077824906
67	0x3d0355a8	0.03206411
68	0xbdb8762b	-0.09006914
69	0xbe1bd0e9	-0.15216412
70	0xbcc74272	-0.024323676
71	0xbdd92031	-0.10601843
72	0xbe1a4ac5	-0.15067585
73	0xbdf04fe8	-0.11733991
74	0xbd6b0b2e	-0.05738371
75	0xbd10fdf4	-0.03539844
76	0x3d4ba278	0.04971549
77	0xbd827268	-0.063694775
78	0xbe38262d	-0.17983313
79	0xbdc69a9f	-0.096974604
80	0xbdec3b45	-0.11534742
81	0x3d015ec4	0.031584516
82	0xbd0772e6	-0.03306856
83	0x3c17d926	0.009268081
84	0x3e0a47d1	0.13503958
85	0xbb9d4fb7	-0.0048007625
86	0x3de1d126	0.1102622
87	0xbd00560e	-0.03133207
88	0xbe214750	-0.1574986
89	0xbdb9999a	-0.090625
90	0xbcc81aef	-0.024426905
91	0x3d384f67	0.0449976
92	0xbdda4483	-0.10657599
93	0xbe062624	-0.13100487
94	0xbd299b76	-0.041408025
95	0xbd7c6f7e	-0.061629765
96	0x3d809465	0.06278304
97	0x3d5df6b8	0.054190367
98	0x3c501101	0.012699367
99	0xbd2336d3	-0.039847206
100	0x3ceeaba5	0.02913458
101	0x3e39124c	0.18073386
102	0xbddbc123	-0.10730197
103	0xbdb41894	-0.087937504
104	0xbde162d2	-0.110051766
105	0xbe34c5ac	-0.17653531
106	0x3ab2fcf7	0.0013655712
107	0xbd9b88a3	-0.07594421
108	0x3dc4bb35	0.096060194
109	0xbc832500	-0.016008854
110	0xbd69ff70	-0.05712837
111	0x3e0d0fb7	0.13775526
112	0xbd8669eb	-0.06563171
113	0x3dcf9970	0.10136688
114	0x3cfb06b6	0.030642848
115	0xbdcf1785	-0.10111908
116	0xbd1f5e51	-0.038908307
117	0x3c957dd1	0.01824847
118	0x3d198c73	0.03748746
119	0x3c982844	0.018573888
120	0x3dcb38cd	0.09922943
121	0x3e2e36cf	0.17013095
122	0xbdb549d8	-0.08851975
123	0xbe115712	-0.14193371
124	0xbd9dcf06	-0.07705502
125	0x3d8286a6	0.063733384
126	0xbdf48d8a	-0.11941059
127	0xbdf4954c	-0.119425386
128	0xbdff58f7	-0.124681406
129	0xbded6ce3	-0.11593034
130	0xbdbb0e94	-0.0913364
131	0x3c5a1374	0.013310302
132	0xbe0ffc05	-0.14060982
133	0xbdf894a5	-0.12137727
134	0x3c025be9	0.007956483
135	0xbd94068a	-0.0722781
136	0xbe1dab1a	-0.15397301
137	0xbe784f4e	-0.24249002
138	0xbdc0fc6d	-0.094231464
139	0xbdde7a86	-0.10863213
140	0xbd48e029	-0.0490419
141	0xbe21a9ee	-0.1578748
142	0xbe30259e	-0.1720185
143	0xbdf4bff2	-0.11950673
144	0xbded1332	-0.11575927
145	0xbdfb573a	-0.122724965
146	0xbd83ab7a	-0.06429191
147	0x3d8204a3	0.06348541
148	0x3d4af32a	0.049548306
149	0x3c65fd2b	0.014037411
150	0x3d12a043	0.03579737
151	0xbd157228	-0.03648582
152	0xbe35c529	-0.17750992
153	0xbdb1cdc1	-0.086818226
154	0xbdcb179d	-0.09916613
155	0xbe00d5f4	-0.12581617
156	0xbdc190b6	-0.094514295
157	0xbd8cc7fb	-0.06874081
158	0x3d618a51	0.05506355
159	0x3cf70696	0.030154508
160	0xbd75d3a0	-0.060016274
161	0xbe23cb2d	-0.15995474
162	0xbe2f24d2	-0.1710389
163	0xbd837b43	-0.06419995
164	0xbe5f948e	-0.21834013
165	0x3d41edab	0.0473458
166	0xbda4bab1	-0.08043421
167	0x3df0c00a	0.117553785
168	0x3e255157	0.1614431
169	0x3e033123	0.12811713
170	0xbdfbfd32	-0.123041525
171	0x3dd996f7	0.106244974
172	0x3d76c9d7	0.060251083
173	0x3d5e12ae	0.054217033
174	0x3e3a05aa	0.18166223
175	0x3cdf808a	0.027282972
176	0x3daebffd	0.085327126
177	0x3c335d19	0.010947489
178	0x3db26fcd	0.087127306
179	0x3e135c31	0.14390637
180	0xbcb797bc	-0.02241122
181	0xbdb884fd	-0.090097405
182	0xbca129b8	-0.019673213
183	0x3da461f9	0.08026499
184	0xbca21cf3	-0.019789195
185	0x3b2a243b	0.0025961536
186	0xbe0d5aae	-0.13804123
187	0xbe151b2e	-0.1456115
188	0xbd941095	-0.07229725
189	0x3dbc1533	0.09183731
190	0x3d5d8e59	0.05409083
191	0xbcd75088	-0.026283517
192	0xbda8a212	-0.082340375
193	0x3cf338ef	0.029690234
194	0x3d816660	0.063183546
195	0x3da7b25b	0.081883155
196	0xbcf83334	-0.030297853
197	0x3d346be7	0.044048216
198	0xbd60a46a	-0.054844297
199	0xbd9b674b	-0.07588061
200	0xbdaa73fb	-0.08322903
201	0xbc154615	-0.009110947
202	0x3d84c3ea	0.0648268
203	0x3dd42237	0.103580885
204	0xbcf82359	-0.030290293
205	0xbeb85947	-0.36005613
206	0xbe0a7402	-0.13520816
207	0x3d89e498	0.06733054
208	0x3ca5e553	0.020250952
209	0x3dffadb9	0.12484307
210	0x3d52fb50	0.0515092
211	0x3c7d0852	0.015443878
212	0xbda03a80	-0.07823658
213	0xbd5f6bcd	-0.054546166
214	0x3b43902f	0.0029840579
215	0xbd197e58	-0.037474006
216	0x3da23cf1	0.0792178
217	0xbe1b27e5	-0.15151937
218	0xbc93bde4	-0.018034883
219	0x3a7e2e5c	0.0009696239
220	0x3df12d3b	0.11776205
221	0x3c02cb77	0.00798308
222	0x3d62ff8b	0.055419486
223	0xbdc6a590	-0.09699547
224	0xbc7e24a8	-0.015511669
225	0xbd950947	-0.0727716
226	0xbd5ecf12	-0.054396696
227	0xbdbe035a	-0.09277983
228	0x3e0a6579	0.13515271
229	0xbba2355e	-0.0049502095
230	0xbca54655	-0.020175138
231	0xbc2f1f66	-0.010688638
232	0xbe127a96	-0.14304575
233	0xbe113396	-0.14179835
234	0x3cd55dab	0.02604564
235	0x3daccbc6	0.08437304
236	0xbdda6df7	-0.106655054
237	0x3d9b5b13	0.075857304
238	0xbe247948	-0.1606189
239	0x3db3db9f	0.08782124
240	0x3de6a569	0.11262018
241	0x3dbfb9ae	0.093615875
242	0x3d210c68	0.039318472
243	0x3d91b2d0	0.07114184
244	0x3c93ea17	0.018055959
245	0x3ddcfbba	0.107902005
246	0x3c2ce7b9	0.010553294
247	0xbc359c8c	-0.011084687
248	0xbe0ef106	-0.1395913
249	0xbe68a48d	-0.22719021
250	0xbe24c7be	-0.1609182
251	0xbd01e438	-0.031711787
252	0x3d07b7a0	0.033134103
253	0x3d8deace	0.06929551
254	0x3d2ee7a9	0.042701397
255	0xbc416ee7	-0.011806226

bias f4 [12]
0	0xbd240841	-0.040046934
1	0xbd193918	-0.037407964
2	0x3d82d76e	0.06388746
3	0x3cc18140	0.023621202
4	0xbd6ed759	-0.05831084
5	0xbd0d3292	-0.034472056
6	0xbd0c6f28	-0.034285694
7	0xbd3387c6	-0.043830656
8	0xbdbee016	-0.09320085
9	0xbd264d4b	-0.040601056
10	0xbd8bcf51	-0.06826652
11	0xbd03e1d3	-0.032197785

weight f4 [64, 12, 3, 3]
0	0x3d05994d	0.032616902
1	0xbc88d60e	-0.016703632
2	0xbda15140	-0.07876825
3	0x3d7a724f	0.06114417
4	0x3d9511e1	0.07278801
5	0xbe15f010	-0.14642358
6	0xbd86f9df	-0.06590628
7	0xbe05c0ea	-0.13061872
8	0xbe3c82f4	-0.1840933
9	0x3d995bca	0.074882105
10	0x3c03df35	0.008048822
11	0xbd996d21	-0.07491518
12	0x3d15b22e	0.03654688
13	0x3cff57cd	0.031169796
14	0xbbed38dd	-0.0072394446
15	0xbd782170	-0.060578763
16	0xb9b8e968	-0.00035269116
17	0x3cbc62f0	0.022996396
18	0xbd975a38	-0.07390255
19	0x3c868431	0.016420456
20	0x3ca1326f	0.019677369
21	0xbc123811	-0.0089245
22	0xbc3a420c	-0.011368286
23	0xbc80f839	-0.015743362
24	0xbc786605	-0.015161042
25	0x3bdb2dc7	0.0066888067
26	0x3d369df6	0.044584237
27	0x3d33b7e2	0.043876536
28	0x3d0f7f71	0.035033647
29	0xbd8d6701	-0.06904412
30	0xbc3b59b4	-0.011434961
31	0x3d7bf1a0	0.06150973
32	0x3ce9037f	0.02844405
33	0x3cde0f78	0.027106985
34	0x3ba88dcf	0.005143858
35	0x37a87dcc	2.008574e-05
36	0xbe080041	-0.13281347
37	0xbdd579c5	-0.10423616
38	0xbd583d21	-0.052792672
39	0xbda718db	-0.08159038
40	0x3b99f6f5	0.004698629
41	0xbdc1f42a	-0.09470399
42	0x3d66c273	0.056337785
43	0x3e323767	0.17403947
44	0xbdb18e2c	-0.08669695
45	0x3c057b5a	0.008147085
46	0xbd07739a	-0.03306923
47	0x3d10311f	0.035203096
48	0xbd7c632b	-0.06161801
49	0xbd6102cc	-0.054934308
50	0x3de9d5ad	0.114177085
51	0x3c8c6805	0.017139444
52	0xbc747ba1	-0.014922054
53	0xbddb8cff	-0.10720252
54	0x3d2f809b	0.042847257
55	0xbbdb665b	-0.0066955513
56	0x3d93b60b	0.07212456
57	0xbcfe3e26	-0.031035494
58	0xbd1c7bea	-0.03820411
59	0x3c28100a	0.01025773
60	0x3dbb1f6d	0.09136853
61	0x3cd974cf	0.026544956
62	0xba888173	-0.0010414555
63	0x3d130c92	0.03590066
64	0x3d84962a	0.06473954
65	0xbd3544c7	-0.044255044
66	0x3b62c613	0.0034602925
67	0x3cf21de9	0.029555278
68	0xbdab0807	-0.083511405
69	0xbd712faf	-0.058883365
70	0xbd92242f	-0.07135808
71	0xbdd2a894	-0.1028606
72	0x3bc9ff56	0.0061644716
73	0xbc844ee8	-0.016150907
74	0x3c574ea2	0.013141306
75	0x3c10252e	0.008797927
76	0x3be810d5	0.0070820847
77	0x3d329cea	0.043606676
78	0xbce82d09	-0.028341787
79	0xbccc57df	-0.024944244
80	0xbd71d027	-0.0590364
81	0x3b1ef636	0.002425564
82	0x3c26ba02	0.010176184
83	0xbc97e6ae	-0.018542614
84	0x3d9cbea8	0.07653552
85	0x3dacc6a1	0.08436323
86	0x3d753f9e	0.059875123
87	0x3d4c453e	0.049870722
88	0xbd57e0df	-0.05270469
89	0x3ca121cf	0.019669442
90	0x3d8bbe81	0.06823445
91	0x3d0338d4	0.032036617
92	0x3c0a05f7	0.008424274
93	0xbc5ba2ad	-0.013405484
94	0x3a2ec437	0.00066668115
95	0x3d729bb5	0.059230525
96	0xbd1edd86	-0.03878548
97	0xbcb4e33f	-0.022081016
98	0x3d1353c8	0.035968572
99	0x3cf39e7a	0.029738653
100	0x3c80191f	0.015636979
101	0xbdaa7d36	-0.08324663
102	0x3d58b699	0.052908514
103	0x3d24549c	0.040119752
104	0xbcee007a	-0.029052962
105	0xbc0b64ca	-0.008507917
106	0xbad2905b	-0.001606475
107	0x3bc4fe3e	0.0060117533
108	0xbd87a1bc	-0.06622645
109	0x3d03a39b	0.03213845
110	0x3cdde6cd	0.027087593
111	0xbdeda21a	-0.11603184
112	0x3d3a1b69	0.045436297
113	0xba8edf8a	-0.001090036
114	0xbd525377	-0.05134913
115	0x3d39cc30	0.045360744
116	0xbc5dcf82	-0.013538243
117	0xbd6aea43	-0.057352316
118	0x3d80c5fb	0.06287762
119	0x3dda0aa8	0.10646564
120	0xbd5ef30b	-0.054431003
121	0xbb233c46	-0.0024907752
122	0x3d6063c9	0.054782663
123	0x3b85282d	0.004063627
124	0x3bc31086	0.0059528975
125	0x3bc3ac5d	0.005971475
126	0x3ce15b82	0.027509455
127	0xbc7f955e	-0.015599577
128	0xbd5b7bde	-0.053584926
129	0x3d30caf7	0.043162312
130	0x3cb656ce	0.022258189
131	0xbca55db3	-0.02018628
132	0xbcbb9d53	-0.022902166
133	0x3ca3b4e7	0.019983722
134	0x3c01977c	0.007909652
135	0xbcecd2a7	-0.02890904
136	0x3d5718e8	0.052513987
137	0x3d967d98	0.07348174
138	0x3d272efb	0.04081629
139	0xbd06f08e	-0.032944255
140	0xbbb5fcfd	-0.00555384
141	0xbcbe41d8	-0.023224756
142	0xbc4db93a	-0.0125563685
143	0xbb331627	-0.0027326436
144	0xbcc88558	-0.024477646
145	0x3d96ea05	0.073688544
146	0x3d176e9a	0.036970712
147	0xbd338190	-0.043824732
148	0x3d845c01	0.06462861
149	0x3cab00bd	0.020874375
150	0xbabc83c9	-0.0014382537
151	0x3c8d14aa	0.017221767
152	0x3c71a65d	0.014749137
153	0x3d074b77	0.033030953
154	0x3aa9878b	0.0012934072
155	0xbbb4c8a9	-0.0055170846
156	0x3bba7df2	0.0056912834
157	0x3cf5f5a6	0.03002436
158	0xbd00288f	-0.03128868
159	0xbd812f64	-0.06307867
160	0xbb1f5ce6	-0.0024316846
161	0x3d547b2a	0.05187527
162	0xbd672c7d	-0.05643891
163	0xbcceb22c	-0.025231443
164	0x3d0142ba	0.031557776
165	0x3d77863c	0.06043075
166	0xbc155c45	-0.009116237
167	0x3c79f1a5	0.015255366
168	0x3d0555dd	0.03255259
169	0xbd0801ff	-0.03320503
170	0xbc22eb60	-0.009943813
171	0x3c4b598f	0.012411489
172	0x3c2bea15	0.010492821
173	0x3d5c8bb2	0.05384416
174	0xbd809ebf	-0.062802784
175	0x3d12f9be	0.035882704
176	0x3b529416	0.0032131723
177	0xb93b7113	-0.00017875833
178	0x3d1026d0	0.035193264
179	0x3d52da7f	0.051477905
180	0xbacd9159	-0.0015683576
181	0x3cac3762	0.021022502
182	0xbd0e8d8e	-0.034802966
183	0xbd8d3aad	-0.06895957
184	0xbd0df5f1	-0.034658376
185	0xbc6462f7	-0.013939611
186	0xbd4f0eba	-0.050551154
187	0xbca01c48	-0.019544736
188	0xbccfae55	-0.025351683
189	0x3e041b5d	0.12901063
190	0x3dbaa66f	0.09113776
191	0x3dab2453	0.08356538
192	0x3d4b49b1	0.049630824
193	0x3d8ad682	0.06779195
194	0xb9047280	-0.00012631156
195	0x3ca21898	0.019787118
196	0xbbdc94d2	-0.006731608
197	0xbdc0dbc2	-0.094169155
198	0xbc333271	-0.010937319
199	0xbd5f3356	-0.054492317
200	0x3d1cb8e6	0.03826227
201	0x3d97a224	0.07403973
202	0x3d8625ef	0.06550204
203	0xbcc2c904	-0.023777492
204	0x3dd261a3	0.10272529
205	0xbcdd08f5	-0.02698181
206	0xbc92fd54	-0.017943062
207	0xbb3945fd	-0.0028270476
208	0x3d950ce1	0.07277847
209	0xbc9c8a3d	-0.019108886
210	0x3c6dcbbf	0.014513909
211	0x3ca0096d	0.019535745
212	0xbce03931	-0.027371021
213	0xbc95f7a9	-0.01830657
214	0xbce04871	-0.027378293
215	0xbc79b4b4	-0.015240837
216	0x3c2a41c5	0.010391657
217	0x3c859909	0.016308324
218	0x3d770c66	0.06031456
219	0xbd0feb30	-0.0351364
220	0x3d112864	0.03543891
221	0xbb49242b	-0.0030691724
222	0xbcd9dc69	-0.026594358
223	0x3cdd8ff6	0.027046185
224	0xbda86611	-0.082225926
225	0x3db846e8	0.08997899
226	0x3cf22756	0.029559772
227	0x3d76d740	0.060263872
228	0x3d848ded	0.06472383
229	0xbd288e6b	-0.041151445
230	0x3cb2de61	0.021834554
231	0x3cbb1cdc	0.02284091
232	0xbd861d47	-0.06548553
233	0x3cb3f050	0.021965176
234	0x3d188c5a	0.037243225
235	0x3d328c79	0.043590996
236	0xbda58d97	-0.08083647
237	0x3b022221	0.0019856768
238	0x3ccfe51e	0.025377806
239	0x3cbf3e88	0.023345247
240	0x3d31b32a	0.043383755
241	0xbc549314	-0.012974519
242	0x3906477a	0.00012805863
243	0xbd57eedb	-0.052718025
244	0xbc6cec1c	-0.01446059
245	0xbc9ffa6e	-0.019528594
246	0x3c419b1f	0.011816769
247	0x3cd59edb	0.026076725
248	0x3d49d5cf	0.04927617
249	0x3d1cc8dc	0.038277492
250	0x3d1226fb	0.035681706
251	0x3ca06b42	0.019582395
252	0xbd1ffd47	-0.039059903
253	0xbd80258e	-0.06257163
254	0x3ce91603	0.028452879
255	0xbca79ad6	-0.020459574

bias f4 [64]
0	0x3dbc5b22	0.0919707
1	0xbd5fc385	-0.05462982
2	0xbdc9a5e7	-0.098460965
3	0xbc9d44b4	-0.0191978
4	0x3d7b346c	0.06132929
5	0x3cf0bcec	0.02938696
6	0xbcb4f763	-0.02209062
7	0x3dc62c08	0.09676367
8	0x3dbf1756	0.09330623
9	0x3c58cb0e	0.013232006
10	0x3d62332d	0.055224586
11	0x3dd36801	0.103225715
12	0x3d191872	0.03737683
13	0x3c51a3d7	0.01279541
14	0xbd641e5c	-0.055693015
15	0xbdd4e370	-0.10394943
16	0xbdcfbd07	-0.10143476
17	0xbd0c0b40	-0.034190416
18	0xbd13acbf	-0.036053415
19	0xbcf361db	-0.029709747
20	0x3d4470f7	0.047959294
21	0xbcda61cc	-0.026657961
22	0xbce534c0	-0.027979255
23	0x3d1a1139	0.03761408
24	0x3bda5f2b	0.006664177
25	0x3df690f3	0.120393656
26	0x3dc18393	0.09448924
27	0xbc756de0	-0.0149798095
28	0x3dfd0ea8	0.12356311
29	0xbd7acdcf	-0.06123143
30	0x3d9b0446	0.075691745
31	0xbdd1dfc5	-0.10247759
32	0x3aba9337	0.0014234547
33	0xbd6c18c6	-0.057640813
34	0x3da7dae3	0.08196046
35	0xbdafd16b	-0.08584865
36	0x3d80102a	0.06253083
37	0x3d25c33a	0.040469386
38	0xbd250a0b	-0.04029278
39	0xbd1caab1	-0.03824872
40	0x3dd11d09	0.10210616
41	0xbb0080a8	-0.0019607935
42	0x3d8fbed9	0.07018823
43	0x3cf12109	0.029434698
44	0x3bed66de	0.0072449287
45	0x3da18568	0.07886773
46	0x3d74d815	0.059776384
47	0x3d8c7435	0.06858102
48	0x3da3f89d	0.080064036
49	0xbd8f4393	-0.06995311
50	0xbc9a6f78	-0.01885198
51	0xbd2a7e35	-0.041624267
52	0x3c2d391b	0.010572697
53	0x3e016c2c	0.1263892
54	0xbc828dd1	-0.015936764
55	0x3d538cc2	0.05164791
56	0xbd89b430	-0.06723821
57	0x3bea5bf0	0.007152073
58	0x3cb76b18	0.022389933
59	0x3a549a59	0.0008110158
60	0x3cfe36c2	0.03103197
61	0x3d8df6dc	0.0693185
62	0x3d251b0e	0.040309004
63	0xbb5c5946	-0.0033622547

weight f4 [64]
0	0x3f79af59	0.97533184
1	0x3f70247b	0.93805665
2	0x3f534cd3	0.825391
3	0x3f7efa75	0.9960092
4	0x3f7849c2	0.96987545
5	0x3f6e913a	0.9319035
6	0x3f5a3199	0.8523193
7	0x3f72ba51	0.94815546
8	0x3f6ee4b4	0.93317723
9	0x3f63457a	0.8877789
10	0x3f76bbc4	0.9638026
11	0x3f835893	1.0261406
12	0x3f6b1daf	0.9184217
13	0x3f7d8bff	0.9904174
14	0x3f580a26	0.84390485
15	0x3f758edf	0.9592113
16	0x3f8813ce	1.0631044
17	0x3f819473	1.0123428
18	0x3f72f3e3	0.9490339
19	0x3f7db5e3	0.9910566
20	0x3f698483	0.9121782
21	0x3f7af44c	0.9802902
22	0x3f676e0c	0.90402293
23	0x3f5d3360	0.8640652
24	0x3f59a1d3	0.8501255
25	0x3f747719	0.9549423
26	0x3f6f7746	0.9354137
27	0x3f644a93	0.8917629
28	0x3f5e7032	0.86889946
29	0x3f808501	1.004059
30	0x3f67cefb	0.905502
31	0x3f607d7b	0.8769147
32	0x3f97cb60	1.185894
33	0x3f83628c	1.0264449
34	0x3f7910ad	0.9729107
35	0x3f6735b2	0.9031631
36	0x3f9d200e	1.2275407
37	0x3f7b1003	0.98071307
38	0x3f886db7	1.0658482
39	0x3f60643a	0.87652934
40	0x3f6a5fd9	0.915525
41	0x3f870067	1.0546998
42	0x3f624735	0.88389903
43	0x3f7522ff	0.95756525
44	0x3f7b0ed9	0.9806953
45	0x3f65b939	0.8973575
46	0x3f7a7ad9	0.978437
47	0x3f56656b	0.837485
48	0x3f626b61	0.884451
49	0x3f73d4d5	0.9524663
50	0x3f565206	0.8371891
51	0x3f6bb814	0.92077756
52	0x3f84cf5b	1.037578
53	0x3f6beeb6	0.9216112
54	0x3f79a423	0.9751608
55	0x3f7f66ee	0.99766433
56	0x3f6c1c06	0.9223026
57	0x3f809833	1.0046448
58	0x3f8c07f4	1.0939927
59	0x3f6ab4cb	0.9168212
60	0x3f663d49	0.89937264
61	0x3f825649	1.0182582
62	0x3f83a530	1.0284786
63	0x3f5e9da7	0.8695931

bias f4 [64]
0	0xbede2bce	-0.43392795
1	0xbeb5beba	-0.35497075
2	0xbe8e9d46	-0.27854365
3	0xbee0e6c1	-0.4392605
4	0xbe4b2225	-0.19837244
5	0xbf1b87bb	-0.60753983
6	0xbe1ed0b1	-0.15509297
7	0xbe93bda7	-0.2885563
8	0xbf008494	-0.502023
9	0xbe3b9f90	-0.18322587
10	0xbecc9a79	-0.39961603
11	0xbec4764a	-0.38371497
12	0xbdde7131	-0.10861433
13	0xbddc36a4	-0.10752609
14	0xbe54fb3c	-0.20798963
15	0xbf1520d8	-0.5825324
16	0xbed9cfa3	-0.42541227
17	0xbdafb4e3	-0.08579423
18	0xbe301efb	-0.17199318
19	0xbecec81f	-0.40387055
20	0xbece54e8	-0.40299153
21	0xbec3b775	-0.38225904
22	0xbeb3e09f	-0.3513231
23	0xbd9a706e	-0.075409755
24	0xbe61fe93	-0.22069769
25	0xbdfbea72	-0.12300576
26	0xbf019c5b	-0.50629205
27	0xbe83adf2	-0.25718647
28	0xbe788e4d	-0.24273033
29	0xbccf6632	-0.025317285
30	0xbef605c8	-0.48051286
31	0xbe7ebb5e	-0.24876162
32	0xbf2eaa11	-0.6822825
33	0xbbbfd8f2	-0.0058547193
34	0xbed1fe65	-0.410144
35	0xbec5d8b7	-0.38641903
36	0xbf28df8b	-0.659661
37	0xbec46fdd	-0.38366595
38	0xbebd5731	-0.36980584
39	0xbec2e1fc	-0.38063037
40	0xbe92153a	-0.2853182
41	0xbe7a7ebf	-0.24462412
42	0x3c1aafe0	0.009441346
43	0xbdd2f905	-0.10301403
44	0xbea0b647	-0.31389067
45	0xbeb27b9f	-0.3485994
46	0xbe1990c5	-0.14996631
47	0xbe8f12c9	-0.2794402
48	0xbefc780a	-0.49310333
49	0xbee57b09	-0.4482043
50	0xbe7c4e9a	-0.24639359
51	0xbe9c69af	-0.3054938
52	0xbec8538e	-0.39126247
53	0xbeb7b123	-0.35877332
54	0xbef18a60	-0.47175884
55	0xbe1d5735	-0.15365298
56	0xbe9590c9	-0.29212025
57	0xbec79fac	-0.38989007
58	0xbeb314cb	-0.349768
59	0xbe842c9f	-0.25815293
60	0xbeba23ed	-0.36355534
61	0xbc98dee8	-0.018660977
62	0xbd0b8acc	-0.034067914
63	0xbe7785b6	-0.241721
