3layer_4000its/files/0/D.pth (torch, 184073 bytes, 13 tensors)

head.conv.weight f4 [64, 12, 3, 3]
000000 61 7f e5 bc b3 c9 ff 3c e3 b1 73 bb 29 3e 38 bb
       -0.02801484 0.031224107 -0.0037184886 -0.0028113222
000010 15 49 7a 3c 76 26 ef bc 75 94 42 bd 49 c5 38 3c
       0.015276213 -0.029193144 -0.04750486 0.011277505
000020 89 6b fb 3c d9 be 18 3d 56 94 43 bc 1a da 83 3c
       0.030690925 0.03729138 -0.0119372215 0.01609521
000030 a5 28 82 bc 20 b6 3b 3c a8 b3 65 3b b6 e0 25 bd
       -0.015888521 0.011456996 0.003504971 -0.040497504
000040 0a ae b4 bc a5 b7 de bc 28 f8 5c bc 6a 14 8f bd
       -0.022055645 -0.027187178 -0.013486899 -0.069863155
000050 00 73 68 3c 75 9d 3c bb cd f0 77 3c 70 8d 1f bd
       0.014187574 -0.0028780375 0.015133095 -0.038953245
000060 fa ab 70 bd 0e f4 a7 bc 70 26 a6 3c 60 97 af bb
       -0.05875776 -0.020502117 0.020282 -0.0053586215
000070 19 32 27 3d 75 d6 ee bc e6 37 3c bb ad 7a 79 3c
       0.04081926 -0.029154995 -0.0028719842 0.015227002
000080 b6 a8 79 3c db 05 9f bb 95 e3 a3 bc 50 5b 66 bb
       0.015237978 -0.004852993 -0.02000598 -0.0035149641
000090 8b ba 93 bb c2 13 65 3c 5b e1 28 3c e6 4b fa 39
       -0.0045083216 0.013981761 0.010307635 0.00047740265
0000a0 33 b0 a6 bb 1a 6f 1f 3b 4b 91 ef 3c 36 34 c1 3b
       -0.0050869226 0.0024327696 0.029244086 0.0058961166
0000b0 2c b6 6a bc 57 da fd bb 62 2b c0 bb 6f b5 e2 3b
       -0.01432566 -0.0077469754 -0.0058645466 0.006918601
0000c0 54 a6 a0 bb ad 11 c5 3c 09 73 f9 3a 0a 66 0c 3c
       -0.0049026404 0.02405628 0.0019031476 0.00856925
0000d0 a9 ad 2a bc 9f 66 0f 3c 44 b9 eb 38 2a 79 0f bb
       -0.01041738 0.008752494 0.000112401816 -0.0021892288
0000e0 8a 4d 73 bc 25 3b b0 3c 64 89 4c bc 9e 88 c1 3b
       -0.01485003 0.021512577 -0.012483928 0.0059061786
0000f0 02 5f 0d bd 35 34 a2 3c 00 15 5e bd 2f 60 b6 ba
       -0.034514435 0.019800285 -0.054219246 -0.0013914163
000100 7e 79 3a bc f6 16 4f 3b 08 87 81 3c 91 74 9d bc
       -0.011381505 0.003159938 0.015811458 -0.019220622
000110 df 49 04 bc c5 b6 05 bd b1 6f 1a 3c 83 03 d7 bb
       -0.008074253 -0.032645006 0.009426043 -0.006561698
000120 91 8f 5e bb 91 d9 5b bb 3c 6d c8 bb 28 5b ba bb
       -0.0033960084 -0.0033546428 -0.0061165374 -0.005687136
000130 c0 ba 05 bc 7e b3 80 bc 41 82 41 bc ef 7c 5c bc
       -0.0081622 -0.015710589 -0.01181084 -0.013457521
000140 0c 9e 9f bd 78 4e 4b bc 5f 01 47 bc f5 60 86 3c
       -0.07793817 -0.012408845 -0.012146323 0.016403655
000150 79 44 b8 bc 7d 87 da bb f2 94 0f 3d d0 89 3a bb
       -0.022493588 -0.0066689835 0.035054155 -0.002846349
000160 cb bd 7c bc 69 d9 a8 bc 52 25 9b bb c2 84 86 39
       -0.01542611 -0.020611482 -0.0047346735 0.00025657384
000170 dc cf ab 3a 69 f7 f0 bb 9d 0a a6 ba 95 06 01 3b
       0.0013108212 -0.0073537123 -0.0012667958 0.001968776
000180 b7 00 92 bc 1d f7 8a bb 02 b2 8e 39 61 fd f9 3c
       -0.017822606 -0.004240884 0.00027216977 0.030516328
000190 b9 6b 42 3c c9 07 70 bc 1e d0 cf 3c f7 5e dd bc
       0.011866503 -0.014650294 0.025367793 -0.027022822
0001a0 28 9a 31 3d fd db 5b 3e b1 92 7f 3d ff 59 19 3e
       0.043359905 0.21470638 0.062395755 0.14975737
0001b0 58 0d 94 3d 12 b6 72 bd a0 43 a0 bd 1d ec 0a 3c
       0.072291076 -0.059255667 -0.078253984 0.008479145
0001c0 5b 68 0e 3d 35 d2 70 3c e1 8a 97 3c 61 89 04 bd
       0.03476749 0.014698555 0.01849884 -0.032357577
0001d0 67 a8 14 bd 06 75 fd bc de eb 16 bd b7 f5 ed 3b
       -0.036293413 -0.03093959 -0.036846034 0.0072619575
0001e0 81 01 38 bd 2c 83 e3 bc e0 47 e3 3b 0e 4b 24 bd
       -0.04492331 -0.027772509 0.0069360584 -0.04011064
0001f0 7a ec 27 3d 66 f8 ec 3c ec 44 ec bc 5f 01 05 3e
       0.040997006 0.02892704 -0.028841458 0.12988804
000200 1f e5 a4 3d 6e 61 f3 3c 06 95 5c 3d 51 ef 78 3c
       0.08051514 0.029709544 0.053853057 0.015193776
000210 30 8a 8b bc 1a f0 1c 3b d1 a4 ec bc d3 aa d8 bc
       -0.017033666 0.0023946823 -0.028887184 -0.026448643
000220 e5 38 d1 bb d6 58 a6 3c ae de a4 3c 23 33 bf 3a
       -0.006384956 0.020306032 0.020125713 0.0014587383
000230 fa d9 88 bb e4 be c3 bc 78 ee 16 3c a2 c8 1f bc
       -0.0041763755 -0.023894735 0.009212129 -0.009752424
000240 37 58 8d b9 dd 45 8a bd ed cf 1c 3d 04 99 36 bc
       -0.0002695934 -0.067516066 0.03828423 -0.01114488
000250 c0 f8 4d 3d 97 c7 1f bd 80 01 8d bc fe 12 3d bc
       0.050286055 -0.039008703 -0.01721263 -0.011540173
000260 e9 99 27 3c ef de 55 3b 6d a4 d1 bb d4 c5 cf 3b
       0.010229566 0.00326341 -0.006397775 0.0063407216
000270 f3 79 8f 3b 94 80 17 bc 6d e8 5b bb 5c 80 2e 3d
       0.004378551 -0.009246964 -0.0033555285 0.04260288
000280 8a 85 aa bc b6 11 da 3b a1 52 24 3c 5b e9 67 3c
       -0.02081563 0.0066549433 0.010029466 0.014154757
000290 f7 49 a0 bd ce 56 a2 3c 59 58 19 3d cc c5 0a bb
       -0.07826608 0.019816782 0.03743777 -0.0021175025
0002a0 e3 2a 3b bd 3a a2 88 bc 8d 1e 09 bd 17 ec 71 3a
       -0.045695197 -0.016678918 -0.0334764 0.00092286005
0002b0 25 5b c8 bc 88 90 61 3b 63 fb 96 ba 4a 9a 15 3d
       -0.024457524 0.0034418423 -0.0011519011 0.036524095
0002c0 85 9e 3d bc e5 ae dc bb 50 46 37 3b ee 05 1a 3d
       -0.0115734385 -0.0067347162 0.0027965494 0.03760331
0002d0 39 97 cd bb de 53 a7 ba 36 77 22 3b 26 9b 9f 3b
       -0.0062741307 -0.0012766083 0.0024790294 0.00487079
0002e0 bb 43 57 3a aa 0e 0b 3c 43 8f 42 3d 6d b2 9d 3c
       0.0008211692 0.008487383 0.047499906 0.01925012
0002f0 68 cc 00 3d d8 ae 9c bb a2 e3 2c 3d 35 50 47 ba
       0.031444937 -0.004781585 0.042209275 -0.00076031993
000300 4c 2f 54 bd 05 29 17 be e5 af 70 3d 22 e6 e4 bb
       -0.05180292 -0.14761741 0.058761496 -0.006985442
000310 e6 75 20 bc 07 6c f5 3c 43 1c 30 3b d4 56 02 3b
       -0.009793734 0.029958738 0.0026872314 0.001988818
000320 14 10 9f bb c4 79 70 bc be d6 2a bc ab 7c 78 3c
       -0.0048542116 -0.014677469 -0.010427175 0.015166442
000330 8d a5 e5 3b 62 bb ba 3b ab cd 72 bc b8 3e 1a 3c
       0.0070082606 0.0056986073 -0.014819543 0.009414367
000340 c3 bb 22 3c 61 44 7f ba bc 85 0d 3d bc 54 e2 bc
       0.009932461 -0.0009737667 0.034551367 -0.027628295
000350 0c 41 7c bd 44 5d 07 3d 7d 36 0d 3c 5f a2 df bc
       -0.06158547 0.03304793 0.008618948 -0.027299104
000360 e9 10 ee 3c e3 87 03 3c 95 e6 93 bd 7b 24 63 3c
       0.029060798 0.008028003 -0.072217144 0.013863678
000370 ad 85 0d bb de ce 42 bd 2c 70 68 39 87 c0 96 bd
       -0.002159457 -0.047560565 0.00022167031 -0.073609404
000380 77 e9 18 3d 6e 26 02 b7 14 9c 8a 3c c5 3c 37 bb
       0.037332024 -7.757551e-06 0.016920127 -0.0027959805
000390 82 4e 2d bd 54 9c 14 3d 97 26 34 bd b6 e3 2e bc
       -0.0423112 0.0362819 -0.043982115 -0.010674408
0003a0 d7 53 48 bd 3f 80 e1 3b 67 26 fd bc 51 ec a0 3b
       -0.04890808 0.006881743 -0.0309021 0.0049109836
0003b0 80 65 8e 39 97 77 89 3d ad e3 fe 3c 6f c2 b4 3d
       0.00027159974 0.06712263 0.031114424 0.08826148
0003c0 b4 f5 ff 3b ed 27 9e 3d 1b b5 95 3d c3 2a 86 bc
       0.0078112725 0.07722459 0.07309934 -0.016377812
0003d0 01 15 39 3b e8 0e 7a 3d 59 f6 81 3c 5b 4d 25 3b
       0.002824128 0.061049372 0.015864538 0.002522311
0003e0 13 9d b8 3c b6 37 df 3c 27 4c 86 bd 5c 35 21 3d
       0.022535836 0.027248245 -0.06557494 0.039357528
0003f0 1e f8 f1 3c 2f c1 0b bb a3 ea 00 bc 43 c8 55 3c
       0.029537257 -0.0021324863 -0.007868442 0.013048234

head.conv.bias f4 [64]
000000 46 75 5e 3b 59 91 15 3a 54 22 c6 bd ae 43 78 bd
       0.0033944412 0.00057055574 -0.09674516 -0.06061142
000010 2c a6 a7 3d 24 19 cf bd 4c 27 10 3e 88 de 4f bd
       0.08185992 -0.10112217 0.1407749 -0.05074933
000020 f3 c3 11 bc 9c c8 3b 3d 9d 4c 2d bd 01 99 54 bc
       -0.008896816 0.045845613 -0.042309392 -0.012975932
000030 9f ec cc bd 2d 17 a5 bd 8b 4d 34 3d 11 0c 2a 3b
       -0.100060694 -0.08061061 0.044019263 0.0025947134
000040 bb 3b 16 bd d2 fc de bc 6c a6 f3 3c 9f 14 a5 bc
       -0.036678057 -0.027220163 0.029742442 -0.020151434
000050 b9 8b 69 3c 3c 21 7a bd a7 2a 5d 3d 56 72 0a 3c
       0.014254504 -0.06106685 0.053995755 0.008450111
000060 32 1d a9 bd 59 2a 8a bd 7f 92 28 3b 4d 5e 6f 3d
       -0.08257522 -0.067463584 0.0025722084 0.05843954
000070 40 91 e8 3d 6c 1d 96 bd 88 71 ed 3c 5c 0e 2e 3d
       0.11355829 -0.073298305 0.0289848 0.042494163
000080 d7 3a b0 3d 8f 2c b5 bd c1 a5 b4 bd b5 5b 1e bd
       0.08604973 -0.088463895 -0.088206775 -0.038661677
000090 06 8e cb bd af 21 93 3c 0a 3e 86 3d 09 6b 94 3c
       -0.09939198 0.017960398 0.06554802 0.018117445
0000a0 f3 1b 77 3d 84 94 56 3d 1f 22 c0 3b f9 93 8f 3b
       0.06032939 0.05238773 0.0058634426 0.0043816534
0000b0 9a 0c 33 bc 0c a2 49 3d c0 3e 95 3d 44 1b 5f bd
       -0.010928297 0.049226806 0.07287359 -0.054469362
0000c0 ee eb 3c 3d da 16 51 bd 85 f8 d6 3d 8f 78 50 bd
       0.046123438 -0.051047184 0.1049662 -0.050896224
0000d0 b3 90 07 3d 46 5a 59 3d cf ef d6 3d 59 13 85 bc
       0.03309698 0.053064607 0.104949586 -0.016244577
0000e0 69 40 8f bd 1c 1c b9 bc cf 01 cb 3c 2f 03 08 bd
       -0.06994707 -0.022596411 0.024781136 -0.03320616
0000f0 2a 92 b5 bd fc 3c 94 3d eb 3d 62 bd b0 08 c3 3d
       -0.08865769 0.07238194 -0.05523483 0.095231414

head.norm.weight f4 [64]
000000 dc d9 5a 3f d7 b0 7a 3f 86 85 81 3f 9e e3 8f 3f
       0.8548868 0.97926086 1.0118873 1.1241338
000010 a2 c0 68 3f 4c 1b 86 3f ed 11 7f 3f db f6 66 3f
       0.90918934 1.047708 0.9963673 0.9022042
000020 25 f9 5b 3f ae 61 5e 3f 5c 99 83 3f 22 9f 7b 3f
       0.8592704 0.868678 1.0281177 0.9828969
000030 3d 45 81 3f fd 14 56 3f 90 39 84 3f 26 b7 82 3f
       1.0099255 0.83625776 1.0330067 1.0212142
000040 79 ff 6f 3f 54 64 73 3f 95 2d 78 3f c3 fb 7f 3f
       0.93749195 0.95074964 0.9694455 0.9999353
000050 59 37 86 3f 73 d2 7b 3f b9 2a 88 3f 78 d0 81 3f
       1.0485641 0.98367995 1.0638038 1.0141745
000060 c1 18 56 3f ab 0a 72 3f 08 ba 74 3f f7 ac 63 3f
       0.8363152 0.9454753 0.9559636 0.889358
000070 6d ad 84 3f 28 59 72 3f 0e dd 72 3f f2 4e 73 3f
       1.0365425 0.9466729 0.9486855 0.95042336
000080 09 e5 84 3f 00 02 87 3f 1b 38 74 3f 40 95 72 3f
       1.0382396 1.0547485 0.9539811 0.9475899
000090 28 ba 75 3f 32 65 87 3f 88 de 60 3f 8f 0c 8d 3f
       0.95987177 1.0577757 0.87839556 1.1019458
0000a0 98 5b 87 3f 97 bd 7c 3f c8 bc 77 3f 35 52 75 3f
       1.0574827 0.9872679 0.9677243 0.9582856
0000b0 e4 b8 6c 3f b9 28 6d 3f 5b 1e 6a 3f 2d 20 65 3f
       0.9246962 0.9264026 0.9145257 0.8950222
0000c0 50 a1 82 3f 6b 60 68 3f 49 6c 68 3f fa 8e 83 3f
       1.0205479 0.9077212 0.9079023 1.0278008
0000d0 5e 0e 84 3f 34 79 6d 3f 09 27 8b 3f c8 16 81 3f
       1.0316885 0.92763066 1.0871288 1.0085077
0000e0 7e a9 7d 3f 20 6d 7d 3f 2a 4e 83 3f c7 cb 8d 3f
       0.9908675 0.98994637 1.0258229 1.1077813
0000f0 a9 be 88 3f 36 bc 75 3f a9 8e 81 3f f0 25 4e 3f
       1.0683185 0.9599031 1.0121661 0.8052664

head.norm.bias f4 [64]
000000 16 43 58 3e 95 33 9c 3d 5f ac 1e 3e 08 5f 74 3e
       0.21119341 0.07627026 0.15495442 0.23864377
000010 54 52 bf 3e 3d df 6a 3e 79 eb 11 be 7d 75 b2 3e
       0.373675 0.22936721 -0.14249982 0.3485526
000020 ce 5c 33 3e bc 7e 13 3f d7 cf 7a 3e 64 7d 8f bd
       0.17515871 0.57615256 0.24493347 -0.07006338
000030 36 c8 88 3e d2 cc 9f 3e 05 f8 24 be 29 82 1d 3e
       0.2671525 0.31210953 -0.16110237 0.15381683
000040 2b 92 94 3e 7b 8e 81 3e b4 02 9c 3e 43 43 86 3d
       0.29017767 0.25304016 0.30470812 0.06555798
000050 c3 bb 52 3e df 37 85 3e 51 84 de 3d 66 ea b0 3d
       0.20579438 0.2601919 0.10865081 0.08638458
000060 85 8e 31 3e 4c 27 9c 3e 5c ed fd bd 0a 5d c5 3e
       0.17339523 0.3049873 -0.12398788 0.38547546
000070 79 c3 fc 3b e6 a9 d4 3e 9f b6 6d 3e 3c 54 a3 bd
       0.007713732 0.41535872 0.23214196 -0.07975051
000080 82 7e 84 3e 03 92 37 3e 9d 50 16 3c 06 9a 1d 3e
       0.25877768 0.17926793 0.009174493 0.15390787
000090 6f 14 53 3e a7 0a aa 3d c6 29 e4 3d 3b ee 11 3e
       0.20613264 0.08302813 0.1114078 0.14251034
0000a0 93 39 48 3e 7e 82 09 3e df 13 4d 3e 65 b4 1d 3e
       0.19553213 0.13428685 0.20027111 0.15400846
0000b0 c5 88 90 3e 77 c8 86 3e 84 18 75 3d c6 4a 92 bc
       0.28229347 0.26324818 0.059837833 -0.01785792
0000c0 dc f6 08 3e ed d3 d0 3e d4 11 54 3e a6 16 3c 3e
       0.1337542 0.40786687 0.20709926 0.18368015
0000d0 94 a2 a8 3e 7a 9d 0a 3d b4 fe ec 3d d2 62 88 3e
       0.32936537 0.033841588 0.11572018 0.26637894
0000e0 11 42 90 3e e7 55 a9 3e 7f aa d5 bd 47 43 c4 3d
       0.28175405 0.3307335 -0.1043291 0.09583145
0000f0 d0 1a b1 3d 34 ed c5 3d e1 bd ea 3d 7b 60 8e 3e
       0.08647692 0.096643835 0.11461998 0.27807984

head.norm.running_mean f4 [64]
000000 0f 82 0c be 12 40 67 3e f5 9f 0e 3e c5 40 93 bc
       -0.13721488 0.22583035 0.13928206 -0.01797522
000010 2e cb 83 3c e8 c5 a2 bd 8c 8c 19 3e 98 db 1f be
       0.016088095 -0.07947904 0.1499502 -0.15611112
000020 fe 20 89 bc 65 79 8c bc 97 ad 1c bd e4 9a bf bd
       -0.016739365 -0.01714773 -0.038251486 -0.09355715
000030 91 27 99 bd 6a 1f 68 be f6 b9 88 3d aa 8c db bd
       -0.0747825 -0.22668234 0.06676094 -0.10720189
000040 85 c3 4b be 5a bd dc bd 1f da 3b 3e 1f 05 56 be
       -0.19898804 -0.107783034 0.18344925 -0.20900391
000050 2e 12 43 3d 04 5c 86 be 59 04 d4 3d 92 37 93 3c
       0.04762476 -0.26242077 0.10352392 0.017970834
000060 83 27 54 be c5 a0 91 bd 6f 3d 31 3d 87 83 3e bd
       -0.20718198 -0.071107425 0.04327148 -0.046512153
000070 6d 46 6e bd d5 73 d3 bd 95 f6 ac 3d c2 a6 d6 3b
       -0.058172632 -0.103248276 0.08445469 0.006550641
000080 e0 5e 56 ba 97 d8 c7 be 47 2e 07 be a2 c9 a8 bc
       -0.00081775896 -0.39032432 -0.13201247 -0.020603959
000090 65 c8 3b bd 97 de 97 3c 1d 45 46 3e 07 e9 ab 3c
       -0.045845408 0.018538756 0.19362302 0.02098514
0000a0 68 15 b1 bc 38 5e 66 3d 46 12 db 3d d0 f2 5a 3d
       -0.021616653 0.056242198 0.10696845 0.05345422
0000b0 97 59 32 3d f0 7d 4c 3d 2e ba 63 bd 3d 6c bb bd
       0.04354247 0.04992479 -0.055597477 -0.09151504
0000c0 04 3c 59 bd fe 59 38 be a9 6c 2c 3d fd fd 31 be
       -0.05303575 -0.1800308 0.042095814 -0.17382045
0000d0 95 8d 0a 3d 59 c6 22 bd bf 99 61 3e 74 c2 90 bd
       0.03382643 -0.03973994 0.22031306 -0.07068339
0000e0 c1 8a 09 be 85 2b bd bd 55 36 12 3e e9 a8 2a be
       -0.13431837 -0.09236816 0.14278539 -0.16665997
0000f0 58 49 f8 3d 03 ca 13 be 47 c7 e9 bd 1d 14 30 be
       0.12123364 -0.1443253 -0.11414962 -0.17195173

head.norm.running_var f4 [64]
000000 cc 43 16 3b bb 92 99 3b 49 9a 31 3c 36 36 9b 3b
       0.0022928594 0.004686681 0.010840007 0.004736687
000010 4c 31 95 3b 1f fd 8a 3b a7 b8 0e 3c 4a d2 5c 3b
       0.004552996 0.0042416 0.008711017 0.0033694678
000020 81 ab 4f 3b 66 1c a1 3b 55 a6 8c 3b 01 1b ab 3b
       0.0031687918 0.0049167154 0.0042922893 0.005221725
000030 a2 1b 16 3b 74 3f 5c 3b 16 78 1f 3c 6a f1 cb 3b
       0.0022904654 0.0033607157 0.009733221 0.006223847
000040 92 f2 87 3b 97 23 a8 3b 28 0b d5 3b cf 5c 97 3b
       0.0041487897 0.0051311958 0.006501574 0.004619218
000050 11 e4 cc 3b ca 86 01 3c 43 18 14 3c e0 e5 bc 3b
       0.0062527736 0.007905671 0.009038988 0.005764708
000060 21 59 84 3b bc da 91 3b 2b a0 85 3b b6 20 4b 3b
       0.0040389453 0.004451124 0.0040779314 0.003099484
000070 3d 70 e8 3b d0 9c 94 3b 43 cc 8f 3b 49 2e 85 3b
       0.007093458 0.004535295 0.0043883636 0.0040643555
000080 c5 03 84 3b b5 56 5d 3c eb 07 c8 3b 4e 97 5b 3b
       0.0040287697 0.013509442 0.0061044595 0.0033506933
000090 d3 10 be 3b f7 e3 83 3c de 08 68 3b 5f f7 90 3b
       0.0058003454 0.016099913 0.0035405676 0.00442402
0000a0 d9 23 a6 3b a5 d7 82 3b be 38 ab 3b 54 a6 8b 3b
       0.0050701913 0.003992992 0.00522527 0.004261771
0000b0 88 3a 88 3b 99 15 3c 3b c8 98 8c 3b a7 bd b3 3b
       0.004157368 0.0028699397 0.004290674 0.005485255
0000c0 9a 01 6a 3b 76 54 9e 3b 27 81 91 3b fb cd c2 3b
       0.003570652 0.004831846 0.004440445 0.005944965
0000d0 6b df ae 3b 04 38 51 3b fb 7d 1a 3c 0a 5f 6b 3b
       0.005336692 0.0031924257 0.00942945 0.0035914802
0000e0 61 91 2f 3c f8 38 9e 3b df 77 bf 3b 3b df 92 3b
       0.010715813 0.0048285685 0.005843147 0.0044821776
0000f0 14 c3 f3 3b 96 cc a8 3b e7 36 a5 3b 3c 13 41 3b
       0.0074390266 0.0051513417 0.0050419453 0.0029460927

body.block1.conv.weight f4 [64, 64, 3, 3]
000000 6c 37 6a bb d5 61 71 3c 30 89 4f bd bd 0d 4a 3c
       -0.00357386 0.014732798 -0.05066794 0.012332377
000010 75 bf 9c bc 99 be 09 ba f2 5b 99 bc ef 5a b6 3a
       -0.019134263 -0.00052545365 -0.0187206 0.0013912598
000020 4a b5 1f 3d 59 a3 dd bc 45 a5 8c 3d 50 7f f7 3c
       0.03899125 -0.02705543 0.0686746 0.030212075
000030 7f 81 a8 3a 1d 98 0f 3d ea c9 74 bc 18 4d cd 3b
       0.0012855976 0.035057176 -0.014940718 0.006265294
000040 e8 86 74 3d 04 91 36 3d 22 03 e0 bc ae d0 ec bc
       0.05969897 0.04457189 -0.027345244 -0.0289081
000050 fc eb 9c bb e6 37 13 3d ce af b0 bb 17 98 16 3d
       -0.0047888737 0.03594198 -0.0053920513 0.036766138
000060 98 4e 86 bd 07 c3 0d 3e de 77 6f 3b 37 d6 5c 3d
       -0.06557959 0.13843928 0.0036539952 0.05391523
000070 76 91 3c bc 52 12 00 be 27 0b a0 3d d6 86 1c bc
       -0.01150929 -0.12506989 0.07814627 -0.009553632
000080 60 88 1a 3d e0 d0 92 bd 68 81 1a bd 13 0e e7 3c
       0.037727714 -0.07168746 -0.037721068 0.028204953
000090 a7 78 98 bd 17 f7 e5 bb 9d f8 97 3d 1a 5f 51 3c
       -0.074448876 -0.007017981 0.07420466 0.012779022
0000a0 08 5b 56 bc 1f 15 b6 bd 4b 0c 37 3c 3b 30 cd bb
       -0.013083227 -0.08890747 0.0111723645 -0.006261853
0000b0 5d 8a 85 bb b3 e6 c8 3c ea 71 9c bb e5 66 15 bc
       -0.004075332 0.024524068 -0.004774322 -0.00911877
0000c0 0e d4 87 3d fe aa 1b bb ed 89 80 bc e9 b5 90 3d
       0.06632243 -0.0023753042 -0.015690768 0.070659466
0000d0 ed 23 0e 3d 3b b7 05 bc d4 1e d0 ba 46 20 fc bc
       0.03470223 -0.008161361 -0.0015878328 -0.030777108
0000e0 b4 41 6b 3b 16 b1 a2 bb c3 d5 39 bb 2c 31 95 3d
       0.0035897316 -0.004964958 -0.0028356172 0.072847694
0000f0 b1 37 27 3d 33 24 65 bd 8b 65 0b 3d 3a f9 04 3d
       0.040824596 -0.055942725 0.034032386 0.032464243
000100 77 13 ee 3b da e8 31 3d 03 04 2e bd da d7 41 bd
       0.007265504 0.043434955 -0.042484295 -0.047324993
000110 0d 00 30 b9 c7 e3 91 bd 2a 7e 70 bd 5d cf 83 3b
       -0.00016784687 -0.07123523 -0.05871407 0.0040225224
000120 73 94 50 3d c0 8c 81 bc ba 3d 43 3d bc 99 4e bc
       0.050922822 -0.015814185 0.04766629 -0.012609895
000130 c1 05 cd bc ba 94 fe bc 79 77 8d bc b0 e0 84 3d
       -0.025027158 -0.031076778 -0.017268883 0.06488168
000140 80 72 82 bc 42 de 9a bd e3 ca 37 3c e2 85 55 3c
       -0.015923738 -0.075619236 0.011217806 0.013032408
000150 26 f3 a5 bd c7 57 bf bc c6 85 1f 3d b8 39 cf bc
       -0.081030175 -0.023357285 0.038945936 -0.025296077
000160 cd 26 6d bc 4d 16 b6 3c e4 a8 d6 bb 6a b4 a0 3c
       -0.014474583 0.02222743 -0.006550895 0.019617278
000170 f2 7d b1 3c e7 54 2b 3d 22 17 cf bc 7d 3e cd 3a
       0.0216665 0.041829016 -0.025279585 0.0015658882
000180 ba f0 7c bc f9 e8 f0 3b 29 3f 95 3d b3 d1 09 3a
       -0.015438253 0.0073519913 0.072874375 0.0005257383
000190 16 51 ae bc fe af 8d 3c aa cf 18 3d 9e 7e bc bc
       -0.0212789 0.017295834 0.03730742 -0.023009595
0001a0 ed f0 68 3b d4 ad ff 3c 34 0a f0 bc a3 95 00 3d
       0.0035543994 0.031210817 -0.02930174 0.031392705
0001b0 0b a5 58 3b 9e 28 e9 bc d6 9f a6 bc 5d 15 2e 3c
       0.0033057358 -0.02846175 -0.020339888 0.010625211
0001c0 df eb ed 3c 74 53 94 bc d4 b7 27 3d 5f 9a 69 3d
       0.029043136 -0.0181062 0.040946797 0.057031985
0001d0 a4 41 35 bd 10 14 31 bc ef 55 5f 3a d6 e8 a1 3b
       -0.044252053 -0.010808006 0.000851958 0.0049410863
0001e0 fd 83 39 3c 9d 83 bf bb 09 31 69 bd 05 db e4 bc
       0.011322972 -0.005844547 -0.05693153 -0.027936468
0001f0 e6 50 13 3c 43 1d 82 3d e3 6a d2 bc 27 f2 87 bd
       0.008991456 0.063532375 -0.025685733 -0.06637984
000200 54 2c 9d 3d b4 d3 53 bc 80 94 27 3b 13 cf a7 bd
       0.076744705 -0.012928892 0.002557069 -0.08193793
000210 06 b4 55 bb f6 bf 3a 3d c8 ca 1a 3d b1 5e a7 3d
       -0.0032608523 0.045593224 0.037791044 0.08172358
000220 0e d9 eb bb 29 0d 30 bc 25 77 a5 3d e9 95 09 3d
       -0.007197506 -0.010745325 0.08079366 0.03359023
000230 62 3b 1e bd 50 30 38 bc 74 59 bf 39 91 7f 10 bc
       -0.03863085 -0.011241987 0.00036497007 -0.008819477
000240 0b a7 23 3d a3 25 0c 3d 9e 4f 34 bd b2 a7 9d 3d
       0.039954226 0.03421558 -0.04402124 0.07698001
000250 92 7f 81 bd df dc 87 3c e8 fe b4 bd 82 47 a4 bb
       -0.0632316 0.016584812 -0.08837682 -0.005013407
000260 5e b4 e3 3c 0e 1c 24 bd 91 51 96 bb 76 8e 38 3d
       0.027795967 -0.040065818 -0.00458736 0.045057736
000270 b7 02 a7 bc 46 7a 2b bb 2b 01 fa bc df 5c e2 3c
       -0.020387037 -0.002616541 -0.030518135 0.027632175
000280 f5 0d 89 bc 4e af db 3c 5c 67 51 bd 42 c0 fa bb
       -0.016730288 0.02681699 -0.05112396 -0.0076523134
000290 80 f0 a8 bc 4e 51 8d 3d 29 49 cc 3c d5 38 2b 3d
       -0.020622492 0.06900273 0.02493723 0.041802246
0002a0 a1 be 3a bc 08 23 71 bd 91 d1 36 bd 23 4e 89 bc
       -0.011397989 -0.0588713 -0.04463345 -0.016760891
0002b0 a9 ca cf bb 7a 3c 41 3c 3a e2 cc bd cc c2 e0 3c
       -0.0063412976 0.011794204 -0.10004087 0.027436636
0002c0 cd 7f 0b bc dd a3 92 3d 3c ca f9 bc 3b b3 87 3d
       -0.008514357 0.07160161 -0.03049194 0.066259824
0002d0 4c 10 8f bd 07 c6 8e 3c ff 92 b9 bc 94 64 4f bd
       -0.0698553 0.017428411 -0.022653101 -0.05063303
0002e0 6e 92 a4 bb 3c 0c 6a 3d 52 b4 f7 bd 9f ce bc bc
       -0.0050223386 0.057140574 -0.1209494 -0.023047743
0002f0 0e 58 41 bc e3 ae 8e 3d cb 2d 2e 3b 2d 56 00 bd
       -0.011800779 0.06966951 0.0026577588 -0.031332184
000300 27 55 13 bd c2 8a c5 3c ac 2b 70 3d dd 8a 00 3d
       -0.03596988 0.024114016 0.0586354 0.03138243
000310 c9 9a ce bb bc 9d 86 3c 33 fa cc 3c 3a 84 80 bd
       -0.006305073 0.016432635 0.025021648 -0.0627522
000320 1e 57 18 3c 53 04 a1 bd 6a 0e 94 bd 97 ee e7 bc
       0.009298114 -0.07862153 -0.07229312 -0.02831201
000330 28 d1 95 bd af 19 b5 3d 3a b5 ff bc 79 3f 0f bd
       -0.07315284 0.088427894 -0.031214345 -0.03497264
000340 5d 46 04 bc ec 15 1f bd 62 b0 18 bd 89 2b 3e bd
       -0.008073417 -0.038839266 -0.037277587 -0.046428237
000350 c8 8c b6 3b bd 6a 5c bc 1b 84 9e bc 0f 4c 67 3a
       0.0055709817 -0.013453183 -0.019350102 0.00088232843
000360 a1 80 66 bc ba 03 7a bd 8f 8a 1d bd 8b 74 7a 3d
       -0.014068753 -0.06103871 -0.038462218 0.0611463
000370 f7 8f 80 3c 44 6c 87 bb 82 1d 0e 3c a1 5e 22 3d
       0.015693648 -0.0041327793 0.008674027 0.039641026
000380 90 c4 17 bc dd da 98 bd c0 87 8d 3b 03 51 17 bc
       -0.009263173 -0.0746362 0.004319161 -0.009235623
000390 42 ed 7e bc 91 da 0d 3c 55 9c b9 3b ed 01 1d 3d
       -0.015559496 0.008658067 0.005664388 0.038331915
0003a0 86 fd a8 3b bc b8 2c bd 97 42 d6 b9 8a 02 94 bc
       0.0051571755 -0.042168364 -0.00040866874 -0.018067617
0003b0 b6 fe 47 3c f9 00 69 3c ff 2d 0d 3d 50 77 ec 3c
       0.012206724 0.014221423 0.034467693 0.028865486
0003c0 7c 72 a5 3d 11 0f 1b bd c0 bc e8 bc a3 74 0b 3c
       0.08078477 -0.037856165 -0.028410316 0.008511695
0003d0 d3 01 17 bd 66 c5 61 3b b2 6a b9 3d d1 c2 ee 3a
       -0.036866974 0.0034449934 0.09053554 0.0018216019
0003e0 1b fd 05 3c 4f 9e e0 3c df eb 03 3d 93 7b 27 3d
       0.008178021 0.027419237 0.032207366 0.040889334
0003f0 28 75 96 bd b9 f7 31 bd 65 02 4e bd ac fa aa bd
       -0.073465645 -0.043449137 -0.050295252 -0.08348593

body.block1.conv.bias f4 [64]
000000 4b 37 c6 3c 81 b0 6c bc 37 ad 8a bd f8 fe 61 bd
       0.024196288 -0.014446379 -0.06771319 -0.055174798
000010 eb 86 5c bd 2b e0 e5 bb 6d 6c c2 bd b9 0a 9f 3c
       -0.053839605 -0.0070152483 -0.09493337 0.019414293
000020 7e 34 7a bd 70 ea 92 3c c3 ae 81 3d 10 8e b6 3c
       -0.061085217 0.017934054 0.06332161 0.022284538
000030 28 c9 31 bd 62 57 8d 3c ac 87 b2 3c 91 78 34 bd
       -0.04340473 0.017253581 0.021793209 -0.044060294
000040 ff 5d a6 3c b2 58 33 bc eb 21 e6 3c b4 00 f7 bc
       0.020308493 -0.01094644 0.028092345 -0.030151702
000050 a9 6d 4a bb 43 21 99 bd 48 6d af bd c8 d9 93 ba
       -0.0030888116 -0.07477047 -0.085657656 -0.0011280114
000060 e9 e7 8e bc f0 07 84 3d 89 d6 84 3d e6 9d d4 3c
       -0.017444568 0.064468265 0.06486232 0.025954198
000070 bb fa a3 3d 93 2b 0c 3d 35 e5 f8 3a 08 c8 1c 3d
       0.080068074 0.034221243 0.0018989207 0.038276702
000080 98 42 0e 3c 6a 1d d2 bc 74 dc 96 bd 7f 32 19 bd
       0.008682869 -0.025648791 -0.07366267 -0.037401672
000090 9b 94 eb 3c e6 93 99 3d 52 a5 65 3d 40 c4 b2 bd
       0.028757384 0.074989125 0.056065865 -0.08728838
0000a0 97 99 75 bb ee 14 16 3d 15 f1 d8 bc 9f fe c0 3c
       -0.003747558 0.036641054 -0.026482144 0.023558913
0000b0 80 84 b8 3c b0 18 d7 bd af cb 38 bd 0d d1 64 bc
       0.022524118 -0.10502756 -0.045116123 -0.013965857
0000c0 3f ab 55 ba ea 67 03 3d 6d 9e 0c 3c 33 32 42 bb
       -0.0008150823 0.032081522 0.0085826935 -0.0029631972
0000d0 a6 a6 2b 3d 81 f3 5f 3c 98 70 80 3c e7 06 98 bc
       0.041906975 0.013668896 0.015678689 -0.018557979
0000e0 9c 16 f2 bb 3c fa c9 bc 38 b4 8b bb bc 0b 4b 3d
       -0.007387949 -0.024655454 -0.004263427 0.049571738
0000f0 88 6f 27 3d d5 28 4a bd f7 34 e8 bc e9 c3 90 bd
       0.04087785 -0.049355347 -0.028345568 -0.07068617

body.block1.norm.weight f4 [64]
000000 84 ac 92 3f 72 13 98 3f fd 89 96 3f 37 37 9f 3f
       1.1458898 1.1880934 1.1760861 1.2438725
000010 39 6f 9d 3f 16 66 90 3f 56 19 88 3f 2b fd 85 3f
       1.2299567 1.1281154 1.0632732 1.0467886
000020 b5 6e 8b 3f f2 66 a4 3f f0 35 9b 3f e6 9d 91 3f
       1.089316 1.2843916 1.2125835 1.1376312
000030 2c ad 8a 3f f8 dc 9e 3f a5 36 8a 3f b0 88 8d 3f
       1.0834098 1.2411184 1.0797926 1.1057339
000040 26 f3 93 3f 08 74 8f 3f 7b 68 9c 3f 22 ab 94 3f
       1.1558578 1.1207285 1.2219385 1.1614726
000050 16 6e 88 3f 79 bc 8f 3f 0b e5 95 3f 1b 1f 9b 3f
       1.0658596 1.1229392 1.1710523 1.2118868
000060 59 ea 97 3f 21 4a 98 3f a7 53 93 3f cc f2 a4 3f
       1.1868392 1.1897622 1.1509904 1.2886596
000070 2f ba 89 3f ca fa a0 3f 8f 6d 8e 3f 69 25 89 3f
       1.0759944 1.2576535 1.1127185 1.0714542
000080 fc 58 9e 3f 31 36 90 3f 15 95 9c 3f 27 1d 91 3f
       1.2370906 1.1266538 1.2232996 1.1337022
000090 04 70 91 3f 37 61 9f 3f 4d dc 9e 3f 32 f5 9b 3f
       1.136231 1.2451543 1.241098 1.2184203
0000a0 1c b5 8c 3f 85 76 93 3f 4c df 9b 3f 27 2d 96 3f
       1.099277 1.1520544 1.217752 1.1732529
0000b0 f2 de 9f 3f 09 81 97 3f 2e cd 8e 3f 56 61 96 3f
       1.2489913 1.1836253 1.1156366 1.1748455
0000c0 b0 d4 92 3f aa 1e 91 3f 35 86 88 3f a0 79 8b 3f
       1.1471157 1.1337483 1.0665957 1.0896492
0000d0 5b ee 84 3f e1 3c aa 3f a8 5f a1 3f 0c ce 88 3f
       1.038524 1.3299829 1.2607317 1.068788
0000e0 60 d4 9d 3f 13 bb 88 3f 8e ab 8c 3f aa ab 91 3f
       1.2330437 1.068209 1.0989854 1.1380513
0000f0 a6 22 9c 3f 98 cb 8b 3f a2 15 88 3f 6e ab 91 3f
       1.2198074 1.0921507 1.0631602 1.1380441

body.block1.norm.bias f4 [64]
000000 05 92 f7 3d 01 1d 21 bc 88 3d 40 3f 6b 6f 75 3f
       0.12088398 -0.009833575 0.7509389 0.95873135
000010 4e c0 93 3e cb e0 89 3f 72 c0 4d be 11 3f 2e 3f
       0.28857654 1.0771726 -0.20092943 0.6806498
000020 a3 9f 88 3f ca a2 ce be 5e 5b b9 bd 71 aa ff bd
       1.0673717 -0.40358573 -0.0905063 -0.12483681
000030 b9 eb cc 3f ed ce a3 3e 31 05 76 3e ab 4d 23 3f
       1.6009437 0.3199381 0.24025418 0.63790387
000040 4e 3f ce 3d e9 30 8b 3e 1a 6d 36 3d aa db 23 be
       0.10070668 0.27185753 0.04453764 -0.16001764
000050 9b 3d 2f 3f 2f 53 03 bf 5e cd 11 3f 92 b9 c8 3d
       0.6845338 -0.51298803 0.5695399 0.0980102
000060 42 bc 52 3e 5f 97 9e 3e b8 e0 35 3f 38 54 15 bf
       0.20579627 0.30974862 0.7104602 -0.5833163
000070 32 a5 1c 3f a1 95 b2 3e 9e 27 40 3d 48 e0 ea 3d
       0.6118957 0.34879783 0.046912782 0.114685595
000080 d9 35 a5 3e 05 72 3c be 80 a5 b5 3d 1e f3 54 be
       0.32267645 -0.1840287 0.08869457 -0.20795867
000090 51 69 7f be f9 9a 1a 3f 63 b3 2c 3f c2 0b 4f be
       -0.24942519 0.6039272 0.6746122 -0.20219329
0000a0 83 a9 9a 3c 24 21 e0 3d b2 14 19 3f b1 06 8a bd
       0.018879658 0.10943821 0.59797204 -0.067395575
0000b0 b6 7e 3d 3e 77 f4 4a 3e 4b 52 1d be fa 98 23 3e
       0.18505368 0.19819818 -0.15363424 0.15976325
0000c0 21 34 34 be b8 72 f3 3e ae 01 8e 3e 09 ad 53 3f
       -0.1759801 0.4754846 0.27735656 0.82685906
0000d0 a2 fc e0 3e 3a 3c 13 bf b6 68 f6 3e d5 90 43 3f
       0.43942744 -0.57513773 0.48126763 0.7639287
0000e0 77 d0 1d 3f 5c 22 32 be 7a 47 0b 3c 9a 5b eb 3e
       0.6164622 -0.1739592 0.008500928 0.45968324
0000f0 a5 af ec be ec d4 77 3e 27 07 14 3f 78 8f 31 3f
       -0.46227756 0.24202317 0.57823414 0.6935954

body.block1.norm.running_mean f4 [64]
000000 49 72 ca 3d 98 af f5 3e e1 63 b4 bf ec eb 6f be
       0.098850794 0.4798553 -1.4092981 -0.23429841
000010 11 32 b4 3e d6 59 92 3f 18 75 84 bf fc 69 f5 be
       0.35194448 1.1433666 -1.0348234 -0.47932422
000020 e0 0c 03 3f 9b 9d 07 bc b1 6f a8 3c 2b 34 af bd
       0.5119152 -0.008277322 0.020561071 -0.08554872
000030 7a 43 30 bd 57 d9 79 3e ca 76 e8 be ee fc d6 be
       -0.0430331 0.24399315 -0.4540313 -0.41989845
000040 8e 10 14 3e 0b 8b 86 3e 84 c3 1c be fa 4c 3b bc
       0.1445944 0.26277956 -0.15308958 -0.011431927
000050 e7 e0 25 3d 65 da 30 bf 3a e7 6e be 2d 9c 09 bf
       0.040497687 -0.69083244 -0.23330393 -0.5375393
000060 99 91 b0 3e 5c a7 42 bf 83 ad 9d 3f 11 67 3d 3f
       0.34486082 -0.7603662 1.2318577 0.7398539
000070 b2 b6 86 bd 3a 1e 02 3e 4c 39 06 bd a8 d4 15 3f
       -0.06577815 0.12706843 -0.032769486 0.5852761
000080 d9 6e d7 3e 2b 0e a2 be 45 67 9a 3e 26 0b 1b bf
       0.42076758 -0.31651434 0.30156913 -0.60563886
000090 bc ee ea be 54 5d b8 3e 94 41 5c 3d ff 57 8c 3e
       -0.45885265 0.36008704 0.053773478 0.27410886
0000a0 96 70 48 bf cd 18 2f bc 84 7f df 3e b6 3c 35 3e
       -0.7829679 -0.010687065 0.43651974 0.1769894
0000b0 94 87 8e 3d fe b7 16 3f 5a 1c 95 bf 56 61 58 3e
       0.06959453 0.588745 -1.1649277 0.2113088
0000c0 2a e7 0a bf 08 b8 d8 bf cf 20 21 bf 46 fd 1b be
       -0.5425898 -1.6931162 -0.62940687 -0.15233335
0000d0 9f 3e 9d bf 45 7e 5b 3f 1a e2 ec 3e c3 8e e4 be
       -1.2284735 0.85739547 0.46266252 -0.4464017
0000e0 da 3f 2b bf 90 f3 5a bf 74 d5 24 bf 01 7a 0c c0
       -0.66894305 -0.85527897 -0.64388204 -2.1949465
0000f0 5d 01 cb be 6c 2d 52 3f 26 55 b5 be a8 76 05 3f
       -0.39649478 0.8210056 -0.35416526 0.5213418

body.block1.norm.running_var f4 [64]
000000 2b fe 11 3e 4b dd c0 3e 33 a6 2c 3e fc 0c 1a 3f
       0.14257114 0.37668833 0.16860275 0.6017606
000010 a4 77 b7 3e 30 72 1e 3f bf c3 18 3e e3 af 72 3e
       0.35833466 0.61892986 0.14918421 0.23699908
000020 4c 59 f1 3e 0b f6 1c 3f c0 c7 a9 3e 49 45 e1 3e
       0.4713844 0.6131293 0.3316021 0.43998173
000030 5f ac db 3e 12 b4 b8 3e 49 e7 46 3e 57 37 15 3e
       0.42904946 0.36074883 0.19424166 0.14571892
000040 bd 95 11 3e cd f2 1c 3e a0 6e a3 3e 69 0b 39 3e
       0.14217277 0.15326996 0.31920338 0.18070759
000050 a4 0d 83 3e 59 1a f2 3e eb 51 37 3e 7c 7b a2 3e
       0.25596344 0.47285727 0.17902343 0.31734836
000060 39 dd ce 3e c3 05 d3 3e 98 3b 5f 3e 7a c0 0b 3f
       0.40403154 0.41215333 0.21800077 0.5459057
000070 c1 f6 e0 3e eb 92 bf 3e 78 60 a7 3e de 08 c4 3e
       0.43938258 0.37416777 0.32690787 0.38288015
000080 e7 c1 b0 3e 00 2f cd 3e 3f 7c 43 3e e7 f1 dd 3e
       0.34522936 0.4007492 0.19090365 0.4334862
000090 ef 63 9e 3e 86 75 ab 3e b3 2e 46 3e 2a 9f c3 3e
       0.30935618 0.334881 0.19353752 0.3820737
0000a0 60 0b a2 3e 76 92 48 3e ba 2e ed 3e b4 b0 ca 3e
       0.31649303 0.1958712 0.46324712 0.3958794
0000b0 22 82 d3 3e d2 22 cc 3e ac f8 84 3e a2 9d aa 3e
       0.4131022 0.39870316 0.25970972 0.3332339
0000c0 03 19 9e 3e 3d 71 b0 3f 23 c0 86 3e e5 18 e2 3e
       0.30878457 1.3784558 0.26318464 0.44159618
0000d0 6e 64 4d 3e 4a 42 f5 3e 7a 37 88 3e 6d eb 4f 3f
       0.20057842 0.47902137 0.26604825 0.81218606
0000e0 e3 63 85 3e 47 46 20 3e 77 0e 4d 3e a0 80 96 3f
       0.2605277 0.15651809 0.20025049 1.1758003
0000f0 ec 9d e4 3e f4 14 97 3e d6 64 c2 3e 8c 4c 8a 3e
       0.44651735 0.29508173 0.37967557 0.27011526

tail.weight f4 [1, 64, 3, 3]
000000 bb a1 a5 3d a3 cb b3 3c a9 21 90 3d 82 82 b1 3b
       0.08087488 0.021947687 0.0703767 0.005417169
000010 1a b5 e6 3d 3c 2f 04 3e dc 2f 1b be 3f 2d 12 be
       0.11265011 0.12908643 -0.15154976 -0.14275073
000020 e2 ea b5 bd c3 76 58 bd f6 4a 98 bc c9 32 e3 bc
       -0.08882691 -0.052847635 -0.018590432 -0.027734177
000030 52 bd 58 be bc 21 46 be a8 8f 72 be df 32 d6 3c
       -0.2116597 -0.19348806 -0.23687613 0.026147304
000040 08 03 96 3c c0 fc 2d bc 7e 4d 08 3e fb 72 a7 3d
       0.018311992 -0.010619342 0.13310811 0.08176228
000050 96 0a ed 3d 71 54 27 3e d6 87 58 3e ad f6 25 3e
       0.11574285 0.16340806 0.21145567 0.1620738
000060 20 57 16 be 55 3e ce bd ab 46 18 be ff be 11 3d
       -0.14681673 -0.10070483 -0.14870708 0.03558254
000070 a7 ed 28 3d 3c f7 05 bb 87 99 8b 3e 0e 46 92 3e
       0.041242268 -0.0020441553 0.2726557 0.28569072
000080 30 55 8c 3e f4 86 07 bc 30 f7 9e bd ab e7 83 bd
       0.27408743 -0.008271921 -0.07761991 -0.064406715
000090 9e ad 8d 3d 2a 09 a6 3d ac ee d3 3d 0a 50 75 bd
       0.069178805 0.08107217 0.103482574 -0.059890784
0000a0 e0 2b 9e bd 55 1e c3 bc 3c e1 54 3e f7 83 58 3e
       -0.07723212 -0.023818174 0.20789045 0.2114409
0000b0 31 a7 87 3e 0e 7b 02 be 70 5f fc bd 84 15 fd bd
       0.26494744 -0.12742254 -0.12322891 -0.123576194
0000c0 c0 c1 2d be da c3 3b be 51 5b 3d be 19 2e aa 3d
       -0.16968441 -0.1833643 -0.18491866 0.08309574
0000d0 bf 17 c3 3d ea be ab 3d 83 a7 c1 bc cd 44 a4 bc
       0.095260136 0.08386023 -0.023639446 -0.020052338
0000e0 8b bf a9 bc 31 2a 73 bd cb 31 77 bd eb 68 52 bd
       -0.020721218 -0.05936641 -0.06035022 -0.05136959
0000f0 ef 6e 9f bd 70 bf 7c bb f5 ee 4a 3d 06 e4 6d bd
       -0.07784831 -0.0038566254 0.049544293 -0.05807879
000100 4b b1 c0 bd 04 d6 b9 bd ba 7d 3c 3e b0 bd 75 3d
       -0.09408816 -0.09074023 0.18407336 0.059995353
000110 96 ee 64 3d 0a aa 27 3e 2e bf de 3d b4 80 76 3d
       0.055891596 0.16373459 0.108763084 0.060181335
000120 bf 7b 0c be e0 58 15 be 4c 7e 12 be 6b ba 0a 3d
       -0.1371908 -0.14584684 -0.14305991 0.03386919
000130 7d a8 b9 3d 49 fe 5f 3d 93 44 aa 3d eb 45 06 3e
       0.0906534 0.054685865 0.08313861 0.13112609
000140 ce ea 02 3e 81 dc 81 be e5 76 5c be e5 ce 7b be
       0.12784883 -0.25363544 -0.2152973 -0.24590643
000150 a4 1b e8 bd ea f0 02 be ed 2a 98 bd b1 a5 12 be
       -0.11333397 -0.12787214 -0.074300624 -0.14321019
000160 6c 00 3a be c4 11 11 be 6f 88 bb bc df 00 12 bd
       -0.18164223 -0.14166933 -0.022892205 -0.035645362
000170 10 53 d0 bc aa 5e 39 be f1 cc 43 be 2e 9f 05 be
       -0.025430232 -0.18102518 -0.19121148 -0.13049003
000180 9c 69 28 3c 4e bc 9f 3d 69 37 e6 3d 65 b6 99 3b
       0.0102790855 0.07799588 0.112410374 0.0046909326
000190 3a b5 2c 3c 8a 2f 79 3c 25 9b 72 bd 9b 42 0e bc
       0.010541255 0.015209088 -0.05922999 -0.008682872
0001a0 a4 72 07 bd 46 a6 16 3e 8f 51 1e 3e 98 80 32 3e
       -0.033068314 0.14711866 0.154608 0.17431867
0001b0 4a 41 63 be 86 48 33 be f5 a3 4e be 57 25 8d bd
       -0.22192875 -0.17508134 -0.20179732 -0.06891888
0001c0 0a a7 50 bd f9 7a 28 be 18 f8 14 3e b5 d4 3d 3e
       -0.05094055 -0.1645316 0.14547765 0.18538173
0001d0 43 ef 45 3e 62 11 be 3b 54 75 32 3d cf 78 e5 3c
       0.19329552 0.005800412 0.043568924 0.028011708
0001e0 55 26 36 bd cb 0c b6 bd cc 4a c3 bd 31 60 98 3e
       -0.04447015 -0.08889159 -0.09535751 0.29760888
0001f0 f9 3f 8d 3e b5 b9 74 3e c2 9c 61 bc b3 d5 dd bc
       0.2758787 0.23898967 -0.013770284 -0.027079439
000200 4e 04 01 bd 24 fc d3 bd 3a 84 e1 bd e8 e6 eb bd
       -0.031498246 -0.103508264 -0.11011548 -0.11518651
000210 9c f2 55 3d 59 48 9a 3d 10 1d b2 3d 39 bf 00 bc
       0.052233323 0.075333305 0.086969495 -0.007858091
000220 d9 b7 8c 3a df 94 19 3d 79 43 15 3e 6b 3c 18 3e
       0.0010735943 0.03749549 0.1457652 0.14866798
000230 5e 44 4b 3e 31 e7 2c be 06 51 fd bd a7 37 b4 bd
       0.19850299 -0.16885068 -0.123689696 -0.08799677
000240 76 09 da 3d 93 6e 17 3e cc 4f e0 3d 9a 08 a1 bb
       0.10646336 0.14788274 0.1095272 -0.0049143555
000250 c8 bc cd 3c c8 1e 0f be 3f db 0a 3c 4f 2c 58 bd
       0.025114432 -0.13976586 0.008475124 -0.05277663
000260 a4 9d f6 bd ab ee 13 3e 24 6d c1 3d 7d df 01 3e
       -0.12041786 0.14446513 0.09444645 0.1268291
000270 9f b3 99 bc 98 fb 2f 3d 22 57 77 3d 06 ed c5 bd
       -0.018762408 0.042964548 0.06038583 -0.09664349
000280 33 91 c3 bd b9 1d ec bd e8 b3 9d bd f5 4f 39 bd
       -0.09549179 -0.11529107 -0.0770033 -0.04524227
000290 a2 f1 ad bd eb 4e 50 3c 2b f0 3d 3c ae 1f 1c 3e
       -0.084933534 0.012714128 0.011592905 0.1524646
0002a0 24 6d 21 be 9c 8f 17 be e8 44 d2 bc e1 99 97 bd
       -0.1576429 -0.14800876 -0.025667623 -0.07402397
0002b0 76 ca 25 bd 1c 33 41 bd 70 50 ed bc 86 74 fe 3c
       -0.040476285 -0.047167882 -0.02896902 0.031061422
0002c0 96 b4 fb bc 75 92 0f be ed d2 1e be f6 d3 b3 bc
       -0.030725759 -0.14020713 -0.1551015 -0.021951657
0002d0 69 82 2a 3c f0 b6 ed bc e9 7a ed bc 39 28 60 3d
       0.010407069 -0.029017895 -0.028989272 0.05472586
0002e0 78 b9 08 3d b7 5e 9f 3c b7 e7 1b 3e 90 02 fb 3d
       0.03338 0.019454343 0.15225111 0.12256348
0002f0 c7 e8 9c 3d 81 22 0b 3e ac 75 f6 3d dd 30 cf 3d
       0.07661586 0.13587381 0.12034163 0.10116742
000300 65 e4 d3 3d 3f 9c b6 3d 49 2d c6 3d a0 e9 cb bd
       0.10346297 0.0891652 0.09676606 -0.0995667
000310 34 60 1e be 69 d5 96 bd b4 58 6e 3d 1c dc 53 3d
       -0.15466386 -0.073649235 0.058190063 0.051723585
000320 79 ea ea 3d 60 d6 31 3e 69 39 31 3e de 6e 2e 3e
       0.11470503 0.17366934 0.17307056 0.1703448
000330 fd 52 27 be 0e 9c cc bd 40 b1 57 bd 2b 0b 71 3c
       -0.16340251 -0.099907026 -0.052659273 0.014712135
000340 3d cf b9 3c 71 15 31 bd ad cc 97 bd f7 e7 b5 bd
       0.022681827 -0.04323334 -0.07412086 -0.088821344
000350 cb 60 08 3e 65 cd 04 be a0 6d 52 be 33 62 05 be
       0.13318174 -0.12968977 -0.20549631 -0.13025741
000360 2a 9f 52 3d 1b 3d e9 bc 54 50 3d 3d f8 7d a8 bd
       0.051421322 -0.02847152 0.046219185 -0.08227152
000370 ea 5a 1e 3b 7a 71 45 3d c2 f7 65 3e 30 75 86 3e
       0.0024163076 0.048203923 0.22457793 0.26261282
000380 70 99 75 3e e2 9a a5 bd 8d c5 ee bd a6 cd 0b be
       0.23984313 -0.08086182 -0.116587736 -0.13652667
000390 cd e4 1c be ee 62 32 be b4 c3 10 be 74 6e e7 3d
       -0.15321656 -0.17420551 -0.14137155 0.11300364
0003a0 a4 37 f2 3d 00 8a aa 3d 37 f5 a3 3d 60 68 b7 3d
       0.11827019 0.08327103 0.080057554 0.08955455
0003b0 94 4d a1 3d 33 09 e9 bd 46 9d 18 be 9e e8 02 be
       0.07876125 -0.11378708 -0.14903745 -0.12784049
0003c0 42 19 15 3e cd ae 74 3e b6 c0 19 3e c4 68 a2 3d
       0.14560416 0.23894806 0.1501492 0.07930139
0003d0 ae d4 3c 3d 26 09 c4 3d ea 74 44 3e 75 e2 86 3e
       0.046101265 0.095720574 0.19185224 0.26344648
0003e0 51 36 93 3e f1 16 92 bd 95 63 8e 3d 33 06 32 3d
       0.28752378 -0.07133282 0.069525875 0.043462943
0003f0 d9 d4 60 3d 2f 33 8a 3c 64 ee 6a 3c fc 07 dd 3d
       0.054890487 0.01687011 0.014339063 0.107925385
