3layer_5000its/files/1/D.pth (torch, 184629 bytes, 13 tensors)

head.conv.weight f4 [64, 12, 3, 3]
00000000: bb22 263c 9c11 573c 2457 f33b fa2e 10bc
00000010: 6781 89bb 4355 9d3c 1a95 85bb d0e3 a3bc
00000020: 33fa 083c 406b 87bd ac05 40bd d340 d13b
00000030: db41 c9bc 61f2 d3bc 09b1 9a3d 6bfa f03c
00000040: 11a9 d93d 601d ad3d 828f 3a3c faac fbbb
00000050: 8266 65bc 598d 23bc b84a 0d3d 9864 c6bd
00000060: 7c9e 373b 1d05 fdbb a700 00be 5ba7 92ba
00000070: 0536 fc3c 00f2 e5ba 4135 c0b9 5bb9 27bc
00000080: 239a c2bc 9b6f eabb d987 1bbd 07f8 21ba
00000090: 37e3 463c 53b2 92bb ccae 1fbd 5fec d03c
000000a0: 777a b13b 9668 42bd 33d1 08bb aee6 a0bc
000000b0: 5a4e 223c fe6f c1bc 541f 8abb 6355 7abc
000000c0: 7871 65bc a731 90bb 56fb 20bc 166d 7abc
000000d0: 3960 993a 921f 6fbb 7c44 0a3d e6fe e3bb
000000e0: 6942 533c dd69 cd3d c825 e5bc 73f2 133d
000000f0: 55e1 a13c 2288 4dbc 3e1d c73b 7145 403c
00000100: 912b 893c c851 4d3c 746b 86bc 718d c23c
00000110: 0c1f 503c cccc f8bc d7f2 a03a f731 f03a
00000120: f532 0d3c a4b4 3f3c 177d 073c e2eb 64bc
00000130: 3fc0 153c 8378 8abd 27e7 33b9 22ec 96bc
00000140: 5b68 24bd f491 4db8 3b5a 8cbc 27b6 4a3c
00000150: 28bd 4bbb 04b7 d63b fc19 f33c 1fed 1d3b
00000160: 52bd d83a 840e 633c e15a b4b7 c3c5 55bb
00000170: b6cd b43b 5af9 aebb 1af0 8c3b b1be a43b
00000180: 16e3 523c 3e8e d5bb a346 fb38 41de 433c
00000190: 67f7 843c 26e8 9f3b ec3e 86bc 0276 04bc
000001a0: 4123 0c3c 0b5d cd3b 0dde 0cba 880d 893d
000001b0: 07f8 08bc e11c 10bd fbc5 77bb 0a57 ccbc
000001c0: c71c 253c da5c 06bd 719b 933b 64d8 1b3c
000001d0: fb42 1cbc f46a b73c 9ecd 7dbb 976b 8ebb
000001e0: ff64 df3c 1032 0bbd 1b77 25bd a6d8 18bd
000001f0: b6e3 8cbd 1c45 80bd fa03 0cbd 11fe 2e3c
00000200: a396 013d 7483 2c3d 3826 d1bd da94 49bc
00000210: e7a6 c83d 35ca 8c3d 91f2 fd3c 5631 e8bb
00000220: 6834 fa3a f5b6 bd3a e8cc b5bc 679a 143d
00000230: 565a ad3c e71e 6fbc 3245 1ebc 3121 fa3b
00000240: f3de 4dbb 2f38 4a3c 5870 d23c 606b 3fbc
00000250: dc89 f13c 0c20 1c3d c0d1 3cbc 233a d93b
00000260: 339f 863a 3656 143b b403 823a 56bb f2bc
00000270: 40d8 bbbc ffa4 183d 41b3 15bd 6e9e b9bc
00000280: 54d2 413c a2ec aabb ec17 77bd 0c64 a4bd
00000290: 7e62 32bd 4fb9 ecbc cf1a c5bd 76d5 b0bd
000002a0: cbe7 943b d48d 833c fbad 74bd 1d0e f43b
000002b0: f2f0 48bc 185a 0c3b 0dad 43bb 482d 8e3a
000002c0: f0ce 0e3d 9cb8 213c 15f4 453b 52ab 143c
000002d0: 4d0a edba 2982 973c d410 4f3c 277c 2f3d
000002e0: eea2 063c 8c0d a73c 6c37 cf3b 464a 31bd
000002f0: 5481 2abb 1bda 9a3c 4146 ab3c 232d 36b8
00000300: 1655 7e3b 3303 373d 9565 443d eba7 e43b
00000310: 9a08 833c 0b69 293d a9bf 36bc 2b6b 4d39
00000320: 637c 5e3b c52e 043c 6af1 993c 4269 473b
00000330: a520 d73b 93e3 c83b c984 b5bb c889 833d
00000340: f003 823d 3888 b7bb 3af1 943a 4ae4 9c3d
00000350: cdad 6c3d 94fc 58bd c250 323b 850e 643d
00000360: 5abe 283c d8ed 233c 33f5 453c 859f e1bb
00000370: 6dba 433b 8b11 eb3c 3bda 463c 18fd 8abc
00000380: 934b f0bb 8598 11bd e8ce a73b 9c6c 0abb
00000390: 92dd 8cbc 184e 27bd 3f03 8cbc 3f13 9b3c
000003a0: 7bf5 25bd 4364 39ba 1cbd 2a3d 684f 33bc
000003b0: 2f92 bc3c 9f21 ec3d ac54 f53c 1027 f83b
000003c0: 50de b5bd d891 11bd 875a c83c 3a85 81bc
000003d0: 18f6 bd3a 2177 86bb 72c4 adbc 60bd 623c
000003e0: d7c6 d2b8 3deb aeba 4271 863c b96e 62bb
000003f0: a8e8 04bc 410b f93b 76ff 4f3c c75a 45bb
0.010140116 0.013126757 0.0074261595 -0.008800263 -0.004196334 0.019205695 -0.004076612 -0.02000609
0.008360433 -0.06612253 -0.04688041 0.0063859015 -0.024567535 -0.025872411 0.07553298 0.029416284
0.1062795 0.084528685 0.011386754 -0.0076805325 -0.014001491 -0.00998243 0.034495085 -0.096871555
0.0028018048 -0.007721557 -0.12500249 -0.0011188792 0.030787477 -0.0017543435 -0.0003666077 -0.010237063
-0.023755139 -0.0071544177 -0.03797135 -0.00061786216 0.012139133 -0.0044768243 -0.03898506 0.025503336
0.0054162103 -0.047463022 -0.0020876646 -0.019641247 0.009906376 -0.023612972 -0.0042151604 -0.015279147
-0.014004104 -0.0044004503 -0.009825548 -0.015284797 0.001170165 -0.0036487323 0.033756718 -0.0069578765
0.012894251 0.100299574 -0.027972117 0.03611989 0.019760767 -0.012544664 0.006076484 0.011735306
0.016744407 0.012531705 -0.01640866 0.023749085 0.012702715 -0.030371092 0.0012279403 0.0018325438
0.008618106 0.011700783 0.00826957 -0.0139722545 0.009140073 -0.06761267 -0.00017156881 -0.018423144
-0.040138584 -4.9011738e-05 -0.017132869 0.01237253 -0.0031088088 0.006552579 0.029675476 0.0024097634
0.0016535914 0.013858441 -2.149999e-05 -0.0032619096 0.0055176867 -0.0053397836 0.0043010833 0.005027615
0.012871524 -0.0065172007 0.0001198177 0.011954845 0.016231252 0.004879969 -0.016387425 -0.008084776
0.008553327 0.006267195 -0.00053736643 0.06692034 -0.008359916 -0.03518379 -0.0037807215 -0.024943847
0.010077662 -0.032803394 0.004504614 0.009512041 -0.009537454 0.022389866 -0.0038727294 -0.004346322
0.027269838 -0.03398329 -0.04039679 -0.037315987 -0.0687937 -0.062631816 -0.03418348 0.010680691
0.0316378 0.04211755 -0.10212368 -0.012303555 0.09797459 0.068745054 0.030999454 -0.0070859594
0.0019089105 0.0014474081 -0.022192433 0.036280062 0.02116124 -0.01459477 -0.009660052 0.0076333513
-0.0031413406 0.012342497 0.025688335 -0.011683315 0.029484682 0.0381165 -0.011524618 0.006629245
0.0010270834 0.0022634394 0.0009919317 -0.029630344 -0.022930264 0.037266728 -0.036547903 -0.022658553
0.011829931 -0.005216197 -0.060325548 -0.08026895 -0.04355096 -0.028896956 -0.09624254 -0.086344644
0.0045442334 0.01605884 -0.059736233 0.0074479715 -0.012264477 0.0021416005 -0.0029857785 0.0010847235
0.03486532 0.009870674 0.0030205299 0.009074049 -0.0018084735 0.018494682 0.0126382895 0.04284301
0.008217556 0.020392202 0.0063237455 -0.043283723 -0.0026017027 0.018902829 0.020907523 -4.343422e-05
0.003880804 0.044680785 0.04794844 0.006978025 0.015995312 0.041359942 -0.011154094 0.00019590247
0.0033948652 0.008067791 0.018791873 0.0030427729 0.006565171 0.0061306446 -0.005539511 0.06422764
0.06348407 -0.0056009553 0.0011363395 0.0766073 0.057782937 -0.052975252 0.002720878 0.05567791
0.01029929 0.010005437 0.012082386 -0.0068854713 0.0029865757 0.028694889 0.012136991 -0.016966388
-0.007333228 -0.035545845 0.0051211007 -0.0021121865 -0.017195497 -0.04084596 -0.017091392 0.018930076
-0.04051731 -0.000707213 0.041684255 -0.010944225 0.023018925 0.1152985 0.029947601 0.007573016
-0.08880293 -0.035539478 0.02445723 -0.015810598 0.0014492897 -0.0041035567 -0.021211836 0.013839096
-0.00010050617 -0.0013345253 0.016411427 -0.003455086 -0.00811211 0.0076002185 0.012695184 -0.0030113922

head.conv.bias f4 [64]
00000000: 56ae 09bd 6191 893c b63b 38bd e20f 7c3d
00000010: 074d a6bc 9be0 29bd 239a 18be d11c 723d
00000020: 7e2e 8e3d 2f51 01bc 3924 463d 2ee3 cdbb
00000030: 4e0c dc3d b514 1f3d 8ee6 c0bd ba1f adbd
00000040: 0393 e7bd 856f 98bc 5dfe 44bd 173a f03c
00000050: 03ee a0bd df52 0fbd da55 d73c 2a32 dc3d
00000060: fd95 a03d 8d76 0bbc c56c 4ebc b8d7 b23b
00000070: 78b3 883d 7022 333c 4872 1c3e fff5 d2bd
00000080: 364f 19bd aad7 b2bd 6607 56bb 8694 62bd
00000090: e9dc b73c 3013 dbbd abfe a33d 804c 573d
000000a0: e175 b73c 7a2c b3bd 4d1e 87bd 23a2 1cbd
000000b0: 6943 243d 7225 08bd 74f9 a83d 0151 1cbe
000000c0: b7d3 493d c82d 15bb 8818 92bd 1d42 193d
000000d0: ccab 093e 6b6d 12be fc78 193d 8595 45bc
000000e0: aa8e 8cbd c28e c83d 866b 993d 1f09 a4bd
000000f0: 9690 a9bd 9196 1fbd 625d 18bd 12ea c3bd
-0.033613525 0.016792955 -0.04497882 0.061538585 -0.020300401 -0.041473966 -0.14902548 0.059109513
0.069424614 -0.007892891 0.04837439 -0.0062831854 0.107445344 0.038838107 -0.09418975 -0.08453317
-0.11307337 -0.018607864 -0.048094142 0.029324574 -0.07857897 -0.03499114 0.026286054 0.107517555
0.07841108 -0.008512151 -0.012599175 0.0054578446 0.06674856 0.0109335035 0.1527797 -0.10300826
-0.037429057 -0.08732541 -0.0032658218 -0.055317424 0.022444205 -0.10697019 0.080075584 0.05256319
0.022395076 -0.087487176 -0.06597576 -0.038240563 0.04010335 -0.033238836 0.082507044 -0.15265276
0.049274173 -0.0022762883 -0.07133585 0.037416566 0.13444442 -0.14299552 0.037468895 -0.012059574
-0.068631485 0.09792854 0.074912116 -0.08009552 -0.08279531 -0.03896195 -0.03719843 -0.0956613

head.norm.weight f4 [64]
00000000: 0754 7c3f d7c2 723f 0a26 7d3f 68fc 653f
00000010: 7971 733f 442c 843f 12bb 6f3f bc0f 7a3f
00000020: 7a1d 8a3f fed0 803f 10b0 943f 2c19 803f
00000030: b47c 823f 6d6f 903f 3a8f 7a3f 5a17 863f
00000040: 8fe9 7e3f 3f15 933f a6e7 803f a7b9 873f
00000050: 2b83 673f 7882 833f 7ba8 613f b779 743f
00000060: 3d07 743f 7bed 883f a5b3 693f 6753 643f
00000070: 1b04 5c3f 61ca 853f 78b2 763f d214 7b3f
00000080: acdd 733f 0d7e 733f b2c8 813f bbfd 8a3f
00000090: 5013 773f 27f7 873f 2533 6a3f 613c 5e3f
000000a0: 3e97 7e3f b6d1 753f 43af 653f 2ff4 6e3f
000000b0: 1a07 793f 7006 6c3f 9571 833f f7be 723f
000000c0: 1fce 6c3f fda8 753f 332d 833f 8b30 7c3f
000000d0: 0a7e 833f 317e 713f 7488 7c3f 6dca 7f3f
000000e0: 3c59 663f f2f6 753f 5e76 853f a613 823f
000000f0: 9731 7b3f 8be4 6d3f 9066 723f 64fa 783f
0.98565716 0.9482855 0.9888617 0.89838266 0.9509502 1.0326009 0.9364482 0.9768026
1.0790246 1.0063779 1.161623 1.0007682 1.0194306 1.1284004 0.97874796 1.0475876
0.9957513 1.1490859 1.0070693 1.0603532 0.9043452 1.0274191 0.88147706 0.9549822
0.95323545 1.0697473 0.9128974 0.8918976 0.85943764 1.0452386 0.9636607 0.98078644
0.9526012 0.95114213 1.0139372 1.0858682 0.96513844 1.06223 0.9148429 0.8681088
0.9944953 0.9602312 0.89720553 0.93341345 0.9727646 0.9219732 1.0269037 0.9482264
0.92502016 0.9596098 1.0248169 0.9851157 1.0272839 0.9433318 0.9864571 0.9991825
0.8997991 0.96079934 1.0426748 1.0162246 0.98122543 0.92926854 0.9468775 0.97257066

head.norm.bias f4 [64]
00000000: 7be1 90bd e0a6 7c3e 3a64 b93e e6c9 0ebd
00000010: 4538 9c3c f399 94bd b714 663e cc49 8f3c
00000020: 6b42 25be 860c fc3c cd89 523d be83 ac3d
00000030: 31de 863e b4d0 8fbd e349 14be fe0c cabd
00000040: 0d35 433e 0260 563d 328d 6f3b 1de7 8b3e
00000050: 7364 0c3f f97d 70bd b57c e43c aadc 7c3d
00000060: 0264 e1bd ea32 db3e 9206 80bd 2f6a f63d
00000070: 1fec 5cbc 6441 f0bd b148 453d 6628 443e
00000080: 3060 3c3e 31b8 f33d 908e 9e3b 3bea 2d3e
00000090: 1705 803d 6327 a43c d2a9 ae3d fced 843e
000000a0: df56 fc3d 184e 2cbd d62a 8bbd 70eb 493d
000000b0: b602 e93e 7cd0 d0ba 39f4 99bc 4032 e33d
000000c0: d36a 053e 1e13 3f3e 0204 313d 7c54 503d
000000d0: 7650 26bc 6f79 803d 9f3b 9bbd 941b 223d
000000e0: b9c0 963e 804f 0db9 f0c8 95bd b742 06be
000000f0: cb8a 5c3e 1f13 a1bd fbfb 47bd 14f3 883e
-0.07074257 0.24673033 0.3620928 -0.034860514 0.0190698 -0.07255926 0.2246884 0.017491244
-0.16138618 0.03076769 0.05140095 0.08423565 0.26341394 -0.07022229 -0.1448131 -0.09865759
0.19063206 0.052337654 0.0036552665 0.27324763 0.54840773 -0.058713887 0.027891496 0.06173388
-0.11005403 0.42812282 -0.06251253 0.12031972 -0.01348403 -0.11731222 0.048165027 0.19156036
0.18396068 0.11900366 0.004838772 0.16983883 0.06250971 0.020038312 0.085284844 0.25962818
0.12321257 -0.042066664 -0.0679528 0.049296796 0.4550988 -0.0015931274 -0.018793212 0.11093569
0.13029031 0.18659636 0.043216713 0.05086182 -0.010151019 0.062731616 -0.07579731 0.03957708
0.2944391 -0.00013476424 -0.073137164 -0.13111387 0.2153732 -0.07864975 -0.04882429 0.26747954

head.norm.running_mean f4 [64]
00000000: 5317 93be 6ab8 0b3e 1500 fe3d d5e1 67be
00000010: fcf4 ae3d 2622 adbd 9c8d f0bd c521 013c
00000020: da40 253d f0cb 1e3e 2857 abbc 8a68 c73d
00000030: 5e0f c53d f50c b43e 1260 b3be b402 53be
00000040: 119c 3c3e 9ed1 c23e e8ae 97be 9cc6 de3e
00000050: 8ba4 943d 2e75 83be 498a 2dbb 2b4c cd3d
00000060: d6b7 72be 8b90 c03e 473c 1b3d c4f6 edbd
00000070: e990 e5bb 6dfe 36be 20ce 9dbe 6c44 0ebe
00000080: 84f5 47be f4f0 c0be 062f 4b3d 5538 c43d
00000090: 10ed fcbc 9236 1fbe a056 843d 5189 a43c
000000a0: 1eba debd bbce bebd d6cc 51be 47e5 d3bd
000000b0: 4103 c43e 9d8b 26bd fc7a a93e 48d9 94be
000000c0: 0861 053c 1cac 223e 7cf7 2bbe 3e9a 40be
000000d0: 78dc 453e 8279 fdbd 3780 0fbe 6fa2 56be
000000e0: a4df f33c e226 05be f35d bb3e c344 adbe
000000f0: ac0b e5bd 31f2 a6bd 0623 0cbe 8a80 68bd
-0.28728732 0.13644567 0.124023594 -0.22644742 0.08542821 -0.08453779 -0.1174576 0.007881586
0.04034505 0.15507483 -0.020915583 0.09736736 0.09622072 0.35166135 -0.35034233 -0.206065
0.1841891 0.3805055 -0.2962563 0.43510902 0.072579466 -0.25675339 -0.002648013 0.100242935
-0.2370294 0.37610278 0.03789928 -0.116193324 -0.0070058 -0.17870493 -0.30821323 -0.13893288
-0.1952725 -0.37683833 0.049605392 0.09581057 -0.030874759 -0.1554816 0.06461835 0.020085009
-0.10875343 -0.093167745 -0.20488295 -0.103464656 0.38283733 -0.04066049 0.33101642 -0.29072022
0.00814081 0.15885967 -0.16793627 -0.18808839 0.19322383 -0.123766914 -0.14013754 -0.20960401
0.029769726 -0.13003114 0.36595115 -0.33841524 -0.11183867 -0.08151663 -0.13685235 -0.05676321

head.norm.running_var f4 [64]
00000000: ccf3 873c 6a09 883c c824 ef3b 90d8 013c
00000010: 5e80 033c 4798 8c3c 31b8 673c 94d0 d13b
00000020: 0c51 da3c 657d 9d3c 21e9 053d 3233 bf3b
00000030: ba89 643b 5cf5 823d 3454 923c 7d1b dc3c
00000040: fa6f 983c fe57 8a3c 9e1c 693c fefe bf3c
00000050: 664d e83b 7cc3 813c baf6 b23b 7ad9 ef3b
00000060: 5343 a43c 2c3c b63c 37d5 263c 2435 8d3b
00000070: 8951 833b 4f26 9d3c ce13 663c 94eb 073c
00000080: fc09 bf3c 8749 603c 9361 fb3b 5c5a 5d3c
00000090: 0236 443c 6423 773b b962 463b 9b42 ca3b
000000a0: 4dbb 0a3c 6408 fa3b 0726 fc3b 1b55 043c
000000b0: 8dce 183c 7a73 2a3c 80c3 7e3c fb75 bd3b
000000c0: 2225 953b 16fd 363c c38b 313b a425 173c
000000d0: 5dde d43b 8df5 e53b 1043 873c 9949 133c
000000e0: d0d2 153c 5a59 133c 6152 163d 0963 523c
000000f0: 64f0 2e3c 27a8 1d3c 3a38 a83b 3356 863c
0.016595744 0.016606051 0.007298086 0.007925168 0.008026211 0.017162455 0.014143036 0.0064030383
0.026649974 0.019224832 0.032693032 0.0058349604 0.003487213 0.06394455 0.017862417 0.026868576
0.018608082 0.016887661 0.014228014 0.02343702 0.0070893047 0.015840285 0.005461541 0.0073196264
0.020051634 0.022245489 0.01018267 0.0043093134 0.0040075225 0.019183306 0.014042808 0.008295912
0.02332019 0.013689405 0.007671544 0.013510313 0.011975767 0.0037710303 0.0030271246 0.006172491
0.008467508 0.007630395 0.007694963 0.008076931 0.009326589 0.010403508 0.0155495405 0.0057818866
0.0045515457 0.011168739 0.002709136 0.009225283 0.0064962343 0.0070177973 0.01651147 0.008989715
0.0091445 0.008993471 0.036699656 0.012840995 0.010677431 0.00962261 0.005133656 0.016398525

body.block1.conv.weight f4 [64, 64, 3, 3]
00000000: ec04 1cbc f3e4 d6bd f911 a6bd eff6 72bd
00000010: e82e a8bc 12cd 09be 1198 893d 1753 2dbc
00000020: d106 04be 64d2 48bc 9c1d cdbc d4de 54bd
00000030: 8371 4f3c 4e3a 133c 0f68 603c e39f 8a3d
00000040: c177 82bd 62a8 3ebd bd9b 293b b04d 3abb
00000050: d62c 1abd fd6c aabc b9b0 f43c 8aa4 48ba
00000060: 4882 71bd cb2f 063d 27c4 32bd 2bab 92bd
00000070: c07e ba3c db3e 683d fb6e 1e3b 43d4 89bc
00000080: 5a35 843c 3e37 18bd 9f13 a6bc 7ee8 20bd
00000090: a92f 5f3b 0e89 90bc dda2 45bb 30bb 903c
000000a0: 9fa0 073d 7f0e af3c 7cbb 403d 2700 b73a
000000b0: 157b 673b 6608 173d 69d1 1e3d c20a a33d
000000c0: 1412 19bc 30bf 94bc 5f2e 533c 6307 4cbd
000000d0: f1a7 17bd de16 43bd a510 273d 3d85 93bc
000000e0: 0988 3fbd 3d3c 473c fb92 07bb a877 19bc
000000f0: 7244 96bb e73e 623d f6c9 3f3c c290 08bd
00000100: 3f08 283d dc58 3d3d 96b8 a6bd 9030 293c
00000110: a9bc a7bc 7a5a 0dbd 28f9 f13c 3990 773c
00000120: 6117 39bd c847 f53c ae71 1dbd d000 3cbc
00000130: 354a 543d 9180 3a3d a068 a73c 0861 a1bd
00000140: e1fa 8ebd e9eb 313e ab5d 3a3d d450 b73d
00000150: 8137 cb3d 10ea 7a3c 19b5 00bd 958a d13c
00000160: a3a6 0739 b385 483d 0ebb cabc cefe a8bb
00000170: 3156 c6ba ab67 24bb fbe9 103d 0cc7 b33d
00000180: eac9 e3bc eb4c 50bd 1564 8f3c 388b 2fbc
00000190: 388c af3d a0cc a13c 81a2 42bd 0d41 8f3c
000001a0: 9e96 1ebc 43b0 09bd fa6e dabc a2e4 923c
000001b0: 7c4f 99bd 076c d1bc d8e8 0b3c d3bf 3d3d
000001c0: 2c9d 8cbc 7e22 9fbc 87b6 eb3c b50a 5abc
000001d0: 87ba 0a3c e653 313d 28f9 7fbc 587c 6e3a
000001e0: 16bf cd3c 80fa 803d 8fc3 4a3d 4eb3 49bd
000001f0: 66c2 93bd 8a83 07bd 937f 84bc 63fe 613c
00000200: eb84 503d 0f43 cebc e6d1 dbbc b891 5cbd
00000210: 090b 28bc b159 4a3c 3055 90bb 6eba 49bd
00000220: 969c a93b 1caa 403d fc1d 07bd 8e36 06bd
00000230: 5067 55bd 4971 48bd bdc0 0cbc e63c c239
00000240: 4ad2 eabb fd1a 6bbb f352 953c c984 943d
00000250: 3b1f bc3c fff8 6fbd 4ffe 603d 8d91 43bb
00000260: a502 9fbc 434a 8c3c dfc6 cebc 5887 023d
00000270: 0339 783d 7e57 9cbb ca26 973b 180f d63d
00000280: a6c5 17bd 276a 77bc 183f 00bc 946d 26bd
00000290: 0d6a 193d ae58 a03d c4d8 253b 92c9 2cbd
000002a0: f56e 7c3a e3ac cbbc e4a8 1f3d 5707 683d
000002b0: 821b 01bd 2a16 863b f256 2cbd 6183 b53c
000002c0: 1a00 133d 1c7d 493c ae2a e63c fa90 913c
000002d0: 7c30 9bbc b50c 143c 4e61 1e3c 4f6a 15bd
000002e0: 95f0 ab3c 4740 c63c 3026 683d a893 c93b
000002f0: e81b b23b 5308 8e3c 2096 cd3b 1a9a 4abb
00000300: 01dd 4f3d dc28 ee3c 840c 8ebc d123 5f3c
00000310: 39b8 34bd 09cc 103c 6631 f63b 6003 b5bc
00000320: 3cc2 043c ff8d 813c c063 5c3d c3e7 d6bc
00000330: 3f7d 0e3b 74e8 f4bc c5b9 773b d2ce f5bb
00000340: 1492 0d3d 46cc 6dbb a13b 54bd 1766 0c3c
00000350: f46f 9fbc 2725 223d e324 cabc 921e eabc
00000360: 101f 1c3e a42f a13d fae2 3d3d 98db cfbb
00000370: 884b 08bd 3bbc 6fbb 8d7f 7ebd 7655 983c
00000380: e826 53bc 8cb7 3c3d 1bd3 093d 2541 753d
00000390: 8ac9 43bd 85f8 e9bc 7883 8abc c66b 7fbd
000003a0: 7ee6 7a3d 762b 54bd 2a8c 59bc d942 3dba
000003b0: 8d21 d1ba 262c 18bc 7bb6 39bd c866 56bd
000003c0: f9a3 1fbd 153e c73c 89be a93c 525f 2bbd
000003d0: 7e54 2b3d 9ae7 1b3d 0dde 3fbc 8bbb 9fbc
000003e0: 487a dd3c 2058 9d3c 8fdf a5bc 921c e03c
000003f0: 149d e5bc d04a b8bc 6bbb cdbc 00e9 933d
-0.009522658 -0.10492887 -0.08108897 -0.059317525 -0.02053018 -0.13457134 0.067184575 -0.010578892
-0.12893225 -0.012257192 -0.025038533 -0.051970318 0.012661341 0.008986069 0.0136966845 0.06768777
-0.063704975 -0.0465473 0.002588018 -0.0028427653 -0.037640415 -0.020803923 0.029869424 -0.0007653913
-0.058962137 0.032760423 -0.043644097 -0.07161554 0.022765517 0.05670057 0.0024175036 -0.016824847
0.016138721 -0.037162058 -0.020273028 -0.03928422 0.0034055507 -0.017643478 -0.0030156889 0.017667383
0.033112165 0.021369217 0.0470538 0.0013961837 0.0035321165 0.036873244 0.038773928 0.07961036
-0.009342689 -0.018157572 0.012889474 -0.049811732 -0.037025396 -0.04762923 0.040787358 -0.018007869
-0.046760593 0.012160358 -0.0020686972 -0.009366907 -0.004585796 0.05523577 0.011705866 -0.033341177
0.04102349 0.04622732 -0.08140676 0.01032652 -0.020475702 -0.034510113 0.029537752 0.015110069
-0.04518831 0.029941455 -0.03843849 -0.011474803 0.05182858 0.045532767 0.020435631 -0.07879835
-0.06981445 0.17375149 0.045499485 0.089509636 0.09922696 0.015314594 -0.03142271 0.025578776
0.0001293668 0.04895563 -0.024747398 -0.005157328 -0.0015131888 -0.0025086205 0.03537939 0.087781996
-0.027806241 -0.050854605 0.017503778 -0.010714345 0.085716665 0.019750893 -0.047518257 0.017487073
-0.009679465 -0.033615362 -0.026664246 0.017931286 -0.074858636 -0.025564207 0.008539401 0.046325516
-0.01716479 -0.019425627 0.02877356 -0.013308217 0.008467323 0.043292902 -0.015623368 0.0009097508
0.025115531 0.06297779 0.049502905 -0.049243264 -0.07214813 -0.03308443 -0.016174113 0.013793561
0.05090801 -0.02517846 -0.026833486 -0.053849906 -0.010256537 0.012350486 -0.0044046864 -0.04925006
0.005176137 0.04703723 -0.03298758 -0.03276687 -0.05210048 -0.048936162 -0.008590874 0.00037047936
-0.0071661817 -0.003587424 0.01822803 0.07251889 0.02296411 -0.05858707 0.054930028 -0.0029841394
-0.01941044 0.017125254 -0.025241314 0.031867355 0.060601246 -0.004771172 0.0046127783 0.10452098
-0.037053727 -0.015100992 -0.007827543 -0.040631846 0.037454654 0.07829414 0.0025306204 -0.04218442
0.0009629571 -0.024862712 0.038979426 0.056647625 -0.031520374 0.0040919976 -0.042075105 0.022157373
0.03588877 0.012297895 0.028096523 0.017769326 -0.018944018 0.009036233 0.009666754 -0.036478337
0.020988742 0.024200572 0.056677043 0.006151635 0.0054354556 0.017337954 0.006274 -0.0030914606
0.050747875 0.029072218 -0.017339952 0.013619379 -0.044121 0.008837708 0.007513213 -0.022096336
0.00810295 0.01581478 0.053806067 -0.02623356 0.0021742133 -0.029895999 0.0037799936 -0.0075014615
0.03456314 -0.0036285087 -0.05181468 0.008569262 -0.019462563 0.039586212 -0.024675792 -0.02857903
0.15246224 0.07870415 0.04635904 -0.0063433163 -0.033275157 -0.00365807 -0.06213336 0.018595438
-0.012887694 0.04607348 0.03364859 0.05987658 -0.047799625 -0.028560886 -0.016908392 -0.06235864
0.06125497 -0.05179926 -0.013278047 -0.0007219739 -0.0015955433 -0.00928787 -0.045340043 -0.052344114
-0.038974736 0.024321595 0.020720737 -0.04183895 0.041828625 0.03806267 -0.011710656 -0.019498607
0.027035847 0.01920706 -0.020248203 0.027357373 -0.028029002 -0.02249661 -0.025113782 0.072221756

body.block1.conv.bias f4 [64]
00000000: 93fc 80bc b33c 3e3b 4edf 17bd e5bc b43c
00000010: f1cd 1a3d a96f f1bc 5b1f 8ebb 7eba 0a3d
00000020: e6a8 933c a96e 95bd fea4 053d 4bf5 653d
00000030: 493a aa3d 4d14 2d3c f5a6 c9bc 3732 b9bc
00000040: 1dc0 5abd 837d 33bc cce3 13bc 0024 16bd
00000050: 462a bbbd f3ef 1d3d 4ca5 ff3c dcb1 b13c
00000060: 6a88 883d 4559 0d3d c231 4ebb 904b 2fbc
00000070: 3fa3 463d d7e2 11bd 9c99 9e3c 779e 0f3d
00000080: bca8 81bb c78c 2a3d 49fb 96bb 6df1 023c
00000090: 61ae 4bbd ce9c 94bd c860 a8bc 4b0d 2f3d
000000a0: 2b1d 8a3b bbb7 6a3b e04b c2bc fbe9 12bd
000000b0: 5dc6 edbc 3d6b a13d d535 b5ba bd49 68bc
000000c0: 779d 6a3c 3b1c b63c f615 6d3b 1d4c 473d
000000d0: 6bde 09bd 83c5 ee3c 3fdf cabc 9a7e 823d
000000e0: f26b b0bd 947a 45bc 8656 70bc 6bc6 1a3d
000000f0: dc21 743b 285f 383d 18a0 9bba 0609 ed3c
-0.015745437 0.0029027879 -0.037078194 0.022062728 0.037794057 -0.029472189 -0.004337234 0.03386926
0.018024873 -0.072964974 0.032628052 0.056142133 0.08311898 0.010563922 -0.024615744 -0.022606952
-0.05340587 -0.010955217 -0.009026479 -0.036655426 -0.091389224 0.03855891 0.03120675 0.021691255
0.06666644 0.034508962 -0.0031462763 -0.010699168 0.048495527 -0.035616722 0.019360356 0.035063233
-0.0039568823 0.041638162 -0.0046075922 0.007992131 -0.049726848 -0.072564706 -0.020553961 0.042737287
0.004214903 0.0035815078 -0.02371782 -0.035867672 -0.029025251 0.07881782 -0.0013825247 -0.014177737
0.014319769 0.022230258 0.003617642 0.04865657 -0.03365938 0.029146915 -0.024764655 0.063718036
-0.08614339 -0.012053151 -0.014669066 0.037786882 0.0037251627 0.045012623 -0.0011873273 0.028934967

body.block1.norm.weight f4 [64]
00000000: 97d1 853f 9cb3 893f e251 8f3f 8c37 813f
00000010: bb2e 8c3f 42aa 833f cb92 8a3f 52e0 a53f
00000020: 8e4e 8b3f 6ebe 7e3f 1605 853f 6a9c 843f
00000030: 0afd 8f3f 5239 8d3f 313b 8a3f cf0a 7e3f
00000040: d958 a13f ee65 943f 1662 883f d4d6 843f
00000050: 294f 8e3f b5f6 923f 9dee 783f b1e5 863f
00000060: 81b4 8f3f 0ae3 823f 034b 8b3f ef59 873f
00000070: 8732 813f 6a1d 8f3f b764 883f 4e81 8d3f
00000080: 0892 983f 32de 843f 1b16 7b3f cb6e 8c3f
00000090: 69c0 913f f99c 863f 43af 923f b859 823f
000000a0: aefd 8d3f 557e 8e3f a79b 8b3f a85f 863f
000000b0: 3096 813f 03d5 923f 2e93 993f 5609 863f
000000c0: 07d8 873f 28b2 8e3f 20e2 723f a3b5 883f
000000d0: af57 843f 9010 833f 4b2c 853f 6e0b 863f
000000e0: c5cc 813f 6c65 813f 9cbb 8c3f f52c 823f
000000f0: 340a 8a3f f5eb 823f 079f 893f 9739 7e3f
1.0454587 1.0757937 1.1196864 1.0095077 1.0951761 1.0286334 1.0826048 1.2959082
1.0883348 0.9950932 1.0392177 1.0360234 1.1249096 1.1033118 1.0799314 0.9923524
1.2605239 1.1593606 1.0654933 1.037806 1.1117908 1.1481539 0.97239095 1.0538846
1.122696 1.0225537 1.0882267 1.057432 1.0093545 1.1180851 1.0655736 1.1055086
1.1919565 1.0380309 0.98080605 1.0971311 1.1386844 1.0516654 1.1459736 1.018363
1.1093042 1.1132303 1.0906876 1.0497942 1.0123959 1.1471256 1.1998041 1.0471599
1.0612801 1.1148119 0.9487629 1.0680431 1.0339259 1.023943 1.0404142 1.0472238
1.0140616 1.0109076 1.0994754 1.016997 1.0784364 1.0228258 1.0751656 0.99306625

body.block1.norm.bias f4 [64]
00000000: 7bf5 24bf 4ff3 1d3d 1947 013f af9e d93e
00000010: a4e1 afbe a281 833d 94c1 993d 89c8 b2be
00000020: bdbd 24be d64d 223e 6322 0e3f 65fa 5cbe
00000030: f0b2 a9be 7349 923e aaaf 20bf e98e 3ebf
00000040: 689d cc3c d271 863d 1791 c6be 84c4 babc
00000050: 8e62 ba3e 41ad 673e a055 12bf 4061 4abe
00000060: 8db3 56bd baed 2b3f 17b5 29be f48b fe3e
00000070: 15c3 2f3f 84cf 4ebe 2c21 533d 692b 2c3e
00000080: 0497 f2be 0026 293e ee68 1fbd c158 81be
00000090: 87a9 b43e 2613 3bbe 83e1 273d 30a8 d0be
000000a0: 8fc5 353d 5a80 7dbe ff91 56bc 8756 0b3e
000000b0: 0643 ae3e 381f 803d c0b9 0d3c 4128 1a3f
000000c0: 577c 973c a4a4 5a3e 6c45 0b3f 16e0 133e
000000d0: 184f 99bd 3cf9 db3e 9a0f 143e 10d0 00bf
000000e0: 0d2a 0fbe 31cc 203e 44bf d8bd f8d5 cabe
000000f0: 986d 053f ed4f 48be 6189 eebd 0abd dcbb
-0.64437073 0.038562115 0.5049911 0.42503878 -0.34351838 0.0642121 0.07507625 -0.3491862
-0.16088004 0.15850005 0.5552122 -0.21579893 -0.3314433 0.28571662 -0.6276804 -0.74436814
0.0249774 0.06564678 -0.3878257 -0.022798784 0.36403316 0.22624685 -0.57161903 -0.1976366
-0.052417327 0.67159617 -0.16572987 0.4971615 0.68657047 -0.20196348 0.051545307 0.16813435
-0.4738084 0.16518402 -0.038918428 -0.25263026 0.3528559 -0.18269023 0.04098655 -0.40753317
0.04437786 -0.24755993 -0.013096332 0.13607226 0.3403551 0.062559545 0.008650243 0.6021767
0.018491907 0.21351868 0.54402804 0.14440951 -0.07485789 0.42963588 0.14459077 -0.5031748
-0.13980885 0.15702893 -0.10583356 -0.3961637 0.5212035 -0.1956174 -0.11647297 -0.0067364024

body.block1.norm.running_mean f4 [64]
00000000: 70d8 203e 429d da3f d22e 763e 11e3 88bf
00000010: 5a13 b9bd 73d3 753f 02f3 9a3f 3e07 433f
00000020: ebf2 043f 5f35 a7bf c34d 9cbe 1616 f23c
00000030: 2303 fd3c 61dd 683d 59e3 9e3c 70c1 59bf
00000040: ecba eabe c978 a9be cd8a 77be 2135 55bf
00000050: bc70 123d e445 743f 2bf0 8ebf 9f72 1d3e
00000060: 3bba 3e3f 97bb 6cc0 84d7 993f b846 973e
00000070: 7fed b23f bf5f b43e 6812 2b3f c406 85be
00000080: 514d 293e f885 48bf 33e8 32bf 24a0 a0be
00000090: 0c98 e8be 7e3e 513e a869 513e e7f1 073e
000000a0: 9d3a 13be 271f 8bbe 7f56 913f e785 af3f
000000b0: d0d8 033e de44 52bc 13d3 f93e e464 04be
000000c0: bf1f 643d 01b4 11bd 3cec 6ebf ef5c 35bd
000000d0: 3ff6 763e 6937 bebf 4664 11bf ae74 823e
000000e0: 8499 a03f b14d 413e f706 0dc0 4597 9c3e
000000f0: b860 073f 1626 653f ec98 a83e a007 883f
0.15707564 1.7079241 0.24041298 -1.0694295 -0.09036894 0.9602577 1.210541 0.76182926
0.51933163 -1.3063163 -0.30528077 0.029551547 0.030885285 0.05685175 0.019395517 -0.8506079
-0.45845735 -0.33099964 -0.24174042 -0.83284193 0.035752043 0.95419145 -1.1167043 0.15375756
0.74502915 -3.6989496 1.2018895 0.29546142 1.3978728 0.35229298 0.6682496 -0.25981724
0.165334 -0.7832942 -0.6988556 -0.31372178 -0.45428503 0.20433995 0.20450461 0.13275872
-0.14377828 -0.27172205 1.1354522 1.3712739 0.12875676 -0.012833802 0.4879385 -0.12929112
0.055694338 -0.035572056 -0.93329215 -0.04427808 0.24117373 -1.486066 -0.5679363 0.25479645
1.2546849 0.18877293 -2.20355 0.3058416 0.52881956 0.8951124 0.3292917 1.0627327

body.block1.norm.running_var f4 [64]
00000000: 95d5 d33d d235 563e 7fbb 033f ce3f a83e
00000010: aa65 983e d198 833e 274b 293f 556b 513e
00000020: 727f 183e 331b a13e 53c7 dc3d 9b4c 263e
00000030: aa5c 4f3e eaaa f03d abe3 a83e 5941 1b3e
00000040: f232 2f3e 0a96 f83d 790e 483e af01 f73d
00000050: 6d8d 883e 43d9 253e 9efd 583e 3f11 343e
00000060: 741b 853e 1eee 633e a025 703e f85e 173f
00000070: f311 e93f 8bb9 713e 8b1e 1c3f cbae 313f
00000080: f63c 463e 19d4 373e 233a b53e ff9e 9d3e
00000090: 5d67 1e3f a703 323e 808f 5b3e 99fa ce3e
000000a0: d6bd 813e 9c0b 8a3e 26a3 fd3e 86b9 063e
000000b0: 1cff c13f e339 403e 3ec4 853e 990e 843e
000000c0: 86f2 463e d2d1 023e 0409 a23e 00c1 553e
000000d0: 6e49 073f fb72 9f3f e108 593e 89f4 d33d
000000e0: 7431 023e 001f d33e f4db ba3e 92ab 263f
000000f0: eaa7 3f3f cf12 563e 4d9e 2e3f 403a a63e
0.10343472 0.20918968 0.5145797 0.3286118 0.29765064 0.25702527 0.661303 0.204511
0.14892367 0.31466064 0.107802056 0.1624016 0.20250192 0.11751349 0.32986197 0.15161647
0.17109278 0.12137993 0.19536771 0.12060868 0.266704 0.1619616 0.21190497 0.17584704
0.25997508 0.22258803 0.23451853 0.59129286 1.8208603 0.23605935 0.60984105 0.6940734
0.19359192 0.17952003 0.35395917 0.30785367 0.6187647 0.17384206 0.2144146 0.40425566
0.25340146 0.26961982 0.49538535 0.13156709 1.5155978 0.18772082 0.26126283 0.25792387
0.19428453 0.12775353 0.31647503 0.20874405 0.5284642 1.2456964 0.21194793 0.10349376
0.12714177 0.4123459 0.36495936 0.65105546 0.7486559 0.20905612 0.682103 0.32466316

tail.weight f4 [1, 64, 3, 3]
00000000: 1023 4c3e f5d2 3f3e 79c7 5b3e 1861 7f3d
00000010: 83e3 d33c 2615 15bd b299 8abd 2696 f1bd
00000020: 570e 12be e19a ba3c f21b 183b d704 27ba
00000030: d55b 1d3d 3413 193d 031c 543d 30d8 12be
00000040: 46b5 f6bd f087 4cbd b079 f8bd a4ed 07be
00000050: d80e eabd 7587 96ba d77e fbbc 6718 9cba
00000060: 0920 bc3c a37d 5e3d e2d4 593d 87c5 3fbd
00000070: 5b29 38bd 8759 39bd a24b 32bd 7576 2abb
00000080: 5bd0 8dbd 5c7b 593c a9d0 883d 5e5a 383d
00000090: de2d 20be 85d7 d7bd e7e0 d7bd 23c0 49bd
000000a0: 38af 213c 5976 c23d 27c5 c63d 2bcf 463d
000000b0: b5e6 1c3e 3b50 7cbd 6e06 0abd 1e62 82bd
000000c0: b8ea 61bd c256 2c3c dee8 393d 3b6d bb3d
000000d0: ece1 d33d d53a 363e 2d26 96bd 022a dfbd
000000e0: eeea a0bd 299d c3bd e9a2 bdbd 39d3 ccbd
000000f0: 62df 813d 13a5 363b 75eb c93c c11b bb3d
00000100: 509a 5c3d e66b ec3c 9626 36be 8cdb 68be
00000110: a9b9 77be 71f4 2a3e 7f32 063e 7a93 2b3d
00000120: b8cb 953d 24ef 133d 38c5 e33c 9148 603d
00000130: 2107 71bd d8c7 ccbc 24cc 163e 00d1 373d
00000140: dc07 333d 8911 92bc 12f2 e0bc f771 0abd
00000150: 49e2 79bd f834 2fbd 0a17 d0bc 34c2 77bc
00000160: 2a0b 07bd 85c0 03bd 55a9 d53d 326c ba3d
00000170: aa95 be3d c41a 013d e63c f23c dc18 aebb
00000180: 08e1 b9bc bb99 99bd 8265 14be d040 b93c
00000190: 9fa6 c63d 73b2 ad3d 1632 383d d6c0 283d
000001a0: 60cc c33d 559b d1bc b79f 79bc 3868 973c
000001b0: 0a6d 3c3c ce6f 80bb 73b4 1fbb 1361 2e3d
000001c0: 33a8 19bd e9f4 d8bc c89b 013e 9343 ae3d
000001d0: ff8b 533e 7725 1b3e 6051 f13d ddf4 e33d
000001e0: 183e 30bc 7416 f9bc 2ca3 31bc 275c 87bd
000001f0: 7471 97bd e846 70bd 75c7 a83e 3e6a 833e
00000200: b7a6 8a3e 3e63 f13d 7044 c23d 3d63 7c3d
00000210: db05 443d cb76 443c cd40 54bd c73c a6bd
00000220: 3d9c a0bd a1d4 a3bd 513a 03bd 050e 72bc
00000230: 2c5b b7bd 90ff c13d 51ed d63d 05bc 973d
00000240: dca1 f9bd 4bd1 0ebe 9d75 ebbd a8ac 973b
00000250: 7fb4 ddbc acf7 67bd 085f 803e 6431 343e
00000260: 1731 733e 2a4f be3d cad1 003e af59 083e
00000270: b8c7 d93c 611a 49bc 7c75 f4bc 139f 8cbd
00000280: c78b 95bd 8d5c 85bd 5b21 a5bd b5a2 c4bd
00000290: a1dd 0fbe cab9 b73d bca7 d43c a8d4 21bb
000002a0: 7f0c 123e b407 603d 19ca 233d 8343 e8bd
000002b0: a5fb 77bd d1af 99bd b0e8 e03c 224a 9a3d
000002c0: 62c3 123d b932 c03b 3840 c63c d4e5 023e
000002d0: 223b 663d b548 363d d9b5 1e3e 3e7a 95bb
000002e0: 6520 c03c 6423 e63d a2b2 67bd ea1d c5bc
000002f0: 2ab7 993c a34b adbb 5449 fb3c 3029 093a
00000300: 36c7 cf3d 72d1 ec3d 7141 f73d 4468 17be
00000310: 9448 29be 1b8a a6bd 6dac babd 54d5 c6bd
00000320: f032 acbd a970 e0bd a2c4 48bd d97a 963b
00000330: aa95 a73d 902f c13d 96ec c23d a4c7 913d
00000340: 419c b03c 950f ae3d 9131 5e3c 8700 7e3b
00000350: 9c5d 82bd 34ea db3d 2b3b 723c 7e3f 133e
00000360: 54db 183e e13a 453e 17e1 fa3d f4ca 33bd
00000370: f063 15bd 8790 2fbd bb79 4c3c abc2 aabc
00000380: bf65 95bc c04a cc3c 56cf 8e3c b1b2 c5bc
00000390: 7988 b1bd bbd0 a6bd 8f4b a4bd 556c 543d
000003a0: 6b8e a23d fb2f 0b3e 577d 67bd 6e2c c1bd
000003b0: 9bcc 92bd 4140 473d 532a 1cbd b8e4 0cbd
000003c0: 8e4a 013e 8f62 9e3d 151d a53d 96e5 a93d
000003d0: 33b2 b93d 0be9 cb3d 8360 f23d 6cdd 133d
000003e0: fe14 9d3d 8d99 d7bc 6cd6 46bd 6d4f 85bd
000003f0: 6ea1 a9bd f4bf 68bd d0b8 c7bd 4af5 44bd
0.1993525 0.18732817 0.21462812 0.062348455 0.025865322 -0.03639712 -0.06767596 -0.11796217
-0.14263283 0.02277893 0.0023210016 -0.00063712656 0.038417656 0.03737183 0.051784527 -0.14340281
-0.12046294 -0.049934328 -0.12132585 -0.13274246 -0.114286125 -0.0011484461 -0.03070013 -0.0011909128
0.022964494 0.054319035 0.053181536 -0.046819236 -0.044961315 -0.045251396 -0.04352916 -0.0026010547
-0.06924506 0.01327404 0.06680424 0.045008056 -0.15642497 -0.10539154 -0.105409436 -0.0492555
0.009868436 0.09495229 0.097055726 0.048537415 0.15322383 -0.06159995 -0.033697538 -0.063663706
-0.055155486 0.010518732 0.045388095 0.091516934 0.103458256 0.1779588 -0.073315 -0.10896684
-0.07857309 -0.0955146 -0.09259588 -0.10001225 0.06341435 0.0027869388 0.024648407 0.09136153
0.0538581 0.028860044 -0.17788157 -0.2274 -0.24191917 0.1669481 0.131052 0.04188869
0.07314247 0.036116734 0.027804002 0.054756705 -0.05884469 -0.024997637 0.14726311 0.044877052
0.043708667 -0.017830627 -0.027459178 -0.03380009 -0.061006818 -0.042775124 -0.02540161 -0.015121985
-0.03296963 -0.032166023 0.10432688 0.09102668 0.0930589 0.031519666 0.029570054 -0.005313022
-0.022690311 -0.07500025 -0.14491847 0.022613913 0.09699749 0.08481302 0.04496964 0.041199528
0.09560466 -0.025586763 -0.015235833 0.018482313 0.011500606 -0.003919578 -0.002436903 0.042573046
-0.037513923 -0.02648397 0.12657082 0.085089825 0.20658873 0.1515101 0.11783099 0.11130688
-0.010756992 -0.030406214 -0.010842126 -0.066093735 -0.07394686 -0.05866137 0.32964674 0.25666994
0.27080318 0.11786507 0.0948571 0.06161808 0.047857147 0.011991213 -0.05181961 -0.08117061
-0.078423 -0.0799954 -0.032038037 -0.01477385 -0.089529365 0.09472573 0.10494483 0.07408909
-0.12189075 -0.13947026 -0.11497042 0.0046287365 -0.027063606 -0.056632683 0.25072503 0.17596966
0.23749195 0.09292443 0.12580028 0.13315462 0.026584491 -0.012274356 -0.029841177 -0.068662785
-0.07302051 -0.06511793 -0.08063003 -0.096013464 -0.14049388 0.08970983 0.025958888 -0.0024693403
0.1426258 0.054694846 0.039987657 -0.11341002 -0.06054272 -0.075042374 0.027454704 0.07533671
0.035830863 0.0058654216 0.024200544 0.12782985 0.056208737 0.044502933 0.15499057 -0.0045616915
0.023452947 0.11237219 -0.056566842 -0.024062116 0.018764097 -0.0052885576 0.030674614 0.00052322727
0.10145418 0.11563386 0.12073029 -0.14785868 -0.16531593 -0.0813181 -0.09114919 -0.09708658
-0.08408153 -0.10958988 -0.04901565 0.0045922813 0.08182843 0.094329 0.095177814 0.071181566
0.021558883 0.08499066 0.013561622 0.0038757639 -0.06365511 0.1073803 0.014784615 0.14379689
0.14927417 0.19260742 0.12249964 -0.043894723 -0.03647226 -0.04286244 0.012480195 -0.020844778
-0.018236993 0.024937987 0.01743285 -0.024133058 -0.08668608 -0.08145281 -0.08022224 0.051861126
0.0793732 0.13592522 -0.056516018 -0.094323024 -0.07167932 0.04864526 -0.0381263 -0.03439781
0.12626097 0.07733642 0.080621876 0.08295743 0.09067192 0.09956559 0.118348144 0.036099836
0.076700196 -0.026318336 -0.048544332 -0.0650929 -0.082827434 -0.056823686 -0.09752047 -0.04808549
