3layer_5000its/files/1/G.pth (torch, 210037 bytes, 14 tensors)

head.conv.weight f4 [64, 12, 3, 3]
0.032616902 -0.016703632 -0.07876825 0.06114417 0.07278801 -0.14642358 -0.06590628 -0.13061872
-0.1840933 0.074882105 0.008048822 -0.07491518 0.03654688 0.031169796 -0.0072394446 -0.060578763
-0.00035269116 0.022996396 -0.07390255 0.016420456 0.019677369 -0.0089245 -0.011368286 -0.015743362
-0.015161042 0.0066888067 0.044584237 0.043876536 0.035033647 -0.06904412 -0.011434961 0.06150973
0.02844405 0.027106985 0.005143858 2.008574e-05 -0.13281347 -0.10423616 -0.052792672 -0.08159038
0.004698629 -0.09470399 0.056337785 0.17403947 -0.08669695 0.008147085 -0.03306923 0.035203096
-0.06161801 -0.054934308 0.114177085 0.017139444 -0.014922054 -0.10720252 0.042847257 -0.0066955513
0.07212456 -0.031035494 -0.03820411 0.01025773 0.09136853 0.026544956 -0.0010414555 0.03590066
0.06473954 -0.044255044 0.0034602925 0.029555278 -0.083511405 -0.058883365 -0.07135808 -0.1028606
0.0061644716 -0.016150907 0.013141306 0.008797927 0.0070820847 0.043606676 -0.028341787 -0.024944244
-0.0590364 0.002425564 0.010176184 -0.018542614 0.07653552 0.08436323 0.059875123 0.049870722
-0.05270469 0.019669442 0.06823445 0.032036617 0.008424274 -0.013405484 0.00066668115 0.059230525
-0.03878548 -0.022081016 0.035968572 0.029738653 0.015636979 -0.08324663 0.052908514 0.040119752
-0.029052962 -0.008507917 -0.001606475 0.0060117533 -0.06622645 0.03213845 0.027087593 -0.11603184
0.045436297 -0.001090036 -0.05134913 0.045360744 -0.013538243 -0.057352316 0.06287762 0.10646564
-0.054431003 -0.0024907752 0.054782663 0.004063627 0.0059528975 0.005971475 0.027509455 -0.015599577
-0.053584926 0.043162312 0.022258189 -0.02018628 -0.022902166 0.019983722 0.007909652 -0.02890904
0.052513987 0.07348174 0.04081629 -0.032944255 -0.00555384 -0.023224756 -0.0125563685 -0.0027326436
-0.024477646 0.073688544 0.036970712 -0.043824732 0.06462861 0.020874375 -0.0014382537 0.017221767
0.014749137 0.033030953 0.0012934072 -0.0055170846 0.0056912834 0.03002436 -0.03128868 -0.06307867
-0.0024316846 0.05187527 -0.05643891 -0.025231443 0.031557776 0.06043075 -0.009116237 0.015255366
0.03255259 -0.03320503 -0.009943813 0.012411489 0.010492821 0.05384416 -0.062802784 0.035882704
0.0032131723 -0.00017875833 0.035193264 0.051477905 -0.0015683576 0.021022502 -0.034802966 -0.06895957
-0.034658376 -0.013939611 -0.050551154 -0.019544736 -0.025351683 0.12901063 0.09113776 0.08356538
0.049630824 0.06779195 -0.00012631156 0.019787118 -0.006731608 -0.094169155 -0.010937319 -0.054492317
0.03826227 0.07403973 0.06550204 -0.023777492 0.10272529 -0.02698181 -0.017943062 -0.0028270476
0.07277847 -0.019108886 0.014513909 0.019535745 -0.027371021 -0.01830657 -0.027378293 -0.015240837
0.010391657 0.016308324 0.06031456 -0.0351364 0.03543891 -0.0030691724 -0.026594358 0.027046185
-0.082225926 0.08997899 0.029559772 0.060263872 0.06472383 -0.041151445 0.021834554 0.02284091
-0.06548553 0.021965176 0.037243225 0.043590996 -0.08083647 0.0019856768 0.025377806 0.023345247
0.043383755 -0.012974519 0.00012805863 -0.052718025 -0.01446059 -0.019528594 0.011816769 0.026076725
0.04927617 0.038277492 0.035681706 0.019582395 -0.039059903 -0.06257163 0.028452879 -0.020459574
00000000: 4d99 053d 0ed6 88bc 4051 a1bd 4f72 7a3d
00000010: e111 953d 10f0 15be dff9 86bd eac0 05be
00000020: f482 3cbe ca5b 993d 35df 033c 216d 99bd
00000030: 2eb2 153d cd57 ff3c dd38 edbb 7021 78bd
00000040: 68e9 b8b9 f062 bc3c 385a 97bd 3184 863c
00000050: 6f32 a13c 1138 12bc 0c42 3abc 39f8 80bc
00000060: 0566 78bc c72d db3b f69d 363d e2b7 333d
00000070: 717f 0f3d 0167 8dbd b459 3bbc a0f1 7b3d
00000080: 7f03 e93c 780f de3c cf8d a83b cc7d a837
00000090: 4100 08be c579 d5bd 213d 58bd db18 a7bd
000000a0: f5f6 993b 2af4 c1bd 73c2 663d 6737 323e
000000b0: 2c8e b1bd 5a7b 053c 9a73 07bd 1f31 103d
000000c0: 2b63 7cbd cc02 61bd add5 e93d 0568 8c3c
000000d0: a17b 74bc ff8c dbbd 9b80 2f3d 5b66 dbbb
000000e0: 0bb6 933d 263e febc ea7b 1cbd 0a10 283c
000000f0: 6d1f bb3d cf74 d93c 7381 88ba 920c 133d
00000100: 2a96 843d c744 35bd 13c6 623b e91d f23c
00000110: 0708 abbd af2f 71bd 2f24 92bd 94a8 d2bd
00000120: 56ff c93b e84e 84bc a24e 573c 2e25 103c
00000130: d510 e83b ea9c 323d 092d e8bc df57 ccbc
00000140: 27d0 71bd 36f6 1e3b 02ba 263c aee6 97bc
00000150: a8be 9c3d a1c6 ac3d 9e3f 753d 3e45 4c3d
00000160: dfe0 57bd cf21 a13c 81be 8b3d d438 033d
00000170: f705 0a3c ada2 5bbc 37c4 2e3a b59b 723d
00000180: 86dd 1ebd 3fe3 b4bc c853 133d 7a9e f33c
00000190: 1f19 803c 367d aabd 99b6 583d 9c54 243d
000001a0: 7a00 eebc ca64 0bbc 5b90 d2ba 3efe c43b
000001b0: bca1 87bd 9ba3 033d cde6 dd3c 1aa2 edbd
000001c0: 691b 3a3d 8adf 8eba 7753 52bd 30cc 393d
000001d0: 82cf 5dbc 43ea 6abd fbc5 803d a80a da3d
000001e0: 0bf3 5ebd 463c 23bb c963 603d 2d28 853b
000001f0: 8610 c33b 5dac c33b 825b e13c 5e95 7fbc
00000200: de7b 5bbd f7ca 303d ce56 b63c b35d a5bc
00000210: 539d bbbc e7b4 a33c 7c97 013c a7d2 ecbc
00000220: e818 573d 987d 963d fb2e 273d 8ef0 06bd
00000230: fdfc b5bb d841 bebc 3ab9 4dbc 2716 33bb
00000240: 5885 c8bc 05ea 963d 9a6e 173d 9081 33bd
00000250: 015c 843d bd00 ab3c c983 bcba aa14 8d3c
00000260: 5da6 713c 774b 073d 8b87 a93a a9c8 b4bb
00000270: f27d ba3b a6f5 f53c 8f28 00bd 642f 81bd
00000280: e65c 1fbb 2a7b 543d 7d2c 67bd 2cb2 cebc
00000290: ba42 013d 3c86 773d 455c 15bc a5f1 793c
000002a0: dd55 053d ff01 08bd 60eb 22bc 8f59 4b3c
000002b0: 15ea 2b3c b28b 5c3d bf9e 80bd bef9 123d
000002c0: 1694 523b 1371 3bb9 d026 103d 7fda 523d
000002d0: 5991 cdba 6237 ac3c 8e8d 0ebd ad3a 8dbd
000002e0: f1f5 0dbd f762 64bc ba0e 4fbd 481c a0bc
000002f0: 55ae cfbc 5d1b 043e 6fa6 ba3d 5324 ab3d
00000300: b149 4b3d 82d6 8a3d 8072 04b9 9818 a23c
00000310: d294 dcbb c2db c0bd 7132 33bc 5633 5fbd
00000320: e6b8 1c3d 24a2 973d ef25 863d 04c9 c2bc
00000330: a361 d23d f508 ddbc 54fd 92bc fd45 39bb
00000340: e10c 953d 3d8a 9cbc bfcb 6d3c 6d09 a03c
00000350: 3139 e0bc a9f7 95bc 7148 e0bc b4b4 79bc
00000360: c541 2a3c 0999 853c 660c 773d 30eb 0fbd
00000370: 6428 113d 2b24 49bb 69dc d9bc f68f dd3c
00000380: 1166 a8bd e846 b83d 5627 f23c 40d7 763d
00000390: ed8d 843d 6b8e 28bd 61de b23c dc1c bb3c
000003a0: 471d 86bd 50f0 b33c 5a8c 183d 798c 323d
000003b0: 978d a5bd 2122 023b 1ee5 cf3c 883e bf3c
000003c0: 2ab3 313d 1493 54bc 7a47 0639 dbee 57bd
000003d0: 1cec 6cbc 6efa 9fbc 1f9b 413c db9e d53c
000003e0: cfd5 493d dcc8 1c3d fb26 123d 426b a03c
000003f0: 47fd 1fbd 8e25 80bd 0316 e93c d69a a7bc

head.conv.bias f4 [64]
0.0919707 -0.05462982 -0.098460965 -0.0191978 0.06132929 0.02938696 -0.02209062 0.09676367
0.09330623 0.013232006 0.055224586 0.103225715 0.03737683 0.01279541 -0.055693015 -0.10394943
-0.10143476 -0.034190416 -0.036053415 -0.029709747 0.047959294 -0.026657961 -0.027979255 0.03761408
0.006664177 0.120393656 0.09448924 -0.0149798095 0.12356311 -0.06123143 0.075691745 -0.10247759
0.0014234547 -0.057640813 0.08196046 -0.08584865 0.06253083 0.040469386 -0.04029278 -0.03824872
0.10210616 -0.0019607935 0.07018823 0.029434698 0.0072449287 0.07886773 0.059776384 0.06858102
0.080064036 -0.06995311 -0.01885198 -0.041624267 0.010572697 0.1263892 -0.015936764 0.05164791
-0.06723821 0.007152073 0.022389933 0.0008110158 0.03103197 0.0693185 0.040309004 -0.0033622547
00000000: 225b bc3d 85c3 5fbd e7a5 c9bd b444 9dbc
00000010: 6c34 7b3d ecbc f03c 63f7 b4bc 082c c63d
00000020: 5617 bf3d 0ecb 583c 2d33 623d 0168 d33d
00000030: 7218 193d d7a3 513c 5c1e 64bd 70e3 d4bd
00000040: 07bd cfbd 400b 0cbd bfac 13bd db61 f3bc
00000050: f770 443d cc61 dabc c034 e5bc 3911 1a3d
00000060: 2b5f da3b f390 f63d 9383 c13d e06d 75bc
00000070: a80e fd3d cfcd 7abd 4604 9b3d c5df d1bd
00000080: 3793 ba3a c618 6cbd e3da a73d 6bd1 afbd
00000090: 2a10 803d 3ac3 253d 0b0a 25bd b1aa 1cbd
000000a0: 091d d13d a880 00bb d9be 8f3d 0921 f13c
000000b0: de66 ed3b 6885 a13d 15d8 743d 3574 8c3d
000000c0: 9df8 a33d 9343 8fbd 786f 9abc 357e 2abd
000000d0: 1b39 2d3c 2c6c 013e d18d 82bc c28c 533d
000000e0: 30b4 89bd f05b ea3b 186b b73c 599a 543a
000000f0: c236 fe3c dcf6 8d3d 0e1b 253d 4659 5cbb

head.norm.weight f4 [64]
0.97533184 0.93805665 0.825391 0.9960092 0.96987545 0.9319035 0.8523193 0.94815546
0.93317723 0.8877789 0.9638026 1.0261406 0.9184217 0.9904174 0.84390485 0.9592113
1.0631044 1.0123428 0.9490339 0.9910566 0.9121782 0.9802902 0.90402293 0.8640652
0.8501255 0.9549423 0.9354137 0.8917629 0.86889946 1.004059 0.905502 0.8769147
1.185894 1.0264449 0.9729107 0.9031631 1.2275407 0.98071307 1.0658482 0.87652934
0.915525 1.0546998 0.88389903 0.95756525 0.9806953 0.8973575 0.978437 0.837485
0.884451 0.9524663 0.8371891 0.92077756 1.037578 0.9216112 0.9751608 0.99766433
0.9223026 1.0046448 1.0939927 0.9168212 0.89937264 1.0182582 1.0284786 0.8695931
00000000: 59af 793f 7b24 703f d34c 533f 75fa 7e3f
00000010: c249 783f 3a91 6e3f 9931 5a3f 51ba 723f
00000020: b4e4 6e3f 7a45 633f c4bb 763f 9358 833f
00000030: af1d 6b3f ff8b 7d3f 260a 583f df8e 753f
00000040: ce13 883f 7394 813f e3f3 723f e3b5 7d3f
00000050: 8384 693f 4cf4 7a3f 0c6e 673f 6033 5d3f
00000060: d3a1 593f 1977 743f 4677 6f3f 934a 643f
00000070: 3270 5e3f 0185 803f fbce 673f 7b7d 603f
00000080: 60cb 973f 8c62 833f ad10 793f b235 673f
00000090: 0e20 9d3f 0310 7b3f b76d 883f 3a64 603f
000000a0: d95f 6a3f 6700 873f 3547 623f ff22 753f
000000b0: d90e 7b3f 39b9 653f d97a 7a3f 6b65 563f
000000c0: 616b 623f d5d4 733f 0652 563f 14b8 6b3f
000000d0: 5bcf 843f b6ee 6b3f 23a4 793f ee66 7f3f
000000e0: 061c 6c3f 3398 803f f407 8c3f cbb4 6a3f
000000f0: 493d 663f 4956 823f 30a5 833f a79d 5e3f

head.norm.bias f4 [64]
-0.43392795 -0.35497075 -0.27854365 -0.4392605 -0.19837244 -0.60753983 -0.15509297 -0.2885563
-0.502023 -0.18322587 -0.39961603 -0.38371497 -0.10861433 -0.10752609 -0.20798963 -0.5825324
-0.42541227 -0.08579423 -0.17199318 -0.40387055 -0.40299153 -0.38225904 -0.3513231 -0.075409755
-0.22069769 -0.12300576 -0.50629205 -0.25718647 -0.24273033 -0.025317285 -0.48051286 -0.24876162
-0.6822825 -0.0058547193 -0.410144 -0.38641903 -0.659661 -0.38366595 -0.36980584 -0.38063037
-0.2853182 -0.24462412 0.009441346 -0.10301403 -0.31389067 -0.3485994 -0.14996631 -0.2794402
-0.49310333 -0.4482043 -0.24639359 -0.3054938 -0.39126247 -0.35877332 -0.47175884 -0.15365298
-0.29212025 -0.38989007 -0.349768 -0.25815293 -0.36355534 -0.018660977 -0.034067914 -0.241721
00000000: ce2b debe babe b5be 469d 8ebe c1e6 e0be
00000010: 2522 4bbe bb87 1bbf b1d0 1ebe a7bd 93be
00000020: 9484 00bf 909f 3bbe 799a ccbe 4a76 c4be
00000030: 3171 debd a436 dcbd 3cfb 54be d820 15bf
00000040: a3cf d9be e3b4 afbd fb1e 30be 1fc8 cebe
00000050: e854 cebe 75b7 c3be 9fe0 b3be 6e70 9abd
00000060: 93fe 61be 72ea fbbd 5b9c 01bf f2ad 83be
00000070: 4d8e 78be 3266 cfbc c805 f6be 5ebb 7ebe
00000080: 11aa 2ebf f2d8 bfbb 65fe d1be b7d8 c5be
00000090: 8bdf 28bf dd6f c4be 3157 bdbe fce1 c2be
000000a0: 3a15 92be bf7e 7abe e0af 1a3c 05f9 d2bd
000000b0: 47b6 a0be 9f7b b2be c590 19be c912 8fbe
000000c0: 0a78 fcbe 097b e5be 9a4e 7cbe af69 9cbe
000000d0: 8e53 c8be 23b1 b7be 608a f1be 3557 1dbe
000000e0: c990 95be ac9f c7be cb14 b3be 9f2c 84be
000000f0: ed23 babe e8de 98bc cc8a 0bbd b685 77be

head.norm.running_mean f4 [64]
0.0670054 -0.06291307 -0.040395863 -0.09784297 0.16085562 0.0013737534 0.05921342 0.08082645
0.075464346 -0.040826514 0.055328753 0.076962106 0.042832807 0.027061269 -0.015421793 -0.16298062
-0.12676805 -0.2593454 -0.083005056 -0.030828062 0.00542952 -0.060094956 -0.062160924 0.037835702
0.096318275 0.008545566 0.05605455 0.09144109 0.15652372 0.014486633 0.034223665 -0.14940998
-0.030213488 0.09645102 0.07345385 -0.14008616 0.0077330465 0.00029195807 -0.048740175 -0.052856926
0.14829858 -0.023316871 0.058843154 -0.13039261 -0.050496127 -0.06864276 0.1437334 0.17270903
0.036342144 -0.10578142 -0.004860248 -0.118351534 -0.017833006 0.104062565 -0.047958843 0.14405367
0.030733645 -0.035697132 0.0139486985 -0.01638476 0.0039757346 0.114009336 0.03898598 -0.03614055
00000000: 213a 893d 91d8 80bd 2276 25bd e561 c8bd
00000010: 56b7 243e 840f b43a c589 723d 5688 a53d
00000020: 0d8d 9a3d b439 27bd 67a0 623d 4f9e 9d3d
00000030: 7471 2f3d 98af dd3c b0ab 7cbc 64e4 26be
00000040: 7ccf 01be ecc8 84be 8efe a9bd 228b fcbc
00000050: 1dea b13b 2126 76bd 749c 7ebd 9cf9 1a3d
00000060: 8442 c53d b402 0c3c 7599 653d 7745 bb3d
00000070: c147 203e 5859 6d3c 1d2e 0c3d eefe 18be
00000080: 4782 f7bc 1d88 c53d f96e 963d bf72 0fbe
00000090: 7f65 fd3b f311 9939 c7a3 47bd 8180 58bd
000000a0: 95db 173e 0603 bfbc 8505 713d a485 05be
000000b0: 07d5 4ebd 9394 8cbd d92e 133e a3da 303e
000000c0: 80db 143d eea3 d8bd b742 9fbb 4a62 f2bd
000000d0: 8616 92bc c11e d53d 7e70 44bd ce82 133e
000000e0: 20c5 fb3c 2837 12bd 1589 643c 5539 86bc
000000f0: e146 823b ba7d e93d c3af 1f3d 1d08 14bd

head.norm.running_var f4 [64]
0.002723696 0.0028477896 0.0020374453 0.0021960652 0.0041957675 0.0017987541 0.0022240395 0.0022595269
0.0021013794 0.0013827529 0.001986428 0.0024928837 0.003485616 0.0067783343 0.00292962 0.0024430854
0.0008665121 0.022208503 0.0037088108 0.0021419819 0.0022420413 0.0021218248 0.0020183525 0.0025878306
0.0020487222 0.0064846384 0.002246449 0.002894037 0.004403121 0.006066584 0.0014571747 0.0055577587
0.0025036014 0.010795036 0.0027289456 0.0022345784 0.0014022128 0.0021198185 0.0023712753 0.0020932092
0.003040394 0.0016228263 0.008251684 0.014476942 0.0027901942 0.006615205 0.004194307 0.0034187844
0.0022735896 0.0018566118 0.0024804967 0.0027580522 0.0023759406 0.0035765779 0.0033750779 0.00602453
0.0034791117 0.0049491543 0.0018892376 0.012974989 0.0027655214 0.004577795 0.0040830644 0.0011610708
00000000: 0980 323b fba1 3a3b a986 053b dceb 0f3b
00000010: a67c 893b 2cc4 eb3a 31c1 113b 9214 143b
00000020: 4cb7 093b 7d3d b53a bb2e 023b a65f 233b
00000030: ef6e 643b ca1c de3b defe 3f3b 2c1c 203b
00000040: a526 633a 9bee b53c 850f 733b 7e60 0c3b
00000050: 36ef 123b 500e 0b3b 5646 043b 9898 293b
00000060: db43 063b 177d d43b 2939 133b e2a9 3d3b
00000070: 0e48 903b 32ca c63b abfe be3a dc1d b63b
00000080: 7613 243b aadd 303c 1cd8 323b 0172 123b
00000090: 74ca b73a a7ec 0a3b 6667 1b3b 392e 093b
000000a0: 5941 473b 04b5 d43a 1232 073c b230 6d3c
000000b0: b1db 363b 5dc4 d83b 6670 893b af0d 603b
000000c0: 8100 153b 8e59 f33a d48f 223b 70c0 343b
000000d0: abb5 1b3b 0565 6a3b 6930 5d3b 6c69 c53b
000000e0: cf01 643b 842c a23b 4ba0 f73a 0c95 543c
000000f0: c03d 353b 5401 963b 3acb 853b 122f 983a

body.block1.conv.weight f4 [64, 64, 3, 3]
-0.04352626 0.050019413 0.072852395 0.04601566 -0.011473597 -0.030093813 -0.06936146 -0.011433015
-0.02536131 -0.006050635 -0.006010588 0.039004356 0.0008211598 0.027481377 0.034639016 -0.045059767
-0.038433306 -0.035884347 0.04954288 0.015508898 0.00962477 0.052537438 -0.0048147026 0.023117587
-0.015447224 -0.058402855 -0.010114676 -0.0044111568 -0.01635115 0.041580446 -0.007820003 0.009099883
0.026548518 0.015165343 -0.016474962 0.00402408 0.04248281 0.06992296 0.011335695 0.04252478
0.051304944 0.023609659 0.028916918 0.016486878 0.03266611 -0.0060635614 -0.002778131 0.030221296
-0.045283813 -0.01579943 0.009220071 0.05937928 0.04061193 -0.030977888 0.008779164 0.009551393
-0.017554095 -0.011465802 -0.001209397 0.045512542 -0.026319757 -0.04077032 0.02041449 0.09215089
0.071945764 0.1314211 -0.06783564 -0.012082189 -0.019653097 -0.013422855 0.06374919 -0.004019078
-0.02204955 0.036931247 0.006373664 -0.0010324601 -0.0030247008 0.020156784 -0.047189355 -0.06410776
-0.060210086 -0.017389469 -0.014203647 -0.02212706 0.06737047 -0.017473022 -0.032001324 0.010525626
-0.010178413 -0.045387972 -0.015010994 -0.016231112 0.034311995 -0.016255451 -0.026026506 -0.0055976147
-0.0792112 -0.09720729 -0.085835636 0.02967638 0.0026685055 0.03484115 0.017126197 -0.039651763
-0.0035888236 0.02197168 0.00843444 0.022848038 -0.0015154992 -0.006528148 -0.0033528332 -0.02511389
-0.01104816 -0.0359657 0.03310277 0.03687786 0.03415834 0.03499213 0.013257721 0.01928586
0.034252908 0.0022959858 -0.0060090865 0.027043818 0.031710193 -0.003944687 -0.0025433921 0.058940575
0.0015818669 0.019102385 0.03330379 0.05484495 -0.03545332 0.062160924 0.032413248 0.064716734
-0.009900736 0.050402984 -0.021772908 -0.00024706245 0.008871375 -0.09809008 0.07863722 0.036955934
0.076986134 0.035981726 0.02641044 0.0674504 0.04692841 0.019954046 0.016994162 0.07454701
0.08202076 -0.0036761893 0.033947498 -0.020221246 -0.0106324665 0.06270691 -0.044104155 -0.0017289241
0.014061439 0.0174581 -0.016783392 0.06222076 0.05679758 -0.05240841 -0.118081495 -0.03900517
-0.07111808 -0.085630685 -0.06479254 0.021759063 0.033952914 0.08970577 -0.036038574 0.056947485
0.09717145 0.034586385 0.008689157 0.014758273 -0.027055057 -0.022938933 -0.014964165 0.0673028
0.03408691 -0.00015458305 -0.033386607 -0.0388791 0.03671 0.04004916 0.06473697 0.10273159
-0.004816325 0.037598692 0.0024724305 -0.027781153 0.020290574 -0.007886357 -0.044627074 -0.058951534
0.04102382 -0.012582437 -0.01274169 -0.0020952418 0.034985553 0.04893534 -0.021325545 0.0035521812
0.029072562 0.06064157 0.029248955 -0.0079011675 0.027058167 -0.019455787 -0.034959365 -0.0033529447
0.0119537115 -0.03237503 -0.0031899004 -0.008406339 0.028966224 -0.030711405 -0.025661977 -0.019261505
-0.00035869938 -0.03261496 0.017349876 -0.050210886 0.038811207 0.03936128 -0.03543185 0.08392001
0.029038377 -0.02396656 -0.0573867 0.017332925 0.0262515 -0.039856978 0.06313111 0.03578499
0.026015792 0.053864967 0.01783298 0.04754567 -0.03597798 0.09907096 -0.0063261143 -0.007689622
-0.0018282355 0.013785397 -0.052762005 0.03784402 0.010246418 0.02480345 0.015852954 0.08020794
00000000: 9748 32bd 28e1 4c3d a333 953d eb7a 3c3d
00000010: c1fb 3bbc 4d87 f6bc 620d 8ebd 8a51 3bbc
00000020: 86c2 cfbc 6844 c6bb 77f4 c4bb 08c3 1f3d
00000030: 1a43 573a a020 e13c a4e1 0d3d 9790 38bd
00000040: 3e6c 1dbd 77fb 12bd 7aed 4a3d 0819 7e3c
00000050: 36b1 1d3c 7f31 573d a7c4 9dbb 1861 bd3c
00000060: 5a16 7dbc d537 6fbd 07b8 25bc 778b 90bb
00000070: d9f2 85bc 4250 2a3d 781f 00bc ad17 153c
00000080: 477c d93c 0f78 783c 80f6 86bc 6edc 833b
00000090: 7402 2e3d c533 8f3d 5ab9 393c 772e 2e3d
000000a0: 2225 523d 0b69 c13c 2ce3 ec3c 7d0f 873c
000000b0: e6cc 053d d7b0 c6bb 4e11 36bb a792 f73c
000000c0: 857b 39bd ce6d 81bc c80f 173c b037 733d
000000d0: b258 263d 57c5 fdbc 7cd6 0f3c 727d 1c3c
000000e0: 9bcd 8fbc 0fdb 3bbc a184 9eba 5c6b 3a3d
000000f0: 889c d7bc c7fe 26bd 4a3c a73c 9bb9 bc3d
00000100: 4d58 933d 4193 063e 69ed 8abd 60f4 45bc
00000110: 88ff a0bc 89eb 5bbc ef8e 823d 78b2 83bb
00000120: 42a1 b4bc 3845 173d 2bda d03b 9d53 87ba
00000130: 0f3a 46bb d71f a53c a049 41bd ee4a 83bd
00000140: da9e 76bd 5c74 8ebc 6ab6 68bc cf43 b5bc
00000150: 87f9 893d 9523 8fbc d213 03bd ad73 2c3c
00000160: 5cc3 26bc bde8 39bd acf0 75bc 1cf7 84bc
00000170: bc8a 0c3d 272a 85bc 8a35 d5bc 326c b7bb
00000180: 7b39 a2bd 9e14 c7bd 98ca afbd e11b f33c
00000190: 18e2 2e3b 98b5 0e3d 3d4c 8c3c e369 22bd
000001a0: 7832 6bbb f4fd b33c 9b30 0a3c cf2b bb3c
000001b0: b7a3 c6ba 13ea d5bb 35bb 5bbb a5bb cdbc
000001c0: 5703 35bc c550 13bd c596 073d 3d0d 173d
000001d0: 9ee9 0b3d e853 0f3d ea36 593c 61fd 9d3c
000001e0: c74c 0c3d 4078 163b dfe7 c4bb ff8a dd3c
000001f0: 8ce2 013d 6f42 81bb 0aaf 26bb ac6b 713d
00000200: a556 cf3a 9b7c 9c3c 8e69 083d 19a5 603d
00000210: 8037 11bd 749c 7e3d c1c3 043d 358a 843d
00000220: b236 22bc 5c73 4e3d 195d b2bc 2988 81b9
00000230: 3e59 113c 74e3 c8bd 8d0c a13d 1b5f 173d
00000240: e8aa 9d3d 9361 133d b55a d83c 6f23 8a3d
00000250: 0138 403d ab76 a33c 5737 8b3c 1aac 983d
00000260: 80fa a73d 39ec 70bb 880c 0b3d 07a7 a5bc
00000270: cc33 2ebc 7b6c 803d 8fa6 34bd 119d e2ba
00000280: f361 663c 4a04 8f3c 537d 89bc 32db 7e3d
00000290: 94a4 683d 33aa 56bd b6d4 f1bd e3c3 1fbd
000002a0: 5ba6 91bd 245f afbd f4b1 84bd 1040 b23c
000002b0: 3612 0b3d a9b7 b73d 2f9d 13bd c441 693d
000002c0: d301 c73d 74aa 0d3d f75c 0e3c afcc 713c
000002d0: 91a2 ddbc 6eea bbbc 422c 75bc 0dd6 893d
000002e0: b79e 0b3d 9217 22b9 65c0 08bd b13f 1fbd
000002f0: 3a5d 163d 970a 243d d194 843d f164 d23d
00000300: 43d2 9dbb 1601 1a3d 8008 223b 4d95 e3bc
00000310: 6b38 a63c c735 01bc e1ca 36bd 2a77 71bd
00000320: 9808 283d 9126 4ebc 85c2 50bc 5350 09bb
00000330: 034d 0f3d 6c70 483d e9b2 aebc b6cb 683b
00000340: 9529 ee3c 4b63 783d 819b ef3c e673 01bc
00000350: 17a9 dd3c be61 9fbc 8d31 0fbd 14bd 5bbb
00000360: 80d9 433c ae9b 04bd a60d 51bb beba 09bc
00000370: 934a ed3c 7c96 fbbc 1139 d2bc 4eca 9dbc
00000380: d10f bcb9 4497 05bd 5421 8e3c eea9 4dbd
00000390: 80f8 1e3d 4b39 213d fd20 11bd 41de ab3d
000003a0: e4e1 ed3c 8555 c4bc 510e 6bbd c7fd 8d3c
000003b0: 630d d73c 1241 23bd e24a 813d 4893 123d
000003c0: 121f d53c 83a1 5c3d 7816 923c 40bf 423d
000003d0: a55d 13bd b7e5 ca3d 4b4b cfbb 3af9 fbbb
000003e0: 67a1 efba 25dc 613c f91c 58bd 5502 1b3d
000003f0: 98e0 273c 9b30 cb3c 0ede 813c 0f44 a43d

body.block1.conv.bias f4 [64]
-0.011219644 -0.009740298 -0.0033684315 -0.024067583 0.010698193 -0.02769245 0.010628016 0.041286416
-0.025584955 0.01826518 0.0381184 -0.007437197 -0.042332448 0.020464657 0.023670644 0.016087547
0.0022657951 -0.030985547 0.043136455 0.026075933 0.021006776 -0.010875893 0.019130526 0.016599461
-0.009874756 0.022120671 -0.003410462 0.015420273 0.02078351 0.010143842 0.021671101 -0.016055897
0.044857595 0.02750157 -0.0071260403 -0.0073355995 -0.01235025 -0.016508272 -0.0015513367 0.016106486
0.004081477 0.011287364 -0.013368801 0.002412343 -0.033784553 0.025984235 -0.0053250296 0.03573708
0.001454522 0.0043759 0.006612602 0.047005482 -0.020841695 0.03592582 0.023020249 -0.0014160353
0.034195058 0.0003720415 -0.030919196 -0.022807064 -0.028637175 0.030725144 -0.046064157 0.018972145
00000000: 99d2 37bc c595 1fbc e7c0 5cbb 6129 c5bc
00000010: 7947 2f3c 47db e2bc 2121 2e3c f21b 293d
00000020: 8a97 d1bc dca0 953c 0a22 1c3d bbb3 f3bb
00000030: ca64 2dbd 7fa5 a73c f0e8 c13c 08ca 833c
00000040: bc7d 143b 67d5 fdbc daaf 303d 329d d53c
00000050: 6716 ac3c cd30 32bc 9fb7 9c3c 98fb 873c
00000060: bbc9 21bc 6936 b53c 0f82 5fbb 50a5 7c3c
00000070: 2e42 aa3c 5b32 263c 9887 b13c a887 83bc
00000080: 99bc 373d f94a e13c 8f81 e9bb 785f f0bb
00000090: b458 4abc 5b3c 87bc 3956 cbba c0f1 833c
000000a0: e9bd 853b a3ee 383c d108 5bbc 6618 1e3b
000000b0: ac61 0abd e4dc d43c 967d aebb 0b61 123d
000000c0: a9a5 be3a b663 8f3b 87ae d83b d288 403d
000000d0: 34bc aabc f426 133d f694 bc3c 439a b9ba
000000e0: 1e10 0c3d 910e c339 414a fdbc e1d5 babc
000000f0: 8298 eabc 4cb3 fb3c c5ad 3cbd 796b 9b3c

body.block1.norm.weight f4 [64]
1.1755182 1.2772671 1.1513338 1.3280785 1.168328 1.1260481 1.3263817 1.3945915
1.3367423 1.3783883 1.2097769 1.3451167 1.1152482 1.3442994 1.1347431 1.1792581
1.1743561 1.3777516 1.1147096 1.0690427 1.1641097 1.1150213 1.2508187 1.1757773
1.2971715 1.2333043 1.1842079 1.2740102 1.1785555 1.4354182 1.2744721 1.2017648
1.2512699 1.2127886 1.355888 1.2269976 1.5888597 1.1568376 1.1758662 1.2190216
1.3873134 1.2980644 1.6354733 1.1228776 1.3033887 1.090491 1.3499758 1.2325362
1.694925 1.1325763 1.6013317 1.1192151 1.2879156 1.2836126 1.1821618 1.1549177
1.0831879 1.4365857 1.1685264 1.1815282 1.2729166 1.1641389 1.1807891 1.2351186
00000000: 6177 963f 7d7d a33f e85e 933f 7afe a93f
00000010: c68b 953f 5822 903f e0c6 a93f f981 b23f
00000020: 5f1a ab3f 076f b03f f8d9 9a3f c92c ac3f
00000030: 74c0 8e3f 0112 ac3f 433f 913f eef1 963f
00000040: 4d51 963f 2a5a b03f ceae 8e3f 64d6 883f
00000050: 8c01 953f 05b9 8e3f d41a a03f df7f 963f
00000060: b709 a63f eadc 9d3f 2094 973f c412 a33f
00000070: e8da 963f c9bb b73f e721 a33f 6ed3 993f
00000080: 9d29 a03f a83c 9b3f bd8d ad3f 420e 9d3f
00000090: c15f cb3f 4113 943f c982 963f e608 9c3f
000000a0: 7c93 b13f f926 a63f 3057 d13f 74ba 8f3f
000000b0: 71d5 a63f 3695 8b3f 02cc ac3f bfc3 9d3f
000000c0: 4df3 d83f 43f8 903f 70f8 cc3f 7142 8f3f
000000d0: 6bda a43f 6b4d a43f 1451 973f 58d4 933f
000000e0: e7a5 8a3f 0ae2 b73f 4692 953f 513c 973f
000000f0: eeee a23f 8102 953f 1924 973f 5e18 9e3f

body.block1.norm.bias f4 [64]
-0.08046267 -0.3352067 -0.21031553 -0.373582 -0.014533277 -0.26941437 -0.48972318 -0.46762592
-0.57048196 -0.46751747 -0.16076496 -0.5658445 -0.12684451 -0.04251623 -0.4012824 0.016716113
-0.20204444 -0.53903496 -0.026884334 -0.25385383 -0.047076702 -0.09134458 -0.18910818 -0.12442467
-0.5043827 -0.20146671 -0.3222444 0.035399925 -0.17320602 -0.2630512 -0.2817339 -0.14294894
-0.43141344 -0.26378813 -0.5955228 -0.19066675 -0.72741735 -0.18285243 -0.14490132 -0.034880936
-0.6404699 -0.09839831 -0.6194893 -0.17042978 -0.3086443 -0.08869241 -0.42700732 -0.3358431
-0.8243843 -0.121892534 -0.8718889 -0.1024848 -0.04829535 -0.52608377 -0.09585497 -0.18748048
-0.15943588 -0.516873 -0.16009052 -0.14401108 -0.32413653 -0.1431715 -0.21529442 -0.401139
00000000: 9dc9 a4bd 36a0 abbe f45c 57be 2446 bfbe
00000010: fb1c 6ebc aef0 89be ffbc fabe aa6c efbe
00000020: 1b0b 12bf 735e efbe 929f 24be 2fdb 10bf
00000030: 87e3 01be 8025 2ebd e374 cdbe 3bf0 883c
00000040: bde4 4ebe 32fe 09bf 893c dcbc 21f9 81be
00000050: 80d3 40bd de12 bbbd 93a5 41be 5dd2 febd
00000060: 3a1f 01bf 4a4d 4ebe 38fd a4be 83ff 103d
00000070: eb5c 31be a6ae 86be 6d3f 90be 3561 12be
00000080: 39e2 dcbe 3d0f 87be 2f74 18bf 253e 43be
00000090: 0638 3abf ab3d 3bbe 0361 14be 50df 0ebd
000000a0: d6f5 23bf 0e85 c9bd da96 1ebf 2585 2ebe
000000b0: a006 9ebe 5ea4 b5bd b4a0 dabe a0f3 abbe
000000c0: d90a 53bf cba2 f9bd 1c34 5fbf 8de3 d1bd
000000d0: 58d1 45bd 6dad 06bf 9c4f c4bd e2fa 3fbe
000000e0: 2943 23be ca51 04bf c5ee 23be a477 13be
000000f0: 39f5 a5be 8d9b 12be 2476 5cbe 1762 cdbe

body.block1.norm.running_mean f4 [64]
0.46767518 -0.64322436 0.6378106 -0.17523845 0.5913658 -0.020459613 -0.38523522 0.016991474
-0.17356147 -0.21632434 -0.33825302 -0.4604907 -0.023969978 -0.92689425 -0.8045625 -0.33062914
-0.19220777 -0.67513555 -0.4475152 -0.5275966 0.32696778 0.5116515 -0.05086062 0.43968287
-0.6380335 -0.67447007 -0.40863097 -1.0855482 0.09730411 -0.9528815 -0.02177134 -0.690241
-0.48968583 0.2838949 -0.90102243 -0.05930667 -0.3243831 0.25898546 0.27110913 -0.650765
-0.18223171 1.0612392 -0.35451582 0.4480392 -0.053727396 0.6816551 -0.37089276 -0.12873958
-0.7064161 -0.033917397 -0.45695445 0.87131506 -1.0470089 -0.88517493 0.54419625 0.036469914
-0.39918056 -0.1468678 -0.11387202 -0.71022415 -0.60630226 -0.27495188 -0.49479505 -0.6545038
00000000: 1f73 ef3e 5aaa 24bf 8e47 233f b571 33be
00000010: c063 173f eb9a a7bc 8d3d c5be b431 8b3c
00000020: 19ba 31be 2184 5dbe 802f adbe 70c5 ebbe
00000030: b05c c4bc f148 6dbf cff7 4dbf 3948 a9be
00000040: 1dd2 44be afd5 2cbf b620 e5be 9210 07bf
00000050: 5268 a73e 98fb 023f 3a53 50bd 1d1e e13e
00000060: 2a56 23bf 12aa 2cbf 1438 d1be 3ef3 8abf
00000070: 6147 c73d 0bf0 73bf cf59 b2bc a2b3 30bf
00000080: 1ab8 fabe ac5a 913e 68a9 66bf 8deb 72bd
00000090: 8b15 a6be be99 843e d1ce 8a3e 8998 26bf
000000a0: f39a 3abe b0d6 873f 1983 b5be 6565 e53e
000000b0: 4211 5cbd f380 2e3f a8e5 bdbe 4fd4 03be
000000c0: afd7 34bf f8ec 0abd eff5 e9be 810e 5f3f
000000d0: 6304 86bf d39a 62bf 7250 0b3f 7a61 153d
000000e0: 6561 ccbe 8364 16be bc35 e9bd 40d1 35bf
000000f0: a036 1bbf 7ec6 8cbe c755 fdbe 908d 27bf

body.block1.norm.running_var f4 [64]
0.37214586 0.12429805 0.24368623 0.12492582 0.50459445 0.2837912 0.15903623 0.12898855
0.28919786 0.07570751 0.19090392 0.15159558 0.22400866 0.5873519 0.20710571 1.0523037
0.3614889 0.23442309 0.16126098 0.31337783 0.48981795 0.7084639 0.13049288 0.45149636
0.21556774 0.22657803 0.32509547 0.32646194 0.20474142 0.14762162 0.34392595 0.70173186
0.15512928 0.2819649 0.24547555 0.46533197 0.12510823 0.3680486 0.31194985 1.2215501
0.22883989 0.3004639 0.12359972 0.36320522 0.37006313 0.9580281 0.18179098 0.32557425
0.12113693 0.750351 0.103033364 0.765376 0.34391662 0.23381196 0.41073942 0.17071034
0.3376872 0.15975063 0.38686952 0.1544626 0.25152996 0.67032236 0.26520637 0.1527712
00000000: e789 be3e fa8f fe3d e288 793e 1cd9 ff3d
00000010: 1a2d 013f 154d 913e 65da 223e 9315 043e
00000020: be11 943e 8a0c 9b3d 517c 433e df3b 1b3e
00000030: 8762 653e b25c 163f 8513 543e e3b1 863f
00000040: 1315 b93e 9b0c 703e 9921 253e 0f73 a03e
00000050: 6bc9 fa3e e45d 353f ed9f 053e 882a e73e
00000060: cabd 5c3e 1204 683e ea72 a63e 0526 a73e
00000070: bca7 513e 1f2a 173e 1017 b03e b3a4 333f
00000080: 36da 1e3e b45d 903e f15d 7b3e fe3f ee3e
00000090: 5f1c 003e de70 bc3e e4b7 9f3e c15b 9c3f
000000a0: 0155 6a3e 68d6 993e da21 fd3d 09f6 b93e
000000b0: ea78 bd3e 5441 753f 6a27 3a3e abb1 a63e
000000c0: a416 f83d 0117 403f 2803 d33d aeef 433f
000000d0: d715 b03e 676c 6f3e 704c d23e b1ce 2e3e
000000e0: 56e5 ac3e ab95 233e c313 c63e 722b 1e3e
000000f0: 89c8 803e 3f9a 2b3f 21c9 873e 0e70 1c3e

tail.0.weight f4 [12, 64, 3, 3]
0.070156865 0.13715127 0.048597164 0.044586685 -0.015927384 0.04122885 -0.04598247 -0.048017144
0.03512914 -0.039038327 -0.0149261365 -0.03085797 -0.0195232 0.019530384 -0.04090121 0.006742466
0.19795379 -0.08106853 0.050716713 -0.04376779 0.08673127 0.038374837 -0.053225305 0.092069015
-0.0262349 -0.16179246 0.08062499 0.03100789 -0.10149081 0.07621185 0.034038402 -0.041762102
-0.018866071 -0.0555013 0.018449675 0.038573388 0.05271703 0.07110962 -0.052407607 -0.05275099
0.0015505318 -0.06857914 0.12451766 0.043277606 0.0047954926 0.041666806 0.031937033 0.08758967
0.033539455 0.014961652 -0.011804149 0.048835482 0.037520308 0.0572831 0.03373983 -0.03193401
-0.04899964 -0.042156287 -0.090895616 0.001800227 -0.060551316 0.03920767 -0.05664819 0.013866529
0.05963303 0.06337201 0.011790811 0.04403021 -0.09227571 0.06956453 0.05216119 -0.0023214365
0.031988006 -0.08916275 0.005295641 0.034512736 0.050491136 0.02751224 0.0995392 0.15738642
0.07239668 0.09412348 -0.025383867 0.046370875 0.027411658 -0.024132343 0.030090729 -0.031852037
0.124050334 -0.043167688 -0.03017364 -0.08522739 0.057660807 -0.06398507 0.0039751995 0.058732983
0.09212808 0.00088104093 0.051149603 -0.05666683 0.03746311 -0.012228827 -0.050485875 0.015149391
0.07403886 -0.10188699 -0.081419505 0.003939864 0.032647118 0.032457165 0.037939306 -0.14532642
-0.112648815 -0.019622972 -0.1771006 0.07864175 0.057673294 0.06635538 0.060511697 0.07798752
0.056292944 0.043100283 0.012986825 0.04678772 -0.07034229 0.072865985 0.004260242 -0.14432038
-0.0046452843 0.0029365933 -0.11246654 0.1376367 0.009127169 0.105553776 -0.07390736 0.10065961
0.07328026 0.05865785 0.06976153 0.055973798 0.04521823 0.038015682 0.064388305 0.0066577094
0.0016295128 0.009119635 0.04036224 0.031021083 0.0034755296 0.01183524 0.0057376698 -0.04206372
0.06017217 -0.018414488 -0.035266757 -0.025645783 0.10012736 0.08156019 -0.07749575 0.15246677
0.24449041 -0.2335336 0.0043119756 0.036630336 -0.0268679 0.06273045 0.009549963 0.017671576
-0.047202867 -0.07855814 0.010589428 0.02125809 0.022748273 -0.026277566 0.0363132 0.039634883
0.010789901 0.06779962 -0.07558918 -0.037100952 0.12033784 0.05206467 0.0033491715 0.05076694
-0.016157724 0.08201179 -0.07602609 0.014981638 -0.004367382 -0.048699334 -0.06428671 -0.076851875
-0.01885055 -0.032611657 -0.06735059 -0.023582088 -0.037410147 -0.024530074 0.016170185 -0.06626194
-0.073104315 0.049489614 -0.01646624 0.026943052 -0.04360026 0.014467863 0.09496856 0.083300635
-0.018000813 0.009891879 -0.076856606 -0.05645075 -0.04673102 -0.08733553 0.06555758 0.0033402245
-0.122467995 -0.13583432 -0.12416473 -0.07434545 -0.18367869 0.115288734 -0.04870823 -0.11754012
0.062004317 0.01850345 0.04034138 0.034515552 0.081561014 -0.107268944 -0.045601696 0.08631193
-0.1159369 -0.070655026 -0.10725497 -0.10720867 -0.093486026 -0.090064816 -0.01381003 0.12203103
-0.07949477 -0.0721997 0.13294214 0.031766705 0.1688283 0.07134199 0.0027087333 0.033754244
-0.015818546 0.036775004 0.009926314 -0.093612224 0.022962296 -0.010647873 0.0060418905 -0.013752637
00000000: 67ae 8f3d 6271 0c3e d20d 473d 87a0 363d
00000010: 257a 82bc 95df 283d 1d58 3cbd a0ad 44bd
00000020: 93e3 0f3d a7e6 1fbd c18c 74bc dac9 fcbc
00000030: 1eef 9fbc 2ffe 9f3c 0788 27bd e7ef dc3b
00000040: 66b4 4a3e 4207 a6bd 54bc 4f3d db45 33bd
00000050: 2aa0 b13d ef2e 1d3d c702 5abd ae8e bc3d
00000060: 93ea d6bc ecac 25be b71e a53d 4204 fe3c
00000070: 6ada cfbd f514 9c3d da6b 0b3d bd0e 2bbd
00000080: 058d 9abc 5555 63bd c623 973c 21ff 1d3d
00000090: d0ed 573d eca1 913d 5ca9 56bd 6c11 58bd
000000a0: 373b cb3a 3873 8cbd 1d03 ff3d dc43 313d
000000b0: 8223 9d3b d0aa 2a3d 68d0 023d 3762 b33d
000000c0: ab60 093d b821 753c 3066 41bc b707 483d
000000d0: e5ae 193d afa1 6a3d c732 0a3d 3dcd 02bd
000000e0: d9b3 48bd 12ac 2cbd 7b27 babd 98f5 eb3a
000000f0: a804 78bd 3998 203d ef07 68bd 7030 633c
00000100: c441 743d 2fc9 813d 3f2e 413c 0559 343d
00000110: 0cfb bcbd d977 8e3d f9a6 553d 3e23 18bb
00000120: db05 033d f69a b6bd 0e87 ad3b 3a5d 0d3d
00000130: cbcf 4e3d 5961 e13c 35db cb3d e829 213e
00000140: b644 943d d0c3 c03d d4f1 cfbc 63ef 3d3d
00000150: 6a8e e03c 31b1 c5bc d580 f63c 4877 02bd
00000160: 1a0e fe3d 9ad0 30bd b62e f7bc b38b aebd
00000170: bd2d 6c3d 9b0a 83bd 6442 823b ff91 703d
00000180: a6ad bc3d a8f5 663a 3f82 513d 7a1b 68bd
00000190: eb72 193d 6b5b 48bc 47ca 4ebd 2735 783c
000001a0: b0a1 973d 20aa d0bd 45bf a6bd fa19 813b
000001b0: fcb8 053d cef1 043d 3f66 1b3d 73d0 14be
000001c0: 6cb4 e6bd 5bc0 a0bc dc59 35be ed0e a13d
000001d0: d53a 6c3d 54e5 873d 1ddb 773d ecb7 9f3d
000001e0: 6e93 663d ec89 303d b1c6 543c 7ba4 3f3d
000001f0: 9e0f 90bd c33a 953d 8099 8b3b b9c8 13be
00000200: 7837 98bb dc73 403b db54 e6bd a3f0 0c3e
00000210: 1f8a 153c 942c d83d be5c 97bd a026 ce3d
00000220: f613 963d 3743 703d 22df 8e3d c844 653d
00000230: c036 393d 55b6 1b3d 04de 833d ea28 da3b
00000240: 6095 d53a 866a 153c e052 253d ed1f fe3c
00000250: b6c5 633b 98e8 413c 1003 bc3b 024b 2cbd
00000260: 1877 763d fbd9 96bc e073 10bd 1b17 d2bc
00000270: 930f cd3d 0709 a73d 17b6 9ebd 4020 1c3e
00000280: b25b 7a3e 6f23 6fbe 794b 8d3b b109 163d
00000290: 121a dcbc d278 803d 7377 1c3c fbc3 903c
000002a0: cb57 41bd 17e3 a0bd 487f 2d3c 7225 ae3c
000002b0: 965a ba3c 0d44 d7bc 26bd 143d 3058 223d
000002c0: 20c8 303c 87da 8a3d 80ce 9abd 2bf7 17bd
000002d0: af73 f63d c341 553d c67d 5b3b fff0 4f3d
000002e0: 345d 84bc ccf5 a73d 91b3 9bbd 8b75 753c
000002f0: 411c 8fbb f478 47bd c0a8 83bd 8464 9dbd
00000300: 786c 9abc cd93 05bd 1bef 89bd 392f c1bc
00000310: 623b 19bd 4bf3 c8bc 5677 843c 57b4 87bd
00000320: b7b7 95bd 9fb5 4a3d 35e4 86bc adb7 dc3c
00000330: 3096 32bd 9e0a 6d3c e07e c23d 8699 aa3d
00000340: 7176 93bc 8c11 223c ff66 9dbd e738 67bd
00000350: 0769 3fbd f8dc b2bd 0d43 863d abe7 5a3b
00000360: 80d0 fabd 2718 0bbe 144a febd 6d42 98bd
00000370: 4416 3cbe 801c ec3d 4882 47bd e0b8 f0bd
00000380: 3df8 7d3d 8c94 973c 013d 253d 2e60 0d3d
00000390: 7609 a73d d2af dbbd d8c8 3abd 4fc4 b03d
000003a0: 5370 edbd 95b3 90bd 7ea8 dbbd 3890 dbbd
000003b0: 9a75 bfbd e773 b8bd 7743 62bc 68eb f93d
000003c0: 27ce a2bd 70dd 93bd fc21 083e ce1d 023d
000003d0: 53e1 2c3e c01b 923d 0185 313b e441 0a3d
000003e0: e595 81bc 63a1 163d faa1 223c c4b7 bfbd
000003f0: 6d1b bc3c 6b74 2ebc 0dfb c53b be52 61bc

tail.0.bias f4 [12]
0.09309651 0.0673754 -0.13040613 0.07740984 0.14410292 0.11286261 0.01378041 0.10102163
-0.039260283 0.05030665 0.09710461 0.037244387
00000000: 62a9 be3d 1dfc 893d 2f89 05be 0d89 9e3d
00000010: b78f 133e 8324 e73d 3bc7 613c 6ee4 ce3d
00000020: 64cf 20bd 590e 4e3d c8de c63d 928d 183d
